experiments/childsnack/childsnack_full_train_set_2-75-3/best/model.npz (npz, 29654 bytes, 6 tensors)

model/hidden_layers/0/b f4 [75]
000000 ff 0a 82 be 70 c8 1b be 4b 86 9e be 4d 7e be be
       -0.25399014 -0.1521318 -0.30961832 -0.37205735
000010 a8 a1 b0 be 0f 96 aa be fb 1b 5b be a0 3d ca be
       -0.34498334 -0.3331761 -0.21397392 -0.3950014
000020 00 0c 35 be 66 a4 1d 40 43 9e 12 bf 79 07 98 bf
       -0.17680359 2.463159 -0.5727274 -1.187728
000030 ed b1 42 bd 72 0e 93 bd 33 86 5a 40 bb 1d 1b be
       -0.047532964 -0.071804896 3.4144409 -0.1514806
000040 5d 49 11 be 7d 28 2c be 75 0f 76 be ea 18 dd bd
       -0.14188142 -0.1681232 -0.24029334 -0.107957676
000050 c4 cb 47 be 89 dd 75 bb 26 6c 9a 3f 4c 5f 2e be
       -0.19511324 -0.0037516078 1.2064254 -0.1702854
000060 f6 fe 6e be 8c 44 72 be 9c 9c c4 bf e3 06 55 be
       -0.23339447 -0.23658961 -1.5360293 -0.20803408
000070 af ac 06 be 5e 94 2b be f8 09 c7 bd b5 8e 0e be
       -0.13151811 -0.16755816 -0.09718698 -0.13921626
000080 9b 90 22 be ce aa 8a bf 33 75 85 be 56 90 ca bd
       -0.15875475 -1.0833375 -0.26065978 -0.09890811
000090 e8 ec 6e be 51 f5 d9 be 24 96 24 bf 37 14 60 be
       -0.2333256 -0.42569974 -0.64291596 -0.21882711
0000a0 05 05 85 be 46 b8 92 be 3d 3e 4c be 3e 8e 90 bd
       -0.25980392 -0.28656214 -0.19945617 -0.070583805
0000b0 fd b2 2d be c3 71 c5 bd cb 63 98 be 09 4f a4 bd
       -0.1696281 -0.09640839 -0.29763636 -0.08022887
0000c0 0c a0 55 be d4 4a de bd ba c9 08 be 35 12 c9 be
       -0.20861834 -0.10854116 -0.13358203 -0.39271703
0000d0 df b9 0c bf 21 03 82 be 1d 8f 12 bf ec 67 55 be
       -0.54971117 -0.25393012 -0.57249624 -0.20840424
0000e0 9f 92 d7 bd 0f 3a 90 bf f5 a2 15 be 2b 3a fa bd
       -0.10526013 -1.1267718 -0.14612944 -0.12218126
0000f0 dd b6 25 be 63 17 83 bf d0 1e 0e be 90 80 9a be
       -0.16183038 -1.0241512 -0.13878942 -0.3017621
000100 45 29 c3 3f 50 9f 34 40 72 c0 38 be 8c 8a 94 be
       1.524697 2.8222237 -0.18042162 -0.29011953
000110 46 42 59 be 66 78 d8 3f 77 3e 04 bf 7e 49 17 40
       -0.21216688 1.6911743 -0.51657814 2.3638606
000120 af ab 01 be 32 cc 86 be 23 76 8e be
       -0.12663148 -0.26327664 -0.27824506

model/hidden_layers/0/W f4 [75, 20]
000000 7c 01 a1 3e be 62 91 3d a3 12 9d 3d 9c 7b 7f be
       0.31446445 0.07098912 0.0766957 -0.24949497
000010 62 7a 06 3d 8b 55 cf bd bf d2 a4 bc 04 f1 7c bd
       0.032831557 -0.10123738 -0.020120023 -0.061753288
000020 a9 b4 9b bd f5 bb 8d bd c0 15 ac be c6 e5 48 3e
       -0.076028176 -0.069206156 -0.33610344 0.19618902
000030 d4 0f 8d 3e 2c 8e 2d 3e 08 ae 9b 3d b9 6b ea bd
       0.27551138 0.16948766 0.07601553 -0.11446328
000040 72 0f fd bd 6f e3 88 be 05 40 a8 3d 0a 09 47 be
       -0.123564616 -0.26736018 0.08215336 -0.19437042
000050 57 7d 90 be 4d af 51 bd 48 fa a8 3e 0d e6 3b 3c
       -0.28220627 -0.05119257 0.3300345 0.011468423
000060 21 1b 4b be bf 7c 21 be c4 fb 0e 3e 37 d6 a9 bc
       -0.19834568 -0.15770243 0.13963228 -0.020732028
000070 7d 20 7a bd 3e 8a e3 bc 01 d3 27 3e df 25 e2 3e
       -0.06106614 -0.02777588 0.16389085 0.44169518
000080 ba ac 86 be 2a fd 44 be 68 20 1c be 0b 40 0a bf
       -0.26303655 -0.192372 -0.15246737 -0.5400397
000090 6a b4 53 be c9 ea 5a be 01 41 15 3e 9f 2e 9b bb
       -0.20674291 -0.21378626 0.14575578 -0.0047357823
0000a0 ce e1 b9 be 4b 12 14 3e 2d 27 a3 bd 77 4e 25 be
       -0.36305088 0.14460103 -0.079664566 -0.16143213
0000b0 db 3e 08 be cd e3 06 be 84 18 48 be af b7 d9 3b
       -0.13305227 -0.13172837 -0.19540602 0.0066442112
0000c0 8b a7 9d be ce 08 6c bd f5 fd 67 3e 9b 44 43 3e
       -0.30791888 -0.057625584 0.2265547 0.1906914
0000d0 d4 be 7d 3e c3 27 80 3e cb 4d aa 3e 6c 01 80 be
       0.24779826 0.25030336 0.33262476 -0.25001085
0000e0 5f ac 41 3e 0c 0c d5 be d3 c7 f5 bd 22 7d da be
       0.1891341 -0.41610754 -0.12001004 -0.42673594
0000f0 e6 b9 75 3e 7c a1 98 3e 8b 6f 26 bd c0 2b 3f 3e
       0.23996696 0.29810703 -0.04063372 0.18669033
000100 2e 57 25 be cf 20 35 3d b2 1d 08 3d 1c ab 69 be
       -0.16146538 0.04422074 0.033231445 -0.2281918
000110 54 aa b0 bd e4 fa bf 3e 79 67 5e be de ee 4c 3e
       -0.086262375 0.37496102 -0.21719159 0.20012996
000120 66 fb ca bc 28 6b 33 3e 7c 82 26 3d 84 d9 29 3e
       -0.02477808 0.17521346 0.040651783 0.16586882
000130 9a 46 12 3e 22 14 86 3d 66 6f bc be cc e9 75 3e
       0.14284745 0.06546809 -0.3680374 0.24014968
000140 32 38 9d be 9b 7f 5a 3d 78 9b 0c 3e 99 66 2d 3d
       -0.30706936 0.05334435 0.13731182 0.042334173
000150 7d 5b 07 3d 1e b7 85 3e f4 9d b0 bb 98 7a 4b be
       0.033046234 0.2611627 -0.005389923 -0.19870985
000160 56 59 b0 be 6e 03 5c be 56 e8 0b be dc 7d ec bd
       -0.34443158 -0.21485683 -0.13662848 -0.11547443
000170 45 d0 5b be 6e 23 52 3c b8 fa fd bd c1 9f c2 bc
       -0.21466167 0.01282583 -0.124013364 -0.023757817
000180 43 7d 1b 3e 51 df 43 be df f1 43 bd 84 43 f6 3e
       0.15184502 -0.19128157 -0.047838088 0.48098385
000190 24 68 4b 3e bc 17 94 be 55 fa a8 bc 12 0c 78 3d
       0.19863945 -0.28924358 -0.02062718 0.060558386
0001a0 b8 bb 8b 3e 1d 90 22 3d 75 fa f2 bd 8f ae 2a be
       0.27291656 0.03968822 -0.11864177 -0.16668151
0001b0 cb 58 91 3d 42 b9 4b 3d ab ed de bd 64 2b 2d bd
       0.07097014 0.049737222 -0.10885175 -0.04227771
0001c0 cf 6a c5 bd 37 5f ab 3d 29 d8 33 be bc 7b ec 3d
       -0.09639513 0.0836777 -0.17562927 0.11547038
0001d0 a4 f9 42 3e 07 db d7 3d f9 38 80 be 20 ed 8e 3e
       0.19040543 0.10539823 -0.25043467 0.27915287
0001e0 e6 f0 1a be d8 48 c3 3d 5d 7e 2c be 63 62 5a be
       -0.15130958 0.09535378 -0.16845079 -0.21326594
0001f0 25 a9 4f 3d 2e 0d 84 3d f7 da 8d bc 6d d9 7c 3d
       0.05069842 0.06447826 -0.017316325 0.06173079
000200 6e c9 00 be ec dc 26 be e7 83 18 bd 36 96 da 3e
       -0.1257684 -0.16295213 -0.037235167 0.42692727
000210 22 92 3a 3e 94 ff 05 be af 2c 00 3e 34 f5 da bd
       0.18219808 -0.13085777 0.12517045 -0.106913
000220 ad 66 d1 bd ce c0 44 3e 4f ed 78 bd 99 ee be be
       -0.10224662 0.19214174 -0.06077319 -0.3729141
000230 4a bc 4e be 33 f5 a1 3c 0a ad cf 3c a8 40 11 3e
       -0.20189014 0.01977024 0.025351066 0.1418482
000240 c0 a3 2d be 6c cb 23 3e f1 11 c3 3d 28 82 ef bc
       -0.16956997 0.15995568 0.095249064 -0.029236868
000250 4f fc 7a 3d ed 32 c7 3d 23 c9 48 be 17 63 75 3e
       0.061275776 0.0972651 -0.19607978 0.23963581
000260 a0 af 89 be 47 bb f9 bd 36 80 7c bc 72 b0 bb 3d
       -0.26891804 -0.121939234 -0.015411427 0.09164514
000270 dd 1a 26 be 08 73 74 bb b6 bd 0d be 70 03 54 3e
       -0.16221185 -0.003730001 -0.138419 0.20704436
000280 b8 32 36 be 1a 41 85 3c b9 44 6f bd e0 05 c3 bd
       -0.17792785 0.016266394 -0.05841515 -0.09522605
000290 c5 4b 19 3f db 1d 82 bc da 33 aa be df 44 a1 3e
       0.5988124 -0.015883377 -0.33242685 0.31497857
0002a0 00 49 34 be 1c 85 af 3d db 2e 45 3e 42 79 14 be
       -0.17605972 0.085703105 0.19256155 -0.14499381
0002b0 1f 53 c5 bd 77 f4 12 be 25 ce e4 bc 0d c0 b9 be
       -0.09634995 -0.14351068 -0.027930329 -0.36279336
0002c0 c4 76 8d be 04 f2 00 bd 72 e4 6d 3e 10 a7 10 3e
       -0.27629673 -0.031480804 0.23231676 0.1412623
0002d0 43 83 6e 3e 4b a6 f5 3d 54 3a 55 be 52 2c 9a bd
       0.2329226 0.119946085 -0.20823032 -0.07527985
0002e0 29 dc be be 7d d8 a3 be d3 7c 76 be 0d bf 25 3c
       -0.37277344 -0.32001105 -0.24071054 0.010116351
0002f0 22 39 c2 3d 76 c9 43 be 74 b4 4c be ae 7c b7 be
       0.094835535 -0.1911982 -0.19990712 -0.3583731
000300 07 b5 a1 bd 37 72 b9 3c 79 71 b3 3d 11 b7 31 be
       -0.07895856 0.02263747 0.087618776 -0.1735499
000310 84 3a dd 3e e4 07 5e 3e 24 cf 16 be 1a f9 20 be
       0.43208706 0.21682698 -0.14727455 -0.15720025
000320 93 b5 90 bd 58 6b 0a 3d b2 fd 0f bc c0 31 c7 bd
       -0.070658825 0.033793777 -0.008788513 -0.09726286
000330 58 94 27 3e c8 cc 9a 3e b7 58 83 3e 42 17 20 bd
       0.16365182 0.3023436 0.25653622 -0.03908468
000340 50 e1 b7 bd 0e 8b b0 bd aa 0f 0a be a4 c3 da 3e
       -0.08978522 -0.086202726 -0.13482538 0.42727387
000350 84 26 f0 bd 71 8a 7a 3e f3 2c 99 bd b9 1e 59 3d
       -0.11726096 0.24466874 -0.074792765 0.053007815
000360 1e 72 79 3e 86 e3 14 bc c4 16 a2 bd eb 2e 52 bd
       0.24359939 -0.009087449 -0.079144984 -0.051314276
000370 87 bf cb bd 24 e6 c9 bc 28 b0 2a be 6b 40 45 3e
       -0.0994864 -0.024645872 -0.16668761 0.19262855
000380 69 92 64 bd c7 c0 b5 3e 13 da 18 bf 7d ef 28 bd
       -0.05580369 0.3549864 -0.59707755 -0.04124402
000390 63 51 10 bd bb f0 e0 39 8d b9 5c 3e 25 e2 15 3e
       -0.035233866 0.00042903968 0.21555157 0.14637049
0003a0 c1 a7 da bd 5f be ab bd a2 d2 31 3f b9 e0 d5 3c
       -0.10676528 -0.0838592 0.69462025 0.026108133
0003b0 78 fa 8f 3d fd 32 13 be 57 63 ea bd b7 05 62 be
       0.07030195 -0.14374919 -0.11444729 -0.22072493
0003c0 57 be 2e bd 37 ae 0c 3f 83 09 7a 3e 49 d7 7a 3b
       -0.04266199 0.5495333 0.24417691 0.0038275293
0003d0 38 13 80 3e 64 4f da 3e 76 ea 07 3e 88 07 f2 3e
       0.25014663 0.42638695 0.13273033 0.4727137
0003e0 12 95 ba bb a6 f4 3b 3d db cb c5 3e a1 0c 07 bf
       -0.00569404 0.04588761 0.38632092 -0.52753645
0003f0 d2 e1 f1 bd ab 67 da be bd ef 41 be 80 24 eb bc
       -0.1181065 -0.42657217 -0.18939109 -0.028703928

model/hidden_layers/1/b f4 [75]
000000 5e 6d 0a 40 df ab 50 be 5d 3f 9f bb 71 df 23 bb
       2.1629252 -0.20378064 -0.0048598484 -0.0025005008
000010 67 15 0d 40 f2 80 37 be aa 55 4e be 7a ad b4 3e
       2.2044313 -0.17920282 -0.20149866 0.35288602
000020 c5 d3 4a 40 c5 25 2d 40 36 ee 27 be 37 a2 3c 40
       3.1691754 2.7054303 -0.16399464 2.9474008
000030 99 a6 17 bf 84 6c bb be e9 39 dc bd 45 52 f3 bc
       -0.5923858 -0.36606228 -0.10753233 -0.029702315
000040 3a 9c 5f 3d 6a 54 10 40 e8 64 46 40 11 8f 86 bd
       0.05459235 2.2551522 3.0999088 -0.065702565
000050 c7 fd 81 bd ad 62 49 c0 d8 88 25 40 e5 09 56 40
       -0.06347232 -3.1466477 2.5864773 3.344354
000060 f1 2e 5b bf 0b db c9 3d 7f a4 1f be 9c 64 b3 3c
       -0.856185 0.09856232 -0.15590094 0.02189856
000070 ed 19 2b 40 af 8b 0e 40 2c fb 5e 40 bc 23 1c 40
       2.6734574 2.2272756 3.4840803 2.439681
000080 2a 0f a0 bd 5f 10 80 be b8 7b 2b 40 2a e7 65 bd
       -0.07815392 -0.2501249 2.6794262 -0.05612866
000090 21 4d c4 3d f7 26 46 be 6e 81 13 40 80 b4 85 be
       0.09585024 -0.19350801 2.3047748 -0.26114273
0000a0 e1 8c fa 3f 77 84 0d 3e 08 3d 03 40 ac 80 c8 39
       1.9574243 0.13820063 2.0506 0.0003824284
0000b0 60 cd 52 40 bc 67 08 40 95 c2 3d 3d e7 59 53 c0
       3.293785 2.1313314 0.046328146 -3.3023622
0000c0 7a bc 9b be d4 33 90 bf 3a 7b 74 bd 7d 7d 14 bb
       -0.30417234 -1.1265817 -0.05968783 -0.0022657805
0000d0 35 53 3b 40 54 09 1c 40 6b 30 1f 40 89 81 7c bf
       2.9269536 2.4380693 2.4873302 -0.98635155
0000e0 c7 d1 82 3f 8a d8 48 40 d2 d1 4a 40 6c 4c 42 40
       1.0220269 3.1382165 3.1690564 3.0359144
0000f0 85 95 60 bd c3 16 cd be 56 72 87 be a7 13 20 bf
       -0.054830093 -0.40056428 -0.2645442 -0.6252999
000100 9e c9 33 bf 34 67 48 be 3e a1 c6 3c c1 fb 5d be
       -0.7022952 -0.19570619 0.024246808 -0.21678068
000110 26 58 b0 bc a3 61 1d 40 bb d3 32 40 da 1f 35 40
       -0.021526407 2.4590843 2.794173 2.830069
000120 01 07 10 be ff 7d 00 bf 3f 58 41 40
       -0.14065172 -0.50192255 3.021011

model/hidden_layers/1/W f4 [75, 75]
000000 d7 24 a7 be 5a 7e 1a 3d 79 fd 5a 3d a0 12 2a be
       -0.32645294 0.037718154 0.053464387 -0.16608667
000010 6b cf b2 3d 4a c1 94 bc cf be 84 be 7d c4 00 3e
       0.08730968 -0.018158574 -0.25926825 0.12574954
000020 59 df 05 3e 35 5c 19 bd 06 2f d0 bd 8c fa 22 3e
       0.13073482 -0.03744145 -0.10165219 0.15915889
000030 da 1f ab bd f4 84 23 be 43 e2 7a bd a1 3b 01 3d
       -0.083556846 -0.15968686 -0.061250936 0.031551007
000040 91 55 75 bd 58 35 36 be 1c 8c d9 3d 9d 39 8d be
       -0.059896056 -0.17793787 0.10622427 -0.27583018
000050 26 0a dc 3b 80 07 db bd d1 05 b1 bc de dc 6d bc
       0.006715077 -0.1069479 -0.021609219 -0.014517991
000060 89 89 59 b8 0d 87 d8 3d 47 c0 93 3c 78 f6 63 bd
       -5.186492e-05 0.10572634 0.01803602 -0.055654973
000070 8d c3 b4 3c 82 cb 6e be de 82 8e be 62 54 47 3e
       0.022065902 -0.2331982 -0.2783422 0.19465783
000080 7c 57 10 3e cf 22 e1 bc d4 e1 06 3e 7e 3c 85 3d
       0.14095873 -0.027482418 0.13172084 0.065056786
000090 4e 4e e3 3d a3 d7 9c 3d 74 38 87 be eb 96 3b bd
       0.1109892 0.07658317 -0.26410258 -0.045798223
0000a0 a3 31 24 3e 2a 05 30 3e 85 58 67 bd e6 df 88 be
       0.1603456 0.1718947 -0.056480903 -0.2673332
0000b0 96 7a 74 3d dc 29 59 be 94 d6 34 bd b9 a4 19 be
       0.05968722 -0.21207374 -0.04414995 -0.15004243
0000c0 a8 a0 ac 3d e9 f1 fc 3c 54 77 70 3d 3b 08 03 be
       0.0842908 0.03087707 0.05870755 -0.12796108
0000d0 c4 96 20 be 39 4d ec bd bf ec 8f 3d d8 bd aa be
       -0.15682513 -0.115381666 0.070275776 -0.33347964
0000e0 0c 90 a3 3d 7f 17 81 3e b6 21 81 bc 62 75 8b bc
       0.07986459 0.2521324 -0.015763145 -0.017023746
0000f0 c5 a8 90 3d 48 9f 05 3e f5 d4 bf bd c5 f6 5b bd
       0.0706344 0.13049042 -0.0936679 -0.053702135
000100 d6 9f 5c bd 52 6a 1b bd 74 be 39 3d be 9a 0a 3d
       -0.05386337 -0.03794319 0.045347646 0.03383898
000110 26 ec 4a 3e 5f 10 a0 3c 1b 13 02 3e aa 15 7c bd
       0.19816646 0.019539056 0.127026 -0.061544098
000120 7c 0c 95 3b 5e 61 65 3d 3e d7 d1 3d 4d ed 2a 3c
       0.0045486074 0.05600106 0.10246132 0.0104325535
000130 e4 1b 35 bd db a8 aa 3c fc 4a c3 bd 23 29 29 be
       -0.04421605 0.02083247 -0.095357865 -0.16519599
000140 fa 3b c9 bd 41 3a c7 bd 71 7a 4e 3c 0c 46 aa 3d
       -0.09825893 -0.09727908 0.0126024345 0.08314142
000150 66 e5 4e bc 6d d9 04 3e 34 05 02 bd 07 31 bf bd
       -0.012627935 0.12973566 -0.031743243 -0.09335523
000160 49 e6 e8 bd f1 ab 41 be 27 59 66 bd 4d c1 06 3e
       -0.113720484 -0.18913247 -0.056237366 0.13159676
000170 b9 41 55 be 44 fd 6c 3d 33 01 8a bb 1a e6 c2 3d
       -0.20825852 0.05785872 -0.0042115687 0.09516545
000180 d9 27 b8 bd 0a a1 37 3d 85 62 76 bd 63 e2 8c 3d
       -0.08991975 0.044831313 -0.06015255 0.06879117
000190 e9 41 67 be 0e 09 25 bc 85 0f ad 3d 67 b9 44 be
       -0.22583736 -0.01007296 0.08450226 -0.1921135
0001a0 ed 9f b6 3d 7b ae 4a be 4e 59 e5 3d 54 af 17 3a
       0.08917222 -0.19793122 0.11198674 0.0005786319
0001b0 2b e2 ae 3c 7f 1d 2c 3d de d9 08 be 8d 83 38 3e
       0.02134808 0.042020317 -0.1336436 0.18018933
0001c0 72 d6 16 3e 64 63 f2 bd 97 5f 84 3d 57 37 56 3d
       0.14730242 -0.118353635 0.06463545 0.05229887
0001d0 8f 54 a9 bd 1f a1 ee bd f6 f9 b1 3d 50 4a 26 bd
       -0.082680814 -0.11651825 0.086902544 -0.040598214
0001e0 aa ab bf 3d 8c ef 59 3e 4f f1 7a 3d 8f f7 cc bd
       0.09358914 0.21282786 0.061265286 -0.100081556
0001f0 ef 74 a2 3a b0 1a 0a be 52 3d e8 bd 6c 11 a3 3e
       0.0012394468 -0.13486743 -0.11339821 0.3184923
000200 29 79 be bd 61 6d eb 3c c5 7b f0 bd e3 ac e2 bb
       -0.09300453 0.02873868 -0.11742357 -0.0069175824
000210 cb bc 83 bc e4 5c 99 be ec 7e 8d bd 34 32 a0 3d
       -0.016081234 -0.29953682 -0.06908974 0.078220755
000220 1c 29 b3 3d 6f 54 a2 3c b7 98 e0 bd 72 69 d1 3c
       0.08748075 0.019815652 -0.10966628 0.025562976
000230 cd a0 e7 bd 2d 39 a9 bd 61 27 2b bc 98 d0 87 3e
       -0.11309967 -0.082628585 -0.0104464 0.26526332
000240 16 71 eb bd 86 7f e6 3d fe fa 43 bd 2a e9 2d be
       -0.11496179 0.11254792 -0.047846787 -0.16983476
000250 05 4d 0d be 8f e7 b6 bc 4f bb 45 bd eb e2 17 3d
       -0.13798912 -0.022327213 -0.048274335 0.03708164
000260 ce d3 db bd d0 a9 ea bd 18 0d fc 3d fb 3d ba 39
       -0.10733758 -0.114581704 0.12307185 0.00035522864
000270 26 6e ba bd ac 9a 01 3b 52 53 60 3e 47 9c 80 bd
       -0.091030404 0.001977603 0.21906784 -0.062798075
000280 f2 86 2e be ef 9f df 3d 02 08 68 3e 1c be 15 3e
       -0.17043665 0.10919177 0.22659305 0.14623302
000290 1d 5a 16 be a6 bc 6f be be ae 15 3e 1d f6 a5 bc
       -0.14682813 -0.23411807 0.1461744 -0.020258958
0002a0 77 f6 82 3d c7 f0 84 bc 8c e4 4b 3e 5e a5 fa 3b
       0.06394666 -0.016228093 0.19911402 0.007649108
0002b0 5a 1c 09 bd c6 eb a9 3c 51 bc 09 be 42 18 bc 3c
       -0.033474304 0.020742308 -0.13450743 0.022960786
0002c0 0e 36 97 bc b5 d4 76 be cc bc 09 be 5f 81 11 be
       -0.018458392 -0.24104579 -0.13450927 -0.14209507
0002d0 64 a3 3c be e6 ea 31 3d 26 8f 07 3e 24 29 1c 3d
       -0.18421704 0.043436907 0.132382 0.038125172
0002e0 37 c5 2d be 30 59 51 be a0 d2 ba 3d e5 a7 0e bd
       -0.16969763 -0.20444179 0.09122205 -0.034828085
0002f0 a7 4e 55 bc 3c 13 19 be 0c 03 70 be 16 cd 82 3e
       -0.01301924 -0.14948744 -0.23438662 0.25547093
000300 d3 75 90 bd c4 85 f3 bc 31 2b 08 be 14 db 2e 3e
       -0.07053723 -0.02972687 -0.13297726 0.17075759
000310 7e f8 2d bd 63 cb a3 bc 9f ad 57 3b 60 92 22 bc
       -0.04247331 -0.019994443 0.0032909883 -0.009922594
000320 2a 35 22 3e c4 03 5d be 6d 6b 8e 3d f6 4c 98 bd
       0.15840593 -0.21583468 0.069540836 -0.07436554
000330 99 08 58 bd 67 6b 98 bd da fe 3c 3d 07 fd 1f be
       -0.052742574 -0.0744236 0.046141483 -0.15623866
000340 cf 69 86 bd 8d eb 7a 3d 27 a6 8e bd 1c d8 79 bd
       -0.0656315 0.061259795 -0.06965285 -0.060997114
000350 5c e8 09 3d 7e 13 cb 3b d3 8a 2e bd 7c 3d a3 b9
       0.03366886 0.006197392 -0.04261286 -0.00031135592
000360 b9 ba d9 bd 30 18 bd 3d 56 8c 05 be f3 c9 42 be
       -0.10631318 0.09233129 -0.13041815 -0.1902235
000370 b1 a6 2d 3d 3c d2 20 be de 47 ec bd d6 60 14 bd
       0.042395297 -0.15705198 -0.11537145 -0.036225162
000380 07 aa 9b 3d d1 b0 78 bd 22 b9 68 bd 7e 28 62 bd
       0.076007895 -0.0607155 -0.05681718 -0.055214398
000390 c8 04 19 3d e6 70 85 bd 8d 6c ad 3c bd b5 19 3e
       0.037358075 -0.06515674 0.021169925 0.15010734
0003a0 a4 40 06 bd c2 77 4c bd f5 55 f6 bd 66 37 c2 bd
       -0.03277649 -0.049918897 -0.12028114 -0.09483223
0003b0 bb 44 1a be 75 a3 09 be fa 02 99 bd 12 2f 9b 3c
       -0.15065281 -0.1344126 -0.07471271 0.018943343
0003c0 ea ad 44 3d b4 77 6c bd 11 cc ec 3c db c3 21 be
       0.04801742 -0.057731345 0.0289059 -0.15797369
0003d0 06 dc 6b 3e cd d5 8d 3e 4b 0f b3 bc 38 f7 42 3d
       0.23033151 0.2770218 -0.021857878 0.047599047
0003e0 e8 1b 53 3b c5 1f a7 3d 70 c7 a5 bd 20 b5 3b be
       0.0032212678 0.081603564 -0.0809468 -0.18330812
0003f0 e0 15 ae 3d 62 1c 09 be b3 c3 04 3d 11 25 ea bd
       0.08500266 -0.13389733 0.032413196 -0.11432851

model/output/b f4 [4]
000000 77 7e 30 c0 d0 53 2b c0 85 fe 29 c0 9d 91 2a c0
       -2.7577188 -2.6769905 -2.6561596 -2.6651375

model/output/W f4 [4, 75]
000000 3e 26 42 bf 9c 82 4d 3d 9f e7 84 3c eb df 1b bd
       -0.758396 0.050173387 0.016223727 -0.03805534
000010 86 f1 80 bf f0 c9 2b 3c 11 c9 5e bd c1 ca e7 bc
       -1.0073707 0.010485157 -0.05439097 -0.028294923
000020 b6 e6 21 bf 97 f5 2f bf 02 94 71 3e e6 53 31 bf
       -0.6324266 -0.68734115 0.23591617 -0.69268644
000030 9d 6b 26 3e 85 e5 ff 3d 25 b7 4b 3e 03 12 88 3d
       0.16251989 0.12494949 0.19894083 0.066440605
000040 22 9b 1c 3d f0 07 21 bf 8d ff 58 bf f1 00 cd bd
       0.038233884 -0.62902737 -0.8476494 -0.10009945
000050 75 40 1f be 68 5d 41 40 c0 23 39 bf d6 fe 5a bf
       -0.15551932 3.021326 -0.72320175 -0.855451
000060 82 b1 f2 3e be b0 9f bd 46 ef 16 3e 2a 37 06 bc
       0.47401053 -0.07797383 0.14739713 -0.008191863
000070 aa 66 27 bf 74 05 90 bf 37 04 53 bf 7b 7c 62 bf
       -0.6539103 -1.1251664 -0.82428306 -0.8847119
000080 98 b9 39 3b 5d 55 6f 3d 73 2f 2b bf 75 55 81 bd
       0.0028339382 0.05843102 -0.66869277 -0.06315128
000090 9e a2 10 be 20 3b 80 3d ea c2 07 c0 f7 4f b7 3d
       -0.14124534 0.06261277 -2.1212716 0.08950799
0000a0 2f 60 4b bf 8e 39 d3 3d 5d 29 8c bf b1 4f e4 bd
       -0.7944364 0.10313712 -1.0950123 -0.111480124
0000b0 41 fb 63 bf 1e 16 a9 bf 28 fa 77 bd 3c 3a 1e 40
       -0.8905526 -1.3209875 -0.060541302 2.4723043
0000c0 f0 61 3c 3e ef 89 21 3f 0c 5b ab b9 1f 45 8d be
       0.18396735 0.63101095 -0.00032683497 -0.27591798
0000d0 a7 3f 2c c0 05 ce 23 bf 96 ff 2e bf 66 60 92 3e
       -2.691385 -0.63986236 -0.68358743 0.2858917
0000e0 fa 0c 06 bf 3c 03 5f bf 52 ee 49 bf d5 c0 40 bf
       -0.5236355 -0.8711431 -0.7887927 -0.7529424
0000f0 4b 42 9a 3d 1a 5a b7 3d 04 ab 3e 3b 2c 9c b3 3e
       0.07532176 0.089527324 0.0029093632 0.35080087
000100 75 4c a5 3e bc 92 00 3b 59 11 1f be 9c 73 20 3e
       0.32284895 0.001961871 -0.15533961 0.15669101
000110 2d c1 33 3e 06 0d 2d bf d3 c3 4c bf eb 77 28 bf
       0.1755416 -0.67598 -0.79986304 -0.6580798
000120 94 b6 cb 3d 67 20 d5 3d 9b df 2a c0 fc 09 3e bf
       0.099469334 0.10406571 -2.6698978 -0.74233985
000130 c0 98 0d 3c ad 4c 86 3e bd 97 fd 3d 8e 7e 84 bf
       0.0086423755 0.26230374 0.123824574 -1.0351121
000140 2a fe 87 3d 3b 6e 11 bc d8 20 0b 3d 4c c1 3c bf
       0.06640275 -0.008876379 0.03396687 -0.7373245
000150 c2 f3 30 bf e1 93 87 3e 38 c1 1f bf 4b 5f d9 3d
       -0.69121945 0.2648001 -0.62404203 0.10613879
000160 f3 40 3d 3d 3e 40 98 3e 9f 46 7a 3d 69 56 78 bd
       0.04620452 0.29736513 0.061102506 -0.060629282
000170 81 8b 18 bf 54 b4 43 bf 03 3f 19 be fb 91 65 3c
       -0.59587866 -0.76447034 -0.14965443 0.014011855
000180 68 9a 40 40 7f 0e 2a bf ca d8 59 bf aa 98 da 3e
       3.0094242 -0.6642837 -0.8509642 0.42694598
000190 b8 55 ce bd b1 9f ad 3d fb 77 20 bb 23 6b 3c bf
       -0.10074943 0.08477724 -0.0024485576 -0.7360098
0001a0 6b 43 8b bf 44 b7 70 bf e0 16 56 bf fb c6 c2 3d
       -1.0879949 -0.9402964 -0.83628654 0.09510609
0001b0 dc b4 78 3d ff 7c 30 bf a8 de df bc 3c fb c8 3c
       0.060719356 -0.6894073 -0.02732785 0.02453386
0001c0 2d 64 9b ba 60 fc 0b c0 f0 93 f5 3d f2 33 43 bf
       -0.0011855416 -2.1872787 0.119911075 -0.7625114
0001d0 e7 90 28 bc ea 81 9b bf 58 e7 52 bd df ac 58 bf
       -0.010288454 -1.2149022 -0.051490158 -0.8463878
0001e0 06 cf a5 bf 6a 4d 00 bb 3f 05 22 40 6d 6b 00 3d
       -1.2953804 -0.0019577392 2.5315702 0.03135245
0001f0 20 65 1a 3f 13 e0 4b bb f4 db 8c be ff 6c 28 c0
       0.60310555 -0.00311089 -0.2751156 -2.6316526
000200 0a cd 35 bf e8 ee 20 bf 65 43 b3 3e fe f6 c6 be
       -0.7101599 -0.6286454 0.35012355 -0.38860315
000210 87 8a 52 bf 3c 59 44 bf 81 a9 44 bf df 15 a3 3c
       -0.82242626 -0.7669866 -0.7682114 0.01990789
000220 f3 17 18 3d 78 0b 9e 3d 41 8d 99 3e ef a9 a0 3e
       0.037132215 0.07717031 0.2999058 0.3137965
000230 00 63 24 3d 82 54 a9 3d 81 3a b6 3d af 42 37 bd
       0.040133476 0.08268072 0.088978775 -0.04474133
000240 0b 2b 28 bf 28 78 40 bf 4d 4b 22 bf 8f 01 37 3e
       -0.6569068 -0.75183344 -0.6339615 0.17871688
000250 41 b3 32 3e bb 89 32 c0 8f 8c 2c bf 5b 9e 4d 3d
       0.17451192 -2.7896564 -0.67401975 0.050199848
000260 52 29 8d 3c af ce e4 bd 89 79 7a bf 59 14 67 3d
       0.017231617 -0.11172234 -0.978417 0.05641589
000270 cd 26 80 3e 56 7c fb be b8 b8 59 bf e5 c6 2a bf
       0.25029603 -0.49118298 -0.85047483 -0.6670974
000280 03 4b 6b be fd 5c 25 bf 07 f1 19 3e 6b 71 f6 3d
       -0.22977833 -0.64595014 0.15033351 0.120333515
000290 21 ee 98 bc bd 2a cf 3d f3 d9 eb bd 96 e2 1f bf
       -0.018668236 0.101155736 -0.1151618 -0.6245512
0002a0 ea b1 4e bf cb 10 b6 3e 17 77 4a 3e 6e bc 54 40
       -0.80740225 0.35559687 0.19771992 3.3240008
0002b0 92 88 3c bf 17 83 5e bf 11 55 ea 3e 2e 89 39 bd
       -0.7364589 -0.8691878 0.45768026 -0.04529684
0002c0 04 5c ad bd 45 d4 c1 bc f8 0a 23 bf d3 bd ea bf
       -0.08464816 -0.023660788 -0.6368861 -1.833918
0002d0 3e b7 6b bf 92 72 47 bf a0 40 0b 3e 1a 2c 1f 3e
       -0.9207648 -0.77909195 0.13598871 0.15544167
0002e0 02 88 43 bf d2 7b e8 bc 7c ab 9b be b5 8d 6b 3e
       -0.76379406 -0.028379355 -0.3040427 0.23003276
0002f0 d7 e6 06 c0 24 7b cc be 29 fa 14 bf d4 85 56 be
       -2.1078393 -0.399377 -0.58194214 -0.20949489
000300 25 2c 77 bf 37 f0 40 3e 56 d5 48 bf 6a b3 99 bf
       -0.96551734 0.18841635 -0.78450525 -1.2007878
000310 9b 19 ee bd c5 35 15 40 48 1d d5 3b ca a1 25 3f
       -0.116259776 2.3314068 0.0065037347 0.64699996
000320 5b c5 93 bd e9 42 e7 3e 41 cd 24 c0 0e 11 28 bf
       -0.07215377 0.45168236 -2.5750277 -0.65651023
000330 89 fa 1d bf 6e 2c 0a 3f 94 67 99 be b1 84 33 bf
       -0.6171041 0.53974044 -0.29961836 -0.70124346
000340 8d 77 4f bf 60 28 43 bf 76 1e 4c be 1b 3d 29 3e
       -0.81041795 -0.7623348 -0.19933495 0.16527216
000350 48 09 cb 3d 4e 00 32 3e 5b da ab 3d a2 34 5a 3d
       0.0991388 0.17382929 0.083912574 0.05327285
000360 d4 87 0e be 73 ec cb bd 83 33 cf 3c e1 c5 26 bf
       -0.13919002 -0.099572085 0.025293117 -0.6514569
000370 dc f3 36 bf 9d e4 38 bf 6f 70 38 3c e9 26 39 3e
       -0.7146585 -0.72223836 0.011257275 0.1808125
000380 2b 08 2a c0 11 25 57 bf 9a 25 85 3d 09 73 ef bc
       -2.6567485 -0.84040934 0.065013126 -0.029229658
000390 4c 53 db bd ee 0d 89 bf f7 6b df 3c 1e 7b 77 bd
       -0.10709247 -1.0707376 0.027273161 -0.060420148
0003a0 ce 16 0b 3e 13 9d 41 bf 00 13 23 bf ad 52 ab bd
       0.13582918 -0.756303 -0.63700867 -0.083653785
0003b0 3b b6 10 bf d8 a8 aa 3d 01 97 41 3e fc d0 6e 3e
       -0.5652806 0.08332986 0.1890526 0.23321909
0003c0 fe 60 0d 3c 66 5d 02 be 52 4b 17 bf 68 ee 33 bf
       0.008629082 -0.12730941 -0.59099305 -0.70285654
0003d0 bb c5 01 be af c4 30 bc 31 48 3f 40 1f 96 31 bf
       -0.12673084 -0.0107890805 2.9887812 -0.6936969
0003e0 d8 68 62 bf d0 43 d1 3e 0d 0c 10 be c9 f5 35 3b
       -0.8844123 0.4087205 -0.14067097 0.0027764908
0003f0 91 0d d1 3d 6d 1d 35 bf c3 55 83 bf c4 da 77 bf
       0.10207666 -0.70748025 -1.0260547 -0.96818185
