experiments/childsnack/childsnack_full_train_set_2-75-2/best/model.npz (npz, 29695 bytes, 6 tensors)

model/output/b f4 [4]
00000000: 092d a4bf 7850 aabf 600b a3bf cfc6 95bf
-1.2826244 -1.3305807 -1.2737846 -1.1701297

model/output/W f4 [4, 75]
00000000: 6301 913c 96e5 c3be 24f3 02bf 72a9 adbe
00000010: e34d 963d abcf edbe 0a38 4b3e d020 d1bc
00000020: 9799 03be 8c22 6abd 957a 28be e617 123e
00000030: 2793 0abf 8723 243d c16e 1d3c e179 123e
00000040: f8b0 453d 0f12 d2be 7343 bebd b89d 8abc
00000050: fb00 5abe 7c44 0abe b6a1 c6bd b8f8 333e
00000060: 4e7e 823e 6f5d 023d 5ea0 48bd 5d67 bd3b
00000070: 6f7a cfbb e787 bfbe 0f57 033e d365 eebc
00000080: 71f2 00bf f91a 003e 7eb9 24be b264 e4bd
00000090: 60cd 61ba 6b19 4ebe 1a8f 4fbc cbaa 00bf
000000a0: 3039 0abf 86c5 203d bb5c 2ebe d5ce 05bf
000000b0: 35b8 653d 6a4e c6bd cf51 913d f05c 51bf
000000c0: 108a 2fbe 520b 333d 54cc a3be fcf8 bebe
000000d0: 9c86 833d 0873 26b9 e6c4 55bd 479e 6ebc
000000e0: ce15 4c3e 4334 653d da34 b3be 6d51 1abf
000000f0: f651 bebe 44c7 093e 230c b93d d1e1 a7bc
00000100: 8927 303d 20f9 563e 54fa e33c 7457 fdbb
00000110: 766a 3cbf c951 6d3d 9612 2bbf 4097 4abf
00000120: 4183 80be 557e 19be c4a5 223e 6a71 45bd
00000130: f6ac d4be 88d4 08bf 7a00 23be 069b 1cba
00000140: d532 e3be 7679 7a3e 36ee f8bb e7c4 8cbe
00000150: 6a89 c53d 42bf 19be 41a1 7a3b d901 14bf
00000160: 7dbf 533e 7675 7e3e 4f4b 3bbd 45bd 86bd
00000170: 34e0 94be 81d0 143e a19b a9bd 360f 31be
00000180: 19df 06be d1ce 75bc d1af c2bc bcc1 863e
00000190: acef 173d c21b 94bd ea71 3c3e 1730 65bc
000001a0: b8a2 c7be c7b1 813d cf66 3cbb a771 dabe
000001b0: fa8e 593d cf74 84bd 538e 88be 0522 923d
000001c0: f95a 36be 3bd7 6dbd b3d8 e4be db9f 03bf
000001d0: e154 14bd d271 e3bd bb8f bfbe 6f44 4b3d
000001e0: b328 7b3c c837 343d 95fa 36bf 387b 83be
000001f0: 9a04 bf3c 06d2 d0be 0fdf 9abe 1c6f dcbd
00000200: 056e 1ebe 4bff 4c3e 0ae4 2f3d 3d42 cfbb
00000210: e0f1 b43d 6d19 d4be fba3 19bf ebc9 01bf
00000220: e5a3 223e 1111 ddbc 6726 163d cf3f 83bc
00000230: d734 3b3e 3a63 c1bc 4426 693e 22a4 58bf
00000240: 075e 83be 0f38 52bf a79c 44bf 2b92 55be
00000250: bd42 5dbd 2e7c 023c 4366 453d e555 e0be
00000260: ee47 acbe 87bc a5be e4b9 9b3e 5f79 02bf
00000270: 8253 663e 68f0 2bbc a95a 32be 8fa9 24bc
00000280: 3009 21bc 823f 1dbe 39cb 01bf 7b44 c13d
00000290: c62d 933e c9e5 da3d 9a51 1c3d 30c0 debe
000002a0: 4bb4 7abe 8730 21bd a56f 61be 3632 20be
000002b0: 7e3d 6b3d 7b0b e63c 4a46 7e3e 29f1 033d
000002c0: 0752 58bd d076 843e 0cf4 7b3b 2105 b9be
000002d0: 4cb9 383d 0567 823d 32a7 b1be 4d96 9e3d
000002e0: e67d 01be 5053 0abe f545 0ebe bdf4 4fbe
000002f0: 1c46 e03d 2343 08bf d753 26bf e8cf 7ebd
00000300: 96c0 7b3e ccba f5be 46af abbb 3597 8a3b
00000310: 1505 09be 129c 55bf 6dec 81be 3755 bbbd
00000320: 73b8 7ebe ac46 8cbe fc83 a23d a433 d73d
00000330: df97 75be ad69 4dbe 8714 6bbe 2b63 e43d
00000340: bddf adbe e4f4 14bf 99fe ddbe e495 d73d
00000350: 6811 863d afbb 163c 443f 363e 80e6 1c3e
00000360: 996c 413c 0a05 27bd 5e7c 35bf 0c0f 81bb
00000370: 75d1 3bbf c883 64bf d43d 51be dd41 963a
00000380: a9be 153e 540e 41bd 5b3d f1be 546c fbbe
00000390: 4d50 89be 5993 a13d 7213 ecbe 403f a73e
000003a0: da50 e03d 89b3 8bbd 4669 31be b559 0abe
000003b0: dbc1 4bbd 0d0c 15bf 6198 b3bb 1404 d5bd
000003c0: a2c2 e83c f376 36bd 5550 89be 5fa7 56ba
000003d0: b2c8 62bd 3a0c 49be 175f 18be 336d ddbc
000003e0: ec82 4fbd c440 a33e 30f3 913d a58c 62be
000003f0: c1ac bdbd 148a 13bc fca8 ccbe 353d 4ebd
0.017700857 -0.38261098 -0.51152253 -0.3391834 0.073390745 -0.464475 0.19845596 -0.025528342
-0.12851559 -0.057161853 -0.16453011 0.14266929 -0.54130787 0.040072944 0.009608925 0.14304306
0.048264474 -0.41029403 -0.09290209 -0.01692091 -0.21289437 -0.13502687 -0.09698813 0.17575347
0.25486988 0.031827386 -0.048981063 0.005780144 -0.006331734 -0.37408373 0.12826179 -0.029101288
-0.50369936 0.12510289 -0.16086385 -0.111520186 -0.0008613672 -0.20126884 -0.012668395 -0.5026061
-0.5399351 0.039250873 -0.17027561 -0.52268726 0.056083877 -0.09682925 0.07095682 -0.81782436
-0.1714251 0.043711968 -0.31991827 -0.37299335 0.06422159 -0.00015873846 -0.05218973 -0.014564103
0.19930193 0.055958044 -0.3500126 -0.60280496 -0.37171906 0.1345492 0.09035518 -0.02049342
0.043006454 0.20993471 0.027829327 -0.0077313725 -0.73599946 0.057939325 -0.66825235 -0.7913704
-0.2510014 -0.14989598 0.15883547 -0.048203863 -0.4153821 -0.53449297 -0.1591815 -0.0005974028
-0.4437472 0.24460396 -0.0075967563 -0.27493975 0.0964535 -0.15014365 0.0038243087 -0.5781532
0.20678516 0.24849495 -0.045726117 -0.06579069 -0.29077303 0.14532663 -0.08281637 -0.17290959
-0.13171043 -0.015002922 -0.023765476 0.26319683 0.037093803 -0.07231857 0.1840283 -0.013988516
-0.38991332 0.063327365 -0.0028747802 -0.42664835 0.05311487 -0.06467592 -0.26671085 0.07135395
-0.17808141 -0.058066588 -0.44696578 -0.51415795 -0.03621376 -0.11105694 -0.37414345 0.04962581
0.015329528 0.04399851 -0.7147611 -0.25679946 0.023317624 -0.40785235 -0.30248305 -0.1076338
-0.15471657 0.20019262 0.042942084 -0.006325035 0.088351965 -0.41425648 -0.6001584 -0.5069873
0.15882833 -0.026985677 0.036657717 -0.016021637 0.18281876 -0.023606885 0.22768503 -0.84625447
-0.25657675 -0.8211679 -0.7680153 -0.2085654 -0.054018725 0.007964177 0.048193227 -0.43815532
-0.33648628 -0.32370397 0.3041526 -0.5096645 0.22492793 -0.010494329 -0.17417397 -0.010050192
-0.009828851 -0.15356258 -0.5070072 0.0943689 0.2874586 0.10688359 0.03816376 -0.43506002
-0.24482839 -0.03935292 -0.22015245 -0.15644154 0.05743169 0.028081646 0.248315 0.03221241
-0.052812602 0.25871897 0.0038445024 -0.36136726 0.045098588 0.06367306 -0.34697872 0.07743511
-0.12645683 -0.13508344 -0.13893874 -0.20308204 0.10950872 -0.5322744 -0.6497168 -0.062209994
0.24585184 -0.47994077 -0.0052394 0.004229451 -0.13380845 -0.8344127 -0.2537569 -0.09147113
-0.2487505 -0.27397668 0.0793533 0.105078965 -0.23983715 -0.20059843 -0.2295705 0.11151727
-0.3395976 -0.58186173 -0.43358305 0.10526636 0.06546289 0.009200021 0.17797571 0.15322304
0.011805677 -0.04077629 -0.70892894 -0.0039385613 -0.7336648 -0.8926358 -0.20433742 0.0011463721
0.14623512 -0.047132805 -0.47117123 -0.49106085 -0.26819077 0.078894325 -0.46108586 0.32665443
0.10952921 -0.06821353 -0.17325315 -0.13510783 -0.04974542 -0.58221513 -0.0054808115 -0.104011685
0.02841312 -0.044547033 -0.268191 -0.00081883924 -0.05536718 -0.1963357 -0.14880024 -0.02702961
-0.050661966 0.3188535 0.071264625 -0.22123964 -0.09261466 -0.009005088 -0.39972675 -0.05035134

model/hidden_layers/0/b f4 [75]
00000000: 0d4a 323d ff7c 75bd 3d01 c03f f733 a0bf
00000010: f057 b63f f10b a63f 0f9e 70bd 544d 443e
00000020: 5edf 233f 5e17 94bd 983d 383e 7474 663d
00000030: 8423 bd3f 422a c5bd 19fc 813c 3a2b 5bbf
00000040: b18d 38be f3bd 0bbe 2969 9a3e 0031 06bf
00000050: daad cf3d ae80 62bf ba96 cfbe db2f 6b3e
00000060: 893e 913e 0f02 0d3e 5bdf 86bf 4cc7 8bbd
00000070: b50b 84bc 8fb7 05be b688 8a3f 5596 0dbe
00000080: ac7b b8bd 8c87 16bf 2664 3e3e 8bc0 30be
00000090: e372 f8bd 8965 1ebe 1b68 263d 3fea 403d
000000a0: f02e ad3f e047 913f 28e7 d7bd c07a ccbe
000000b0: 1714 46bf d053 e3bd 9024 30bd e050 33bc
000000c0: 1593 1e3e 7771 ac3f 3aec 59bf 9c9f ecbd
000000d0: d6aa 5fbf f139 8fbd 0bd7 5d3f f592 dfbd
000000e0: 03fe a6bd ff08 bc3f 6b03 8c3f be08 47bd
000000f0: db67 d93d 6bf1 c03f 58ee 60bf cf9c 31bc
00000100: 4f51 073e be1a 92bd 0d52 dcbc 4558 8dbb
00000110: 3e14 aebf f195 04be 15be 58be 4193 5fbe
00000120: 5984 c83f d553 db3f c0bd 293e
0.04352765 -0.05993366 1.5000378 -1.2515858 1.4245586 1.2972394 -0.058744486 0.19170123
0.64012706 -0.072310194 0.17992246 0.056263402 1.4776464 -0.09627201 0.01586728 -0.85612833
-0.18022801 -0.13646679 0.30158356 -0.5241852 0.101405814 -0.884776 -0.40544683 0.22967474
0.28368023 0.13770317 -1.0536913 -0.06825122 -0.016118864 -0.13058303 1.0822971 -0.13826878
-0.090079635 -0.5880058 0.18592891 -0.1726095 -0.12131288 -0.1546842 0.040626626 0.047098394
1.3529949 1.135006 -0.105421364 -0.399374 -0.77374405 -0.1109997 -0.04300362 -0.010944575
0.15485795 1.3472127 -0.8512608 -0.115538806 -0.8737005 -0.06993473 0.86656255 -0.10916702
-0.08153918 1.4690245 1.0938543 -0.04859232 0.10615512 1.5073675 -0.87863684 -0.010840609
0.1321461 -0.07134007 -0.026894594 -0.004313501 -1.3599927 -0.12947823 -0.2116626 -0.21833517
1.5665389 1.7134959 0.1657629

model/hidden_layers/0/W f4 [75, 20]
00000000: e252 bfbd 3f23 4ebc 4337 f5be 770b f23e
00000010: 64b2 cdbe a3ea 45be fb4a e63d b8a1 90be
00000020: af31 5fbe 29bf 52be 38f1 f83d b136 033f
00000030: 4159 ac3b 2056 e0bd 21ee ee3d 4aa4 0abe
00000040: 062c 8cbb 8c75 843e 1e86 48be 4140 9bb9
00000050: 42ee 48be ec46 0fbd bffd 6a3d 0230 9e3d
00000060: 06ab 9cbd 277b 64bd 8a01 12be 3ef7 87be
00000070: dd71 a1be f7bb 13bd 09d0 77bd 3776 ff3e
00000080: cd5f 0bbf ccc5 9f3c 42b4 a23d 6a05 9b3e
00000090: e9d2 e53d 6d4d 41be 3be9 eebd 609b f23d
000000a0: 0128 50ba 7696 103e 1a55 b5be 70fe ad3e
000000b0: 4db6 5e3e 4eb9 fcbc db66 0b3e 5cdb c6bc
000000c0: 28d0 83be 99a1 943d ee4b 983e 9fad afbd
000000d0: 1cb8 f3bd def9 12bd fd98 fc3d 8a50 ba3e
000000e0: 54e7 11be 5622 a13d ef6f 9ebc 499f c7be
000000f0: 80c0 35be 5b69 82bc 2e08 c5bb 3a46 b13d
00000100: 570c cabe 61e4 a3bd 8e41 1abe cf07 7cbe
00000110: 29a0 0f3e fd51 293e 81ee 82be 49d0 413e
00000120: 7dca 1cbc 06b7 743c 2868 63be d2a2 7d3e
00000130: de01 18bf e777 623d 5861 343e 3a82 dcbe
00000140: 0bbf 8e3b dde2 0abd 9adf 593e 389c 183e
00000150: 1430 18be 341f 88be b7eb 9b3e f755 773e
00000160: 33b8 80be 9c70 e23d 1f83 163e 6671 003e
00000170: 5bb2 733c 8f28 543e 8957 bebe 0f48 983e
00000180: 41cc ab3d f27d a2bd c362 e03d d7e3 01bf
00000190: c912 9c3e d3c2 883d 3d68 5abe 3410 6c3b
000001a0: e69d 12be 532d 183f a1c0 d13e 3807 853d
000001b0: 1150 8abe aada 43bd c467 10bd 2004 01be
000001c0: c2fb 70be 260b 52be d76a 223b f75a 98bd
000001d0: 23b2 20be 7e15 77be 755c ef3e 354c 88be
000001e0: d7d1 67be a203 c63d f473 8cbd 31e4 a1bd
000001f0: 1517 363e bbbf 913e 0f2e 2c3e b5b8 5cbe
00000200: 5b58 993d 2426 c7be 315c bbbc 2223 e4bd
00000210: 4912 6cbe ab1f 5c3b 886e 12bd 531d 6c3e
00000220: f9b8 a9be 2e9b 483e 2008 15bd e9aa 073d
00000230: b106 a4be 2899 66bd a459 b3be 8dbb 14bf
00000240: 2dd4 3b3f 170f 5c3e 5f3a cd3e 4692 cdbd
00000250: 88f5 9b3e fea8 273e 2937 053e 5082 563a
00000260: 4043 63bd c1da e9be 1cab 0d3e 29b5 bd3d
00000270: 5ef7 7f3e c4b1 86bd 6cd5 093f f294 bcbd
00000280: a4a9 6dbe 7346 5b3e 6169 cbbd 451f fcbe
00000290: 38c6 53bb cce3 553e 0b22 5d3d 0de2 c53d
000002a0: e9a8 343f 988f 263e a481 ca3e 575a e3be
000002b0: b943 893d a378 48bc 6bc2 03be f4a3 12be
000002c0: ca95 b53d 4dfd adbd 5de6 b1be 9131 583e
000002d0: d5d4 993e 8f96 8a3d 13c5 ccbd cafe 99b8
000002e0: 0e9c 3e3e 2df8 133e 0f64 a6be 71db 98bd
000002f0: 82df 603c 4351 103e 87b0 5f3e 88a5 2d3e
00000300: 7061 81be 4e2f 26be efb1 8abe 5073 d03e
00000310: 753c 253d b041 ff3d 249f c13d bc44 92bd
00000320: 5586 83be 1753 c3bd 0997 ecbc d420 c93e
00000330: 08b4 453e 3d9f 7fbe c916 183e f49d 2c3e
00000340: 416b d5be 9fc2 eebc 4e4f d4be 8f58 973d
00000350: e9df 87bd 652a a7be cecc 27be 7c80 5e3d
00000360: ad38 fdbd 04dd 913d 10e8 6c3e 070e 43be
00000370: 8ce4 8ebd 7e89 f53e f1d6 dd3c 4e8d 423e
00000380: 4aba 573c d759 99be 31af 813e 7494 a93d
00000390: 04be bf3e ce9c 4e3e 09f6 ae3d 9c5d 5f3e
000003a0: 0776 2f3d 1da4 aebd 68ed 6fbe ed20 d2bd
000003b0: b96b 0fbf 530d d13e 3887 23bf e54e 9cbc
000003c0: bfa4 5abe 320f f8be b98e 273d ef42 e1bd
000003d0: 6969 1cbe 7c69 373e 5779 0ebe c5db 323d
000003e0: d21a 863d b2ad 02bd a7f1 c73c fbcd f43d
000003f0: 1648 e7bc feed cc3c 1018 04bf ddb1 d73d
-0.093419805 -0.0125816455 -0.47893724 0.47274372 -0.40175164 -0.19327788 0.1124477 -0.28248382
-0.21796297 -0.20580734 0.12155384 0.5125533 0.0052596633 -0.10953927 0.11666513 -0.13539234
-0.004277709 0.2587093 -0.19582412 -0.00029611777 -0.19622138 -0.034979746 0.057370897 0.077240005
-0.07649808 -0.05578151 -0.142584 -0.26555818 -0.31532183 -0.03606793 -0.060501132 0.49894878
-0.54443055 0.019503497 0.07944538 0.30277568 0.112218685 -0.18877192 -0.11665579 0.11846042
-0.00079405314 0.14119896 -0.3541649 0.33983183 0.2174923 -0.030850079 0.13613455 -0.02427452
-0.25744748 0.07257385 0.2974543 -0.085780375 -0.119003505 -0.035882823 0.12333868 0.3638957
-0.14248401 0.07867877 -0.019340483 -0.38988712 -0.17749214 -0.015919378 -0.006012938 0.08655973
-0.3946254 -0.08002544 -0.1506407 -0.24612354 0.1402594 0.16535182 -0.2557259 0.1892711
-0.009569761 0.014936214 -0.22207701 0.24769142 -0.5937785 0.05529013 0.17615259 -0.43068105
0.00435627 -0.03390776 0.21276703 0.14903343 -0.1486209 -0.26586306 0.30453274 0.24153887
-0.25140533 0.11056635 0.14698456 0.12543258 0.014874066 0.20718597 -0.3717616 0.29742476
0.08388568 -0.079341784 0.10956337 -0.5073828 0.30483082 0.06677785 -0.21328826 0.00360204
-0.14318046 0.5944416 0.40967277 0.064955175 -0.2701421 -0.047815956 -0.03525521 -0.1259923
-0.23533538 -0.20512065 0.002478292 -0.07439225 -0.15692954 -0.24129292 0.46750227 -0.2662064
-0.22638641 0.09668662 -0.06858054 -0.07904852 0.17782243 0.2846659 0.16814445 -0.21554835
0.074875556 -0.38896286 -0.022871109 -0.111395136 -0.2305385 0.0033588212 -0.035749942 0.23058061
-0.33148935 0.19590446 -0.0363847 0.033121977 -0.32036355 -0.056298405 -0.35029328 -0.5809868
0.7337063 0.21490131 0.40083596 -0.10037665 0.30460763 0.16373059 0.13009323 0.000818287
-0.055484056 -0.45674708 0.13834804 0.09263069 0.24996707 -0.06576875 0.5384128 -0.092080966
-0.23209244 0.21413593 -0.09932209 -0.49242607 -0.0032314193 0.20887679 0.053987544 0.096622564
0.70570236 0.16265714 0.39552033 -0.4440486 0.0670237 -0.012235793 -0.12867133 -0.14320356
0.088664606 -0.08495579 -0.34746066 0.21112658 0.3004519 0.06766998 -0.099985264 -7.343067e-05
0.18614218 0.1445014 -0.32498214 -0.0746373 0.013725163 0.14093499 0.21844684 0.16957676
-0.2526965 -0.16228983 -0.27088878 0.40712976 0.04034086 0.12463701 0.09454182 -0.07142016
-0.25688425 -0.095373325 -0.028880613 0.39282858 0.19306958 -0.24963088 0.14852442 0.1685713
-0.4168339 -0.029145537 -0.41466755 0.07389938 -0.06634504 -0.32649532 -0.1638672 0.05432175
-0.12364326 0.071222335 0.231354 -0.1904832 -0.069771856 0.4795646 0.027080031 0.18999216
0.013166973 -0.29951355 0.25328973 0.08280268 0.37449658 0.20177004 0.08543021 0.21813053
0.04283717 -0.08527396 -0.23430407 -0.10260186 -0.56023747 0.40830478 -0.638782 -0.019080589
-0.21351908 -0.48449093 0.040907595 -0.10999095 -0.15274586 0.17911333 -0.13913475 0.04366662
0.06548084 -0.03190393 0.024407221 0.1195335 -0.028232615 0.025015827 -0.51599216 0.105319716

model/hidden_layers/1/b f4 [75]
00000000: c0e3 5bbb 1145 a23f 1ec5 933f 1aaf 463f
00000010: 560e 0abe 6520 9a3f fd91 81bf 6e08 0cbe
00000020: 9533 263e e2c2 593d 3a35 fd3c 6b31 3dbb
00000030: 2ca9 a73f c5ed fbbc c0fe 5dbd efeb a8be
00000040: a794 3fbb 17cd 863f 62b7 be3c da89 ee3d
00000050: 2998 123f acae 2f3f 428b aabb 9153 e0bb
00000060: 9305 91bf 4c4f 4bbe 0000 0000 f100 e1bc
00000070: eddd c83c 8ca8 7e3f a4a2 0bbb 0386 f8bb
00000080: 4bc9 8e3f ad69 b6ba a6d1 fd3d 42bf 0d3e
00000090: 7573 163e cee8 133f 1fd6 5cbc beb9 b13f
000000a0: 99d0 bc3f d3e5 bd3d 510e debc 82f9 963f
000000b0: ce9f bdbc ec73 3b3d ec11 bd3c dc64 bf3f
000000c0: b5f5 663f a449 c03a 0407 873f 53af 4d3f
000000d0: dac2 663b 2ae2 a6ba 79c8 da3c 3ad7 9d3c
000000e0: 73fa 38bc 70da f6be 67eb 823f 2de5 a73f
000000f0: 1ad9 893f 84b6 ecbc 6347 80be e50d b7bc
00000100: a970 f8bc b464 65bf 8a88 44be 4a31 91be
00000110: 6648 d13f 0f42 603d a9eb b83f 9858 cd3f
00000120: 02b5 543f 789d 8a3d fec9 dbbe
-0.0033552498 1.2677327 1.154453 0.77610934 -0.13482031 1.2041136 -1.0122677 -0.1367509
0.16230614 0.05316437 0.03090917 -0.0028868567 1.3098502 -0.030753026 -0.054198027 -0.32992503
-0.002923289 1.0531338 0.023280803 0.11647387 0.5726343 0.68625903 -0.005204589 -0.0068458994
-1.1329826 -0.19854468 0.0 -0.02746627 0.024519885 0.9947593 -0.0021306658 -0.007584335
1.115518 -0.0013916992 0.12393503 0.1384249 0.14692481 0.57777107 -0.013478785 1.3884809
1.4751159 0.09272351 -0.027106436 1.1794894 -0.02314749 0.04576485 0.023079835 1.4952655
0.9021867 0.0014670384 1.0549016 0.8034565 0.0035211355 -0.0012732197 0.026706921 0.019267667
-0.0112901805 -0.4821353 1.0228089 1.3116814 1.0769379 -0.028895624 -0.25054464 -0.022345493
-0.030327158 -0.89606786 -0.1919271 -0.28357917 1.6350219 0.0547505 1.4446918 1.6042662
0.83088696 0.06768316 -0.42927545

model/hidden_layers/1/W f4 [75, 75]
00000000: 321e 733d 9f95 b9ba 9a81 863d 458a 683d
00000010: 97d7 22be cdce bcbd 89b8 f4bd f38d a73d
00000020: b2e0 cdbc 5976 83bd be69 24be ce41 df3c
00000030: de77 cabc 666f b3ba 46d7 62bd d019 4ebe
00000040: 4498 053e 6bc8 5ebc ff68 793c 4745 cbbd
00000050: d9fa 0e3e c12c dfbd daf9 8abd f819 edbd
00000060: 4095 10be 1fc1 983d 56da 89bd 1226 08be
00000070: 2772 06bd 9d07 43bd a02d 32bc ab14 a5bd
00000080: 078a 5a3c 2b2e 51be 935b f3bd 0009 8b3d
00000090: 7e31 a93d a8c9 5fbe 85aa ee3c bacd 94bc
000000a0: 8954 af3d bd07 0cbe 5e38 fa3c 63a7 ab3d
000000b0: b85a 2ebe 415a b6bd 2f13 c23d e50b 20bd
000000c0: 9ef3 b73d c7e9 31bd d2ac 31be 0e9e 7fb9
000000d0: 93b7 02bc 91d8 9bbd bf3b d33d 4730 27be
000000e0: 7e21 94bc 1ba0 68bd 2efa dfbd 4147 37be
000000f0: 59c3 7abe cca5 21be 689d 79bd 93d3 9fbd
00000100: b101 efbc 5e55 1bbd 0dfa 84bd 7f13 5f3c
00000110: 72db d73c 17af 3bbe acea 903c cbfd 4cbe
00000120: 97de 6c3e 83e5 06be 14fa 64bd 8454 033e
00000130: dd9e 903c f607 d53e 6026 963d f6e3 9a3d
00000140: 5ef4 b93e cf5d bebd e8f6 663d 11c5 403d
00000150: ee1c 85be 2f54 45ba fa18 063d ba0b ce3e
00000160: 52d5 a0bd 744e c33d 4d10 eabd 5045 af3d
00000170: 0644 f83d a7bc 323d 7804 3abd 18dd 503c
00000180: 8bd7 7fbd 9917 a8bd c62d 533e ba34 dd3d
00000190: 9234 bc3d 1a32 6cbe 1700 68bc c7e0 0c3e
000001a0: 825f d23c 8488 893d ab9e e93c e852 c13d
000001b0: 92a4 32bd 5450 26be 7d29 d6bd eca9 443c
000001c0: 033d 31be 9c49 f23c 0556 983d fb38 c23e
000001d0: 6bc5 b53e 0392 733d bf3c 60be cc48 973c
000001e0: ddb9 3dbe 0e4a 1cbe 8780 063e 3ea9 4ebd
000001f0: d639 2c3e c5f0 543c 853e e33d 12a7 03bd
00000200: 27ac 0cbd ddee 423e 964b 9b3d 0e4c 193d
00000210: 5a00 ba3e df0e 6c3e 4c2d 99bc ee2f eb3d
00000220: f0a4 ae3e 78ba 37be a84d 40be 9321 43bd
00000230: 280c 7d3e 0ef2 043e bdcf a73a 89cb 34be
00000240: b607 99bd 4dea 4dbd 4735 f83d 5141 9f3e
00000250: e27c 993e 0c25 c33c ffe5 95bd 72aa 0a3e
00000260: 4404 a53e 64f2 8cbd 425d 0e3e cb3c 58bd
00000270: 08de 353d b9fc 363e 86c3 b4bc 4ea0 b43d
00000280: 5ce5 843d 8434 a63d d567 d53e 0f0c eebc
00000290: 1b28 bc3d 2cb3 993c b989 40bd 0075 45bc
000002a0: 5e82 8c3c 3f0f 103d aaea 5a3e 697d 433d
000002b0: d312 0d3e 02d1 863d 6418 1cbd 9f6e 433e
000002c0: 1dc8 e7bc 0240 f23d 4d95 e33d 43c0 063e
000002d0: 8408 2f3e 3e88 82be ccc7 e33d b5f4 ec3c
000002e0: 45bb 4e3e d140 f13d bfbb 623d 9dd1 ca3d
000002f0: f1b1 ddbd da4d ba3c 2043 833e d2f6 ac3e
00000300: b16c 94bd e3e8 33be 9d8b 31bd a222 973b
00000310: 4dac 273c 6ea1 4a3e f20e 3e3e be53 213d
00000320: 3333 b13d a416 d1bc 37f7 b63d 8a12 adbd
00000330: 87f0 4e3e 9a3d bebc c943 debc 2b93 853e
00000340: ca42 803e ac7e ca3c c770 c13d 1365 ed3e
00000350: 4fe8 a8bd 9a70 723e 6929 203e d262 b33d
00000360: b613 c8bc ab9e 423c 1d51 02be f367 e33d
00000370: 08bf c3bc e51a 973b 73dd a93e b2ea f13e
00000380: d004 a33e 3605 ac3d 4710 82be 6bbe 65bd
00000390: dade f9bc 5eb9 cbbd d5ea e23d c2b1 7f3d
000003a0: fdcb 093e 471b 4f3e 1473 59bd 3b03 a83d
000003b0: 6d56 c0bc 4bc3 8f3d 1f5e a5bd 9dfc 2f3e
000003c0: 7004 323e 569e 04be 6686 003e e2b3 783d
000003d0: f2c5 9a3d 6f92 9abd dd30 423c 68cf bcbb
000003e0: 6dd7 a3bd 0892 83bc 1506 a9bc 0e2a e6bc
000003f0: feec 3c3e f942 463e e4de 4c3e 5ba7 203e
0.05935497 -0.001415897 0.06567688 0.05677249 -0.15902553 -0.092191316 -0.1194926 0.081813715
-0.025131557 -0.064190574 -0.16055962 0.027253058 -0.02471536 -0.0013689816 -0.055381082 -0.20127034
0.13046366 -0.013597588 0.015222787 -0.09925323 0.13962878 -0.10897208 -0.06785937 -0.11577219
-0.14119434 0.0745871 -0.067310974 -0.13295773 -0.032823708 -0.047614682 -0.010875136 -0.08060583
0.013338572 -0.20427768 -0.11882701 0.06788826 0.08261393 -0.2185427 0.029134044 -0.018164504
0.08561046 -0.13674827 0.030544456 0.08381536 -0.17026794 -0.08903933 0.09476315 -0.039073844
0.08982013 -0.043435838 -0.17351082 -0.00024377575 -0.007978338 -0.07609666 0.1031413 -0.1632701
-0.018082377 -0.056793313 -0.1093639 -0.17898275 -0.24488582 -0.15785903 -0.06094113 -0.078040265
-0.029175611 -0.03792321 -0.06493006 0.013615488 0.026349757 -0.1832851 0.017690025 -0.2001869
0.23131786 -0.1317349 -0.055902556 0.12825209 0.017653877 0.41607636 0.07331538 0.07563011
0.3631925 -0.09295236 0.056387812 0.047062937 -0.25998634 -0.0007527498 0.032738663 0.40243322
-0.078531876 0.09536448 -0.114288904 0.08558142 0.121223494 0.043636944 -0.045414418 0.012748025
-0.062461417 -0.08207626 0.2062293 0.108010724 0.091897145 -0.23065987 -0.014160178 0.13757621
0.025680307 0.067154914 0.028518042 0.09439641 -0.043613978 -0.1624158 -0.10457132 0.012003403
-0.1730843 0.029576115 0.07438282 0.37934098 0.3550218 0.05946542 -0.21898173 0.01846733
-0.18527932 -0.15262625 0.13134967 -0.05045437 0.16818938 0.012996857 0.11095909 -0.032141753
-0.034343865 0.19036432 0.07582776 0.037426047 0.36328393 0.23052548 -0.018698357 0.11483751
0.34110212 -0.17942226 -0.18779624 -0.04763944 0.24711668 0.12982962 0.0012803 -0.17655768
-0.07472174 -0.050272275 0.12119537 0.3110452 0.2997809 0.023821376 -0.07319259 0.13541582
0.32229817 -0.0688217 0.13902763 -0.05279235 0.0444012 0.17869844 -0.02206589 0.08819638
0.06489059 0.08115485 0.4168078 -0.029058484 0.09187337 0.018762194 -0.047006343 -0.012051821
0.017152008 0.03517079 0.2137858 0.047727022 0.13776712 0.06582834 -0.0381092 0.19085167
-0.028293664 0.11828615 0.11112461 0.1315928 0.17093092 -0.2549457 0.111220926 0.02892528
0.20188625 0.11779941 0.05535483 0.09903262 -0.10824955 0.0227422 0.2563715 0.3378206
-0.07247294 -0.17569308 -0.043346036 0.004612283 0.010233951 0.19788143 0.18560389 0.039386503
0.086523436 -0.025523491 0.08933871 -0.08450802 0.20208941 -0.023222733 -0.027131932 0.26088843
0.25050956 0.024718605 0.09445339 0.46366176 -0.08247434 0.23675767 0.15640797 0.08759083
-0.024423461 0.01187865 -0.12726255 0.11103811 -0.023894802 0.0046113604 0.33176765 0.4724937
0.3183961 0.083994314 -0.25403044 -0.0560898 -0.030501772 -0.09947465 0.11079947 0.062425382
0.13456722 0.20225249 -0.053088263 0.08203741 -0.023478711 0.07019671 -0.08074593 0.17186208
0.17384505 -0.12951025 0.12551269 0.060718425 0.07557286 -0.07547461 0.01185247 -0.0057620294
-0.080000736 -0.016060844 -0.020632783 -0.028096225 0.1844978 0.19361486 0.20006901 0.15688841
