experiments/childsnack/childsnack_full_train_set_2-75-2/best/target_model.npz (npz, 29687 bytes, 6 tensors)

model/output/b f4 [4]
00000000: 8d1a a4bf 8948 aabf bbe6 a2bf a2a8 95bf
-1.2820603 -1.3303386 -1.2726663 -1.1692088

model/output/W f4 [4, 75]
00000000: 6301 913c cd89 c3be 5dce 02bf cb71 adbe
00000010: e34d 963d 0d79 edbe b590 493e 1ea8 d9bc
00000020: 279b 03be 8c22 6abd 75e9 28be e617 123e
00000030: 9672 0abf 8723 243d c16e 1d3c e179 123e
00000040: f8b0 453d a6ca d1be 7343 bebd b89d 8abc
00000050: 8779 59be 65ab 09be b6a1 c6bd b8f8 333e
00000060: c68f 813e 6f5d 023d 5ea0 48bd 5d67 bd3b
00000070: 6f7a cfbb b635 bfbe 0f57 033e d365 eebc
00000080: ffd2 00bf f81a 003e bd42 25be b264 e4bd
00000090: 60cd 61ba 5796 4dbe 1a8f 4fbc 5e80 00bf
000000a0: e113 0abf 86c5 203d bb5c 2ebe 7aac 05bf
000000b0: 10cd 603d 6a4e c6bd cf51 913d 863d 51bf
000000c0: 5ff9 2ebe 520b 333d fe75 a3be afb3 bebe
000000d0: 9c86 833d 0873 26b9 e6c4 55bd 479e 6ebc
000000e0: ce15 4c3e 4334 653d 92e8 b2be 732e 1abf
000000f0: e6f6 bdbe 44c7 093e 230c b93d d1e1 a7bc
00000100: 1547 2c3d 8244 563e 54fa e33c 7457 fdbb
00000110: c245 3cbf c951 6d3d 2816 2bbf 5b71 4abf
00000120: 0f32 80be 557e 19be c4a5 223e 6a71 45bd
00000130: 79d0 d4be 02d9 08bf e2c8 22be 929b 1cba
00000140: 2837 e3be 279d 793e 6c20 01bc ea75 8cbe
00000150: 6a89 c53d da3c 19be 41a1 7a3b 20f6 13bf
00000160: 7dbf 533e 7675 7e3e 4f4b 3bbd 45bd 86bd
00000170: a9da 94be 81d0 143e a19b a9bd fafa 30be
00000180: ee29 07be d1ce 75bc d1af c2bc 3c78 863e
00000190: acef 173d c21b 94bd ea71 3c3e 1730 65bc
000001a0: 40a8 c7be c7b1 813d cf66 3cbb ac4d dabe
000001b0: fa8e 593d 8276 80bd 538e 88be 0522 923d
000001c0: ef26 36be 3bd7 6dbd 42ee e4be f598 03bf
000001d0: e154 14bd d271 e3bd f773 bfbe 4f4d 473d
000001e0: b328 7b3c c837 343d 0ee4 36bf 0879 83be
000001f0: 9a04 bf3c b4e7 d0be 0cc9 9abe 1c6f dcbd
00000200: 056e 1ebe 4bff 4c3e 0ae4 2f3d 3d42 cfbb
00000210: e0f1 b43d 8428 d4be 7191 19bf bbe0 01bf
00000220: e5a3 223e 1111 ddbc 6726 163d 9625 83bc
00000230: 0967 3a3e 3a63 c1bc 4426 693e 729e 58bf
00000240: 075e 83be 39fa 51bf e99e 44bf 057e 55be
00000250: bd42 5dbd 2e7c 023c 4366 453d 6a61 dfbe
00000260: 6c80 abbe 0133 a5be e4b9 9b3e a416 02bf
00000270: 90c2 683e 0bc7 16bc fd9f 31be 8fa9 24bc
00000280: 1303 2ebc 823f 1dbe 9d83 01bf 7b44 c13d
00000290: c62d 933e c9e5 da3d 9a51 1c3d 241d debe
000002a0: 4bb4 7abe 8730 21bd c131 60be 7456 1ebe
000002b0: 7e3d 6b3d 7b0b e63c 0057 803e 29f1 033d
000002c0: 0752 58bd d076 843e 0cf4 7b3b 3344 b8be
000002d0: 4cb9 383d 0567 823d 9131 b1be 4d96 9e3d
000002e0: 0544 03be 5053 0abe f545 0ebe 73ec 4ebe
000002f0: 1c46 e03d e0d4 07bf 0a05 26bf e8cf 7ebd
00000300: 96c0 7b3e cd2e f5be c285 a9bb 3597 8a3b
00000310: 1505 09be cd69 55bf c738 81be 3755 bbbd
00000320: 2013 7dbe f3bc 8bbe fc83 a23d a433 d73d
00000330: df97 75be ad69 4dbe 8714 6bbe 2b63 e43d
00000340: 6608 adbe 46b8 14bf a3f7 dcbe e495 d73d
00000350: 6811 863d afbb 163c b43d 363e 57ec 1d3e
00000360: 996c 413c 0a05 27bd 9429 35bf 0c0f 81bb
00000370: 59e8 3bbf 2221 64bf 44fa 4fbe dd41 963a
00000380: a9be 153e 540e 41bd 631f f1be 0119 fbbe
00000390: c4c6 88be 5993 a13d aac6 ebbe 8770 a73e
000003a0: ed59 e13d 331b 88bd 4669 31be 81dc 09be
000003b0: dbc1 4bbd 21cd 14bf 6198 b3bb 1404 d5bd
000003c0: a2c2 e83c f376 36bd 9bee 88be 5fa7 56ba
000003d0: b2c8 62bd 4c27 48be 432e 18be 336d ddbc
000003e0: ec82 4fbd 1287 a33e 30f3 913d a58c 62be
000003f0: c1ac bdbd 148a 13bc b858 ccbe 353d 4ebd
0.017700857 -0.3819107 -0.51096135 -0.3387588 0.073390745 -0.46381417 0.19684108 -0.026569422
-0.12852155 -0.057161853 -0.16495307 0.14266929 -0.54081094 0.040072944 0.009608925 0.14304306
0.048264474 -0.4097492 -0.09290209 -0.01692091 -0.21237765 -0.13444288 -0.09698813 0.17575347
0.25305003 0.031827386 -0.048981063 0.005780144 -0.006331734 -0.37345666 0.12826179 -0.029101288
-0.50321954 0.12510288 -0.1613874 -0.111520186 -0.0008613672 -0.20076881 -0.012668395 -0.5019587
-0.5393658 0.039250873 -0.17027561 -0.52216303 0.054883063 -0.09682925 0.07095682 -0.817345
-0.17087315 0.043711968 -0.31925958 -0.37246463 0.06422159 -0.00015873846 -0.05218973 -0.014564103
0.19930193 0.055958044 -0.34943062 -0.60227126 -0.3710243 0.1345492 0.09035518 -0.02049342
0.042059977 0.20924571 0.027829327 -0.0077313725 -0.7354394 0.057939325 -0.6683068 -0.79079217
-0.25038192 -0.14989598 0.15883547 -0.048203863 -0.41565302 -0.5345613 -0.15896943 -0.00059741095
-0.44378018 0.24376355 -0.007881265 -0.2743371 0.0964535 -0.1496462 0.0038243087 -0.5779743
0.20678516 0.24849495 -0.045726117 -0.06579069 -0.29073074 0.14532663 -0.08281637 -0.1728324
-0.13199589 -0.015002922 -0.023765476 0.26263607 0.037093803 -0.07231857 0.1840283 -0.013988516
-0.38995552 0.063327365 -0.0028747802 -0.42637384 0.05311487 -0.062726036 -0.26671085 0.07135395
-0.1778829 -0.058066588 -0.44713026 -0.5140527 -0.03621376 -0.11105694 -0.37393162 0.04865771
0.015329528 0.04399851 -0.71441734 -0.25678277 0.023317624 -0.40801775 -0.30231512 -0.1076338
-0.15471657 0.20019262 0.042942084 -0.006325035 0.088351965 -0.4143716 -0.5998755 -0.50733536
0.15882833 -0.026985677 0.036657717 -0.016009133 0.18203367 -0.023606885 0.22768503 -0.8461677
-0.25657675 -0.82022434 -0.7680498 -0.20848854 -0.054018725 0.007964177 0.048193227 -0.4362901
-0.33496416 -0.32265475 0.3041526 -0.50815797 0.2273047 -0.009202729 -0.17346187 -0.010050192
-0.01062085 -0.15356258 -0.5059145 0.0943689 0.2874586 0.10688359 0.03816376 -0.43381608
-0.24482839 -0.03935292 -0.2189398 -0.15462667 0.05743169 0.028081646 0.25066376 0.03221241
-0.052812602 0.25871897 0.0038445024 -0.35989532 0.045098588 0.06367306 -0.3460813 0.07743511
-0.12818916 -0.13508344 -0.13893874 -0.20207386 0.10950872 -0.53059196 -0.6485144 -0.062209994
0.24585184 -0.4788727 -0.005173416 0.004229451 -0.13380845 -0.83364564 -0.2523863 -0.09147113
-0.24714327 -0.27292594 0.0793533 0.105078965 -0.23983715 -0.20059843 -0.2295705 0.11151727
-0.3379547 -0.5809368 -0.43157682 0.10526636 0.06546289 0.009200021 0.17796975 0.15422188
0.011805677 -0.04077629 -0.7076657 -0.0039385613 -0.7340141 -0.89113057 -0.20310313 0.0011463721
0.14623512 -0.047132805 -0.4709426 -0.49042514 -0.26714146 0.078894325 -0.46050006 0.3270304
0.1100348 -0.06645813 -0.17325315 -0.13463022 -0.04974542 -0.581255 -0.0054808115 -0.104011685
0.02841312 -0.044547033 -0.26744542 -0.00081883924 -0.05536718 -0.1954624 -0.14861397 -0.02702961
-0.050661966 0.31938988 0.071264625 -0.22123964 -0.09261466 -0.009005088 -0.39911437 -0.05035134

model/hidden_layers/0/b f4 [75]
00000000: 7db3 2c3d 4dee 74bd 86e2 bf3f e140 a0bf
00000010: ec39 b63f e1ed a53f 0070 70bd 9da2 433e
00000020: 3fb4 233f ba92 94bd d927 373e d43b 643d
00000030: cf04 bd3f d726 c3bd e2aa 833c 3a2b 5bbf
00000040: 708c 38be 3684 0bbe 2a87 993e 0031 06bf
00000050: b746 cd3d ae80 62bf ba96 cfbe b26f 6b3e
00000060: b7aa 903e 84c2 0b3e 5bdf 86bf 79f7 8abd
00000070: cb52 85bc 6261 05be 596c 8a3f 7da1 0dbe
00000080: 22b2 b7bd 8c87 16bf 8387 3e3e e62f 31be
00000090: a658 f9bd 3180 1ebe 84e4 213d 3ffc 393d
000000a0: ca11 ad3f 182a 913f a1c1 d6bd c07a ccbe
000000b0: 1714 46bf ce05 e4bd ae2d 2ebd c41e 38bc
000000c0: e0e8 1c3e c653 ac3f 3aec 59bf 9c9f ecbd
000000d0: e9c0 5fbf dace 8ebd f4ab 5d3f 2a36 debd
000000e0: 94b1 a6bd 3dea bb3f b1e5 8b3f 010f 49bd
000000f0: feb8 d83d 0ed3 c03f 58ee 60bf 1503 2fbc
00000100: 7bdf 063e 6532 91bd 818f ddbc 84a8 c1bb
00000110: e31b aebf 7733 04be 6da1 58be 3ee4 5fbe
00000120: e665 c83f fa34 db3f e7f2 293e
0.04216336 -0.059797574 1.4991004 -1.25198 1.4236426 1.296322 -0.05870056 0.19105001
0.6394691 -0.07254548 0.17886294 0.05572112 1.4767092 -0.095288925 0.016072694 -0.85612833
-0.18022323 -0.13624653 0.29985934 -0.5241852 0.100232534 -0.884776 -0.40544683 0.22991827
0.28255245 0.1364842 -1.0536913 -0.06785483 -0.01627483 -0.1302543 1.0814315 -0.13831134
-0.08969523 -0.5880058 0.18606381 -0.17303428 -0.121751115 -0.15478589 0.03952457 0.045406576
1.3521054 1.1340971 -0.104861505 -0.399374 -0.77374405 -0.1113392 -0.042524032 -0.011237804
0.1532321 1.3463066 -0.8512608 -0.115538806 -0.8740373 -0.069730476 0.86590505 -0.10850175
-0.08139339 1.4680859 1.0929471 -0.049086574 0.105821595 1.5064409 -0.87863684 -0.010681887
0.13171189 -0.0708969 -0.027045967 -0.005909981 -1.360226 -0.12910257 -0.21155329 -0.21864411
1.5656097 1.7125542 0.16596566

model/hidden_layers/0/W f4 [75, 20]
00000000: e655 bfbd 3f23 4ebc 4337 f5be f613 f13e
00000010: d5b1 cdbe e9ec 45be fb4a e63d b8a1 90be
00000020: b8e8 5fbe dcbd 52be b6ec f83d b136 033f
00000030: 5058 ac3b 2cee e3bd 69f0 ee3d 50a3 0abe
00000040: 062c 8cbb 8c75 843e 00c1 49be 2bff 92b9
00000050: 42ee 48be ec46 0fbd bffd 6a3d 0230 9e3d
00000060: 06ab 9cbd 307b 64bd 8a01 12be 3ef7 87be
00000070: 2f77 a1be efbb 13bd 09d0 77bd 3776 ff3e
00000080: cd5f 0bbf ccc5 9f3c 42b4 a23d 8005 9b3e
00000090: e9d2 e53d 6d4d 41be 3b29 efbd b79b f23d
000000a0: 7526 7eba 7696 103e 1268 b4be eefd ad3e
000000b0: e280 5e3e 60e4 ffbc db66 0b3e 1873 babc
000000c0: c9db 83be eac4 933d 0b1d 983e 9fad afbd
000000d0: 0d9e f0bd 902f 13bd 2eb8 fb3d 0c25 ba3e
000000e0: 54e7 11be 653c a43d 6a86 9ebc f7d7 c7be
000000f0: e9a8 35be 5b69 82bc c8e7 eebb 3cc8 b03d
00000100: 68fb c9be bd68 a3bd 8e41 1abe 9f56 7dbe
00000110: 5082 0f3e c0aa 293e 73d1 82be 49d0 413e
00000120: 4cb7 31bc 617b 713c 0d0b 63be 17de 7d3e
00000130: de01 18bf b33c 5d3d 2f2c 343e c851 dcbe
00000140: ae0b 8b3b dde2 0abd 801f 5b3e 8b9e 183e
00000150: e853 18be 4f43 88be b7eb 9b3e 228a 783e
00000160: 46c2 80be 23b7 e13d ed3e 163e 6671 003e
00000170: 9b7a 833c df1e 543e 9487 bebe 2c28 983e
00000180: 41cc ab3d 9715 a0bd 6a64 e03d 19fc 01bf
00000190: f401 9c3e d3c2 883d 7606 59be e9fb 6c3b
000001a0: 09c6 12be e718 183f a1c0 d13e 2e99 873d
000001b0: 3a59 8abe 85aa 45bd 489a 11bd 2004 01be
000001c0: c9b2 6fbe 3d13 52be 8eef 043b dee9 98bd
000001d0: 23b2 20be 85cc 75be a15d ef3e a287 88be
000001e0: d7d1 67be a203 c63d f473 8cbd 26fb a1bd
000001f0: 1517 363e bbbf 913e 0f2e 2c3e b5b8 5cbe
00000200: 5b58 993d 2426 c7be 315c bbbc 2223 e4bd
00000210: 4912 6cbe ab1f 5c3b 886e 12bd 531d 6c3e
00000220: f9b8 a9be 2e9b 483e 2008 15bd e9aa 073d
00000230: 7406 a4be 2899 66bd a459 b3be 8835 14bf
00000240: 7cd4 3b3f c40f 5c3e 5f3a cd3e 4692 cdbd
00000250: 67df 9c3e cfa6 273e 6136 053e 5082 563a
00000260: 4043 63bd c907 e9be 3ea3 0d3e 84b6 bd3d
00000270: 5ef7 7f3e c4b1 86bd 5f4a 0a3f 2e99 bcbd
00000280: b9a8 6dbe 7346 5b3e 6169 cbbd 74ba fcbe
00000290: f089 53bb ade7 553e 0b22 5d3d 0de2 c53d
000002a0: d652 343f 0292 263e c783 ca3e 575a e3be
000002b0: b943 893d 3754 63bc dfc1 03be 079e 12be
000002c0: ca95 b53d 4dfd adbd ce69 b2be 9133 583e
000002d0: d5d4 993e 8f96 8a3d 13c5 ccbd b9ca c1b8
000002e0: 0e9c 3e3e 2df8 133e 0f64 a6be 71db 98bd
000002f0: 0790 603c 4351 103e 87b0 5f3e 88a5 2d3e
00000300: 7061 81be 46f9 25be efb1 8abe 5073 d03e
00000310: 753c 253d b041 ff3d 3495 c13d bc44 92bd
00000320: 7086 83be 1753 c3bd b397 ecbc 4b10 ca3e
00000330: 7db4 453e f7a0 7fbe c916 183e e29d 2c3e
00000340: cfb3 d3be 0eba eebc f64f d4be 8f58 973d
00000350: 12e0 87bd c183 a6be bace 27be 5380 5e3d
00000360: ad38 fdbd dbdc 913d fdc6 6e3e c90a 43be
00000370: cceb 8ebd 7e89 f53e f1d6 dd3c 7f6c 3d3e
00000380: 16e1 573c e95b 99be 31af 813e 7494 a93d
00000390: 9b2d bd3e 8a9f 4e3e d6eb ae3d 9c5d 5f3e
000003a0: 0776 2f3d 22e5 b7bd 6dec 6fbe e51b d2bd
000003b0: b96b 0fbf 530d d13e 5c34 24bf f20e 9cbc
000003c0: 86d4 5abe 320f f8be fa1e 2f3d ba34 e1bd
000003d0: b8a1 1cbe 4701 373e 5779 0ebe cf21 393d
000003e0: 7bfc 853d 6273 04bd 64ef c43c fbcd f43d
000003f0: 01bc dabc 15c5 cc3c e334 04bf e8fe d63d
-0.09342556 -0.0125816455 -0.47893724 0.4708554 -0.40174738 -0.19328655 0.1124477 -0.28248382
-0.21866119 -0.20580238 0.12154524 0.5125533 0.005259551 -0.11129412 0.11666948 -0.13538861
-0.004277709 0.2587093 -0.1970253 -0.00028037405 -0.19622138 -0.034979746 0.057370897 0.077240005
-0.07649808 -0.055781543 -0.142584 -0.26555818 -0.31536242 -0.0360679 -0.060501132 0.49894878
-0.54443055 0.019503497 0.07944538 0.30277634 0.112218685 -0.18877192 -0.11677786 0.118461065
-0.00096950616 0.14119896 -0.3523565 0.33982795 0.21728852 -0.031236827 0.13613455 -0.02275996
-0.2575362 0.07215293 0.29709658 -0.085780375 -0.11748896 -0.03593403 0.12290989 0.3635639
-0.14248401 0.08019332 -0.019351203 -0.39031956 -0.17740215 -0.015919378 -0.007290814 0.08631942
-0.3944962 -0.079789616 -0.1506407 -0.24740075 0.14014554 0.16569042 -0.25550422 0.1892711
-0.010846924 0.0147388885 -0.22172184 0.24791752 -0.5937785 0.054012965 0.1759498 -0.43031144
0.0042433357 -0.03390776 0.21398735 0.1490423 -0.14875758 -0.26613852 0.30453274 0.24271443
-0.2514822 0.11021259 0.14672442 0.12543258 0.016049674 0.20714901 -0.37212813 0.2971815
0.08388568 -0.07816618 0.109566525 -0.50775295 0.3047024 0.06677785 -0.21193871 0.0036160892
-0.14333357 0.59413 0.40967277 0.066210136 -0.270212 -0.048258323 -0.035547525 -0.1259923
-0.23408045 -0.20515151 0.0020284387 -0.074664816 -0.15692954 -0.240038 0.4675112 -0.2666598
-0.22638641 0.09668662 -0.06858054 -0.07909231 0.17782243 0.2846659 0.16814445 -0.21554835
0.074875556 -0.38896286 -0.022871109 -0.111395136 -0.2305385 0.0033588212 -0.035749942 0.23058061
-0.33148935 0.19590446 -0.0363847 0.033121977 -0.32036173 -0.056298405 -0.35029328 -0.5789418
0.733711 0.21490389 0.40083596 -0.10037665 0.30639192 0.16372226 0.13009025 0.000818287
-0.055484056 -0.45513752 0.13831803 0.09263328 0.24996707 -0.06576875 0.5401973 -0.09208904
-0.23208894 0.21413593 -0.09932209 -0.49361002 -0.0032278262 0.20889159 0.053987544 0.096622564
0.704389 0.16266635 0.39553663 -0.4440486 0.0670237 -0.013875059 -0.12866925 -0.14318095
0.088664606 -0.08495579 -0.34846348 0.21113421 0.3004519 0.06766998 -0.099985264 -9.240717e-05
0.18614218 0.1445014 -0.32498214 -0.0746373 0.013706214 0.14093499 0.21844684 0.16957676
-0.2526965 -0.16208372 -0.27088878 0.40712976 0.04034086 0.12463701 0.09452286 -0.07142016
-0.25688505 -0.095373325 -0.02888093 0.39465556 0.19307132 -0.24963747 0.14852442 0.16857103
-0.4134812 -0.029141452 -0.41467255 0.07389938 -0.06634535 -0.32522395 -0.16387454 0.0543216
-0.12364326 0.07122203 0.23318096 -0.19047083 -0.069785684 0.4795646 0.027080031 0.18498419
0.013176223 -0.29952934 0.25328973 0.08280268 0.36948857 0.20178047 0.08541076 0.21813053
0.04283717 -0.089792505 -0.23430033 -0.10259227 -0.56023747 0.40830478 -0.64142394 -0.019050095
-0.21370134 -0.48449093 0.04275415 -0.10996385 -0.15296066 0.17871581 -0.13913475 0.045198258
0.065422975 -0.0323366 0.024039932 0.1195335 -0.026700975 0.02499632 -0.516432 0.10497838

model/hidden_layers/1/b f4 [75]
00000000: c0e3 5bbb 2328 a23f 5faa 933f af76 463f
00000010: 560e 0abe 1803 9a3f 4d8b 81bf 5160 0cbe
00000020: a371 263e e2c2 593d 7ef4 f23c 6b31 3dbb
00000030: 5d8c a73f c5ed fbbc c0fe 5dbd efeb a8be
00000040: a794 3fbb aeb0 863f 62b7 be3c da89 ee3d
00000050: 3266 123f 9681 2f3f 428b aabb 9153 e0bb
00000060: 18f5 90bf 4c4f 4bbe 0000 0000 f100 e1bc
00000070: eddd c83c 4071 7e3f a4a2 0bbb 0386 f8bb
00000080: daad 8e3f a26a b6ba 4183 fd3d 42bf 0d3e
00000090: 7573 163e ecb8 133f 1fd6 5cbc 749c b13f
000000a0: 47b2 bc3f d3e5 bd3d 510e debc b4db 963f
000000b0: d7a2 bcbc ec73 3b3d ec11 bd3c 9f45 bf3f
000000c0: f6bf 663f a449 c03a 6bee 863f e479 4d3f
000000d0: dac2 663b 2ae2 a6ba 79c8 da3c 3ad7 9d3c
000000e0: 73fa 38bc 70da f6be b7cf 823f 3ec8 a73f
000000f0: f3bd 893f 84b6 ecbc 6347 80be e50d b7bc
00000100: 3405 f8bc 2868 65bf 8a88 44be 4a31 91be
00000110: 752a d13f 0f42 603d b2d6 b83f 023a cd3f
00000120: f982 543f 789d 8a3d fec9 dbbe
-0.0033552498 1.2668499 1.1536368 0.77524847 -0.13482031 1.2032194 -1.0120636 -0.13708617
0.16254286 0.05316437 0.029657599 -0.0028868567 1.308971 -0.030753026 -0.054198027 -0.32992503
-0.002923289 1.0522668 0.023280803 0.11647387 0.5718719 0.6855711 -0.005204589 -0.0068458994
-1.1324797 -0.19854468 0.0 -0.02746627 0.024519885 0.99391556 -0.0021306658 -0.007584335
1.1146805 -0.0013917277 0.1237855 0.1384249 0.14692481 0.57704043 -0.013478785 1.3875871
1.4741906 0.09272351 -0.027106436 1.1785798 -0.023026867 0.04576485 0.023079835 1.4943122
0.9013666 0.0014670384 1.0541509 0.80264115 0.0035211355 -0.0012732197 0.026706921 0.019267667
-0.0112901805 -0.4821353 1.021964 1.3107984 1.0761093 -0.028895624 -0.25054464 -0.022345493
-0.030275919 -0.89612055 -0.1919271 -0.28357917 1.6341082 0.0547505 1.444052 1.6033328
0.8301235 0.06768316 -0.42927545

model/hidden_layers/1/W f4 [75, 75]
00000000: 321e 733d 9f95 b9ba 9a81 863d 458a 683d
00000010: 97d7 22be cdce bcbd 89b8 f4bd f38d a73d
00000020: b2e0 cdbc 5976 83bd be69 24be ce41 df3c
00000030: de77 cabc 666f b3ba 46d7 62bd d019 4ebe
00000040: 4498 053e 6bc8 5ebc ff68 793c 4745 cbbd
00000050: d9fa 0e3e c12c dfbd daf9 8abd f819 edbd
00000060: 4095 10be 1fc1 983d 56da 89bd 1226 08be
00000070: 2772 06bd 9d07 43bd a02d 32bc ab14 a5bd
00000080: 078a 5a3c 2b2e 51be 935b f3bd 0009 8b3d
00000090: 7e31 a93d a8c9 5fbe 85aa ee3c bacd 94bc
000000a0: 8954 af3d bd07 0cbe 5e38 fa3c 63a7 ab3d
000000b0: b85a 2ebe 415a b6bd 2f13 c23d e50b 20bd
000000c0: 9ef3 b73d c7e9 31bd d2ac 31be 0e9e 7fb9
000000d0: 93b7 02bc 91d8 9bbd bf3b d33d 4730 27be
000000e0: 7e21 94bc 1ba0 68bd 2efa dfbd 4147 37be
000000f0: 59c3 7abe cca5 21be 689d 79bd 93d3 9fbd
00000100: b101 efbc 5e55 1bbd 0dfa 84bd 7f13 5f3c
00000110: 72db d73c 17af 3bbe acea 903c cbfd 4cbe
00000120: 97de 6c3e 83e5 06be 14fa 64bd 689d 023e
00000130: c722 8d3c 34be d43e 7117 963d 1f66 9a3d
00000140: 24b0 b93e 4e7a bebd 9347 643d 4f5e 3c3d
00000150: b017 85be e074 e3ba 86ed 043d 1fa5 cd3e
00000160: 609a a1bd 720c c33d 4d10 eabd c825 af3d
00000170: 8e79 f83d bd3a 2d3d 7804 3abd 693b 4c3c
00000180: 8bd7 7fbd 9917 a8bd 238b 523e c4eb da3d
00000190: 8666 ba3d 1a32 6cbe 6895 68bc b4c0 0c3e
000001a0: 7fe8 d23c 7fd1 873d 758c e93c 1f15 c13d
000001b0: 92a4 32bd 0373 26be 8bd1 d5bd bf62 453c
000001c0: 6d33 31be 3bbb eb3c 008e 963d f9ee c13e
000001d0: f54f b53e dbf0 743d bf3c 60be cc48 973c
000001e0: 47c8 3dbe 9e67 1cbe 441e 063e 4462 51bd
000001f0: 4cdc 2b3e c5f0 543c 853e e33d 477c 04bd
00000200: 0fb9 0dbd 1179 423e bcf0 9b3d 4dbd 193d
00000210: 00b3 b93e 509c 6b3e 9fb1 9abc 503a ea3d
00000220: fb3b ae3e 78ba 37be 6e52 40be 3ce9 45bd
00000230: 656f 7d3e 93b8 043e 4733 6b3a e6dd 34be
00000240: 5e31 99bd f2d4 4ebd 60e9 f73d 72d3 9e3e
00000250: c61b 993e e8ad bd3c cf86 97bd 7138 0a3e
00000260: 8dcd a43e c8d3 8bbd 9981 0e3e 758b 5abd
00000270: 149d 353d 2c10 363e ff4c bebc e29a b43d
00000280: 396e 823d 4989 a53d de0e d53e 9e81 f1bc
00000290: 0cba bb3d 2cb3 993c 02ca 40bd a608 44bc
000002a0: ee69 803c 3f0f 103d 6784 5a3e 697d 433d
000002b0: d312 0d3e 6032 853d 1c12 21bd e07c 423e
000002c0: 1dc8 e7bc c52c f23d da3c e33d 17cf 063e
000002d0: 1a3b 2e3e eb98 82be de88 e33d b5f4 ec3c
000002e0: 567a 4e3e ca64 f13d 7aca 623d fcd7 ca3d
000002f0: ca84 dfbd df85 b23c f825 833e 888f ac3e
00000300: 20d8 93bd e3e8 33be 9d8b 31bd dff2 943b
00000310: f6ca 253c e137 4a3e c652 3d3e 0686 213d
00000320: 3333 b13d a416 d1bc 9f8e b73d a89a adbd
00000330: c77c 4e3e 8d85 bcbc 0c81 ddbc 984e 853e
00000340: f30f 803e 35ec c73c d748 c03d ab14 ed3e
00000350: 4fe8 a8bd a73c 723e ee42 1f3e d2f4 b33d
00000360: 3401 cabc 0b67 3c3c becb 01be d23d e33d
00000370: ebd1 c5bc d9b1 913b cc7d a93e 6ea0 f13e
00000380: c09d a23e e85f ab3d 8c2c 82be 1cab 68bd
00000390: 7cf5 00bd 3f84 cdbd 0fe2 e13d 9890 7f3d
000003a0: 50b9 093e 998b 4e3e 90fd 58bd 8b4b a73d
000003b0: 019b c0bc 7b04 8e3d 05d7 a5bd 691d 303e
000003c0: 7004 323e 8aa6 04be a09d 003e 3e5e 753d
000003d0: f2c5 9a3d ee6b 9abd dd30 423c 68cf bcbb
000003e0: b745 a4bd 2812 89bc 874b adbc 0e2a e6bc
000003f0: 3fe8 3c3e 124d 463e f0ec 4c3e f9c6 1f3e
0.05935497 -0.001415897 0.06567688 0.05677249 -0.15902553 -0.092191316 -0.1194926 0.081813715
-0.025131557 -0.064190574 -0.16055962 0.027253058 -0.02471536 -0.0013689816 -0.055381082 -0.20127034
0.13046366 -0.013597588 0.015222787 -0.09925323 0.13962878 -0.10897208 -0.06785937 -0.11577219
-0.14119434 0.0745871 -0.067310974 -0.13295773 -0.032823708 -0.047614682 -0.010875136 -0.08060583
0.013338572 -0.20427768 -0.11882701 0.06788826 0.08261393 -0.2185427 0.029134044 -0.018164504
0.08561046 -0.13674827 0.030544456 0.08381536 -0.17026794 -0.08903933 0.09476315 -0.039073844
0.08982013 -0.043435838 -0.17351082 -0.00024377575 -0.007978338 -0.07609666 0.1031413 -0.1632701
-0.018082377 -0.056793313 -0.1093639 -0.17898275 -0.24488582 -0.15785903 -0.06094113 -0.078040265
-0.029175611 -0.03792321 -0.06493006 0.013615488 0.026349757 -0.1832851 0.017690025 -0.2001869
0.23131786 -0.1317349 -0.055902556 0.12755358 0.017228497 0.41551363 0.0732869 0.07539009
0.36267197 -0.093006715 0.05573232 0.045988377 -0.25994635 -0.0017353557 0.032453083 0.4016504
-0.07890773 0.09523858 -0.114288904 0.08552128 0.1213256 0.042292345 -0.045414418 0.012465336
-0.062461417 -0.08207626 0.20560889 0.106895 0.09101586 -0.23065987 -0.0141957775 0.13745385
0.025745628 0.06631755 0.028509358 0.09427857 -0.043613978 -0.16254811 -0.10440358 0.012047469
-0.17304774 0.028775802 0.07351303 0.37877634 0.35412565 0.05980001 -0.21898173 0.01846733
-0.18533431 -0.15273902 0.13097483 -0.051119104 0.16783255 0.012996857 0.11095909 -0.032345083
-0.034600314 0.18991496 0.07614276 0.037534047 0.3626938 0.23008847 -0.018883524 0.114369035
0.34030136 -0.17942226 -0.18781444 -0.048318133 0.24749525 0.12961034 0.00089721795 -0.17662773
-0.07480119 -0.05049605 0.121050596 0.31020695 0.29904002 0.023154214 -0.073987596 0.13498093
0.32188073 -0.068275034 0.13916625 -0.053355653 0.044339254 0.17779607 -0.023230074 0.08818604
0.063686796 0.08082826 0.41612905 -0.029480752 0.09166345 0.018762194 -0.04706765 -0.011964953
0.015675511 0.03517079 0.2133957 0.047727022 0.13776712 0.06503749 -0.03932391 0.18992949
-0.028293664 0.11824945 0.11095591 0.13164936 0.17014733 -0.25507292 0.1111009 0.02892528
0.20163855 0.11786802 0.055368878 0.09904477 -0.109139994 0.02179235 0.25614905 0.33703256
-0.07218957 -0.17569308 -0.043346036 0.004545554 0.01011919 0.19747879 0.18488607 0.039434455
0.086523436 -0.025523491 0.0896275 -0.08476764 0.20164786 -0.0230129 -0.027039073 0.26036525
0.25012168 0.024404624 0.09388893 0.4630483 -0.08247434 0.2365595 0.15552875 0.0878693
-0.024658777 0.011499177 -0.12675378 0.11095776 -0.024147948 0.00444625 0.33103788 0.4719271
0.3176098 0.08367902 -0.25424612 -0.056803808 -0.031484112 -0.100349896 0.110294454 0.062393755
0.13449597 0.2017044 -0.05297619 0.081687056 -0.023511412 0.06934448 -0.08097652 0.17198719
0.17384505 -0.12954155 0.12560129 0.05990433 0.07557286 -0.07540117 0.01185247 -0.0057620294
-0.080211096 -0.01673229 -0.021154178 -0.028096225 0.1844797 0.19365337 0.2001226 0.15603246
