experiments/childsnack/childsnack_full_train_set_2-75-5/best/model.npz (npz, 29668 bytes, 6 tensors)

model/output/b f4 [4]
000000 87 68 9d bf d0 e2 9e bf f3 50 99 bf 66 06 9b bf
       -1.2297524 -1.2412968 -1.1977829 -1.2111328

model/output/W f4 [4, 75]
000000 c2 0d 94 3d b4 41 e8 be ff 26 88 bd 90 02 f0 be
       0.072291866 -0.45362628 -0.06648063 -0.46876955
000010 58 09 eb be 50 ea fd bd 6f ba 10 be 58 6a e0 be
       -0.45905566 -0.12398207 -0.14133619 -0.43831134
000020 0a e2 d5 3e 5c d3 01 be 9d 08 27 bd c9 01 40 3d
       0.41774017 -0.12678283 -0.0407797 0.046876702
000030 27 1a 6e be e6 2d b2 3d 2e 59 2f bd 3d 1c 8b bd
       -0.23252164 0.08700161 -0.042809658 -0.067924954
000040 83 c7 69 bd 92 d2 a7 be 7f c2 57 3e 87 69 8a 3e
       -0.057075035 -0.3277784 0.21070288 0.27033636
000050 a2 15 a2 bb 9b 3e 66 bc 67 7b 4f bd ac 53 08 3d
       -0.0049464265 -0.014053012 -0.050654795 0.03328292
000060 dd c5 82 be c8 e3 68 bf 9e 3b f6 be 78 0c 17 3e
       -0.25541583 -0.90972567 -0.4809236 0.1475085
000070 d6 3a ab be f5 56 9f be 84 d6 6a bc 6b b9 db 3d
       -0.33443326 -0.3112103 -0.014333371 0.10728725
000080 90 00 05 bf ea f3 05 bf e1 a4 09 bf c7 f2 ae be
       -0.51953983 -0.5232531 -0.5376721 -0.341696
000090 8a 83 1e bf bd 1d fb bc 70 8e c0 be bc 85 62 be
       -0.6191946 -0.030653829 -0.3760867 -0.22121328
0000a0 98 20 e0 3d 27 06 69 3d 3e 68 88 3d 3f d6 e3 be
       0.10943717 0.056890633 0.066605076 -0.44499394
0000b0 38 eb b1 3d 24 d6 01 be 40 89 a9 bd 2e 96 e4 ba
       0.086874425 -0.12679344 -0.082781315 -0.0017439777
0000c0 4a 54 21 bd 4e 19 43 3d 72 8d 76 bd df 2c bd 3d
       -0.039387025 0.047631554 -0.060193487 0.09237074
0000d0 18 1a c9 be 81 c4 bc ba 63 ff 15 be 4a 31 3a 3e
       -0.3927772 -0.0014401824 -0.14648204 0.18182865
0000e0 49 f7 8a bd c0 2e 64 3d 0e c1 9e 3d b3 93 94 bd
       -0.06785447 0.055708647 0.07751666 -0.07254734
0000f0 ee fd c2 be bb 24 04 bf 8c fd 1c bd 31 2d 03 be
       -0.38084358 -0.51618546 -0.03832774 -0.12810208
000100 5c 7a 9d bc 91 14 37 3e 5a 2e 88 3e 1a 5a 69 be
       -0.019223385 0.17878939 0.26597863 -0.22788277
000110 23 47 22 3c a1 2e 9f 3d a0 0e 2c bf 27 40 e9 bd
       0.009904656 0.07772566 -0.67209816 -0.11389189
000120 b0 61 9e 3e 17 34 bc be 15 e5 ec 3c b9 03 61 bd
       0.30933905 -0.3675849 0.028917829 -0.05493519
000130 df 07 0c bf 49 1a 1a 3d 68 99 ea be ea a1 ee be
       -0.5469951 0.037622724 -0.45820165 -0.46607906
000140 ba 26 17 bd 1a 24 59 be 42 4c 05 bf fc cf c0 3e
       -0.036902167 -0.21205178 -0.52069485 0.3765868
000150 1f bc 29 bd 46 cd 0a 3d 7a 48 f8 3d 0f a7 56 3d
       -0.041439172 0.03388717 0.12123199 0.052405413
000160 59 e0 69 bd 6e ad ef bc e1 a3 2c 3e 63 a9 5b bd
       -0.05709872 -0.029257502 0.1685939 -0.053628337
000170 ad c2 ee be a3 cd eb bb c0 dd 49 3e a8 f0 9d 3a
       -0.466329 -0.0071961447 0.19713497 0.001204987
000180 94 f5 4c 3d 4d 15 0b be 1a 70 58 bd 8c fd 81 be
       0.05003889 -0.13582344 -0.052841283 -0.25388753
000190 3f b3 60 bf ee 5b b9 be 1c 5d 15 3e 33 40 a1 be
       -0.8777351 -0.3620295 0.145863 -0.31494293
0001a0 5f 5b a0 be b9 bf 94 3d c2 fa 32 3d 29 eb da be
       -0.3131971 0.07263131 0.043696173 -0.42757538
0001b0 a4 c7 26 bf f8 f5 10 bf a9 01 b7 be 39 04 03 bf
       -0.6514838 -0.5662532 -0.35743454 -0.5117832
0001c0 69 63 0c 3c 2d b1 b7 be dd 81 4d be f1 26 ca bc
       0.008568623 -0.35877362 -0.2006907 -0.024676772
0001d0 8d 01 67 3b 32 37 30 3e 4d b3 c7 be a2 74 83 3d
       0.0035248727 0.17208555 -0.39003983 0.0641873
0001e0 2d 03 38 3d 60 cf d6 bd 7a 56 ad 3d da 92 88 bd
       0.044924904 -0.104887724 0.0846376 -0.06668635
0001f0 62 cf d2 3d f8 b4 78 3c 39 78 3b 3e 76 b4 dd be
       0.102934614 0.015179865 0.1830758 -0.43301743
000200 c9 33 5a be 1a 22 af 3d 91 fd 0c 3e 67 90 3d be
       -0.21308817 0.08551426 0.13768603 -0.18512116
000210 8e f6 a8 bd d0 87 ef 3d 64 c4 a2 bc da 49 f0 be
       -0.082501516 0.11695826 -0.019869037 -0.46931344
000220 85 86 f8 be 57 e9 cf bd 16 47 1d be 0a 3b 89 bc
       -0.4854013 -0.10151928 -0.15359148 -0.016751785
000230 f6 01 c3 3d a7 3a 63 3e 25 ba e3 bd 52 6b b4 3c
       0.095218584 0.22190343 -0.111194886 0.02202383
000240 bd e9 ef bd 5b a7 2f bf 9c a3 e1 bd c6 84 5e 3e
       -0.11714504 -0.6861474 -0.11017534 0.21730337
000250 83 07 87 be 9a f8 a2 3d 00 8a b0 bc 1e b0 ed be
       -0.26372918 0.07957573 -0.021550179 -0.4642343
000260 2f 62 8b 3c 09 ea fa be e9 09 dd be 0d c9 01 be
       0.017014591 -0.4900668 -0.43171623 -0.12674351
000270 e6 ca 77 3a cd 4e 05 bf e2 66 00 3f 0e 03 09 be
       0.00094525365 -0.52073365 0.50156987 -0.13380072
000280 79 83 74 3d cb 95 d6 bd 7b f8 0c 3e 3b 77 b9 3d
       0.059695695 -0.104777895 0.13766663 0.090559445
000290 3a 48 2f be be e9 0e be 0c f4 5d 3d ac 9b d5 be
       -0.17117396 -0.13956353 0.05418782 -0.4172033
0002a0 6b c9 dd bd 49 80 a0 3e 5c ed 5c be d9 7f 95 3d
       -0.10829433 0.31347874 -0.2157492 0.07299776
0002b0 5e 55 31 3e da 2f 67 bd da a9 b1 be dc fb 56 bf
       0.17317721 -0.05644212 -0.346999 -0.83978057
0002c0 ab 6b cb be 0b ac 0a 3e 8e 0b b1 be 69 be 9c be
       -0.39730582 0.13542192 -0.34579128 -0.3061402
0002d0 0b 87 3f bd 31 31 8b bd 8b c7 0b bf 36 15 f6 be
       -0.046759646 -0.06796492 -0.54601353 -0.48063058
0002e0 7d e9 17 bf 98 d1 9a be 33 5f 04 bf be 22 e6 3d
       -0.5934065 -0.30238032 -0.5170776 0.11237095
0002f0 12 ff da be 13 04 1b be aa 6a 09 bd 22 55 8f bd
       -0.42772728 -0.15138273 -0.03354899 -0.0699866
000300 41 4c e3 3d 04 65 ae be 85 65 cd 3c b6 ca b8 3d
       0.11098529 -0.34061444 0.025072822 0.09023039
000310 91 c5 dc bd 96 51 07 be af 7d 2e be 64 43 05 3e
       -0.1077987 -0.13214716 -0.17040132 0.13013989
000320 74 ee be bd 5c ac 4b 3d 7e 5e e1 be 14 d7 b9 bd
       -0.09322825 0.04972492 -0.44017404 -0.09074226
000330 e0 76 94 3d 2b a9 22 3e 2e 7b e9 bd 7b 50 ce 3a
       0.07249236 0.15884845 -0.11400448 0.0015740538
000340 01 f7 13 3c 4a f5 92 bc 11 47 f4 be ec ff ef be
       0.009031058 -0.017939229 -0.4771047 -0.4687494
000350 97 27 3f be e4 0f cb bd 5b 03 2c 3d 35 96 cd 3d
       -0.18667446 -0.0991514 0.041995388 0.10038415
000360 70 2a ae 3e f0 32 77 be 29 8e 84 3d 60 7d 05 3c
       0.34016752 -0.24140525 0.064724274 0.0081475675
000370 95 f9 3b bf 4b 03 a8 bd 0b 6e 89 3e ec 57 cc be
       -0.73427707 -0.08203753 0.2684177 -0.3991083
000380 b3 40 0e 3d 1a 77 ac bd 56 f9 03 bf 83 82 08 3e
       0.03472967 -0.08421154 -0.5155233 0.13331036
000390 a1 07 e8 be c8 e6 f8 be 7e 6e f9 bd 22 c5 fe bd
       -0.4531832 -0.48613572 -0.12179278 -0.12439944
0003a0 9f 07 b5 be 25 29 b2 3e a2 0a 43 bc f2 3e 95 bd
       -0.35357377 0.34797016 -0.0119043905 -0.072873965
0003b0 04 a8 ea 3d b5 10 c7 bd ef ab d2 bc 06 01 df 3d
       0.11457828 -0.097199835 -0.02571675 0.10888867
0003c0 42 52 17 3b eb e4 84 3d 1d 51 aa be 38 55 8b 3d
       0.00230898 0.06488975 -0.3326501 0.068033636
0003d0 cd cb a2 3e 63 17 e4 bd e6 4b d7 3c 36 a4 4f 3d
       0.31796113 -0.11137273 0.026281308 0.050693713
0003e0 dc 43 df 3c 74 57 b5 be 6b d8 58 bf 09 1a e3 be
       0.027254038 -0.35418284 -0.8470523 -0.443558
0003f0 5e 74 21 3d 5a b3 95 be 93 7d a0 be a4 0e 1f 3d
       0.039417617 -0.29238397 -0.31345806 0.03883232

model/hidden_layers/0/b f4 [75]
000000 27 b2 2d 3d 67 a5 6e bd c5 2f c4 bd 8e 2c 42 bd
       0.042406227 -0.05826321 -0.09579424 -0.047405772
000010 83 4d f9 bb 24 31 ad bc a8 19 02 be 14 68 fd bd
       -0.007608117 -0.021141596 -0.127051 -0.12373367
000020 2f 4b 98 3f ea 7d a0 3f 97 c1 2b be 31 5e b0 3f
       1.1897944 1.2538426 -0.16773067 1.3778745
000030 a8 f4 da bd 34 62 9b bd e0 28 3d 3d d3 0b de bd
       -0.10691196 -0.0758709 0.04618156 -0.10842099
000040 a4 9e b3 3f 26 21 e8 3d 39 29 56 bd 53 8c e2 bd
       1.4032788 0.113344476 -0.052285407 -0.11061921
000050 f3 e9 d0 bd 6e d6 a6 3f 28 96 d8 3f 08 2f 43 be
       -0.10200872 1.3034189 1.6920824 -0.1906091
000060 13 76 d3 3f 8e 08 6f bd 51 88 20 bf 01 7f 66 be
       1.6520408 -0.058357768 -0.62708 -0.22509386
000070 11 2b 99 3f 68 69 34 bd ef 12 a9 bd ce db 92 3f
       1.1966268 -0.044045836 -0.082555644 1.1473329
000080 e6 70 a4 3d 1c aa a7 bd 7f 38 db bd d4 01 7f bf
       0.08029346 -0.08186743 -0.10704135 -0.99612164
000090 ac 3e a7 3f 87 77 3d bd ed 94 6a be 20 ef 86 bf
       1.3066001 -0.04625657 -0.22908373 -1.0541725
0000a0 0f f1 06 bd f7 76 49 ba e7 c5 4a be 10 85 27 3d
       -0.032944735 -0.00076852686 -0.19802056 0.040898383
0000b0 2c 69 43 3d 26 66 cb bd 95 51 b2 3f 3b 87 a2 3f
       0.04770772 -0.09931593 1.3931147 1.2697519
0000c0 8f df 15 be 47 a1 75 bf 18 d4 83 bf 0d 6e 8e bf
       -0.14636062 -0.95949215 -1.0299101 -1.1127335
0000d0 0a a0 72 bf 28 97 d2 bd 7f 03 88 bd cd d0 71 be
       -0.9477545 -0.10282737 -0.06641292 -0.23614807
0000e0 96 ab 71 3e 54 f2 84 3f ea b5 2b 3c f4 d4 19 bf
       0.23600611 1.0386453 0.010480383 -0.60090566
0000f0 9f ad 7f 3d 2f 1c 1b be 2c 6e 8f bd cf ec 55 3f
       0.062421437 -0.1514747 -0.070034355 0.83564466
000100 7a f9 b7 3f 85 b5 a2 3f 2d 32 b8 bf d6 23 e8 bd
       1.4373009 1.2711645 -1.4390312 -0.1133496
000110 3c 02 c5 bd 94 f0 98 3e 3f a5 c5 3d 93 43 63 3f
       -0.09619567 0.29871047 0.09650659 0.88774985
000120 bc 80 a5 be 4c 04 f7 b9 c9 45 d7 be
       -0.3232478 -0.00047114713 -0.4204543

model/hidden_layers/0/W f4 [75, 20]
000000 16 ea c9 3d 5a 85 97 bd 3d 25 0b 3f 54 c9 6d 3d
       0.098591015 -0.07398482 0.54353696 0.05805333
000010 ed a0 c8 3c ef 2b b5 3e a4 30 50 be 13 78 07 be
       0.024490798 0.3538508 -0.20331055 -0.13229398
000020 8b 4b ac 3d 1e 50 99 bd 9c 91 88 be 22 a5 3b bd
       0.08412846 -0.07485984 -0.2667359 -0.04581178
000030 15 53 a4 bd bf 5e 35 3e d6 60 bf be 40 ed 20 be
       -0.08023659 0.17711924 -0.37378567 -0.15715504
000040 a6 d1 83 3e c1 a3 d4 3e f8 53 d3 be 38 27 11 3e
       0.25745887 0.41531184 -0.41275 0.14175117
000050 cb 8d 60 be 51 32 44 be 19 a3 47 be 14 a2 40 bd
       -0.2192909 -0.19159819 -0.1949581 -0.04702957
000060 ba 0f 64 3e 43 1e 23 3e e6 ad 58 3c 85 60 a6 bd
       0.22271624 0.15929513 0.013225054 -0.081238784
000070 31 06 25 3c 85 38 c2 bc 55 93 35 3e f3 9c 10 be
       0.010072277 -0.023708591 0.17731984 -0.14122371
000080 65 90 b5 ba 1e 71 b8 bb 75 2d 40 bc 80 4e 64 3d
       -0.0013852237 -0.005628719 -0.011729588 0.055738926
000090 1c 09 35 3d 88 d2 98 3e 38 8d d4 bc 7a c7 b2 3e
       0.04419814 0.29848123 -0.025946245 0.34917814
0000a0 e3 0f 8c bd 8a c6 da bd e9 87 b8 3c c6 d1 ef 3c
       -0.06838968 -0.106823996 0.022525745 0.029274832
0000b0 5a f7 76 3d 6b 11 94 3e 89 70 82 3e 67 6d e2 3d
       0.060294487 0.2891954 0.25476483 0.11056023
0000c0 76 04 af bd ca 8a bc bc 97 4e a2 3e 2c a5 4a 3d
       -0.08545773 -0.023015399 0.31700584 0.049473926
0000d0 ea 10 96 be 03 82 08 be 0c 8f 04 be 17 ea 83 3e
       -0.2930978 -0.13330846 -0.12945193 0.25764534
0000e0 34 4d c4 bc 46 60 01 3f 5b e1 c5 3d a8 d5 e4 3c
       -0.023962595 0.50537527 0.09662124 0.02793391
0000f0 6d 71 c8 bd 69 9a 5e 3e 3c 77 5c bd d8 0e 16 3d
       -0.09787259 0.2173859 -0.05382465 0.03663525
000100 c0 8e 02 3e f3 d5 59 39 b2 21 88 3e aa ce 86 bc
       0.12749767 0.00020774435 0.26588207 -0.016455967
000110 4c 87 20 bf e0 90 3a 3e ff 53 d8 be c6 2a b0 3e
       -0.62706447 0.18219328 -0.42251584 0.34407634
000120 a2 85 d0 3e 14 cc 31 be ca e8 84 be 25 6d a0 be
       0.40726954 -0.17363006 -0.25958854 -0.3133327
000130 8e d0 47 3e 64 1e 39 bd d6 7e 6e bd fc 8a 66 bd
       0.19513151 -0.045195 -0.05822643 -0.05628489
000140 38 25 ef 3e de de 9e 3d c5 83 2b 3e 88 e7 33 3e
       0.46708083 0.07757352 0.16749485 0.17568791
000150 c5 3e 69 3e eb 81 71 3e 45 e7 21 be 69 09 42 bd
       0.22777851 0.23584716 -0.15810879 -0.047372255
000160 ba 66 2b be 69 3a 1f be 1c fc 81 3e 73 3a e4 bd
       -0.16738406 -0.15549625 0.25387657 -0.11143961
000170 36 e2 8a bc 3b 5d 1d be 71 47 07 be 7c a3 34 3e
       -0.016953569 -0.15367596 -0.13210846 0.1764049
000180 28 6f ca bd 57 42 db bd ae 04 e7 3d 36 a3 e5 3d
       -0.098844826 -0.10706013 0.112801895 0.11212771
000190 94 71 35 3e ec 66 1c 3d ac c7 c8 be 34 52 10 3e
       0.17719108 0.03818409 -0.39214838 0.14093858
0001a0 4f 35 e4 3d ea 66 66 3e 9b d1 41 be a9 4c 10 3f
       0.1114298 0.22500196 -0.18927614 0.56366974
0001b0 cd dc 6f be 9a 9d 2b 3e a7 6a fd 3b af 14 df bd
       -0.23424073 0.16759339 0.007733661 -0.10892617
0001c0 61 df 3a 3e fd 92 8c bd 29 87 05 bf 77 10 86 be
       0.18249275 -0.06863973 -0.52159363 -0.26184437
0001d0 40 95 d1 3d cf 1b 00 3f 09 15 88 be 38 37 b5 bb
       0.10233545 0.5004243 -0.2657855 -0.005530264
0001e0 94 d8 a5 3e 07 f5 0a 3e ab 03 ac bd a1 c3 9b bd
       0.32391798 0.13570033 -0.08399137 -0.07605673
0001f0 87 a2 cb be 99 99 2c be 42 b6 a8 bd 3e bf 00 bf
       -0.39772436 -0.16855468 -0.08237888 -0.5029181
000200 cd 61 b9 be bb ab 92 3d b6 dc bc bd 0a d6 2c be
       -0.3620743 0.07161661 -0.09221785 -0.16878524
000210 40 9f ba bd 86 5c 49 be dc 00 55 3e be c0 bb 3e
       -0.09112406 -0.19664201 0.20801109 0.36670488
000220 bf 66 ed 3e 59 86 22 3e fa 13 2b 3e 44 81 a7 3e
       0.46367452 0.15871562 0.16706839 0.3271581
000230 0a 05 c7 3e 17 bf a7 3e 51 ca 8a 3e 30 60 53 bc
       0.38871032 0.32762977 0.2710748 -0.012901351
000240 be 11 b7 be 85 4e 47 3e 8c e1 ab bc 77 f4 4b bc
       -0.35755724 0.19463547 -0.020981573 -0.012448422
000250 d7 2b 5b be 38 12 93 be 87 87 a0 3e d1 fd d4 3d
       -0.21403442 -0.28724837 0.313534 0.10399974
000260 36 dd 73 be b6 ca b2 3d d7 f2 8b 3d 40 f5 ed 3d
       -0.23814854 0.0873007 0.068334274 0.11619043
000270 05 ae ff 3e 75 44 fe bb e0 9b 54 be 9c 31 ed 3b
       0.49937454 -0.0077596256 -0.20762587 0.00723858
000280 de 45 09 be f3 04 04 3e ce 70 1e 3d b5 e0 00 bd
       -0.13405558 0.12892513 0.038681798 -0.031464297
000290 e1 2b d1 bd da 91 83 3d a8 62 e0 bd c4 1c e8 3d
       -0.10213447 0.06424303 -0.10956317 0.113336116
0002a0 32 c4 1a be 4f 5b 20 be 1a 1d e1 3d c9 08 1d be
       -0.15113905 -0.15659831 0.10991879 -0.15335383
0002b0 5a 1d a4 3e 05 88 4f bc 26 e6 11 3e ba fe f2 3c
       0.32053643 -0.012666707 0.14247951 0.029662479
0002c0 81 29 0f bc 96 37 09 bf 33 1b 4f 3e 05 09 10 be
       -0.008737923 -0.5360044 0.2022522 -0.1406594
0002d0 1f 00 75 3e 7d ce 00 be b5 5b 8e bd ef 72 52 bd
       0.23925827 -0.12578769 -0.069510855 -0.05137914
0002e0 2a 37 40 be c2 9b 68 bd af 4a e9 3d c0 95 ef bd
       -0.18771043 -0.056789167 0.11391198 -0.116984844
0002f0 3b a8 83 be 18 36 6f bd ac be 9c 3d 7d 20 87 3e
       -0.25714287 -0.058401197 0.07653555 0.26391974
000300 29 74 26 3e a9 7b 83 3d 02 59 5d be 0e 77 6e 3e
       0.16255249 0.06420071 -0.21615985 0.23287603
000310 07 e7 51 3c 18 d0 9f bd 8c 62 86 3e 15 de 18 3e
       0.012811429 -0.078033626 0.2624706 0.14928468
000320 18 00 e6 3d 23 d6 83 be c0 ca 0b be c9 8a 85 be
       0.11230487 -0.2574931 -0.13651562 -0.26082447
000330 71 2d 31 3d 13 1d d1 3b 11 88 55 3e 87 35 42 3d
       0.043256227 0.0063816397 0.20852686 0.04741433
000340 9d 2c 8e bd b0 f4 f1 3e b2 be 6b be 7e fc 98 be
       -0.06942103 0.47256994 -0.23021963 -0.29880136
000350 bd cd 0b be 32 48 f0 3d ea f6 9f bd 2a ba c9 bd
       -0.13652702 0.1173252 -0.07810767 -0.09849961
000360 5c 5f 80 be 01 9f a8 3e 72 b4 8c bd df 67 77 be
       -0.25072753 0.3293381 -0.06870355 -0.24160717
000370 bc b4 39 bd 7f ae 36 be 2e 64 86 bd e3 ec 49 3e
       -0.045338377 -0.17840002 -0.065620765 0.19719271
000380 fa 89 ef bc d5 38 35 bd 1d c6 a8 bd 05 2f 7d bd
       -0.029240597 -0.044243652 -0.08240912 -0.06181242
000390 f4 bf e5 3d 3c 0c 66 3e 58 2a b3 bd c3 26 55 be
       0.11218253 0.22465605 -0.08748311 -0.20815568
0003a0 07 80 48 bd 41 90 9b 3d ec 7a 60 3d f8 ec ed bc
       -0.04895022 0.075958736 0.054804727 -0.02904366
0003b0 7d fb ce be 81 33 50 3e ad 7c c3 be 43 a4 68 be
       -0.40426245 0.20332147 -0.38181058 -0.22718911
0003c0 c6 2d ac bd 3e d7 fd 3b ac 25 25 3c e1 e5 b7 39
       -0.08407168 0.007746606 0.010079782 0.00035075753
0003d0 91 09 8f bd 48 90 0c be 65 2b cf be eb 06 6a bd
       -0.069842465 -0.13726914 -0.40462795 -0.057135504
0003e0 12 49 1c be 29 57 c7 3d e7 fc 04 bd 51 af 5c 3e
       -0.15262249 0.09733421 -0.03246775 0.21551253
0003f0 92 6a 1f 3e 9d f0 4d 3e dc 57 8a 3e ca 42 1e 3e
       0.15567997 0.20111318 0.27020156 0.15455166

model/hidden_layers/1/b f4 [75]
000000 c3 51 f7 3a 21 64 93 3f 64 15 6b bc c5 96 a4 3f
       0.0018868971 1.1514932 -0.014348362 1.2858511
000010 04 53 ab 3f 88 4a 9a 3e e4 63 14 3c 4b 26 84 3f
       1.3384709 0.30134988 0.009057019 1.0324186
000020 08 5e 90 bf 88 66 17 3e 87 e4 99 bb f3 95 12 bc
       -1.1278696 0.14785206 -0.004696432 -0.0089468835
000030 a6 92 4a 3c 8b 6a 39 be e2 f5 49 bc 68 4e 5a 3c
       0.012364065 -0.18107049 -0.012326689 0.013324358
000040 88 ec 11 bd 34 2f 6f 3f 14 08 4b bb 55 25 46 bf
       -0.035625964 0.934314 -0.0030980157 -0.77400714
000050 00 00 00 00 2e 20 ac 3c 60 07 32 bd d1 2e 2b 3d
       0.0 0.021011438 -0.043464065 0.041792694
000060 13 a6 64 3f 88 5e cd 3f a7 40 7f 3f ec 74 92 be
       0.8931591 1.6044474 0.99708027 -0.2860483
000070 49 72 7b 3f b0 ba 75 3f ff cd 45 be 0b 15 3e bd
       0.9822126 0.9598799 -0.19316863 -0.046406787
000080 f2 dd a7 3f f0 d0 ba 3f da a2 b7 3f ab e2 49 3f
       1.3114607 1.4595013 1.4346573 0.7886149
000090 15 6b ac 3f fa 5a b0 bd 91 b1 66 3f c4 43 1a 3f
       1.3470179 -0.086111024 0.90114695 0.6025965
0000a0 00 00 00 00 6c e5 8b 3d 13 ed ba be dd 6a a2 3f
       0.0 0.06830868 -0.36508998 1.2688862
0000b0 ae 6e c4 ba 8f d1 9e bd f2 32 dc 3e 46 ec 0c 3d
       -0.0014986598 -0.07754814 0.43007618 0.034405015
0000c0 de 96 8d 3d fe 16 4a bb 67 e7 bd 3e 60 ce 05 bf
       0.06913541 -0.0030836458 0.37090608 -0.5226803
0000d0 f2 8d 94 3f 40 a1 b9 bc ec 76 60 bc f1 fb 0b bf
       1.1605818 -0.022659898 -0.013700228 -0.5468131
0000e0 c9 0e ad 3d 8f 0a b3 3b 5d aa b4 bd 69 cf 87 3d
       0.08450086 0.005463905 -0.08821557 0.06631357
0000f0 53 c8 a4 3f 07 81 a8 3f d7 e3 fd 3d eb a3 8e 3c
       1.2873634 1.3164376 0.123969726 0.017412147
000100 27 a4 54 bd 52 af ae be 93 f3 77 bf 58 12 d5 3e
       -0.05191436 -0.34118134 -0.9685604 0.41615558
000110 48 3b 4d bd f2 27 c5 ba 7d 57 b1 3f d0 19 0c 3f
       -0.050105363 -0.0015041812 1.3854824 0.54726887
000120 e0 84 61 bf eb 96 78 3f 55 7e 71 bc
       -0.88093376 0.9710528 -0.014739593

model/hidden_layers/1/W f4 [75, 75]
000000 c3 a7 98 bd c9 af 99 bd c3 4e 81 be 1c 4e ef bc
       -0.07453873 -0.075042315 -0.25255403 -0.02921205
000010 55 43 3b bd 3f d0 64 3d 55 c9 a7 bd 87 96 45 bd
       -0.04571851 0.05586266 -0.08192698 -0.048239257
000020 90 c0 3f bd 34 82 7e bd 98 77 12 bd a9 bb 8a bd
       -0.0468145 -0.06213589 -0.035758585 -0.067740746
000030 1d a1 09 3e da 67 b0 bc dc a4 24 3d 8f 73 20 3d
       0.13440366 -0.021533895 0.040196285 0.039172705
000040 7d db f9 bd 8e 60 6f be ce 8a 0e be 6f d9 3c bd
       -0.12200067 -0.23376676 -0.13920137 -0.0461058
000050 42 0b de bb 89 ad 29 be 97 95 88 3d 7a 1e 3a bd
       -0.0067762444 -0.16570105 0.06669157 -0.04543922
000060 95 79 a7 3d 19 14 ef bd 85 ac ac be ca 1d 69 3d
       0.08177487 -0.11673755 -0.33725372 0.056913175
000070 59 b3 38 3d 97 91 80 3e aa f4 18 3b f0 03 e3 3c
       0.045092914 0.25111076 0.002333919 0.027711838
000080 90 38 45 3e 18 15 a6 be 7a 5f 33 be 2d 8c 6e be
       0.19259858 -0.32437968 -0.1751689 -0.2329566
000090 7f ca f7 3c ac 29 1c bd 0f c7 4e 3d 3b c9 45 be
       0.030247925 -0.03812568 0.050482806 -0.19315045
0000a0 4e 4f c6 bd db fd 7a bc 87 39 0f bd ee 45 3d bd
       -0.09683095 -0.015319313 -0.03496697 -0.04620927
0000b0 30 b4 d6 3d f6 d2 d1 bd e9 67 95 bd db a5 9a bd
       0.10483587 -0.10245316 -0.0729521 -0.07551166
0000c0 e6 2d 5f 3d 0a 09 0c be 91 89 0d be dc 13 04 be
       0.05448713 -0.13675323 -0.13822009 -0.12898201
0000d0 c1 41 56 be 99 a6 39 bd 75 9c c6 bd 54 56 85 be
       -0.2092352 -0.045324896 -0.096978106 -0.26042426
0000e0 61 13 b5 bd 14 fe 96 bc 0b bc 1d 3e 1e 98 11 bd
       -0.08841587 -0.0184317 0.15403764 -0.03554546
0000f0 42 8e 0a 3e 11 e5 8c 37 c1 49 04 3e f8 15 27 be
       0.1353083 1.6795968e-05 0.1291876 -0.16316974
000100 d6 2b 39 be c0 e4 4b bd 39 a5 73 bd df 29 94 bc
       -0.18083128 -0.0497787 -0.05948374 -0.018086372
000110 56 30 fc 3c 78 64 21 be 12 4d c7 38 38 5e b1 bd
       0.030784767 -0.15760982 9.503415e-05 -0.08660549
000120 26 9e 52 3e 89 c5 2f bd d9 b8 96 bd 68 1f 7b 3e
       0.20568141 -0.042912994 -0.07359476 0.245237
000130 de d1 46 be d8 28 46 3e 6f d8 93 3d db ae 66 bd
       -0.19415995 0.19351518 0.07219016 -0.0563191
000140 7d 84 35 bd 2c b9 35 bc 45 b3 83 3c a2 b1 bc 3d
       -0.044315804 -0.011091512 0.016076693 0.09213568
000150 c1 1c b3 3e b2 95 a8 3d 7b 1d 44 3e 29 b4 03 3e
       0.34982875 0.08231677 0.19151871 0.12861694
000160 9c 76 c2 bd b4 2e c9 3d 3e e2 f7 3d 0c 87 a4 3e
       -0.09495279 0.09823361 0.12103699 0.32134283
000170 68 42 3a 3e 6c 59 de 3d 08 60 01 be 59 d9 17 3e
       0.18189394 0.108568996 -0.1263429 0.14829005
000180 b5 8b 0a 3e fa 18 19 3f 31 01 a2 bb fc d3 0f 3f
       0.13529857 0.59803736 -0.0049439897 0.5618284
000190 8e b7 80 be 72 83 b6 3d 28 57 ed bc bc c9 be 3e
       -0.2514004 0.0891179 -0.028972223 0.37263286
0001a0 34 89 6a 3e 10 ce e1 3d 7a c0 9a 3d 27 e2 02 3d
       0.22903901 0.110256314 0.07556243 0.031953957
0001b0 4d 5e e1 bd cd 72 2d 3d 3a f3 3a 3d 38 d3 a4 3e
       -0.110043146 0.04234581 0.045642115 0.32192397
0001c0 d2 d7 39 3e fc 50 8f bd b9 c5 92 3d a4 16 96 3d
       0.18148735 -0.069978684 0.07166619 0.07328537
0001d0 02 88 08 3d 1c c3 1e be 3f fa b4 3c 7e d3 27 bd
       0.033332832 -0.15504116 0.022091983 -0.04097318
0001e0 5c 8a 34 be 1b db fc 3e 99 71 51 3e 07 ff 7b bd
       -0.17630905 0.49385914 0.2045349 -0.06152251
0001f0 4b a5 e1 3c b7 ba 21 3d 20 b6 41 3d d2 f4 df 3d
       0.027544638 0.039484706 0.04729283 0.10935368
000200 0c 6e 4c 3c 95 89 e6 ba 48 61 9f 3d cb ec 8f 3d
       0.012477409 -0.001758861 0.07782227 0.070275865
000210 61 3c c1 3e 47 b8 4d 3e 41 d1 74 bc f0 d0 6d 3e
       0.37741378 0.20089827 -0.014942468 0.23224235
000220 61 af 52 3d 9d 22 f4 3d 6f 86 91 3e bc 85 0e 3d
       0.051436786 0.119206645 0.28422877 0.034795508
000230 0c b5 86 3e c8 0c 0f be b5 dd 2f 3b 07 e9 78 be
       0.26310003 -0.1396972 0.0026835029 -0.24307643
000240 54 8e 58 3e 9b 92 09 3e 46 77 b6 bd 6c 35 27 3e
       0.21148044 0.13434832 -0.08909468 0.16328973
000250 d2 be 7c bd 17 49 0c bc 46 62 0f be 3a b6 17 3d
       -0.061705418 -0.008562348 -0.14002332 0.03703902
000260 e8 bb 75 bd 2b ae 24 bd 76 39 30 bc 7d d9 14 be
       -0.059993654 -0.040205162 -0.010755887 -0.1453609
000270 db 2a 16 3d 66 ea 68 bd 49 cb ef 3d 78 60 2f bd
       0.036661964 -0.056864165 0.117086954 -0.04281661
000280 b7 42 fd 3c 33 0f 03 3c be 23 e5 3d 3a 26 0c 3e
       0.030915601 0.007999229 0.11188458 0.13686457
000290 bb 6e ae bc 30 af 10 be 6e 80 3f bd 66 f9 9a bd
       -0.021293035 -0.14129329 -0.04675334 -0.075671
0002a0 0f 22 31 3d 57 9a 84 bd a9 61 e9 3b 20 82 a4 bc
       0.04324537 -0.064747505 0.0071222377 -0.02008158
0002b0 20 11 8b bc 40 1c 10 be 01 40 97 3d ff 42 b0 bd
       -0.01697594 -0.14073277 0.07385255 -0.086065285
0002c0 63 5c 5f be 97 93 f3 bd 73 b3 a8 bd a6 4e a2 bd
       -0.21812586 -0.11893385 -0.08237352 -0.07925157
0002d0 34 ab 51 3c c6 7f e4 bd 61 ff af bb 28 ce 98 3d
       0.012797166 -0.11157183 -0.0053710197 0.07461196
0002e0 2a 51 03 be 37 9f d2 bd 43 a0 04 3e df c7 ee 3c
       -0.1282393 -0.10284274 0.1295176 0.02914804
0002f0 ce 5a a4 3d 2b c1 3a bd 74 79 cd bc 71 8a 09 bd
       0.08025132 -0.045594376 -0.025082327 -0.033579294
000300 ba ff df bd a4 f4 db 3d 81 31 1a be 82 3a c0 bd
       -0.10937448 0.10740021 -0.15057947 -0.093861595
000310 c9 9e 24 be d2 32 36 3e 07 11 f9 bd 3c 23 e6 3d
       -0.16076197 0.17792824 -0.12161451 0.11237189
000320 b9 80 30 be 20 a8 59 3e 6e 25 87 3e 27 1c a4 bc
       -0.17236604 0.21255541 0.26395744 -0.020032955
000330 85 1d 22 3e 60 50 26 be 14 e1 84 bd 13 1a ff 3d
       0.15831573 -0.16241598 -0.06488243 0.12456145
000340 bf 1e 2f bb 63 79 89 bd 0f 66 9b bb b3 0e 9f bd
       -0.0026721207 -0.06712606 -0.004742391 -0.077664755
000350 b3 42 bc bd 83 e8 b6 3d be 2b 80 be 6a c0 c1 bd
       -0.09192409 0.08931067 -0.25033373 -0.09460528
000360 7e c7 73 bc db 10 ba 3d 15 0c aa 3b 6a 3b 7f bd
       -0.014879106 0.09085246 0.0051894286 -0.06231252
000370 db 39 8a be b7 66 9c 3e bb 28 cd bd b6 db 84 3d
       -0.26997265 0.30547115 -0.10017534 0.06487219
000380 95 e1 22 be 58 b0 1a 3e 43 fd 2b be af 9a 6c bd
       -0.15906365 0.15106332 -0.1679583 -0.057764705
000390 5f 31 b8 3c ca a5 14 be e4 3f b7 3d ad 63 aa bc
       0.02248448 -0.14516369 0.08947733 -0.020799482
0003a0 1e 39 e0 3d 33 70 83 3e de 9d 8b 3e bc 2d 0e be
       0.10948394 0.2567154 0.2726888 -0.13884634
0003b0 5a c4 2c 3e ed ac 9c 3d 19 46 2b be e9 d4 48 3e
       0.16871777 0.076501705 -0.16725959 0.19612469
0003c0 10 19 30 be 7f 33 a9 3e 1e b9 84 3d c3 b6 be bd
       -0.1719706 0.330471 0.06480621 -0.09312203
0003d0 d0 5a 17 be 1e d6 89 bc 0a 64 92 3e d4 53 cc 3e
       -0.14780736 -0.016825732 0.2859195 0.39907706
0003e0 43 10 26 3d 64 de f1 3e 3f 4b f5 bd b6 95 54 be
       0.040542852 0.47239983 -0.11977243 -0.20760235
0003f0 02 35 88 bc 26 b3 1e 3e a9 d1 07 be 91 4f 07 be
       -0.016626839 0.15498027 -0.13263573 -0.13213946
