experiments/rovers/rovers_full_train_set_2-75-5/best/target_model.npz (npz, 29660 bytes, 6 tensors)

model/hidden_layers/0/b f4 [75]
0	0xbe990978	-0.29890037
1	0xbddc2573	-0.1074933
2	0xbe210e72	-0.15728167
3	0xbeb64b6e	-0.35604423
4	0x401d70c0	2.4600067
5	0xbe4d0eb3	-0.20025139
6	0xbe980ee3	-0.29698858
7	0xbe3e217b	-0.1856746
8	0xbc0bc9a8	-0.008531965
9	0xbe184409	-0.14869703
10	0xbe78794a	-0.24265018
11	0x4020498c	2.504489
12	0xbe19f5a1	-0.15035106
13	0xbe24b63b	-0.1608514
14	0xbeace7cd	-0.337706
15	0xbecd24c2	-0.40067106
16	0x4006b8ed	2.105037
17	0xbe0e71c3	-0.13910584
18	0xbe6464f5	-0.22304137
19	0xbdf444d9	-0.11927194
20	0xbe29e35a	-0.16590634
21	0xbd657dbd	-0.056028116
22	0x401a6b6c	2.4128065
23	0xbe56bc8d	-0.20970364
24	0x401f4a5d	2.4889138
25	0xbe89bb94	-0.26900923
26	0xbed060f7	-0.40698978
27	0xbe754e27	-0.23955594
28	0x4002b869	2.0425055
29	0xbea6a714	-0.32549345
30	0xbe885203	-0.2662507
31	0xbc0800b7	-0.008300952
32	0xbe878b47	-0.26473448
33	0xbf2d62ca	-0.67728865
34	0xbe7c403b	-0.24633877
35	0xbf667100	-0.90016174
36	0x3fe8c9de	1.8186605
37	0xbe519d8e	-0.20470259
38	0xbe1ffe82	-0.15624431
39	0xbf718365	-0.9434112
40	0xbdc71a97	-0.097218685
41	0xbe721c2a	-0.23643556
42	0xbe711886	-0.23544511
43	0xbed82926	-0.42218894
44	0xbe0452ca	-0.12922207
45	0xbe376a27	-0.17911588
46	0x401daa26	2.46351
47	0x3db62d41	0.0889535
48	0xbe99c243	-0.30031022
49	0xbf3b3671	-0.73129946
50	0xbf07ee8b	-0.5309836
51	0xbec8d835	-0.39227453
52	0xbfa733ad	-1.3062645
53	0xbf823a1a	-1.0173981
54	0xbe39177b	-0.18075363
55	0xbe337f2a	-0.17528978
56	0xbede98e7	-0.4347603
57	0x3fe18245	1.761788
58	0xbead923e	-0.33900636
59	0xbe5fe31e	-0.21863982
60	0xbe863881	-0.26214984
61	0xbef60085	-0.4804727
62	0xbef7e9d9	-0.484206
63	0x3e78124c	0.2422573
64	0x3ff89bb9	1.9422523
65	0xbda7ff25	-0.08202962
66	0xbfbb66b5	-1.4640719
67	0xbe13f607	-0.1444932
68	0xbe1b3911	-0.15158488
69	0xbe9d8e12	-0.30772454
70	0x400e1816	2.22022
71	0xbd1ec8be	-0.03876566
72	0xbf38d1d7	-0.7219519
73	0x4011f7c1	2.2807467
74	0xbf25e2d1	-0.6479922

model/hidden_layers/0/W f4 [75, 20]
0	0x3dcef592	0.101054326
1	0xbd97855a	-0.07398482
2	0x3f0b2a61	0.5436154
3	0x3d4b71d7	0.049669113
4	0x3cc56e67	0.024100496
5	0x3eb4d0ff	0.353157
6	0xbe5030a4	-0.20331055
7	0xbd42d1c4	-0.04756333
8	0x3dc9de74	0.09856883
9	0xbdae3f6b	-0.0850819
10	0xbe8fd034	-0.28088534
11	0xbde9dfff	-0.11419677
12	0xbd9821ec	-0.07428345
13	0x3e2c0f33	0.16802673
14	0xbe9d161e	-0.30680937
15	0xbe0bdc33	-0.13658218
16	0x3e419ca6	0.18907413
17	0x3ed7aff3	0.42126426
18	0xbec074a5	-0.37588993
19	0x3e4b5d4b	0.19859807
20	0xbe5d1093	-0.21588354
21	0xbe48fd9f	-0.19627999
22	0xbe40b296	-0.18818125
23	0xbdcde9ec	-0.10054383
24	0x3e4a7388	0.19770634
25	0x3e2507c5	0.16116245
26	0xbbce086d	-0.0062876255
27	0xbd90d2ef	-0.070714824
28	0xbd6a035e	-0.057132117
29	0xbdb3fc78	-0.08788389
30	0x3e384fcd	0.17999192
31	0xbe24981c	-0.1607365
32	0x3c1ec47d	0.009690401
33	0xbd86b31e	-0.06577133
34	0xbda9be4d	-0.0828825
35	0x3d6561c8	0.056001455
36	0x3cca3950	0.024685532
37	0x3e9e7e08	0.3095553
38	0xbd52f08c	-0.051498935
39	0x3e9521fb	0.29127488
40	0xbd8b6465	-0.06806258
41	0xbdde37cb	-0.108504854
42	0x3cd0b0e7	0.025474979
43	0x3abbdcf1	0.0014332813
44	0x3d6a2f66	0.05717411
45	0x3e987802	0.2977906
46	0x3e804803	0.2505494
47	0x3de5617a	0.11200233
48	0xbdb695e8	-0.08915311
49	0xbd63a2f8	-0.05557534
50	0x3eaee479	0.34158686
51	0x3d465f32	0.04843063
52	0xbe9553eb	-0.29165587
53	0xbe0839f6	-0.1330336
54	0xbe5420a7	-0.20715581
55	0x3e834fcf	0.25646827
56	0xbcccd8f0	-0.025005788
57	0x3f01bebe	0.50681674
58	0x3d8baca8	0.06820041
59	0x3d152e09	0.036420856
60	0xbddfa669	-0.10920412
61	0x3e59c431	0.21266247
62	0xbd5812e7	-0.0527524
63	0xbda23129	-0.07919533
64	0x3e46de42	0.19420722
65	0xbcbfabea	-0.023397405
66	0x3e824ce7	0.25449297
67	0xbc275a53	-0.010214406
68	0xbeb15cd2	-0.3464113
69	0x3e6ddcf9	0.23228826
70	0xbedf34d2	-0.43594986
71	0x3ea0a5ab	0.31376395
72	0x3ed46d7d	0.41489783
73	0xbd8cd3cd	-0.06876335
74	0xbe8b62a9	-0.2722371
75	0xbea00466	-0.31253356
76	0x3e28c6cc	0.16482085
77	0xbd1f8da8	-0.038953453
78	0xbd877457	-0.06613987
79	0xbdaa60d3	-0.08319249
80	0x3ec41267	0.3829529
81	0x3c722059	0.01477822
82	0x3db4a1bf	0.08819913
83	0x3e0b2f0a	0.13592163
84	0x3e35a6fe	0.17739484
85	0x3df7c37a	0.12097831
86	0xbe18f743	-0.14938073
87	0xbd4bfd8c	-0.049802348
88	0xbe1b2303	-0.15150075
89	0xbd2a4deb	-0.041578215
90	0x3dea6d87	0.11446672
91	0xbd809b49	-0.06279618
92	0xbd71c10b	-0.05902199
93	0xbe083150	-0.13300061
94	0xbdb84b1a	-0.089986995
95	0x3e281099	0.16412582
96	0xbd4d9e61	-0.05019987
97	0xbe2570b8	-0.1615628
98	0x3dfc8504	0.12330058
99	0x3e5933a2	0.21211103
100	0x3e357194	0.17719108
101	0x3d1c66ec	0.03818409
102	0xbec8c7ac	-0.39214838
103	0x3e105234	0.14093858
104	0x3de4354f	0.1114298
105	0x3e65efa8	0.22454703
106	0xbe41d19b	-0.18927614
107	0x3f104ca9	0.56366974
108	0xbe2c0e59	-0.16802348
109	0x3e2b7750	0.16744733
110	0x3bd57141	0.006513745
111	0xbddf14af	-0.10892617
112	0x3e3a95c8	0.182212
113	0xbd679d8f	-0.056546744
114	0xbf05425d	-0.5205439
115	0xbe85a84d	-0.26104966
116	0x3dd19540	0.10233545
117	0x3f001bcf	0.5004243
118	0xbe4c1e1d	-0.19933362
119	0xbc00e1d6	-0.0078663435
120	0x3ead9af2	0.33907276
121	0x3df80e92	0.12112154
122	0xbd91b9dd	-0.07115529
123	0xbe7d6fb8	-0.24749649
124	0xbee9d594	-0.4567076
125	0xbe10ae83	-0.14129071
126	0xbe083162	-0.13300088
127	0xbeeb45b8	-0.4595163
128	0xbe84bdbe	-0.25926012
129	0xbe2efc03	-0.17088322
130	0xbda6a3ce	-0.08136712
131	0xbe659cc8	-0.22423089
132	0xbd447b8c	-0.047969386
133	0xbe7d90da	-0.24762288
134	0x3d1bf246	0.038072847
135	0x3ec114bb	0.3771113
136	0x3ed1037e	0.40822977
137	0x3e4eb709	0.2018701
138	0x3d8dd35e	0.06925081
139	0x3e3541c9	0.17700876
140	0x3ec461b6	0.38355798
141	0x3ea7223c	0.32643306
142	0x3e8af3ab	0.2713903
143	0xbd588c28	-0.05286804
144	0xbea84311	-0.32863668
145	0x3e5491dc	0.20758766
146	0xbcd52233	-0.026017284
147	0xbc36c9a9	-0.011156478
148	0xbe112816	-0.14175448
149	0xbebce59a	-0.36893922
150	0x3ea02041	0.31274608
151	0x3d949bd4	0.07256284
152	0xbe728aa1	-0.23685695
153	0x3d933d61	0.071894415
154	0x3d6e67af	0.05820435
155	0x3dfbdddf	0.12298178
156	0x3eef95a1	0.46793845
157	0xbbd3eed0	-0.0064676777
158	0xbe50384d	-0.20333977
159	0xbd562b70	-0.05228752
160	0xbe17ad35	-0.14812167
161	0x3da10fd1	0.07864345
162	0x3d4b81e2	0.049684413
163	0x3b0fe84f	0.0021958535
164	0xbdcbda37	-0.099537306
165	0xbc30a3b1	-0.010781215
166	0xbdcbc0f6	-0.09948914
167	0x3dfb08fe	0.122575745
168	0xbe3cc374	-0.18433934
169	0xbda79dd2	-0.08184399
170	0xbc0af50f	-0.008481278
171	0xbde3e8e5	-0.111284055
172	0x3ec2628c	0.3796581
173	0x3ad0ba8e	0.0015924738
174	0x3e047bf0	0.12937903
175	0xbcff8ddf	-0.03119558
176	0x3d088830	0.033333004
177	0xbef4476b	-0.47710738
178	0x3e072e0a	0.13201156
179	0xbdb7286f	-0.08943259
180	0x3e1adf37	0.15124212
181	0xbe672e72	-0.22576311
182	0xbdeb4a64	-0.11488798
183	0xbe099fc4	-0.13439852
184	0xbcb8cbbe	-0.02255809
185	0xbe1bd245	-0.1521693
186	0x3c9e13b3	0.019296503
187	0xbcaf4571	-0.021395417
188	0xbe0204a5	-0.12697084
189	0xbc9e69ae	-0.019337501
190	0xbda1eb1c	-0.07906172
191	0x3e33342c	0.1750037
192	0x3e45c4fc	0.19313425
193	0xbdea7284	-0.11447623
194	0xbe258c5d	-0.16166826
195	0x3e129e5a	0.14318219
196	0xbd9bdbe9	-0.07610304
197	0xbd444d0e	-0.047925048
198	0x3eac5ae6	0.336631
199	0x3d474718	0.048651785
200	0x3df7bbdc	0.12096378
201	0xbe83d623	-0.2574931
202	0xbe0663ab	-0.13123958
203	0xbe74438c	-0.23853892
204	0xbc171d62	-0.009223314
205	0x3c88f4b3	0.016718244
206	0x3e559347	0.20856963
207	0x3d5190a6	0.051163338
208	0xbd64ab1f	-0.055827256
209	0x3ee5c08f	0.44873473
210	0xbe618235	-0.22022326
211	0xbe98f6e4	-0.29875863
212	0xbe07f705	-0.13277824
213	0x3dc61e8c	0.09673795
214	0xbdd46f0e	-0.103727445
215	0xbdb78a1a	-0.08961888
216	0xbe8059c2	-0.2506848
217	0x3eaa8a32	0.3330856
218	0xbdd4eb5b	-0.10396453
219	0xbe81da1b	-0.25361714
220	0xbcaf764e	-0.021418717
221	0xbe3985ff	-0.18117522
222	0xbe0201dc	-0.12696022
223	0x3e2eb3bd	0.17060752
224	0xbdfb7574	-0.12278262
225	0xbcc726ae	-0.024310436
226	0x3d8672f2	0.06564893
227	0xbd962bac	-0.073325485
228	0x3de7eb3d	0.11324165
229	0x3e2f0b16	0.17094073
230	0xbdd53337	-0.10410159
231	0xbc100a97	-0.008791587
232	0xbde407f3	-0.11134329
233	0x3e0b8099	0.13623275
234	0xbcc98355	-0.024598757
235	0x3d8de423	0.06928279
236	0xbe51d285	-0.20490463
237	0x3e036b53	0.1283391
238	0xbed57976	-0.4169423
239	0xbe770dee	-0.24126408
240	0xbdbd3ef5	-0.09240524
241	0x3ba984d3	0.0051733046
242	0x3c46b643	0.0121284155
243	0xbda0624f	-0.07831251
244	0xbcace46b	-0.021105012
245	0xbe111c6c	-0.14170998
246	0xbed684bd	-0.41898146
247	0xbd285678	-0.041098088
248	0xbde1f0ee	-0.11032282
249	0x3d776cd6	0.06040653
250	0xbd0ad49d	-0.03389417
251	0x3e468612	0.19387081
252	0x3e2efb16	0.17087969
253	0x3e2a02f9	0.16602696
254	0x3e6fa599	0.23403014
255	0x3e2182bd	0.15772529

model/hidden_layers/1/b f4 [75]
0	0x3c65f16b	0.014034609
1	0x40013a79	2.019194
2	0xbcf256ef	-0.029582469
3	0x3e1081a5	0.14111955
4	0x400ce616	2.2015433
5	0x3fe7a086	1.8095863
6	0xbd28408b	-0.041077178
7	0x40078806	2.1176772
8	0xbd9ed959	-0.077562995
9	0x3fb98e68	1.4496584
10	0xbca4342d	-0.02004441
11	0xbdab193e	-0.08354424
12	0xbda3af2a	-0.07992394
13	0xbdc54bb6	-0.09633581
14	0x3f2e497b	0.6808087
15	0x3d819544	0.06327298
16	0xbd3ea2cd	-0.046541978
17	0x400c7886	2.1948562
18	0xbb7f872c	-0.003899048
19	0xbe946d3b	-0.28989586
20	0xba71e218	-0.0009227111
21	0x3cad6aac	0.02116903
22	0xbcc7de9c	-0.02439814
23	0x3d8d1f8c	0.06890783
24	0x3fc7262a	1.5558522
25	0x4030e3e7	2.76391
26	0x3ffd1140	1.9770889
27	0xbe359a9f	-0.17734765
28	0x3fe6a5b0	1.8019314
29	0x3fde8ae6	1.7386138
30	0xbe01bdd6	-0.12670073
31	0xbe019467	-0.12654267
32	0x400eee24	2.233285
33	0x401170ed	2.2725174
34	0x3fdaf595	1.7106196
35	0x401e3662	2.4720693
36	0x400482d4	2.070485
37	0xbd9ccda0	-0.07656407
38	0x401b282c	2.424327
39	0x3e9b8589	0.30375317
40	0x3c386069	0.011253455
41	0x3e31b816	0.1735538
42	0xbe884a0a	-0.26618987
43	0x400745df	2.1136396
44	0xbb45c736	-0.0030178553
45	0xbe03be6c	-0.12865609
46	0xbbd505c9	-0.006500934
47	0xbbd4303d	-0.006475477
48	0x3dc4ce06	0.09609608
49	0xbad23ae1	-0.0016039276
50	0x3db4497b	0.08803078
51	0xbea5875c	-0.32329834
52	0x3fec97e3	1.8483852
53	0xbd57530a	-0.052569427
54	0xbd648e85	-0.05579998
55	0xbe4883bc	-0.19581503
56	0x3db4040f	0.087898366
57	0x3c6657a5	0.014058982
58	0xbe1be0a9	-0.1522242
59	0x3f2dca4c	0.67886806
60	0x3ff274f4	1.8941941
61	0x4005e599	2.0921385
62	0x3df65bfe	0.12029265
63	0x3e9c8fe4	0.3057853
64	0xbd34b126	-0.044114254
65	0xbe84802c	-0.25879037
66	0xbe9d4386	-0.3071558
67	0x3e86c8e0	0.2632513
68	0xbdf01c4f	-0.117241494
69	0xbc437160	-0.011928886
70	0x402c3c40	2.6911774
71	0x3db05e53	0.08611741
72	0xbe176b6e	-0.14787075
73	0x3fdd19bc	1.7273479
74	0xbca1aeda	-0.019736696

model/hidden_layers/1/W f4 [75, 75]
0	0xbd979d0a	-0.07403
1	0xbd99e45c	-0.07514259
2	0xbe810564	-0.25199425
3	0xbcdb741c	-0.026788764
4	0xbd157ea8	-0.036497742
5	0x3d66dd11	0.05636317
6	0xbda363dc	-0.07978031
7	0xbd42debb	-0.047575694
8	0xbd3f130e	-0.04664903
9	0xbd7e8234	-0.06213589
10	0xbd14b568	-0.036305815
11	0xbd6176e3	-0.05504502
12	0x3e0b175d	0.13583131
13	0xbca90a8d	-0.020634914
14	0x3d2c26a5	0.04202904
15	0x3d216eb3	0.03941221
16	0xbdf4b542	-0.11948635
17	0xbe6f48da	-0.23367634
18	0xbe0bbd65	-0.13646467
19	0xbd3d39b1	-0.046197597
20	0xbbb72c78	-0.005590018
21	0xbe25ee86	-0.1620427
22	0x3db2baa5	0.08727006
23	0xbd31e98e	-0.043435626
24	0x3ddd1c69	0.107964344
25	0xbde9e338	-0.11420292
26	0xbeacac85	-0.33725372
27	0x3d6bc6b1	0.057562534
28	0x3d5aa2a9	0.05337778
29	0x3e81abd4	0.25326407
30	0x3b18f4aa	0.002333919
31	0x3ce425e0	0.027850091
32	0x3e49358f	0.19649337
33	0xbea622af	-0.32448336
34	0xbe335f7a	-0.1751689
35	0xbe6e8c2d	-0.2329566
36	0x3d160fad	0.036636043
37	0xbd1bc72b	-0.03803174
38	0x3d4f0cc7	0.050549295
39	0xbe45c93b	-0.19315045
40	0xbdc64f86	-0.09683137
41	0xbc758946	-0.014986342
42	0xbd0d6575	-0.034520585
43	0xbd37fe42	-0.044920214
44	0x3dd6b430	0.10483587
45	0xbdcb4abf	-0.09926366
46	0xbd5d2861	-0.053993586
47	0xbd9ae788	-0.07563692
48	0x3d5f2de6	0.05448713
49	0xbe0c083a	-0.13675013
50	0xbe0d9b4e	-0.13828775
51	0xbe0485df	-0.12941693
52	0xbe5641c1	-0.2092352
53	0xbd3aa154	-0.04556401
54	0xbdc30503	-0.0952244
55	0xbe855473	-0.26040992
56	0xbdb18baf	-0.08669221
57	0xbb748a90	-0.0037314035
58	0x3e228939	0.15872659
59	0xbd11a255	-0.035555203
60	0x3e0b234a	0.1358768
61	0xb948b368	-0.0001914032
62	0x3e04b4f6	0.12959656
63	0xbe26c11b	-0.16284601
64	0xbe34e5c1	-0.17665769
65	0xbd491c86	-0.049099468
66	0xbd73a539	-0.05948374
67	0xbc975126	-0.018471312
68	0x3d000580	0.031255245
69	0xbe20f7dd	-0.15719552
70	0x3c5984d2	0.013276296
71	0xbdb15ffc	-0.08660886
72	0x3e5243a2	0.20533612
73	0xbce2b1e9	-0.027672725
74	0xbd968c33	-0.0735096
75	0x3df7517d	0.120760895
76	0xbe45033d	-0.19239517
77	0x3e466542	0.19374564
78	0xbd52ecee	-0.051495485
79	0x3de3ca4c	0.111225694
80	0xbda80081	-0.08203221
81	0xbdc80802	-0.09767152
82	0xbc834b5a	-0.016027141
83	0xbe20ca07	-0.15702067
84	0xbbeccea6	-0.007226783
85	0x3d7637d5	0.06011184
86	0x3e439113	0.1909831
87	0x3dbda29f	0.09259533
88	0xbe078135	-0.13232882
89	0xbd2772a6	-0.04088082
90	0x3d01097c	0.031503186
91	0x3dbadb44	0.09123853
92	0x3e07e3e1	0.13270523
93	0x3d9f24c8	0.07770687
94	0xbda7f2ea	-0.08200629
95	0x3e1cb046	0.15301618
96	0xbe3ba72a	-0.18325487
97	0x3e9a87a2	0.30181605
98	0xbc87ca1e	-0.01657587
99	0x3e871b49	0.26388004
100	0xbe800242	-0.25001723
101	0x3deecd26	0.11660223
102	0xbd4f6465	-0.050632853
103	0x3e120c18	0.14262426
104	0x3dfefd6a	0.12450679
105	0x3daf3c07	0.08556371
106	0xbdd68e8f	-0.1047641
107	0xbd88160a	-0.066448286
108	0xbdf4a0b3	-0.119447134
109	0xbbb9fe6d	-0.005676082
110	0xbb4c6518	-0.0031188186
111	0xbcfe102b	-0.031013569
112	0x3e17db96	0.14829859
113	0xbe0a2343	-0.13490014
114	0x3d540ae9	0.051768217
115	0x3d58a96f	0.05289596
116	0xbe012b23	-0.12614112
117	0xbe55e7b4	-0.20889169
118	0xbdbb3da9	-0.0914262
119	0xbd874270	-0.06604469
120	0xbe42a9b9	-0.19010057
121	0x3eb7f512	0.3592916
122	0xbe24bbd8	-0.16087282
123	0xbdb0f4d1	-0.08640445
124	0x3d271ea8	0.04080072
125	0x3d61583f	0.0550158
126	0x3dbedcfd	0.09319494
127	0x3de3c3e2	0.11121346
128	0x3d852c53	0.06502595
129	0xbd07d29e	-0.033159845
130	0x3cd92b2a	0.02650984
131	0xbe57a115	-0.21057542
132	0x3d4c19fd	0.04982947
133	0x3daf0b7d	0.08547113
134	0xbceab5fb	-0.028651228
135	0x3d6f4eba	0.05842469
136	0x3da4003e	0.08007859
137	0x3dbdb095	0.09262196
138	0x3dbb75ba	0.09153314
139	0xbe4a0102	-0.19726947
140	0x3d75761e	0.0599271
141	0xba7ec689	-0.0009718915
142	0x3b65aeea	0.0035046884
143	0xbe90377d	-0.28167334
144	0x3c1822ae	0.009285612
145	0x3e470fa7	0.19439565
146	0xbe31fbd8	-0.17381227
147	0x3e2fbd74	0.17162114
148	0x3dc40c56	0.095726654
149	0x3c56a11a	0.013099933
150	0xbe0d9655	-0.13826878
151	0x3d17b63a	0.03703902
152	0xbd764e6f	-0.060133394
153	0xbd24ae2b	-0.040205162
154	0xbd60352c	-0.05473821
155	0xbe14d97d	-0.1453609
156	0x3d14498a	0.036202945
157	0xbd68ea66	-0.056864165
158	0x3dd34ba1	0.103171594
159	0xbd0b3236	-0.03398343
160	0x3cfd42b7	0.030915601
161	0x3c7ecbc2	0.015551509
162	0x3de523be	0.11188458
163	0x3e0c67ce	0.13711473
164	0xbcae6ebb	-0.021293035
165	0xbe10b479	-0.14131345
166	0xbd83ab81	-0.06429196
167	0xbd9a75c9	-0.07541997
168	0x3d358548	0.04431656
169	0xbd995184	-0.07486251
170	0x3bf06b61	0.0073370193
171	0xbc3b2424	-0.011422191
172	0xbb17b5ff	-0.002314925
173	0xbe101c40	-0.14073277
174	0x3d98888e	0.07447921
175	0xbdae2378	-0.08502859
176	0xbe6238ed	-0.22092028
177	0xbdf39397	-0.11893385
178	0xbdcc961d	-0.09989569
179	0xbda24ea6	-0.07925157
180	0x3c465d40	0.0121071935
181	0xbe0aa9b9	-0.13541307
182	0xbbafff61	-0.0053710197
183	0x3db717f3	0.08940115
184	0xbdf16684	-0.117871314
185	0xbdcd7789	-0.10032565
186	0x3e0c0b52	0.13676193
187	0x3d09553a	0.033528544
188	0x3d213b01	0.03936291
189	0xbd388d08	-0.045056373
190	0xbda2ddea	-0.07952483
191	0xbd07f998	-0.033197016
192	0xbddfffba	-0.10937448
193	0x3ddd5724	0.108076364
194	0xbe14970c	-0.14510745
195	0xbdc03a82	-0.093861595
196	0xbe4ff0b3	-0.20306663
197	0x3e10979e	0.14120337
198	0xbe097467	-0.1342331
199	0x3da43052	0.08017029
200	0xbe43ed33	-0.19133453
201	0x3e68a054	0.2271741
202	0x3e7887e3	0.24270587
203	0xbd6c07c8	-0.05762461
204	0x3e221d85	0.15831573
205	0xbe2d93ae	-0.16950867
206	0xbd82762e	-0.06370197
207	0x3df64e5e	0.12026666
208	0xbb2fd952	-0.0026832414
209	0xbd8dd5fc	-0.0692558
210	0xbb99ad95	-0.004689882
211	0xbd46d617	-0.048544016
212	0xbe077321	-0.13227512
213	0x3d8713df	0.06595587
214	0xbe94c1c5	-0.29054084
215	0xbdfc5a2b	-0.12321886
216	0xbd90c39a	-0.07068558
217	0x3dbe0937	0.09279101
218	0x3b86f61f	0.0041186954
219	0xbd7f211d	-0.06228744
220	0xbe8b72fc	-0.27236164
221	0x3ea81e4f	0.32835624
222	0xbe0baf82	-0.1364117
223	0x3c458197	0.012054822
224	0xbe459722	-0.19295934
225	0x3e212750	0.15737653
226	0xbe37ce2d	-0.17949744
227	0xbda5fc47	-0.08104759
228	0xbe302dd9	-0.1720499
229	0xbe3a2aa0	-0.18180323
230	0x3d344adf	0.044016715
231	0xbe053d8a	-0.13011757
232	0x3d8d32eb	0.068944775
233	0x3d167b8f	0.03673893
234	0xbe040aa2	-0.12894681
235	0xbe355aa2	-0.17710355
236	0xbd524638	-0.051336497
237	0x3d8f32fe	0.06992148
238	0xbe54ef52	-0.20794418
239	0x38c78d78	9.51541e-05
240	0xbe73c9f4	-0.23807508
241	0x3c932242	0.017960671
242	0x3c9d71f9	0.019219385
243	0xbe00a8cb	-0.1256439
244	0xbe6e5fcd	-0.23278733
245	0xbc43ac59	-0.011942946
246	0x3d7ef200	0.062242508
247	0xbe084517	-0.13307606
248	0x3d1a9111	0.037736002
249	0x3d564a63	0.052317034
250	0xbe3041fe	-0.17212674
251	0xbe8e063d	-0.27739134
252	0xbca6d759	-0.020366358
253	0xbd865799	-0.06559677
254	0xbe84b0b4	-0.25916064
255	0xbe21d9b5	-0.15805705

model/output/b f4 [4]
0	0xc000f138	-2.0147228
1	0xbffb3e41	-1.9628373
2	0xc001f564	-2.0306025
3	0xc004bbdf	-2.0739667

model/output/W f4 [4, 75]
0	0x3d9cdc78	0.076592386
1	0xbee6fa6b	-0.4511293
2	0xbded232d	-0.11578975
3	0xbd3b46a0	-0.04572165
4	0xbf0cc767	-0.54991764
5	0xbee3da66	-0.44502562
6	0x3e850548	0.25980592
7	0xbf1dc172	-0.616233
8	0x3e461eda	0.19347706
9	0xbe5c8d1f	-0.21538208
10	0xbd26f404	-0.040760055
11	0x3d210a69	0.03931657
12	0xbe25b31f	-0.1618161
13	0x3db51ec0	0.08843756
14	0x3c991696	0.018687528
15	0xbb27bac8	-0.0025593508
16	0xbde49b00	-0.111623764
17	0xbf0f9e87	-0.5610127
18	0x3e5e7837	0.21725546
19	0xbc73dfd3	-0.014884907
20	0x3b90a571	0.0044142534
21	0xbd5a88f2	-0.053353257
22	0xbdb2f8e8	-0.08738881
23	0xbd9a9def	-0.07549655
24	0xbedbd383	-0.42934808
25	0xbf88834f	-1.0665072
26	0xbf14c0d8	-0.58106756
27	0x3df4f916	0.11961572
28	0xbedefdb9	-0.4355295
29	0xbebcca22	-0.36872965
30	0x3db7a332	0.08966674
31	0x3e802df4	0.2503506
32	0xbf261106	-0.64869726
33	0xbf1346bc	-0.5752981
34	0xbecd688a	-0.4011882
35	0xbf4ba7c8	-0.7955289
36	0xbf1b4517	-0.606523
37	0xbc469ec7	-0.012122816
38	0xbf38115e	-0.719015
39	0x3dd1d8d7	0.10246437
40	0x3dcbb7d7	0.09947174
41	0x3be9702e	0.0071239686
42	0x3d56ce37	0.052442756
43	0xbf10ad15	-0.565141
44	0x3db13e84	0.08654502
45	0xbe1e7d53	-0.15477495
46	0xbe16dfc0	-0.14733791
47	0xbd7be487	-0.061497238
48	0x3d4e2fa9	0.05033842
49	0x3d0d010f	0.034424838
50	0xbdb25202	-0.08707048
51	0x3df58ae9	0.11989386
52	0xbecba70f	-0.39775893
53	0x3d3709ce	0.044687085
54	0xbde8d9d0	-0.113696694
55	0x3c7466cb	0.014917086
56	0xbd701f10	-0.058623374
57	0x3cd037bf	0.025417207
58	0x3e6d4304	0.23170096
59	0xbe96d6a2	-0.29460627
60	0xbebd5a32	-0.36982876
61	0xbf111a76	-0.56681
62	0x3d305dd7	0.043058243
63	0xbe23b8ac	-0.15988415
64	0x3c9afe64	0.018920131
65	0x3e3d802c	0.18505925
66	0x3c75a292	0.014992373
67	0xbca9c114	-0.02072195
68	0xbe243978	-0.16037548
69	0x3d8c00e3	0.06836107
70	0xbf6727fe	-0.902954
71	0x3d406f4a	0.046981134
72	0x3dea573f	0.11442422
73	0xbed0cc6f	-0.4078097
74	0x3d230d16	0.0398074
75	0xbd7a2a44	-0.061075464
76	0xbf188fb6	-0.59594285
77	0x3c244a36	0.010027459
78	0xbe48e565	-0.19618757
79	0xbf085038	-0.53247404
80	0xbec9c1cb	-0.39405665
81	0xbd8d738b	-0.06906804
82	0xbf2ba292	-0.6704494
83	0x3e062863	0.13101344
84	0xbe9213ae	-0.2853064
85	0x3cacb04a	0.021080155
86	0x3dba9dc1	0.091121204
87	0xbd633f4e	-0.055480294
88	0xbe5a1c36	-0.21299824
89	0xbaa34dde	-0.0012459119
90	0x3c0de32b	0.008660118
91	0xbcba68e2	-0.02275509
92	0xbf44bc96	-0.7685026
93	0xbbc6c661	-0.006066129
94	0x3d89812c	0.06714091
95	0xbae2aca8	-0.0017293887
96	0xbc8b39e9	-0.016995387
97	0xbda5290c	-0.0806447
98	0xbdb5e223	-0.08881023
99	0xbec79055	-0.38977304
100	0xbf845e02	-1.0341189
101	0xbef475d7	-0.47746155
102	0x3dc5a566	0.09650688
103	0xbec56c77	-0.38559315
104	0xbec0f1b1	-0.37684396
105	0x3d5bc48b	0.053654235
106	0x3cdeac83	0.02718187
107	0xbf0ffa9b	-0.5624177
108	0xbf2f8fb4	-0.6857865
109	0xbe9784a3	-0.2959338
110	0xbf39ea0e	-0.72622764
111	0xbf0db940	-0.55360794
112	0xbd9bad09	-0.07601363
113	0xbf327e35	-0.69723827
114	0x3c627b5e	0.013823358
115	0xbcdffaa6	-0.027341198
116	0xbbe3ebb7	-0.0069555896
117	0x3e0ab5f1	0.13545968
118	0xbf0ef772	-0.5584632
119	0x3d81a8a7	0.06330996
120	0x3d381c33	0.044948768
121	0xbbc5c6fb	-0.006035683
122	0x3d10677c	0.03525494
123	0xbd4d51b9	-0.050126765
124	0x3db5fc13	0.0888597
125	0x3d6727bf	0.05643439
126	0x3e03392b	0.12814777
127	0xbee43cfd	-0.4457778
128	0xbe307acd	-0.17234345
129	0xbd67e488	-0.05661443
130	0x3d427a1b	0.04747973
131	0xbe37950f	-0.17927955
132	0xbe0ba387	-0.136366
133	0x3e78a542	0.24281791
134	0xbe863c9b	-0.26218113
135	0xbee9f72f	-0.456964
136	0xbf027411	-0.50958353
137	0xbc823908	-0.015896335
138	0xbe25978f	-0.16171096
139	0xbd88f9ee	-0.06688295
140	0x3d59a46c	0.05313532
141	0x3d6cee7c	0.057844624
142	0xbdb2edb7	-0.08736747
143	0xbdabc519	-0.08387203
144	0xbdf9143d	-0.12162063
145	0xbf65efa6	-0.898188
146	0x3d956c35	0.072960295
147	0xbdcfe34d	-0.10150776
148	0xbe9c58a4	-0.30536377
149	0x3d7caa78	0.06168601
150	0xbca7b1d7	-0.020470543
151	0xbef549b4	-0.47907794
152	0x3ce1b92d	0.027554119
153	0xbd9d871e	-0.07691787
154	0xbf0d4cc2	-0.5519525
155	0xbeeac7e8	-0.4585564
156	0xbdf41baa	-0.11919339
157	0xbf200336	-0.625049
158	0x3d797fe6	0.06091299
159	0xbee783f2	-0.45217854
160	0x3d49de02	0.04928399
161	0xbdcba345	-0.099432506
162	0x3ef5cecf	0.48009345
163	0x3e32f900	0.17477798
164	0xbd368d6a	-0.044568457
165	0xbe56f4fe	-0.20991895
166	0x3ce00d6e	0.027350154
167	0xbf2e3b0f	-0.68058866
168	0xbdd1ad8d	-0.1023818
169	0x3d3510d6	0.04420551
170	0xbe57e52a	-0.21083513
171	0x3d531762	0.05153597
172	0x3e663ad3	0.22483377
173	0xbd7f7acd	-0.06237297
174	0xbec188ce	-0.37799686
175	0xbf83fac6	-1.0310905
176	0xbf06744d	-0.5252121
177	0x3c036b94	0.008021254
178	0xbec78183	-0.38965997
179	0xbec9c436	-0.3940751
180	0x3d9c405f	0.07629465
181	0xbdba66bd	-0.09101627
182	0xbf2aefc3	-0.667721
183	0xbeffe99f	-0.49982926
184	0xbe6a508e	-0.22882292
185	0xbf390c4a	-0.72284377
186	0xbf0bef2a	-0.5466181
187	0x3db163e2	0.08661629
188	0xbf41eaf9	-0.75749165
189	0xbdb078fe	-0.086168274
190	0xbd15b8e0	-0.036553264
191	0xbd8db32f	-0.06918942
192	0x3da46db9	0.080287404
193	0xbee87bb5	-0.4540688
194	0x3cd86906	0.026417267
195	0x3d5ab424	0.05339445
196	0xbedfa266	-0.43678588
197	0xbd8d709e	-0.06906246
198	0xbe8104e8	-0.25199056
199	0x3e0e0ea7	0.13872777
200	0xbe3b17e9	-0.1827084
201	0xbd944226	-0.07239179
202	0xbee170f7	-0.44031498
203	0xbcc11f40	-0.023574471
204	0x3e0e4308	0.13892758
205	0x3cbc3511	0.022974523
206	0xbdfeca5f	-0.12440943
207	0xbcaf3f17	-0.021392388
208	0xbe75daa5	-0.24009188
209	0x3d7bf912	0.06151683
210	0xbee94fd2	-0.4556871
211	0xbeff1d0a	-0.49826843
212	0xbe806116	-0.2507407
213	0xbdc336fd	-0.095319726
214	0x3c5efb68	0.013609745
215	0xbd1aeeb9	-0.03782532
216	0x3d8788a7	0.06617861
217	0x3c2cab1c	0.0105388425
218	0x3ef98a03	0.48738107
219	0x3d8a7747	0.067610316
220	0xbf810be3	-1.0081753
221	0xbe759dec	-0.23986024
222	0x3b0b425b	0.0021249268
223	0xbed440a8	-0.4145558
224	0x3d55df78	0.05221507
225	0xbdaca6a9	-0.084302254
226	0xbf09247a	-0.53571284
227	0x3dc1c3a5	0.09461144
228	0x3d82f2ed	0.06393991
229	0xbf1cf56f	-0.61312
230	0xbee8ff63	-0.45507345
231	0xbe18fb98	-0.14939725
232	0xbf00d53b	-0.50325364
233	0x3d9ab08f	0.07553207
234	0xbe0b082c	-0.13577336
235	0xbd95ee6a	-0.073208645
236	0x3dde7bb1	0.10863436
237	0xbe566f87	-0.20940982
238	0xbdca1c4f	-0.09868681
239	0xbefd67a7	-0.49493143
240	0x3dfdd4bb	0.12394091
241	0x3e412749	0.18862642
242	0xbf16294a	-0.5865675
243	0x3d9d4bad	0.0768045
244	0x3da70805	0.081558265
245	0xbdf11d83	-0.11773207
246	0xbc0da017	-0.008644125
247	0x3dc358b1	0.09538401
248	0x3bb75cdd	0.005595787
249	0xbecba1b3	-0.39771804
250	0xbf7578a6	-0.9588722
251	0xbf0431a9	-0.51638275
252	0xbd1be164	-0.038056746
253	0xbec5d8e3	-0.38642034
254	0xbecfc172	-0.40577275
255	0xbe4d141e	-0.20027205
