experiments/sokoban/sokoban_full_train_set_2-75-3/best/model.npz (npz, 29693 bytes, 6 tensors)

model/output/W f4 [4, 75]
000000 19 11 60 bd 02 67 14 bb 8d 09 e4 3d a1 87 e1 bc
       -0.054703806 -0.0022644405 0.11134634 -0.027530493
000010 64 f3 4e be ee 03 bb bd e7 41 1a bc 79 48 99 3d
       -0.20210034 -0.09131609 -0.009415126 0.07484526
000020 1a ec 09 bf d3 94 1a bf 61 5e 1b 3e 57 a7 30 bf
       -0.5387589 -0.6038334 0.15172721 -0.6900534
000030 8f 8b 0b bc c1 f1 70 bc 02 06 9b 3d d9 af b3 3d
       -0.00851716 -0.014706076 0.07569505 0.08773775
000040 3f 41 bd bc 43 a0 24 bf d8 90 b7 bd bc 4f a4 3d
       -0.0231024 -0.6430704 -0.08963174 0.080230206
000050 56 98 7b be a1 28 5f 3e a7 3a 2d be cc bf e1 be
       -0.2456983 0.21792842 -0.16916905 -0.44091642
000060 38 94 08 bc ff 7b 3e be ba d2 fe 3d fa 00 22 bf
       -0.008336119 -0.18601988 0.12442537 -0.6328274
000070 b3 bf 16 3e 55 02 c6 bd 0a 5f 39 bf 06 a0 3b 3e
       0.14721565 -0.096684135 -0.72410643 0.18322763
000080 c7 40 04 bd eb 1d a5 be fe 84 15 3e e9 c7 63 3c
       -0.03228834 -0.32249388 0.14601514 0.013902643
000090 a7 52 7b bd 54 f7 8b 3c 24 ca 0f be 30 39 e9 3d
       -0.06135812 0.017085709 -0.14041954 0.11387861
0000a0 23 5c 6e bb 3c 0d 22 be 07 6e fe bd a2 2d 07 bd
       -0.0036370836 -0.15825361 -0.1242333 -0.033002503
0000b0 ab c2 66 bf 49 72 0d 3e 14 ab 1d bf e3 bb cb bb
       -0.9014079 0.13813128 -0.6158917 -0.006217466
0000c0 70 5b 09 3e 57 2d 63 3d 4e ab ba 3d 88 4d 2f bd
       0.13413787 0.05546316 0.09114705 -0.04279855
0000d0 f4 5c 66 be 5e fd 9a 3a 0e 96 21 bf 89 26 fa 3c
       -0.22496396 0.0011824777 -0.6311959 0.030535953
0000e0 bf 62 0a bd 3c 2b 00 bf 1c 49 35 bf f7 94 35 bf
       -0.033785578 -0.5006597 -0.7081468 -0.7093043
0000f0 7f 41 19 bd c8 2c 5b bd 5b 12 2c 3d 60 54 86 bc
       -0.037415978 -0.053509504 0.042009693 -0.016397655
000100 7d ce 98 bc 15 5b 4a 3d 59 3f b8 bd 51 cd ed bc
       -0.018653149 0.04940327 -0.089964576 -0.029028567
000110 73 73 76 3e 6b 21 6c be cb cd e1 be 7e 68 c9 be
       0.24067478 -0.23059623 -0.4410232 -0.39337534
000120 1a aa 0b be 2d fd 89 bd b7 fe 98 bd 4f fb bf 3c
       -0.13639107 -0.067377426 -0.07470458 0.023435263
000130 68 a5 13 3d 20 a9 a5 3e fe 6f 0a 3e 9d 27 bf be
       0.036046416 0.32355595 0.13519284 -0.3733491
000140 3c dd 1f bd b6 87 c0 bc bc 6c 3e 3d 62 16 38 bf
       -0.039029345 -0.023502212 0.046490416 -0.71909153
000150 36 27 18 bf 87 dd 0c 3e 30 d0 2c bf 69 50 da bc
       -0.5943483 0.13756381 -0.6750517 -0.02664967
000160 92 5e c3 3c bd 06 9e 3d c0 1e a9 3c 9e b6 c3 bb
       0.023848806 0.07716129 0.020644546 -0.0059726974
000170 27 71 e7 be ef 6b 45 be 76 ca e5 bd bf a4 52 3c
       -0.45203516 -0.19279455 -0.11220257 0.012856661
000180 34 3b 6b 3c 04 41 7a 3a c0 d8 05 bf d8 e7 07 be
       0.014357377 0.0009546431 -0.5228386 -0.13272035
000190 2b ed ac be c5 2e 5c 3e 34 c9 25 bf 4d 01 22 be
       -0.33774695 0.21502216 -0.64760137 -0.15820809
0001a0 a1 7f 92 bd ec ab 50 bf e2 d6 01 3d a8 fa 81 bd
       -0.071532495 -0.8151233 0.03169907 -0.06346637
0001b0 fc c7 93 be 39 e0 25 bd 00 04 82 3d 4c fd a1 bd
       -0.28863513 -0.04049704 0.06348419 -0.07909641
0001c0 25 02 71 bd 44 4f 08 be 2a bb be 3e 4e d5 30 bd
       -0.058839936 -0.13311487 0.3725217 -0.043172173
0001d0 a9 00 86 bd c4 b5 ba 3c ee ae bb bd b7 63 5e bf
       -0.06543095 0.02279175 -0.091642246 -0.868709
0001e0 4e fe c6 bd 8b 70 fa be 74 68 27 3e 17 64 84 bd
       -0.097164735 -0.48913988 0.1634844 -0.06464403
0001f0 d7 62 ad 3c f8 fe 41 3c a4 31 85 bd 38 b2 7f be
       0.021165295 0.011840574 -0.06503609 -0.24970329
000200 6e a1 4e bd 82 87 de be 6c fb a1 3d c4 90 9d bd
       -0.05044692 -0.4346276 0.07909283 -0.076936275
000210 7e 61 bb be 47 b4 2a bf 62 6b 34 bf b0 f2 a9 bd
       -0.36597818 -0.6668133 -0.70476353 -0.08298242
000220 86 cf 85 3d 3e 6e 9f 3d 07 fb a5 3e 08 3b 00 bb
       0.065337226 0.07784699 0.3241808 -0.0019566435
000230 0d 5a 6a 3e 23 81 70 bc 02 e8 c8 3d b6 22 bb 3d
       0.22885914 -0.014679226 0.09809877 0.0913748
000240 3e 96 d4 be c5 23 08 bf 21 12 a4 be a3 0f 83 bd
       -0.41520876 -0.5317958 -0.3204508 -0.06399467
000250 86 90 51 3e 13 44 a6 3d 74 3b 51 bd 8f 96 e4 3c
       0.20465288 0.08118453 -0.05108209 0.027903823
000260 79 c8 20 3e cd b6 ba bd 1b a4 93 be f9 14 82 bd
       0.15701474 -0.09116898 -0.2883614 -0.063516565
000270 ee 23 27 3e f5 89 f3 bd 1a 16 47 bf d8 be fb be
       0.163223 -0.118915476 -0.777681 -0.4916904
000280 df 7a 3f bd 46 3f 25 bf 10 94 61 3d 71 54 ac bd
       -0.04674804 -0.6454967 0.055072844 -0.084145434
000290 70 e5 92 bd b7 07 24 3e e2 7e 46 bd d1 35 14 bf
       -0.07172668 0.16018568 -0.04846085 -0.5789462
0002a0 77 56 5f be ff 3b a7 3d 20 55 9a 3d 81 92 eb bd
       -0.21810327 0.0816574 0.075357676 -0.11502553
0002b0 df 6c 1b be b2 49 d7 be bf e3 24 3d fa 80 ea be
       -0.1517825 -0.42048413 0.040256258 -0.45801526
0002c0 1b 67 1a bc fa 5e 10 bf c0 79 ae bb 85 b9 64 3c
       -0.009423996 -0.5639492 -0.0053245723 0.013960247
0002d0 de 56 4d bf c8 f0 5c bd 5e 1c 5e 3d 91 af c2 be
       -0.80210674 -0.053940564 0.05422627 -0.38024572
0002e0 3a 69 9d bd cf 87 d2 3d e5 b8 33 be 34 92 80 3e
       -0.07686086 0.1027981 -0.17551 0.25111544
0002f0 60 b1 e4 bd 33 64 ea 3d 8c d3 d0 3c 6b d4 cc bd
       -0.11166644 0.11444893 0.025491498 -0.10001453
000300 11 79 35 bb 30 b5 17 3e e9 1d 30 bf 59 f1 07 be
       -0.002769057 0.14815211 -0.6879564 -0.1327566
000310 09 01 19 bf f7 f8 9f 3b 95 33 37 bc 9c f1 50 3d
       -0.59767205 0.004881974 -0.011181732 0.051011667
000320 0c 1c 0d bd 3f b4 12 3d d9 8b 66 be 65 ed 73 bd
       -0.034450576 0.035816427 -0.22514285 -0.05955257
000330 76 b1 00 bf 78 9c 84 bd f4 59 d1 bc cf 8b ac be
       -0.50270784 -0.064751565 -0.025555588 -0.33700415
000340 01 ad 22 bf 10 4e 49 bf a8 f2 14 bd 38 ac d0 3c
       -0.63545233 -0.7863474 -0.036364228 0.025472745
000350 e5 0d d9 3d a1 39 08 be c5 15 a2 be 1d f9 77 3d
       0.10598353 -0.13303234 -0.31657234 0.060540307
000360 3c 4f ab bc 19 c2 e2 bd 68 9f 26 3e 19 b0 f2 be
       -0.020911805 -0.110721774 0.16271746 -0.47399977
000370 be a0 ec be ed 3f e6 be 3b 67 c6 bd 63 25 15 3e
       -0.46216387 -0.44970647 -0.096876584 0.14565043
000380 d9 a9 40 be f3 ec f7 bd a3 38 ea 3d ac f8 b0 3d
       -0.18814792 -0.12105741 0.11436584 0.086411804
000390 af 36 a2 bd 8b b6 c8 be 4c e7 82 3d 7e d3 9b bc
       -0.07920586 -0.3920177 0.06391773 -0.019021746
0003a0 a2 af 1a 3e b5 71 3c bf 56 80 16 bf 08 a8 8f bd
       0.15106061 -0.73611003 -0.58789575 -0.07014471
0003b0 33 5f 15 bf bd de 16 bc d6 00 4e bd 5c e9 66 be
       -0.5834839 -0.009208378 -0.050293766 -0.22549957
0003c0 fb ca 7c 3c 89 dc 8a bd 4f 74 02 bf ef 46 18 be
       0.015429254 -0.06780345 -0.5095872 -0.14870809
0003d0 22 81 30 3e 15 6a c6 bc cd 8c dc 3d 49 9e 0d bd
       0.1723676 -0.024220506 0.10769043 -0.03457478
0003e0 9a e3 c7 be bc 57 6a 3d f5 37 f4 be 95 11 6e 39
       -0.39040834 0.057212576 -0.47698942 0.00022703999
0003f0 cd dd e8 be f2 34 03 3e 92 b4 49 bd 8f 02 5a bf
       -0.4548172 0.12813166 -0.04924447 -0.85160154

model/output/b f4 [4]
000000 01 be 0c c0 de 37 f6 bf a2 e3 05 c0 b6 b0 fa bf
       -2.199097 -1.9235799 -2.0920186 -1.9585178

model/hidden_layers/0/W f4 [75, 20]
000000 9f ec b2 3e 48 0f 79 3d f4 02 a8 3c 03 ad e6 be
       0.34946153 0.06080559 0.02050922 -0.45053872
000010 a3 bb 27 3e 2b fb ae bd 66 d1 12 bd b8 dc 8a bd
       0.16380171 -0.08544 -0.03584423 -0.0678038
000020 e2 2a ce be 67 a5 e1 bd e3 d3 4b be 48 e5 53 3d
       -0.40267092 -0.11017876 -0.19905047 0.05173233
000030 15 3c b6 3d de 94 66 3d d5 91 99 3b 87 e8 5b 3d
       0.088981785 0.056294315 0.004686574 0.053688552
000040 7e 24 4b be 9f 2c 80 3d b7 79 fb 3e 8c e6 38 bd
       -0.1983814 0.06258511 0.491163 -0.04514174
000050 e9 9d a8 be 4b 97 c4 bd 8e 74 1f 3e df 07 ba bd
       -0.32932976 -0.09599169 0.15571806 -0.090835325
000060 fa 09 13 be 11 b1 22 be ae 85 be 3d 6b e9 1c bd
       -0.14359275 -0.15887858 0.09302841 -0.038308542
000070 57 60 a9 be ba 76 48 bd 03 8b f3 bd fa 51 54 3e
       -0.33081314 -0.04894135 -0.11891749 0.20734397
000080 d6 8b 87 be db d3 b3 3c db 52 d9 bd 9f 5a 82 be
       -0.26473874 0.021951606 -0.106115066 -0.25459763
000090 69 25 2f bd b8 80 93 3d c3 b4 76 3e a7 72 c0 3c
       -0.042760286 0.072022855 0.24092393 0.02349217
0000a0 9a 3e b4 be 18 78 b6 3d 05 28 df 3c da 6c 1a bf
       -0.3520401 0.08909625 0.027240762 -0.60322344
0000b0 da 57 19 be 2f 3d ff bd bf 69 53 be 25 a0 96 3d
       -0.14974919 -0.12462842 -0.20645808 0.07354764
0000c0 63 1d 29 bf a8 3a 6f bc f2 2a ca 3d 9b 1d c1 bd
       -0.66060466 -0.014601387 0.098714724 -0.09429475
0000d0 08 ec 65 3d c6 58 72 3e ca 6b a3 3c 9e 55 4a be
       0.0561333 0.23666677 0.019948859 -0.19759223
0000e0 0f 50 bb bd 78 4c f5 bc 56 3b aa be 23 e6 a6 bc
       -0.09146129 -0.02994369 -0.33248395 -0.02037341
0000f0 c1 ca 23 3e 72 c3 e9 3d d2 b0 13 bd 91 f9 8f 3d
       0.15995313 0.11414231 -0.0360573 0.07030023
000100 8e b7 21 be 23 96 a7 bb 62 08 f7 bb d7 25 dd bd
       -0.15792677 -0.0051143332 -0.007538841 -0.10798233
000110 c4 a0 ab bd 9a 09 c1 3e 2e 89 26 be 6e 9a af 3d
       -0.08380273 0.37702638 -0.16263267 0.08574377
000120 00 0b e4 3c bc 8e 5d 3e 95 13 5b bc f5 e8 ab 3d
       0.027837276 0.2163648 -0.013371368 0.083940424
000130 28 40 29 be 72 55 bb 3d 38 9b 6a be ec a2 25 bd
       -0.1652838 0.09147157 -0.22910774 -0.040438578
000140 64 06 a0 be 66 8d 18 3d e2 b0 03 3e 57 f9 95 be
       -0.31254876 0.037244223 0.12860444 -0.29291794
000150 f5 6f b8 3d f7 a3 52 3e c0 f2 1d bc 9d 33 30 be
       0.09005729 0.2057036 -0.009640396 -0.17207189
000160 b1 77 c5 be d0 e7 13 be 5e 53 8a 3d 11 ed be 3c
       -0.3856788 -0.14443898 0.06754182 0.023306401
000170 0c aa a9 bd a0 08 b5 3d fa 56 9a bb 2c 11 8c bd
       -0.08284387 0.08839536 -0.0047100754 -0.06839213
000180 f3 e8 5b bd 97 4b aa 3c 82 d8 47 be ea 33 15 ba
       -0.053688955 0.020787997 -0.19516185 -0.0005691635
000190 9f cd 6c 3e 35 2d 84 be 42 ec 66 bd fe e3 12 be
       0.23125313 -0.2581574 -0.056377657 -0.14344785
0001a0 38 34 40 3e 97 f9 86 3d eb 09 cb bd ab d4 6c be
       0.1876992 0.06590574 -0.09914001 -0.23128001
0001b0 95 16 fa be 2a 8f dc 3a f3 7a 98 3c cd ae 26 3c
       -0.48845354 0.0016827334 0.018613314 0.010173512
0001c0 a4 a4 8a bc 5b 5e 92 bd 18 65 49 3c 14 ec 88 bd
       -0.01692421 -0.07146903 0.012292169 -0.06685653
0001d0 f4 f1 e1 bc de ae 5d 3d 74 41 09 bf 74 10 d1 bc
       -0.027581193 0.054121844 -0.536155 -0.02552054
0001e0 9c 60 12 be 9b c1 9e 3d 63 31 44 3c 99 22 a1 be
       -0.14294666 0.07751771 0.011974665 -0.31471708
0001f0 ec 80 7e 3d c9 18 25 bc 79 30 f1 bc 67 f5 d7 3b
       0.06213467 -0.01007671 -0.029442059 0.0065905335
000200 6a 1e 0f be 12 10 d5 bd e6 4e 65 bd bb e3 14 3d
       -0.13976446 -0.10403456 -0.055983447 0.036349993
000210 60 2d 81 3c 04 19 45 be c3 62 a2 bb 58 a8 a7 bd
       0.015768707 -0.19247824 -0.004955621 -0.08186406
000220 bc 5e 12 be ab 71 c6 3d c2 13 8f ba dd e0 98 bb
       -0.14293951 0.09689649 -0.0010915922 -0.0046654777
000230 a7 68 f6 bd fd ee 06 3e 10 81 73 bd c1 14 4f be
       -0.120316796 0.13177104 -0.059449255 -0.2022276
000240 01 fe ad be f4 92 c8 ba ef 8e be 3d dc 0a 19 3e
       -0.33982852 -0.0015302585 0.09304606 0.14945549
000250 62 07 30 be 24 9e 79 bd d8 a4 6a be 5d 50 a3 bd
       -0.17190316 -0.06094183 -0.22914445 -0.079743125
000260 dd 13 b1 be 77 c9 b8 be f1 cf b3 3b 43 a1 7c 3e
       -0.34585467 -0.36091205 0.005487435 0.24670891
000270 93 8c bc 3d 66 ad 51 3d f7 a0 9c be bc f0 84 bc
       0.092065 0.051190756 -0.30591556 -0.016228072
000280 d1 e5 a7 bd 6b 38 b4 bd d4 d9 6d 3c b8 40 7a be
       -0.08198131 -0.087998234 0.014517266 -0.2443875
000290 bd c4 00 3d 37 af 57 3d d0 88 76 be e5 35 00 b9
       0.031437624 0.052657332 -0.24075627 -0.00012227109
0002a0 8b a5 5d be bd 83 b4 bc 3a 7d 04 3e 44 a1 fe bd
       -0.21645181 -0.022035474 0.12938395 -0.12433103
0002b0 8f 9b a7 bb 02 f5 76 3d dc 6f 21 3c 3d 1f b8 bd
       -0.0051149796 0.06029225 0.0098533295 -0.08990333
0002c0 86 4e a6 bd 15 71 ce 3d 97 0b 25 3e a9 4b b2 bc
       -0.08120446 0.100801624 0.16117702 -0.021764593
0002d0 f9 54 70 3e 21 84 1e 3d a0 b4 06 be 89 24 0d be
       0.23469914 0.038700227 -0.1315484 -0.13783468
0002e0 2d e3 ad be 62 23 83 be 3b da ac bc b8 7d f8 3c
       -0.33962384 -0.25612932 -0.021100154 0.030333385
0002f0 ac 9f dd 3d 19 41 b7 3c 6e 12 e5 bd b3 ed 30 bd
       0.108214706 0.022369908 -0.11185156 -0.043195438
000300 47 b5 13 3e 16 28 19 3e 43 4e 1c 3c 23 06 d3 bd
       0.1442462 0.14956698 0.009540143 -0.10303905
000310 7f ca 3a bd 87 c8 50 bd aa 2d cf bd 81 48 c6 3a
       -0.04560327 -0.050972488 -0.101161316 0.0015127809
000320 0d 7d b3 bd 03 8b 58 3c 9a 32 0e 3d 00 9e d8 be
       -0.08764086 0.013216737 0.034716226 -0.42308044
000330 63 8a 85 3d 44 0c 4f 3e c3 7f 22 3e be fd 7c 3c
       0.06520536 0.20219523 0.1586905 0.015441356
000340 16 d7 e6 be 65 a5 0a be cd 27 5c bd e3 16 1f 3e
       -0.45085973 -0.13539656 -0.053748894 0.15536074
000350 82 92 54 3c 21 ef 15 3e c3 4c b2 bc d5 7d ab bd
       0.012974383 0.14642002 -0.021765118 -0.0837361
000360 2f 2d 82 bd a6 ec 56 3e b0 ba f1 be ca c2 83 3c
       -0.06356274 0.20988712 -0.47212744 0.016084094
000370 5f b1 f1 3a 95 2f 12 3e f4 0a ef 3d b4 69 f9 bd
       0.0018439702 0.14275964 0.11672011 -0.121783644
000380 42 59 23 be 40 fe 54 3e c7 8f e8 be 37 b6 93 3d
       -0.15952018 0.20800114 -0.45422193 0.07212489
000390 95 dc 12 be a3 40 82 bd 7b d4 07 3e 58 a8 c8 3d
       -0.14341958 -0.06359985 0.13264649 0.09797734
0003a0 4c b3 2c bd b1 a1 f4 be 59 b1 bc 3a 6e 18 83 bc
       -0.04216318 -0.4777961 0.0014396115 -0.01600286
0003b0 39 3c da bd fd 8a 25 3e 59 ab 83 be 86 6b 51 bc
       -0.10656018 0.16166301 -0.25716665 -0.012781983
0003c0 ee 1a 96 bd 64 9b bb 3e c4 4a ff 3d 7e 3b ad be
       -0.07329355 0.3664199 0.12465432 -0.3383445
0003d0 78 6d 87 3e b6 f3 c1 3e 7b d3 72 3d 3b 5d 5b 3e
       0.26450706 0.3788125 0.059283715 0.21422283
0003e0 cc cd 2e be 4c 99 1b 3d ac c6 c7 3e 33 f5 de be
       -0.17070693 0.037987992 0.39018762 -0.43546447
0003f0 5e cb c0 3c 39 15 40 bd 20 57 fc 3c f8 1a 1d 3c
       0.023534473 -0.04689524 0.030803263 0.009588949

model/hidden_layers/0/b f4 [75]
000000 c3 a5 f7 be e8 71 25 3f a0 a3 81 bf 55 40 51 bd
       -0.48368654 0.6462693 -1.0128059 -0.051086742
000010 d6 85 0d bf 72 ec d0 bf eb a0 e7 be d3 cf e3 bf
       -0.5528234 -1.6322157 -0.45239958 -1.7797798
000020 84 ee 96 be 2b 71 1b 40 0b 52 a1 bf 60 1a e2 bf
       -0.29478848 2.4287822 -1.2603163 -1.7664299
000030 85 94 01 bf ca 74 d2 be aa a4 21 40 df 93 9a be
       -0.5061725 -0.41104728 2.5256753 -0.30190942
000040 a5 33 ed 3f 31 6e 12 40 fa 21 e0 3f a4 0c 33 bf
       1.8531386 2.2879755 1.7510369 -0.69941163
000050 b1 e0 50 be ed 38 81 be 0d 44 99 be cf 8b 94 bf
       -0.20398213 -0.25238743 -0.2993473 -1.1605166
000060 cd af 5f bf 3f c5 ce be e9 aa 6b bf 59 be 9e bf
       -0.87377626 -0.40384862 -0.92057663 -1.240184
000070 e6 a7 b9 3f aa 19 ac be 40 91 ef 3f e5 10 0a bf
       1.4504364 -0.3361333 1.8716202 -0.5393203
000080 9b f2 08 bf b7 d5 20 bf 42 9b 83 bf c9 e0 b8 bf
       -0.53495187 -0.628261 -1.0281756 -1.4443599
000090 bf 66 22 40 c7 6b 0e bf 30 8e b3 bf 02 a8 c4 be
       2.5375211 -0.55633205 -1.4027767 -0.3840943
0000a0 e2 a3 fa be 22 e3 0d bf 9b b2 bf bf 1c 1f 4a 3f
       -0.48953158 -0.554247 -1.4976381 0.7895372
0000b0 47 5f e6 bf ff ad 02 bf 74 cb 0b bf 35 86 11 40
       -1.7997826 -0.51046747 -0.5460732 2.2738163
0000c0 99 ab 4a bf bc a9 19 40 ec df ba bf e1 26 b6 bf
       -0.7916809 2.4009848 -1.4599586 -1.4230615
0000d0 82 25 1b bf f5 85 11 bf 18 43 82 bf 63 8e a3 be
       -0.6060411 -0.5684503 -1.0176725 -0.3194457
0000e0 05 f1 25 bf cd 21 84 bf aa d6 9c be bb 40 1c bf
       -0.6482089 -1.0322815 -0.30632526 -0.6103627
0000f0 1a 9e 68 3f d4 49 73 bf 42 f3 00 40 e5 4b 75 be
       0.90866244 -0.9503453 2.0148473 -0.23954733
000100 76 05 26 bf 1c 42 06 40 47 ca e9 be 20 30 80 be
       -0.6485208 2.097785 -0.45662138 -0.25036716
000110 bd f3 12 bf ab 28 7f be d5 c5 3e bf ca 93 ca be
       -0.57403165 -0.24917857 -0.7452062 -0.3956588
000120 fb eb 06 c0 b1 c8 06 bf 49 d6 a2 bf
       -2.108153 -0.5264998 -1.2721645

model/hidden_layers/1/W f4 [75, 75]
000000 84 58 54 be ce a6 d6 3d ad 4c d9 3c 8c 6f 54 be
       -0.20736891 0.10481034 0.02652582 -0.20745677
000010 95 bc 1b 3e e4 68 af bd 82 c7 89 be d4 04 79 3c
       0.15208657 -0.08564928 -0.26910025 0.015198905
000020 a6 7b 05 3e 77 e6 22 bd 1d bc 03 be 32 3a ec 3c
       0.1303545 -0.03977057 -0.12864728 0.028836343
000030 48 4b 09 be 2e 4b 2c bd 10 0a 00 3d 44 9f 60 bb
       -0.13407624 -0.042063884 0.031259596 -0.0034274617
000040 bd a2 e4 bd b0 a4 35 be 02 d2 c9 3d 6f c8 95 be
       -0.11163852 -0.17738605 0.09854509 -0.2925448
000050 44 11 7c 3c 17 44 27 bd 1e 4c 03 3d 77 0f 84 bd
       0.015384976 -0.04083642 0.032055013 -0.06448262
000060 37 e5 1a bc a5 88 73 3d 43 b7 39 be 80 a4 72 bd
       -0.009454063 0.059456486 -0.18136315 -0.05923891
000070 f6 7e 1b bd e7 51 26 be 2b fb 1e be 3c 15 43 3e
       -0.037962876 -0.16242181 -0.155255 0.19051069
000080 9d 90 a8 3d 06 5d 1c be ac 1a 71 3d 70 e1 80 bc
       0.08230708 -0.1526986 0.058863327 -0.015732497
000090 80 bf 30 3e 3e 00 85 3d 3b d5 92 be 62 eb ef bc
       0.17260551 0.06494187 -0.28678307 -0.029287044
0000a0 4b 47 f7 3d fe 66 07 3e 00 a9 e8 bd d6 ba 64 be
       0.12074145 0.13222882 -0.11360359 -0.22336897
0000b0 72 e8 12 bd ef 3b 0d be 6b 3b 76 bc bf e6 33 be
       -0.03586621 -0.13792394 -0.015028815 -0.17568491
0000c0 8f c4 4f 3d 2f ae 7c 3d 74 49 1c bc 65 19 30 be
       0.050724562 0.061689552 -0.009538997 -0.17197187
0000d0 5f 7a 62 be 49 52 0d be b7 dc a7 bc bf b7 55 be
       -0.22116993 -0.1380092 -0.020490987 -0.20870875
0000e0 9a 73 66 3d 3d 91 15 3e 2b f6 f5 bd bf b4 60 bd
       0.05626259 0.14606185 -0.120098434 -0.054859873
0000f0 1f 63 e5 3d b8 62 84 3d 81 95 08 be 03 4f 57 bd
       0.112005465 0.064641416 -0.13338281 -0.052565586
000100 f1 5f 28 bc 24 dd c3 bc 02 e8 17 3d fb ee 32 bc
       -0.01027678 -0.023909159 0.037086494 -0.010921235
000110 c1 12 11 3e b8 61 5b be 6f 24 ba 3d da 5c db 3c
       0.1416731 -0.21423995 0.090889804 0.026777674
000120 8a aa 7b bd e8 ee bd 3c 0b 77 89 3d 4f b4 b3 3c
       -0.061441936 0.023185208 0.06712159 0.021936564
000130 a0 67 b3 bd aa 05 b9 3c 4b a1 9c bd 12 77 2d be
       -0.08759999 0.022585709 -0.07647952 -0.16939953
000140 b6 0b e6 bd f6 c3 c9 bd f7 2a 16 bb 6e 3f 63 3d
       -0.112327024 -0.0985183 -0.0022913793 0.055480413
000150 47 c7 6a 3c b3 10 18 3e 96 cd 9b bc 27 42 7d bd
       0.014329738 0.1485012 -0.01901893 -0.061830666
000160 e0 80 b0 bd a9 be 22 be f9 36 af bd 09 f4 02 3e
       -0.08618331 -0.15893044 -0.08555407 0.12788405
000170 10 11 5d be 05 03 73 3d a4 38 15 bd 8f 5e bf 3d
       -0.2158854 0.05932905 -0.03643097 0.093442075
000180 c0 bf 38 bd 3f ad 84 3d 22 07 86 bd bb be fb 3c
       -0.045104742 0.064783566 -0.06544329 0.030730596
000190 69 ca 66 be 1e 7e 01 3d db f6 58 3d 19 47 29 be
       -0.22538151 0.031614415 0.052969795 -0.16531028
0001a0 5c 63 d1 3d 2d e2 2c be a3 86 cf 3d 79 70 81 3c
       0.102240294 -0.16883154 0.10133102 0.015800701
0001b0 82 2c 96 3d 73 3b 2e bb e6 37 16 be 55 72 16 3e
       0.07332708 -0.0026585727 -0.14669761 0.14692052
0001c0 ff b7 1e 3e 29 34 dd bd 94 73 1c 3d 72 0d 67 3d
       0.15499876 -0.108009644 0.03819616 0.056409307
0001d0 1d 61 85 bd 61 0e 14 be 45 03 05 3e 09 39 2b bd
       -0.065126635 -0.1445861 0.12989528 -0.04180244
0001e0 86 3a f9 3d a2 19 32 3e 8c 42 6c 3d 55 ec d8 bd
       0.121693656 0.1739259 0.05768065 -0.10591952
0001f0 ea e6 95 3d 85 1e 1e be 56 e1 a6 bd 31 d2 a2 3e
       0.07319434 -0.1544133 -0.08148448 0.31800988
000200 f3 ff e2 bd 0f b2 86 3c 92 5f 10 be a0 72 cb bc
       -0.11083975 0.016442327 -0.14098957 -0.02483493
000210 72 3e c6 3b ae 53 a8 be d7 e6 a1 bd 0e c4 67 3d
       0.0060499245 -0.32876343 -0.07905357 0.056583457
000220 82 42 b8 3d 8a d8 71 3d f2 ea 0e be 21 90 1c 3d
       0.0899706 0.0590444 -0.13956812 0.03822339
000230 66 b6 f6 bd 47 2b e6 bd 86 87 38 3c a1 07 60 3e
       -0.120465085 -0.11238723 0.01126278 0.2187791
000240 5e 32 c0 bd 6c ca 0e 3e 7f 93 7c 3b cb de 33 be
       -0.09384607 0.13944405 0.0038540063 -0.17565458
000250 21 06 02 be 6a 1f 8f bd fb 39 de bb 78 b6 52 3d
       -0.1269765 -0.06988414 -0.006781814 0.051443547
000260 c4 cc d6 bd 66 96 10 be 83 5b f6 3d d9 d4 1a bc
       -0.10488275 -0.14119872 0.12029173 -0.009450161
000270 4a 64 83 bd 71 40 18 bd 84 bc af 3e 63 fc 2a be
       -0.06415613 -0.03717083 0.34323514 -0.1669784
000280 6b 1a 4d be 9a d0 a6 3d 03 05 6d 3e 44 dd 50 3e
       -0.20029609 0.08145256 0.23146443 0.20396906
000290 0f 60 15 be 73 22 31 be b1 d6 f0 3d 94 b3 cc bc
       -0.14587425 -0.17298298 0.11759699 -0.024987973
0002a0 1a 41 aa 3d e7 76 11 bd 5f cd 65 3e da e0 63 bd
       0.083131984 -0.035513785 0.22441624 -0.055634357
0002b0 a5 18 13 bd 1e 8b b7 bc 21 d6 ea bd a0 61 c4 3c
       -0.035912175 -0.022405203 -0.11466623 0.023972332
0002c0 2d e1 02 3d 26 eb 83 be 67 4e 3b be c4 fe 07 be
       0.031953026 -0.25765342 -0.18291627 -0.13280779
0002d0 fb 7f 80 be 06 70 d6 3c 68 49 0f 3e 87 a5 5d 3d
       -0.2509764 0.026176464 0.13992846 0.054112937
0002e0 c2 8a 34 be 54 07 4e be 6b 60 bc 3d 3f 0c fe bc
       -0.17631057 -0.20119983 0.09198078 -0.031011699
0002f0 8f 14 08 bd d2 be 10 be c8 b8 6c be 67 0c 84 3e
       -0.03322273 -0.14135292 -0.23117363 0.25790712
000300 22 26 87 bd e5 f2 b0 bc 9e 49 1a be bb 55 0d 3e
       -0.0659907 -0.021600196 -0.15067145 0.13802235
000310 c0 98 36 bd 2a 76 dd bd 40 8b 29 bc b9 78 94 bd
       -0.044579268 -0.10813554 -0.010348141 -0.072495885
000320 31 da fd 3d 49 70 57 be d1 a2 9f 3d 99 5e 99 bd
       0.12395132 -0.21038927 0.07794727 -0.07488746
000330 09 06 eb bd c3 e7 b0 bd 41 e2 5d 3d 5d ff 4c be
       -0.114757605 -0.08637955 0.05417085 -0.20019288
000340 7e 25 17 bd 72 77 7f 3d 00 9a 25 bd 0a ad 96 bd
       -0.03690099 0.06236977 -0.04043007 -0.07357223
000350 d9 82 2f bd 0f 67 02 3d 40 57 6d bd 73 13 1b 3d
       -0.042849395 0.031836566 -0.057944536 0.037860345
000360 d9 24 eb bd a6 2c 2e 3e aa 61 28 be 1e b3 43 be
       -0.114816375 0.1700922 -0.16443506 -0.19111297
000370 23 5b 46 3b 23 cc 44 be b3 18 21 be 82 ec e9 3b
       0.0030266724 -0.19218497 -0.15732078 0.0071387896
000380 59 8e a9 3d b2 58 7c bd a7 dd 4c bd 7e 28 62 bd
       0.08279104 -0.061608024 -0.05001607 -0.055214398
000390 16 38 00 3d bf 15 9e bd 74 04 26 3a aa 75 28 3e
       0.031303488 -0.077189915 0.0006333061 0.16451135
0003a0 3a 50 a2 bd cb 25 43 bd 1c 8d 14 be 87 90 c8 bd
       -0.07925458 -0.047643464 -0.14506954 -0.097931914
0003b0 25 f1 1e be 8f e0 13 be 13 08 a5 bd 69 7c b5 3c
       -0.15521677 -0.14441131 -0.08058181 0.02215405
0003c0 25 51 39 3d e9 d7 89 bd 88 ee 81 3c 46 63 24 be
       0.0452434 -0.06730635 0.01586081 -0.16053495
0003d0 f0 9f 2f 3e d2 a1 88 3e 98 28 0b bd 3c 91 65 3d
       0.17150855 0.2668596 -0.03397426 0.05604671
0003e0 a1 24 24 bd ac 4d a8 3d 1e 4b ba bd bf 59 39 be
       -0.040073995 0.0821794 -0.09096359 -0.18100642
0003f0 2d 8f 32 3d 6c 8d 0d be bb bf bb 3c 74 a4 f6 bd
       0.043593574 -0.1382348 0.022918573 -0.12043086

model/hidden_layers/1/b f4 [75]
000000 d4 e7 ac 3d 59 79 e3 bd 5c 46 2b be 00 64 69 bb
       0.08442655 -0.111071296 -0.16726059 -0.0035612583
000010 24 56 f6 3f fd fe 52 3e 8e cb 4b bd 7e 4a 48 bc
       1.9245038 0.20605083 -0.04975467 -0.012224792
000020 64 a9 1b 40 87 af 10 40 14 0d 9d bd 28 03 18 40
       2.4322138 2.2607133 -0.0766851 2.3751926
000030 4f b8 22 3e d5 f3 e4 3d 66 23 08 be a0 91 1f bd
       0.1589062 0.1117932 -0.13294753 -0.03895724
000040 fb c6 7a 3d 0e 0f 09 40 a3 4d d5 3f 76 87 53 be
       0.06122492 2.1415439 1.6664318 -0.20657143
000050 1b f4 3a bd c9 7f cd bd da b2 06 3d ee 2f fd 3f
       -0.045642953 -0.10034139 0.03288541 1.9780252
000060 2f 47 62 be 60 8d 00 40 5b 92 3b bd cc 60 0c 40
       -0.22097467 2.0086288 -0.045793872 2.193408
000070 c6 a4 50 bd cb 19 7c 3f a9 b2 1d 40 a1 52 a3 bd
       -0.05093839 0.98476857 2.4640296 -0.079747446
000080 23 88 92 bd 82 d2 f8 3f 77 57 3a bd 98 fb 27 be
       -0.07154872 1.9439242 -0.04549357 -0.16404569
000090 12 bc 40 bd 93 3a b3 bd b0 fc 09 3f 35 64 71 bf
       -0.047054358 -0.087514065 0.53901196 -0.9429353
0000a0 6e 4b 6d 3e 79 89 d1 3f 02 ea 23 3e 77 f1 12 bb
       0.23173305 1.6370078 0.16007236 -0.0022421756
0000b0 d7 83 1d 40 49 ba 99 bc 25 84 06 40 bc e0 13 be
       2.4611719 -0.018765585 2.1018155 -0.14441198
0000c0 fb 2c 3f bd 2f fd 29 be 62 e5 cc bd 58 3b 04 3e
       -0.046673756 -0.16600488 -0.10004689 0.12913263
0000d0 33 e5 d2 3f 6c 7b 28 3f df ae 12 40 cf 65 38 be
       1.6476196 0.65813327 2.2919233 -0.18007587
0000e0 d9 34 81 3f 61 a9 10 40 23 aa 15 40 71 c2 1c 40
       1.0094253 2.260338 2.3385093 2.4493678
0000f0 59 2f 05 3f 93 76 8d be 4e 98 eb bc c9 36 14 be
       0.5202537 -0.27629527 -0.028759148 -0.14474024
000100 ef 14 2e 3d a4 31 92 be dd 7e 98 3f 8e 30 c6 bd
       0.042500433 -0.28553498 1.1913716 -0.0967723
000110 66 78 75 bd 7a 62 f9 3f 28 ad 13 40 f4 eb 11 40
       -0.059929274 1.9483178 2.3074436 2.2800264
000120 8a 65 7e 3f 1d 74 b4 bd 59 ef 47 3f
       0.99373686 -0.08811209 0.7809959
