experiments/sokoban/sokoban_full_train_set_2-75-3/best/target_model.npz (npz, 29706 bytes, 6 tensors)

model/output/W f4 [4, 75]
00000000: 5d26 60bd 0267 14bb 8d09 e43d a187 e1bc
00000010: dc9d 50be ee03 bbbd e741 1abc 7948 993d
00000020: a23f 0abf 3ee9 1abf 615e 1b3e 87fe 30bf
00000030: d21d 19bc c1f1 70bc 3d06 9b3d d9af b33d
00000040: 3f41 bdbc 66fc 24bf 118b bcbd bc4f a43d
00000050: 5698 7bbe a128 5f3e a73a 2dbe 3079 e2be
00000060: 3894 08bc f5b7 3fbe bad2 fe3d f056 22bf
00000070: b3bf 163e 1ac2 cdbd 88b1 39bf 06a0 3b3e
00000080: c740 04bd 9800 a6be fe84 153e e9c7 633c
00000090: a752 7bbd 54f7 8b3c 24ca 0fbe 3039 e93d
000000a0: 9af7 76bb 44f0 23be 076e febd b22b 07bd
000000b0: 2416 67bf 5272 0d3e 6607 1ebf e3bb cbbb
000000c0: 705b 093e 572d 633d 4eab ba3d 438c 36bd
000000d0: aa6d 68be 5efd 9a3a 2fe4 21bf 8926 fa3c
000000e0: c634 0fbd 6085 00bf 7e9a 35bf 5de1 35bf
000000f0: 4641 19bd eb2b 5bbd 5b12 2c3d 6054 86bc
00000100: 30cb 98bc 5800 483d c5d7 bdbd 51cd edbc
00000110: 7cbb 753e f55a 6dbe ae7b e2be c626 cabe
00000120: 483f 0cbe 2dfd 89bd b7fe 98bd 4ffb bf3c
00000130: 68a5 133d 20a9 a53e fe6f 0a3e a7b4 bebe
00000140: 3cdd 1fbd b687 c0bc bc6c 3e3d 18ec 37bf
00000150: 6bfd 17bf 87dd 0c3e 9ca2 2cbf 6950 dabc
00000160: 925e c33c bd06 9e3d c01e a93c 9eb6 c3bb
00000170: 2f18 e7be 7dc6 43be 76ca e5bd bfa4 523c
00000180: 343b 6b3c 0441 7a3a 9da6 05bf d8e7 07be
00000190: 6495 acbe c52e 5c3e 1ca1 25bf 4d01 22be
000001a0: 17e1 8cbd 8a82 50bf e2d6 013d a8fa 81bd
000001b0: 6964 93be 39e0 25bd 0004 823d 4cfd a1bd
000001c0: 2502 71bd 444f 08be 2abb be3e 4ed5 30bd
000001d0: 8016 81bd c4b5 ba3c eeae bbbd 203b 5ebf
000001e0: 4efe c6bd b80d fabe 7468 273e 1764 84bd
000001f0: d762 ad3c f8fe 413c a431 85bd 4674 7ebe
00000200: 6ea1 4ebd 8537 debe 6cfb a13d 5083 99bd
00000210: 89f8 babe 968e 2abf cc49 34bf b0f2 a9bd
00000220: 86cf 853d 3e6e 9f3d 07fb a53e 083b 00bb
00000230: 0d5a 6a3e ab22 4cbc 02e8 c83d b622 bb3d
00000240: ec3e d4be 87f7 07bf 29b7 a3be 3aa8 81bd
00000250: 8690 513e 1344 a63d 743b 51bd 8f96 e43c
00000260: 79c8 203e cdb6 babd 45a5 93be f914 82bd
00000270: ee23 273e f589 f3bd 2f01 47bf 08ac fbbe
00000280: df7a 3fbd 9b32 25bf 1094 613d 7154 acbd
00000290: 70e5 92bd b707 243e e27e 46bd 2228 14bf
000002a0: 8ac3 5fbe ff3b a73d 2055 9a3d 8192 ebbd
000002b0: df6c 1bbe a730 d7be bfe3 243d f971 eabe
000002c0: 1b67 1abc ce53 10bf c079 aebb 0461 5f3c
000002d0: b142 4dbf c8f0 5cbd 5e1c 5e3d 0b9d c2be
000002e0: 3a69 9dbd cf87 d23d e5b8 33be 3492 803e
000002f0: 60b1 e4bd 3364 ea3d d4d1 d03c 8453 cfbd
00000300: 1179 35bb 30b5 173e 7809 30bf 59f1 07be
00000310: 94ec 18bf f7f8 9f3b 9533 37bc 9cf1 503d
00000320: 0c1c 0dbd 3fb4 123d 7110 67be 65ed 73bd
00000330: efa5 00bf 789c 84bd b4d2 e2bc cf82 acbe
00000340: 409b 22bf f538 49bf a8f2 14bd 38ac d03c
00000350: e50d d93d a139 08be c515 a2be 1df9 773d
00000360: 1ebe b2bc 19c2 e2bd 689f 263e cfaf f2be
00000370: be87 ecbe d820 e6be eb1e c6bd 6325 153e
00000380: d9a9 40be f3ec f7bd a338 ea3d acf8 b03d
00000390: af36 a2bd e17c c8be 4ce7 823d 7ed3 9bbc
000003a0: a2af 1a3e 0259 3cbf 2665 16bf 08a8 8fbd
000003b0: 0145 15bf bdde 16bc d600 4ebd 5ce9 66be
000003c0: fbca 7c3c 89dc 8abd eb58 02bf 132b 17be
000003d0: 2281 303e 156a c6bc cd8c dc3d 499e 0dbd
000003e0: efa7 c7be bc57 6a3d 0705 f4be 9511 6e39
000003f0: d6ac e8be f234 033e 357f 43bd ede7 59bf
-0.054724086 -0.0022644405 0.11134634 -0.027530493 -0.20372719 -0.09131609 -0.009415126 0.07484526
-0.54003346 -0.6051215 0.15172721 -0.6913838 -0.009345489 -0.014706076 0.07569549 0.08773775
-0.0231024 -0.6444763 -0.09206212 0.080230206 -0.2456983 0.21792842 -0.16916905 -0.44233084
-0.008336119 -0.18722518 0.12442537 -0.63413906 0.14721565 -0.100467876 -0.72536516 0.18322763
-0.03228834 -0.32422328 0.14601514 0.013902643 -0.06135812 0.017085709 -0.14041954 0.11387861
-0.0037684203 -0.16009623 -0.1242333 -0.033000655 -0.9026816 0.13813141 -0.6173004 -0.006217466
0.13413787 0.05546316 0.09114705 -0.044567358 -0.22698084 0.0011824777 -0.63238806 0.030535953
-0.034962438 -0.50203514 -0.7093886 -0.71047 -0.037415765 -0.05350868 0.042009693 -0.016397655
-0.018651575 0.048828453 -0.092696704 -0.029028567 0.23997301 -0.23179229 -0.44234985 -0.39482707
-0.13696015 -0.067377426 -0.07470458 0.023435263 0.036046416 0.32355595 0.13519284 -0.37247202
-0.039029345 -0.023502212 0.046490416 -0.71844625 -0.5937106 0.13756381 -0.6743562 -0.02664967
0.023848806 0.07716129 0.020644546 -0.0059726974 -0.45135638 -0.19118686 -0.11220257 0.012856661
0.014357377 0.0009546431 -0.52207357 -0.13272035 -0.33707726 0.21502216 -0.6469896 -0.15820809
-0.0687887 -0.81449187 0.03169907 -0.06346637 -0.28787544 -0.04049704 0.06348419 -0.07909641
-0.058839936 -0.13311487 0.3725217 -0.043172173 -0.0630312 0.02279175 -0.091642246 -0.8680897
-0.097164735 -0.48838592 0.1634844 -0.06464403 0.021165295 0.011840574 -0.06503609 -0.24849042
-0.05044692 -0.43401733 0.07909283 -0.07495749 -0.36517742 -0.6662382 -0.70425105 -0.08298242
0.065337226 0.07784699 0.3241808 -0.0019566435 0.22885914 -0.012459437 0.09809877 0.0913748
-0.41454256 -0.5311207 -0.31975678 -0.06330915 0.20465288 0.08118453 -0.05108209 0.027903823
0.15701474 -0.09116898 -0.28837028 -0.063516565 0.163223 -0.118915476 -0.7773618 -0.49154687
-0.04674804 -0.6453034 0.055072844 -0.084145434 -0.07172668 0.16018568 -0.04846085 -0.5787374
-0.21851936 0.0816574 0.075357676 -0.11502553 -0.1517825 -0.42029306 0.040256258 -0.4579008
-0.009423996 -0.56377876 -0.0053245723 0.01363397 -0.8017989 -0.053940564 0.05422627 -0.3801044
-0.07686086 0.1027981 -0.17551 0.25111544 -0.11166644 0.11444893 0.025490679 -0.10123351
-0.002769057 0.14815211 -0.6876445 -0.1327566 -0.5973599 0.004881974 -0.011181732 0.051011667
-0.034450576 0.035816427 -0.22564866 -0.05955257 -0.50253195 -0.064751565 -0.027688362 -0.3369355
-0.6351814 -0.78602535 -0.036364228 0.025472745 0.10598353 -0.13303234 -0.31657234 0.060540307
-0.02181917 -0.110721774 0.16271746 -0.47399756 -0.46197313 -0.44946933 -0.09673866 0.14565043
-0.18814792 -0.12105741 0.11436584 0.086411804 -0.07920586 -0.39157775 0.06391773 -0.019021746
0.15106061 -0.73573315 -0.5874809 -0.07014471 -0.58308417 -0.009208378 -0.050293766 -0.22549957
0.015429254 -0.06780345 -0.5091693 -0.14762525 0.1723676 -0.024220506 0.10769043 -0.03457478
-0.3899531 0.057212576 -0.47660086 0.00022703999 -0.45444363 0.12813166 -0.047728736 -0.85119516

model/output/b f4 [4]
00000000: 95cc 0cc0 ef24 f6bf 05df 05c0 48a4 fabf
-2.1999867 -1.9230021 -2.091737 -1.9581385

model/hidden_layers/0/W f4 [75, 20]
00000000: a2ec b23e 480f 793d 6204 a83c 3bad e6be
00000010: aebb 273e d2fa aebd 66d1 12bd b8dc 8abd
00000020: d02d cebe f1a7 e1bd e3d3 4bbe 48e5 533d
00000030: 153c b63d de94 663d d591 993b 3ee6 5b3d
00000040: 7e24 4bbe 9f2c 803d 6477 fb3e 0145 38bd
00000050: fca0 a8be 7987 c4bd dac9 1f3e dcb5 b6bd
00000060: 0a11 13be 14b7 22be 8d93 be3d 578a 1dbd
00000070: 61d4 a8be 5ff3 47bd b17b f3bd 1c24 543e
00000080: 29ad 87be a8c5 b63c c0bc dfbd 5570 82be
00000090: c57b 2fbd 4f75 933d 10db 773e 465a c03c
000000a0: 9a3e b4be 1878 b63d 0528 df3c da6c 1abf
000000b0: da57 19be 2f3d ffbd bf69 53be 25a0 963d
000000c0: 631d 29bf a83a 6fbc b92b ca3d d41c c1bd
000000d0: 93ed 653d c858 723e ca6b a33c 9e55 4abe
000000e0: 0f50 bbbd 524f f5bc 553b aabe c5e5 a6bc
000000f0: 38c9 233e 7eca e93d 38a3 13bd 8beb 8f3d
00000100: 4db3 21be 36bf a7bb fb98 f6bb 6126 ddbd
00000110: 3b8b abbd 630b c13e 4089 26be 20a3 af3d
00000120: 0009 e43c 8687 5d3e 8c21 5bbc 2ff0 ab3d
00000130: 2840 29be c16f bb3d c5bd 6abe 0dc3 24bd
00000140: 6406 a0be 668d 183d e2b0 033e 57f9 95be
00000150: f56f b83d f7a3 523e c0f2 1dbc 9d33 30be
00000160: b177 c5be d0e7 13be 5e53 8a3d 11ed be3c
00000170: 0caa a9bd a008 b53d fa56 9abb 2c11 8cbd
00000180: f3e8 5bbd 974b aa3c 82d8 47be ea33 15ba
00000190: 9fcd 6c3e 352d 84be 42ec 66bd fee3 12be
000001a0: 3834 403e 97f9 863d eb09 cbbd abd4 6cbe
000001b0: 9516 fabe 2a8f dc3a f37a 983c cdae 263c
000001c0: a4a4 8abc 5b5e 92bd 1865 493c 14ec 88bd
000001d0: f4f1 e1bc deae 5d3d 7441 09bf 7410 d1bc
000001e0: 9c60 12be 9bc1 9e3d 6331 443c 9922 a1be
000001f0: ec80 7e3d c918 25bc 7930 f1bc 67f5 d73b
00000200: 6a1e 0fbe 1210 d5bd e64e 65bd bbe3 143d
00000210: 602d 813c 0419 45be c362 a2bb 58a8 a7bd
00000220: bc5e 12be ab71 c63d c213 8fba dde0 98bb
00000230: a368 f6bd fdee 063e 1081 73bd a42c 4fbe
00000240: 88fd adbe 2dfc c8ba ef8e be3d dc0a 193e
00000250: cc1e 30be 219d 79bd 6597 6abe 5d50 a3bd
00000260: 7106 b1be 77c9 b8be dc9c a33b 4da3 7c3e
00000270: 938c bc3d 66ad 513d afac 9cbe a9b9 84bc
00000280: d1e5 a7bd 6b38 b4bd d4d9 6d3c b840 7abe
00000290: bdc4 003d 37af 573d d088 76be e535 00b9
000002a0: 8ba5 5dbe bd83 b4bc 3a7d 043e 44a1 febd
000002b0: 8f9b a7bb 02f5 763d dc6f 213c 3d1f b8bd
000002c0: 864e a6bd 1571 ce3d 970b 253e a94b b2bc
000002d0: 6c98 6f3e b021 123d 0462 08be 547c 0dbe
000002e0: 7d71 aebe 4668 83be bcab 9fbc 2479 f13c
000002f0: 4bfd dd3d 17bf c73c 83dd e7bd 31af 32bd
00000300: 329f 113e ab27 193e 3cf4 133c f352 d5bd
00000310: ac88 41bd b27c 52bd 16f7 cfbd 43f7 fe3a
00000320: 0d7d b3bd 038b 583c 9a32 0e3d 009e d8be
00000330: 638a 853d 440c 4f3e c37f 223e befd 7c3c
00000340: 16d7 e6be 65a5 0abe cd27 5cbd e316 1f3e
00000350: 8292 543c 21ef 153e c34c b2bc d57d abbd
00000360: 2f2d 82bd 7cec 563e afba f1be 06c3 833c
00000370: 26b1 f13a 952f 123e f40a ef3d a669 f9bd
00000380: 4259 23be 40fe 543e c78f e8be 37b6 933d
00000390: 87dc 12be a340 82bd afd4 073e c2a8 c83d
000003a0: 70b2 2cbd b1a1 f4be 59b1 bc3a 8018 83bc
000003b0: 393c dabd 728a 253e 54ab 83be 926a 51bc
000003c0: ee1a 96bd 649b bb3e de48 ff3d 453b adbe
000003d0: 786d 873e b7f3 c13e 7bd3 723d 6669 5b3e
000003e0: cbd3 2ebe bb98 1b3d 1cc9 c73e 33f5 debe
000003f0: 5ecb c03c c330 40bd a00d fc3c f81a 1d3c
0.34946162 0.06080559 0.020509902 -0.4505404 0.16380188 -0.08543934 -0.03584423 -0.0678038
-0.40269327 -0.110183604 -0.19905047 0.05173233 0.088981785 0.056294315 0.004686574 0.053686373
-0.1983814 0.06258511 0.49114525 -0.044987682 -0.3293532 -0.09596152 0.15604344 -0.08921406
-0.14361969 -0.15890151 0.09305487 -0.03846201 -0.32974532 -0.04881608 -0.11888827 0.207169
-0.26499298 0.022311047 -0.10924673 -0.25476328 -0.042842645 0.07200109 0.2420466 0.023480546
-0.3520401 0.08909625 0.027240762 -0.60322344 -0.14974919 -0.12462842 -0.20645808 0.07354764
-0.66060466 -0.014601387 0.09871621 -0.09429327 0.05613477 0.2366668 0.019948859 -0.19759223
-0.09146129 -0.02994505 -0.33248392 -0.020373235 0.15994728 0.114155754 -0.03604433 0.07027348
-0.15791054 -0.0051192297 -0.007525561 -0.10798336 -0.083761655 0.37704 -0.16263294 0.085760355
0.027836323 0.2163373 -0.013374697 0.08395421 -0.1652838 0.09152175 -0.22923954 -0.040225077
-0.31254876 0.037244223 0.12860444 -0.29291794 0.09005729 0.2057036 -0.009640396 -0.17207189
-0.3856788 -0.14443898 0.06754182 0.023306401 -0.08284387 0.08839536 -0.0047100754 -0.06839213
-0.053688955 0.020787997 -0.19516185 -0.0005691635 0.23125313 -0.2581574 -0.056377657 -0.14344785
0.1876992 0.06590574 -0.09914001 -0.23128001 -0.48845354 0.0016827334 0.018613314 0.010173512
-0.01692421 -0.07146903 0.012292169 -0.06685653 -0.027581193 0.054121844 -0.536155 -0.02552054
-0.14294666 0.07751771 0.011974665 -0.31471708 0.06213467 -0.01007671 -0.029442059 0.0065905335
-0.13976446 -0.10403456 -0.055983447 0.036349993 0.015768707 -0.19247824 -0.004955621 -0.08186406
-0.14293951 0.09689649 -0.0010915922 -0.0046654777 -0.120316766 0.13177104 -0.059449255 -0.20231873
-0.33982491 -0.0015333943 0.09304606 0.14945549 -0.17199248 -0.060940865 -0.22909315 -0.079743125
-0.34575227 -0.36091205 0.0049930643 0.2467167 0.092065 0.051190756 -0.30600497 -0.01620181
-0.08198131 -0.087998234 0.014517266 -0.2443875 0.031437624 0.052657332 -0.24075627 -0.00012227109
-0.21645181 -0.022035474 0.12938395 -0.12433103 -0.0051149796 0.06029225 0.0098533295 -0.08990333
-0.08120446 0.100801624 0.16117702 -0.021764593 0.23397988 0.03567666 -0.1331864 -0.13816959
-0.3407096 -0.25665492 -0.019491069 0.02947671 0.108393274 0.02438311 -0.11321547 -0.043624107
0.14220884 0.14956538 0.009030398 -0.10416212 -0.04724948 -0.05138845 -0.1015455 0.0019452352
-0.08764086 0.013216737 0.034716226 -0.42308044 0.06520536 0.20219523 0.1586905 0.015441356
-0.45085973 -0.13539656 -0.053748894 0.15536074 0.012974383 0.14642002 -0.021765118 -0.0837361
-0.06356274 0.20988649 -0.4721274 0.016084205 0.0018439635 0.14275964 0.11672011 -0.12178354
-0.15952018 0.20800114 -0.45422193 0.07212489 -0.14341937 -0.06359985 0.13264726 0.09797813
-0.04216236 -0.4777961 0.0014396115 -0.016002893 -0.10656018 0.16166094 -0.2571665 -0.012781756
-0.07329355 0.3664199 0.1246507 -0.33834282 0.26450706 0.37881252 0.059283715 0.21426925
-0.1707298 0.037987452 0.39020622 -0.43546447 0.023534473 -0.046921503 0.030768216 0.009588949

model/hidden_layers/0/b f4 [75]
00000000: 3fa7 f7be 75ac 253f a0a3 81bf 1880 51bd
00000010: d685 0dbf 72ec d0bf eba0 e7be cad2 e3bf
00000020: 84ee 96be 4971 1b40 0b52 a1bf 601a e2bf
00000030: 6b91 01bf ca74 d2be 29a4 2140 c991 9abe
00000040: fd39 ed3f 466e 1240 1d2c e03f a40c 33bf
00000050: c246 50be 9f35 81be ca37 99be cf8b 94bf
00000060: cdaf 5fbf 30bd cebe ba70 6bbf 59be 9ebf
00000070: b5ad b93f 46fe abbe 5796 ef3f e510 0abf
00000080: c8f2 08bf 73e8 20bf 31a0 83bf c9e0 b8bf
00000090: 5466 2240 b76b 0ebf 308e b3bf eca8 c4be
000000a0: fe66 fabe 69e3 0dbf 9bb2 bfbf 6c55 4a3f
000000b0: 475f e6bf 4aac 02bf 8cd2 0bbf 2986 1140
000000c0: 99ab 4abf 7ea9 1940 ecdf babf e126 b6bf
000000d0: 8225 1bbf d47b 11bf 1843 82bf bf91 a3be
000000e0: 05f1 25bf cd21 84bf 2fb2 9cbe bb40 1cbf
000000f0: b6f6 683f af20 73bf e6f4 0040 054c 75be
00000100: 2809 26bf 0743 0640 47ca e9be bc26 80be
00000110: d010 13bf 8c22 7fbe d5c5 3ebf 74bc cabe
00000120: fbeb 06c0 b1c8 06bf 49d6 a2bf
-0.48369786 0.64716274 -1.0128059 -0.05114755 -0.5528234 -1.6322157 -0.45239958 -1.7798703
-0.29478848 2.4287894 -1.2603163 -1.7664299 -0.50612515 -0.41104728 2.5256445 -0.3018935
1.8533322 2.2879806 1.7513462 -0.69941163 -0.20339492 -0.25236222 -0.29925376 -1.1605166
-0.87377626 -0.40378714 -0.9196888 -1.240184 1.4506136 -0.33592433 1.8717755 -0.5393203
-0.53495455 -0.6285469 -1.0283262 -1.4443599 2.5374956 -0.5563311 -1.4027767 -0.38410127
-0.48906702 -0.55425125 -1.4976381 0.79036593 -1.7997826 -0.5104414 -0.54618144 2.2738135
-0.7916809 2.40097 -1.4599586 -1.4230615 -0.6060411 -0.5682957 -1.0176725 -0.31947133
-0.6482089 -1.0322815 -0.30604693 -0.6103627 0.9100145 -0.94971746 2.0149474 -0.2395478
-0.6485772 2.097841 -0.45662138 -0.25029552 -0.5744753 -0.24915522 -0.7452062 -0.39596903
-2.108153 -0.5264998 -1.2721645

model/hidden_layers/1/W f4 [75, 75]
00000000: 8458 54be cea6 d63d ad4c d93c 8c6f 54be
00000010: 95bc 1b3e e468 afbd 82c7 89be d404 793c
00000020: a67b 053e 396d 22bd 1dbc 03be 323a ec3c
00000030: 484b 09be 2e4b 2cbd e7dd 003d 449f 60bb
00000040: d899 e4bd bf8b 35be e105 ca3d 6fc8 95be
00000050: 4411 7c3c 1744 27bd 1e4c 033d 770f 84bd
00000060: 37e5 1abc a588 733d 43b7 39be 80a4 72bd
00000070: bf6d 1bbd e751 26be eee3 1ebe 3c15 433e
00000080: 9d90 a83d 065d 1cbe ac1a 713d 70e1 80bc
00000090: ceea 303e 3e00 853d 3bd5 92be 62eb efbc
000000a0: 4b47 f73d fe66 073e 00a9 e8bd b2b7 64be
000000b0: 72e8 12bd ef3b 0dbe 6b3b 76bc 77d2 33be
000000c0: 8fc4 4f3d ad5b 7d3d 7449 1cbc 6519 30be
000000d0: 5f7a 62be 4952 0dbe b7dc a7bc bfb7 55be
000000e0: 9a73 663d 3d91 153e 2bf6 f5bd bfb4 60bd
000000f0: 676b e53d b862 843d 658c 08be 034f 57bd
00000100: f15f 28bc 03ef c2bc 02e8 173d fbee 32bc
00000110: c112 113e b861 5bbe 6f24 ba3d da5c db3c
00000120: 8aaa 7bbd e8ee bd3c 0b77 893d 4fb4 b33c
00000130: a067 b3bd aa05 b93c 4ba1 9cbd 1277 2dbe
00000140: b60b e6bd f6c3 c9bd f72a 16bb 6e3f 633d
00000150: 47c7 6a3c b310 183e 96cd 9bbc 2742 7dbd
00000160: e080 b0bd a9be 22be f936 afbd 09f4 023e
00000170: 1011 5dbe 0503 733d a438 15bd 8f5e bf3d
00000180: c0bf 38bd 3fad 843d 2207 86bd bbbe fb3c
00000190: 69ca 66be 1e7e 013d dbf6 583d 1947 29be
000001a0: 5c63 d13d 2de2 2cbe a386 cf3d 7970 813c
000001b0: 822c 963d 733b 2ebb e637 16be 5572 163e
000001c0: ffb7 1e3e 2934 ddbd 9473 1c3d 720d 673d
000001d0: 1d61 85bd 610e 14be 4503 053e 0939 2bbd
000001e0: 863a f93d a219 323e 8c42 6c3d 55ec d8bd
000001f0: eae6 953d 851e 1ebe 56e1 a6bd 31d2 a23e
00000200: f3ff e2bd 0fb2 863c 925f 10be a072 cbbc
00000210: 723e c63b ae53 a8be d7e6 a1bd 0ec4 673d
00000220: 8242 b83d 8ad8 713d f2ea 0ebe 2190 1c3d
00000230: 66b6 f6bd 472b e6bd 8687 383c a107 603e
00000240: 5e32 c0bd 6cca 0e3e 7f93 7c3b cbde 33be
00000250: 2106 02be 6a1f 8fbd fb39 debb 78b6 523d
00000260: c4cc d6bd 6696 10be 835b f63d d9d4 1abc
00000270: 4a64 83bd 7140 18bd 84bc af3e 63fc 2abe
00000280: 6b1a 4dbe 9ad0 a63d 0305 6d3e 44dd 503e
00000290: 0f60 15be 7322 31be b1d6 f03d 94b3 ccbc
000002a0: 1a41 aa3d e776 11bd 5fcd 653e dae0 63bd
000002b0: a518 13bd 1e8b b7bc 21d6 eabd a061 c43c
000002c0: 2de1 023d 26eb 83be 674e 3bbe c4fe 07be
000002d0: fb7f 80be 0670 d63c 6849 0f3e 87a5 5d3d
000002e0: c28a 34be 5407 4ebe 6b60 bc3d 3f0c febc
000002f0: 8f14 08bd d2be 10be c8b8 6cbe 670c 843e
00000300: 2226 87bd e5f2 b0bc 9e49 1abe bb55 0d3e
00000310: c098 36bd 2a76 ddbd 408b 29bc b978 94bd
00000320: 31da fd3d 4970 57be d1a2 9f3d 995e 99bd
00000330: 0906 ebbd c3e7 b0bd 41e2 5d3d 5dff 4cbe
00000340: 7e25 17bd 7277 7f3d 009a 25bd 0aad 96bd
00000350: d982 2fbd 0f67 023d 4057 6dbd 7313 1b3d
00000360: d924 ebbd a62c 2e3e aa61 28be 1eb3 43be
00000370: 235b 463b 23cc 44be b318 21be 82ec e93b
00000380: 598e a93d b258 7cbd a7dd 4cbd 7e28 62bd
00000390: 1638 003d bf15 9ebd 7404 263a aa75 283e
000003a0: 3a50 a2bd cb25 43bd 1c8d 14be 8790 c8bd
000003b0: 25f1 1ebe 8fe0 13be 1308 a5bd 697c b53c
000003c0: 2551 393d e9d7 89bd 88ee 813c 4663 24be
000003d0: f09f 2f3e d2a1 883e 9828 0bbd 3c91 653d
000003e0: a124 24bd ac4d a83d 1e4b babd bf59 39be
000003f0: 2d8f 323d 6c8d 0dbe bbbf bb3c 74a4 f6bd
-0.20736891 0.10481034 0.02652582 -0.20745677 0.15208657 -0.08564928 -0.26910025 0.015198905
0.1303545 -0.039654944 -0.12864728 0.028836343 -0.13407624 -0.042063884 0.031461623 -0.0034274617
-0.11162156 -0.1772909 0.098644026 -0.2925448 0.015384976 -0.04083642 0.032055013 -0.06448262
-0.009454063 0.059456486 -0.18136315 -0.05923891 -0.03794646 -0.16242181 -0.15516636 0.19051069
0.08230708 -0.1526986 0.058863327 -0.015732497 0.17277071 0.06494187 -0.28678307 -0.029287044
0.12074145 0.13222882 -0.11360359 -0.22335699 -0.03586621 -0.13792394 -0.015028815 -0.17560755
0.050724562 0.061855007 -0.009538997 -0.17197187 -0.22116993 -0.1380092 -0.020490987 -0.20870875
0.05626259 0.14606185 -0.120098434 -0.054859873 0.11202126 0.064641416 -0.13334806 -0.052565586
-0.01027678 -0.02379561 0.037086494 -0.010921235 0.1416731 -0.21423995 0.090889804 0.026777674
-0.061441936 0.023185208 0.06712159 0.021936564 -0.08759999 0.022585709 -0.07647952 -0.16939953
-0.112327024 -0.0985183 -0.0022913793 0.055480413 0.014329738 0.1485012 -0.01901893 -0.061830666
-0.08618331 -0.15893044 -0.08555407 0.12788405 -0.2158854 0.05932905 -0.03643097 0.093442075
-0.045104742 0.064783566 -0.06544329 0.030730596 -0.22538151 0.031614415 0.052969795 -0.16531028
0.102240294 -0.16883154 0.10133102 0.015800701 0.07332708 -0.0026585727 -0.14669761 0.14692052
0.15499876 -0.108009644 0.03819616 0.056409307 -0.065126635 -0.1445861 0.12989528 -0.04180244
0.121693656 0.1739259 0.05768065 -0.10591952 0.07319434 -0.1544133 -0.08148448 0.31800988
-0.11083975 0.016442327 -0.14098957 -0.02483493 0.0060499245 -0.32876343 -0.07905357 0.056583457
0.0899706 0.0590444 -0.13956812 0.03822339 -0.120465085 -0.11238723 0.01126278 0.2187791
-0.09384607 0.13944405 0.0038540063 -0.17565458 -0.1269765 -0.06988414 -0.006781814 0.051443547
-0.10488275 -0.14119872 0.12029173 -0.009450161 -0.06415613 -0.03717083 0.34323514 -0.1669784
-0.20029609 0.08145256 0.23146443 0.20396906 -0.14587425 -0.17298298 0.11759699 -0.024987973
0.083131984 -0.035513785 0.22441624 -0.055634357 -0.035912175 -0.022405203 -0.11466623 0.023972332
0.031953026 -0.25765342 -0.18291627 -0.13280779 -0.2509764 0.026176464 0.13992846 0.054112937
-0.17631057 -0.20119983 0.09198078 -0.031011699 -0.03322273 -0.14135292 -0.23117363 0.25790712
-0.0659907 -0.021600196 -0.15067145 0.13802235 -0.044579268 -0.10813554 -0.010348141 -0.072495885
0.12395132 -0.21038927 0.07794727 -0.07488746 -0.114757605 -0.08637955 0.05417085 -0.20019288
-0.03690099 0.06236977 -0.04043007 -0.07357223 -0.042849395 0.031836566 -0.057944536 0.037860345
-0.114816375 0.1700922 -0.16443506 -0.19111297 0.0030266724 -0.19218497 -0.15732078 0.0071387896
0.08279104 -0.061608024 -0.05001607 -0.055214398 0.031303488 -0.077189915 0.0006333061 0.16451135
-0.07925458 -0.047643464 -0.14506954 -0.097931914 -0.15521677 -0.14441131 -0.08058181 0.02215405
0.0452434 -0.06730635 0.01586081 -0.16053495 0.17150855 0.2668596 -0.03397426 0.05604671
-0.040073995 0.0821794 -0.09096359 -0.18100642 0.043593574 -0.1382348 0.022918573 -0.12043086

model/hidden_layers/1/b f4 [75]
00000000: ec05 ad3d 5979 e3bd 5c46 2bbe 0064 69bb
00000010: 1950 f63f fdfe 523e 8ecb 4bbd 7e4a 48bc
00000020: 51a6 1b40 a0ae 1040 140d 9dbd 3b02 1840
00000030: 5cc2 223e d5f3 e43d 6623 08be a091 1fbd
00000040: fbc6 7a3d 560f 0940 8449 d53f 7687 53be
00000050: 1bf4 3abd c97f cdbd dab2 063d 882d fd3f
00000060: 2f47 62be ad89 0040 5b92 3bbd 2360 0c40
00000070: c6a4 50bd c32f 7c3f 5fb0 1d40 a152 a3bd
00000080: 2388 92bd a7d0 f83f 7757 3abd 98fb 27be
00000090: 12bc 40bd 933a b3bd b0fc 093f 3564 71bf
000000a0: a24c 6d3e 1e8f d13f 02ea 233e e0f1 12bb
000000b0: 3e83 1d40 07ba 99bc 2284 0640 bce0 13be
000000c0: fb2c 3fbd 2ffd 29be 62e5 ccbd 1b23 043e
000000d0: 50e4 d23f 6c7b 283f 1caf 1240 cf65 38be
000000e0: 0b41 813f f1a9 1040 5ea9 1540 83c0 1c40
000000f0: 592f 053f 9376 8dbe 4e98 ebbc c936 14be
00000100: ef14 2e3d 5c45 92be df8d 983f 8e30 c6bd
00000110: 6f68 78bd 465c f93f 0dab 1340 22eb 1140
00000120: 927a 7e3f 1d74 b4bd 59ef 473f
0.08448395 -0.111071296 -0.16726059 -0.0035612583 1.9243194 0.20605083 -0.04975467 -0.012224792
2.4320261 2.2606583 -0.0766851 2.3751361 0.15894455 0.1117932 -0.13294753 -0.03895724
0.06122492 2.141561 1.666306 -0.20657143 -0.045642953 -0.10034139 0.03288541 1.977952
-0.22097467 2.008403 -0.045793872 2.1933677 -0.05093839 0.9851038 2.4638898 -0.079747446
-0.07154872 1.9438676 -0.04549357 -0.16404569 -0.047054358 -0.087514065 0.53901196 -0.9429353
0.23173764 1.6371801 0.16007236 -0.0022422 2.4611354 -0.018765463 2.1018147 -0.14441198
-0.046673756 -0.16600488 -0.10004689 0.12904017 1.6475925 0.65813327 2.2919378 -0.18007587
1.0097975 2.2603724 2.3384624 2.44925 0.5202537 -0.27629527 -0.028759148 -0.14474024
0.042500433 -0.28568542 1.1918296 -0.0967723 -0.06064647 1.9481285 2.307315 2.2799764
0.9940578 -0.08811209 0.7809959
