experiments/visitall/visitall_full_train_set_2-75-1/best/target_model.npz (npz, 29486 bytes, 6 tensors)

model/hidden_layers/0/W f4 [75, 20]
000000 10 1d 3f 3f 95 71 19 be 95 9b 43 bd 32 13 5c c0
       0.7465372 -0.14984734 -0.047755796 -3.4386716
000010 75 fe 9b 3e 1a 76 1d bd b1 60 e6 be bb 30 91 3d
       0.30467573 -0.03844271 -0.44995645 0.07089373
000020 e9 4b 7a c0 b9 f2 cb 3b e1 da 41 3f de 7e a6 bf
       -3.9108832 0.006224003 0.7572461 -1.3007467
000030 70 64 c9 3d af 06 80 c0 d4 2e aa bc 0c 39 e7 3e
       0.0983361 -4.000816 -0.020774283 0.4516071
000040 34 ef 60 bf a7 7f a0 3c 11 7d 77 c0 11 91 14 bc
       -0.87864995 0.01959212 -3.8670084 -0.00906779
000050 64 2a c4 3d 62 43 67 3e 02 20 ea bd f6 8d 44 c0
       0.09578398 0.22584298 -0.11431886 -3.0711646
000060 69 2b 9f 3e 5b ab dd 3e 35 c9 27 bf 00 11 f7 3c
       0.31087807 0.43294796 -0.6554139 0.030159473
000070 db dd 87 c0 2a 8d e1 bc 85 4c 6e bf 6b 76 37 bf
       -4.245832 -0.027533133 -0.9308551 -0.71665066
000080 04 26 0a 3d 02 b5 96 c0 70 a5 d1 bc 95 81 a4 3f
       0.03372766 -4.7095957 -0.025591582 1.2852045
000090 13 b5 60 bf 96 51 4f 3d 60 a9 80 c0 f8 f7 9d bc
       -0.877763 0.050614916 -4.0206757 -0.01928328
0000a0 06 ef aa 3d 5f 2d 5d be 02 3a d5 be 27 6d 5e c0
       0.08346371 -0.21599339 -0.4164582 -3.4754121
0000b0 56 e6 cc be 8e d9 15 3f fd 36 58 bf ba 43 a7 bd
       -0.40019482 0.5853509 -0.84458905 -0.08167215
0000c0 c6 c0 86 c0 a9 a5 4e bb 11 f0 5e 3f 83 4e 77 bf
       -4.211032 -0.0031531847 0.8708506 -0.96604174
0000d0 1d 25 33 bd be 5c 83 c0 49 cb 1e bc a2 d7 95 3f
       -0.043736566 -4.105071 -0.009692022 1.1706431
0000e0 fd 1d 33 bf f1 eb 82 bd 7f de 86 c0 57 30 c6 bc
       -0.69967633 -0.063926585 -4.21466 -0.024192972
0000f0 11 84 0b be 22 4d ab 3e 08 53 08 be 62 06 89 c0
       -0.13624598 0.33457285 -0.13312924 -4.282029
000100 19 be c4 3b c7 95 17 3f b8 7a 5c bf e0 24 63 bd
       0.0060041067 0.5921292 -0.86124754 -0.05545509
000110 35 f3 25 c0 1a 4e d0 bc d8 c3 b4 3f 90 10 9d bf
       -2.5929692 -0.025427867 1.4122267 -1.227068
000120 3b 3c 10 bd ad 52 2c c0 4c ae b8 bc 54 f8 4f 3f
       -0.03521369 -2.6925461 -0.022544049 0.81238294
000130 f5 63 97 bf 0d 14 ae bd 09 12 5c c0 a2 3f aa bc
       -1.182738 -0.08499918 -3.4386008 -0.020782296
000140 b2 dc 10 be 55 23 67 bd 59 cd 1f bf 39 99 a0 c0
       -0.14146689 -0.05643018 -0.6242271 -5.018704
000150 d0 4c cd bc 58 eb 0d 3f 2c af 29 bf c1 5f bf bd
       -0.025061041 0.5543723 -0.66282916 -0.093444355
000160 9c 75 e2 c0 3f e0 ce bb 9c 0a 88 be ae 63 f1 be
       -7.0768566 -0.0063133533 -0.26570594 -0.47146362
000170 ad 37 13 be 61 35 e5 c0 41 2e 74 bc da 95 80 bf
       -0.14376707 -7.162766 -0.014903606 -1.0045731
000180 22 fa 16 bf ca d9 20 be a8 b8 e3 c0 6e a1 b1 bb
       -0.5897542 -0.1570808 -7.116291 -0.0054208552
000190 23 1d 08 be af aa c4 3e e4 de 7d be be 01 99 c0
       -0.13292365 0.3841147 -0.24792057 -4.7814627
0001a0 07 d8 7a bd d9 3f de bf 26 c9 ca be 62 a7 4f bc
       -0.061241176 -1.7363235 -0.3960659 -0.0126741845
0001b0 2f e9 91 c0 5d 30 7b bc 99 14 35 c0 b4 7c fb be
       -4.559715 -0.015331355 -2.8293822 -0.49118578
0001c0 82 c8 9e 3d 21 6b 95 c0 3b c8 92 bb 08 48 09 c0
       0.077530876 -4.6693273 -0.0044794357 -2.1450214
0001d0 57 ff 11 bf ab d6 80 3d 98 a1 92 c0 a2 62 00 bc
       -0.5703024 0.06290945 -4.582226 -0.007836016
0001e0 19 fd 44 be 83 41 5d be 04 f8 41 bd db 95 12 c0
       -0.19237174 -0.21607022 -0.047355667 -2.2903965
0001f0 ba 17 1a 3e 8b 6d 18 3e e0 ed 0d bf 38 3e a6 bc
       0.15048113 0.14885537 -0.55441093 -0.02029334
000200 cd 03 86 c0 e2 6b 7c bc 33 b1 2f 3e 71 d5 86 bf
       -4.187964 -0.015406581 0.1715744 -1.0533887
000210 9a 12 6b 3c ee 70 75 c0 c5 9f df 3a 7d f7 0c 3f
       0.014347697 -3.8350177 0.0017061165 0.5506514
000220 d6 4c 4d bf 55 c1 8f 3d e6 44 6a c0 ec ad 63 bc
       -0.8019537 0.07019297 -3.6604552 -0.013896447
000230 77 b7 dc 3f 20 db 08 3d b3 62 ce bc 18 e6 2b c0
       1.7243489 0.0334121 -0.025193548 -2.6859188
000240 86 13 fa 3e 1f 15 ab 3f 76 2e 0b c0 90 84 2f be
       0.4884302 1.3365821 -2.1747108 -0.17140412
000250 d8 fd 4d c0 b2 8d fa bb 32 ca c1 3f 49 23 2f c0
       -3.2186184 -0.007646286 1.513983 -2.7365286
000260 d4 53 bd bd 89 8b 42 c0 e5 c7 01 3c 29 4e 73 3f
       -0.092445046 -3.0397666 0.007921194 0.9504114
000270 49 3f 0e c0 b0 de a5 bd b1 5e 49 c0 eb e3 e5 3a
       -2.2226126 -0.08099115 -3.1464045 0.0017539238
000280 95 fe 13 be e2 5f 99 be 1a 97 a6 be e3 c0 8c c0
       -0.14452584 -0.29955965 -0.32537156 -4.3985457
000290 6e 48 26 3e e9 5c be 3e 75 d7 38 bf 74 c5 9d bc
       0.16238567 0.3718026 -0.7220376 -0.019259192
0002a0 27 79 89 c0 16 06 dd bb 0c a9 48 3f e0 b2 3d bf
       -4.296039 -0.0067451103 0.78382945 -0.74101067
0002b0 ef 2b c8 bc 6c c8 8d c0 e5 f9 d2 ba 65 b3 e2 3e
       -0.024435012 -4.4307156 -0.0016096203 0.44277492
0002c0 04 16 25 bf 68 a0 d8 bc e7 fd a0 c0 85 18 09 bc
       -0.6448672 -0.026443675 -5.030994 -0.008367662
0002d0 b6 43 0e bf a0 a9 0f 3e bb 69 64 be 51 71 71 c0
       -0.5557207 0.1402955 -0.22305958 -3.7725413
0002e0 fd e3 07 bf b8 c3 02 3e 24 e4 43 bf d8 25 f3 3d
       -0.5308226 0.12769973 -0.7651999 0.118724525
0002f0 22 5e 3f c0 81 5c 6c bc 00 b5 6b 3f 52 f4 4e bf
       -2.9901204 -0.0144263515 0.9207306 -0.80841553
000300 52 c5 bb 3d 6e 13 36 c0 7a a4 d3 3b 72 08 5b 3f
       0.09168495 -2.844936 0.006458816 0.8555976
000310 70 a0 41 bf 27 16 a7 3d b1 7d 36 c0 39 0b af 3b
       -0.75635433 0.08158522 -2.8514216 0.005341914
000320 09 ed 8c be 8f 6f 29 3e 1b 1d ad be d4 0c 5a c0
       -0.27524593 0.16546462 -0.33811268 -3.407033
000330 69 8c 1d bf 48 5b 1a be 9e 53 b4 bf 5a c6 98 bd
       -0.61542374 -0.15073884 -1.4088018 -0.074597076
000340 d4 eb 8c c0 2b 27 28 bc 6a 61 75 3e a2 82 ab bf
       -4.4037876 -0.010263245 0.23962942 -1.3399241
000350 b6 6b 89 3c 7f df 86 c0 68 52 88 bc ce 56 b1 3f
       0.016774993 -4.214782 -0.016640857 1.3854616
000360 5f 7b 66 bf c1 a6 b8 bc fc eb 53 c0 89 07 dd bb
       -0.90032 -0.022540452 -3.3112783 -0.006745283
000370 1d 19 54 40 16 09 bd 3d 59 d9 88 be 35 29 68 c0
       3.3140328 0.09230249 -0.26728323 -3.627515
000380 ef 92 92 be 91 8a e3 3f c0 1a 35 bf d9 f2 5e 3d
       -0.28627726 1.7776662 -0.7074394 0.054430816
000390 cc 3d 7d c0 49 aa 95 bb c7 05 0d bf cd 4f 0a bf
       -3.9568968 -0.0045674187 -0.5508694 -0.54028016
0003a0 df 84 da 3b 12 7a 74 c0 50 37 b5 ba 99 72 10 bd
       0.0066686715 -3.8199506 -0.0013825689 -0.03526554
0003b0 4d 8a 59 bf 44 fd 59 3d d1 56 77 c0 6b 3d 05 ba
       -0.84976655 0.05322005 -3.8646739 -0.00050826994
0003c0 84 fe fa be c0 8d 95 bd ed 66 1a be 7d df 76 c0
       -0.49022305 -0.07302427 -0.15078326 -3.8573906
0003d0 84 fb dc 3c d1 96 58 3f dd a4 4c bf e2 1f 5d 3e
       0.0269754 0.8460513 -0.7993906 0.21594194
0003e0 43 16 17 c0 9e ac c5 b9 f1 29 97 bd 69 43 7d bf
       -2.3607337 -0.00037703378 -0.073810466 -0.98930985
0003f0 8a a3 2b 3e 6b 08 2e c0 3e ff bb 3b e8 6c 09 be
       0.16761604 -2.7192638 0.0057372143 -0.1342045

model/hidden_layers/0/b f4 [75]
000000 fa dc 85 c0 f3 4c 98 c0 b1 33 9d c0 29 69 90 c0
       -4.1832247 -4.759393 -4.91256 -4.512837
000010 a6 62 04 c1 28 73 b6 c0 98 31 83 c0 8b 96 b7 bf
       -8.274084 -5.701557 -4.099804 -1.4342817
000020 e4 91 ee c0 b2 18 06 c1 f7 f0 96 c0 86 3f 90 c0
       -7.455309 -8.381029 -4.7169147 -4.5077543
000030 36 e5 0d c1 9a 78 77 c0 9c c1 c8 c0 0c 5d 2f c1
       -8.86846 -3.866736 -6.273634 -10.9602165
000040 6d 6f 90 c0 9f 68 04 c1 a0 de 53 c0 c5 08 b0 c0
       -4.513602 -8.275542 -3.310463 -5.5010705
000050 81 2a 06 c1 ff 67 c8 c0 7a 17 71 c0 bb 94 71 c0
       -8.385377 -6.262695 -3.767058 -3.7747028
000060 12 54 8e c0 4c 83 98 c0 38 cc ac c0 d5 eb ee c0
       -4.4477625 -4.7660275 -5.399929 -7.466288
000070 b9 dc 97 c0 01 96 83 c0 61 f0 ea c0 9e b3 be c0
       -4.7456937 -4.112061 -7.341843 -5.959426
000080 4e 7c 9e c0 b9 74 82 c0 94 b7 88 c0 ab ce 14 c1
       -4.952674 -4.0767484 -4.2724094 -9.300456
000090 71 48 03 c0 d3 8c a5 c0 73 d1 fd c0 53 16 b8 c0
       -2.0512965 -5.1734405 -7.9318175 -5.752725
0000a0 08 fc 90 c0 05 41 27 3e 20 16 ba c0 16 86 e8 c0
       -4.5307655 0.16333397 -5.815201 -7.266368
0000b0 49 6e 80 c0 83 d3 9b c0 aa 96 b2 c0 18 56 c3 c0
       -4.0134625 -4.8695693 -5.5808916 -6.1042595
0000c0 19 d9 57 bf 65 10 c6 c0 50 fe a4 c0 a0 70 91 c0
       -0.8431564 -6.1895013 -5.156044 -4.544998
0000d0 11 a5 96 40 8b 1c ae c0 5c 04 fa c0 c7 04 47 c0
       4.7076497 -5.4409842 -7.813032 -3.1096666
0000e0 be 7a 89 c0 b4 1f ad c0 02 0a 85 c0 87 dd c3 c0
       -4.296233 -5.41012 -4.1574717 -6.120792
0000f0 11 41 a7 40 b5 2a d6 c0 3e 32 9f c0 90 45 a5 3f
       5.2266927 -6.6927133 -4.974883 1.2911854
000100 18 b1 de c0 f5 4e e8 c0 05 51 74 c0 51 62 e6 c0
       -6.959118 -7.2596383 -3.817445 -7.1995015
000110 29 af 06 c1 88 54 83 c0 cd 98 23 c1 22 ee 77 c0
       -8.417764 -4.1040688 -10.224805 -3.8739095
000120 af bc 83 c0 be 05 6b c0 47 01 ae c0
       -4.1167827 -3.6722255 -5.437656

model/hidden_layers/1/W f4 [75, 75]
000000 13 63 13 be 87 8b 84 bd 80 02 62 be f1 cd 87 bd
       -0.14393263 -0.06471925 -0.22071266 -0.06631077
000010 9d f2 85 be 81 16 30 be d7 f9 94 be 58 45 b5 be
       -0.26161662 -0.17196085 -0.29096863 -0.35404468
000020 51 0f 84 be 5e 81 22 be e8 d2 1b be 6f 5e 80 3d
       -0.25792935 -0.15869662 -0.15217173 0.06268012
000030 97 d2 92 bd 83 f7 d0 be a8 90 80 be 7d 0f 5d bd
       -0.07169073 -0.40813836 -0.25110364 -0.05396985
000040 72 6e 17 bf e3 4f 7d 3d 79 bd 01 bf 18 ee 88 be
       -0.591529 0.061843764 -0.5067974 -0.2674415
000050 80 d2 90 be a6 02 e2 be 9c 34 ca bd 41 d0 27 be
       -0.282856 -0.44142646 -0.09873316 -0.16388036
000060 f0 80 9b be 80 52 a9 be 5a 9a a3 be a4 eb a0 bd
       -0.3037181 -0.33070755 -0.31953698 -0.07857445
000070 b2 9e 42 be bb e9 e8 be 04 bf 41 be 26 a6 69 be
       -0.1900585 -0.45490822 -0.18920523 -0.22817287
000080 0f 06 02 bf a3 2f c2 be 47 96 f3 ba 76 c9 59 be
       -0.50790495 -0.3792697 -0.0018584215 -0.21268257
000090 62 47 98 bd fd e7 29 be b9 49 58 3d 92 82 8c bd
       -0.0743549 -0.16592403 0.052804682 -0.06860842
0000a0 3d ec 38 bc 1a 07 59 be f9 bc b9 3d e3 5f 16 be
       -0.011286792 -0.21194115 0.09069247 -0.14685015
0000b0 c6 fc b3 be 64 f3 fc be c3 dd a5 bc f8 82 6f be
       -0.35153788 -0.49404442 -0.020247346 -0.23389804
0000c0 6e 3b a4 be cf b1 d1 bd 31 b0 46 bf f3 2c a8 bc
       -0.3207659 -0.102389924 -0.77612597 -0.020529246
0000d0 86 aa 5a be 8d 31 cb bc a1 e8 1f be af 3a db be
       -0.21354112 -0.024803901 -0.15616085 -0.4281821
0000e0 88 7c 73 be 6b fa 69 bd 23 80 c4 bd fd c1 fb be
       -0.23777974 -0.057123583 -0.09594753 -0.4917144
0000f0 3d c4 c2 be 81 91 cb be 4c b8 ec bd 43 95 97 bd
       -0.38040343 -0.39759448 -0.11558589 -0.07401516
000100 8d b9 49 bc e7 b7 35 be fe 69 80 be 1e 50 53 be
       -0.012312305 -0.17745934 -0.25080866 -0.20636031
000110 ec 45 ca bd b2 83 fc bd 00 52 86 be f6 c9 6b 3c
       -0.09876618 -0.123298064 -0.26234436 0.014391413
000120 ad cc 52 be f5 d1 79 bd df 8a 84 be 71 47 c7 bc
       -0.2058589 -0.060991246 -0.258872 -0.024326058
000130 46 2a 8e be 49 87 52 be c6 80 d4 be da 34 89 3d
       -0.27766627 -0.2055942 -0.41504496 0.06699534
000140 ca c8 fd be fc 3e 57 be 8a e0 2f be 87 36 f6 bd
       -0.49567252 -0.2102012 -0.17175499 -0.12022119
000150 ba 93 fe be b1 56 87 bd 6f d3 89 be bd 12 cd bd
       -0.4972208 -0.06608332 -0.26919124 -0.1001334
000160 75 3e 29 be 77 44 42 bd f3 45 39 be c7 bb a4 bd
       -0.16527732 -0.047428574 -0.1809309 -0.08043628
000170 90 c1 d2 be f3 e7 d8 bd de db 2e bf d5 9c cd be
       -0.411633 -0.10591116 -0.6830424 -0.40158716
000180 d4 90 c6 be 15 04 54 be c0 55 57 bc 0d e3 b3 be
       -0.3878237 -0.20704682 -0.013143003 -0.35134163
000190 64 b7 bc be 61 5b 25 3e b4 af d8 bd bc b8 c4 bf
       -0.36858666 0.1614814 -0.10580388 -1.5368876
0001a0 89 c5 5a bf b7 7e 72 3d 65 e4 00 bf 36 a8 23 bf
       -0.85457665 0.059202876 -0.503485 -0.63928545
0001b0 94 38 c6 3d 08 c0 ec bc 0d c9 d0 be 39 56 0c be
       0.0967876 -0.028900161 -0.4077839 -0.13704766
0001c0 cf c5 71 3c 81 64 ef be ee ae 4c be d0 35 7a bd
       0.014756634 -0.46756366 -0.19988605 -0.061086476
0001d0 73 98 92 be 6b 09 ad be c3 a6 64 be d9 94 f0 3d
       -0.28631935 -0.33796248 -0.2232924 0.117471404
0001e0 ce ae ab be a5 72 be be ba 79 25 be 33 2f 7d be
       -0.33531803 -0.37196842 -0.16159716 -0.24725036
0001f0 89 60 32 bd 47 30 d6 bd 35 df ba 3c 8a 03 81 be
       -0.043549094 -0.10458427 0.022811512 -0.25198013
000200 68 53 96 be 24 0a 23 bf 7e 98 9a 3d c6 0d 03 bf
       -0.2936051 -0.6368735 0.07548617 -0.5119289
000210 31 98 d7 be f4 7d 8d 3d d7 01 01 bf 06 bf 42 be
       -0.421083 0.06908789 -0.5039343 -0.19018182
000220 55 2b 1a be d0 8b 90 bf 4f e7 4a be 2e a6 9e bd
       -0.15055592 -1.1292667 -0.198148 -0.0774654
000230 9a 57 80 bd 4e 02 af bf d0 9f be be 8b d3 3c bf
       -0.06266709 -1.3672578 -0.37231302 -0.7376029
000240 48 b1 fc be df 47 09 bf 7b 18 a0 be 4a 05 ff 3b
       -0.49354005 -0.5362529 -0.31268677 0.007782613
000250 47 ef df be a1 84 58 bf fc a0 26 be eb 11 49 be
       -0.43737242 -0.84577376 -0.16272348 -0.19635741
000260 8a c4 83 be f6 cc df bc ec 40 ff bd 9a bc c6 bd
       -0.25735885 -0.027319413 -0.12463555 -0.09703942
000270 48 50 e4 bd 98 53 17 be d9 54 19 bd f4 19 b0 bd
       -0.11148125 -0.14777982 -0.037434433 -0.085987
000280 63 9d 72 bd 67 d5 b0 bd 6c 18 72 bd b9 8c d2 bb
       -0.059232127 -0.08634453 -0.05910532 -0.006425467
000290 ea bd 99 bd 4d 0c 87 be ce a2 bb bc ea 53 a7 3c
       -0.07506926 -0.26376572 -0.02290478 0.020425756
0002a0 26 56 4e be e2 3d af bd 28 fe 92 bc cb d4 37 be
       -0.2015005 -0.08556725 -0.017943457 -0.17952268
0002b0 71 61 86 be c1 03 71 be 5a 2b c0 bd 59 bd 0e be
       -0.26246217 -0.23536588 -0.09383269 -0.13939418
0002c0 dd 50 ce 3d 51 4c 35 be 15 77 8b be 4f 1d 49 3d
       0.10074017 -0.17704894 -0.2723929 0.049100216
0002d0 4c 1e 08 be 4d 13 dc bd 0d ba 85 bc af 37 de 3b
       -0.13292807 -0.10745869 -0.016324067 0.0067815403
0002e0 83 92 8d be 0d 4e e4 bd e4 cc e6 bd 79 08 33 bd
       -0.27650842 -0.111476995 -0.112695485 -0.043709252
0002f0 81 08 1b bd 27 2e 11 be 4b a8 a4 bd d9 ef 57 be
       -0.037849907 -0.14177762 -0.08039912 -0.21087588
000300 e6 b8 1a bc 63 01 21 be 59 f8 88 be 36 c1 18 be
       -0.009443497 -0.15723185 -0.26751974 -0.14917454
000310 68 99 9f be 73 f4 64 bd d3 41 64 be d1 87 df bb
       -0.31171727 -0.055897187 -0.22290735 -0.0068216105
000320 bd c4 ad be c3 7b 37 bd 74 29 cc bd 6a 38 0c be
       -0.33939162 -0.044795763 -0.09968844 -0.13693395
000330 57 6f ab bd f6 57 58 be f2 78 07 bd b3 3f ba bd
       -0.08370846 -0.21127304 -0.033074327 -0.09094181
000340 e0 2d c1 be 73 57 00 ba ba ba fe bd 10 10 0c be
       -0.37730312 -0.00048958434 -0.12437959 -0.13678002
000350 b1 c3 12 be 1e 10 97 be aa 8c 1f be fd 6f 12 be
       -0.14332463 -0.29504484 -0.15581003 -0.14300533
000360 61 ab c6 bd 3d 5a 83 be 16 f2 9c bd 80 14 8c be
       -0.09700657 -0.25654784 -0.07663362 -0.2735939
000370 ea d8 56 be 88 d9 32 be ae 26 70 bd 1d 0b 6e be
       -0.20981184 -0.17465794 -0.058630638 -0.23246427
000380 03 76 e2 bd 0a 8d 26 bd b2 df c6 3b 10 d0 d8 3b
       -0.11057665 -0.04066185 0.006069147 0.0066166
000390 5b 0b db 3c f7 18 af 3d f8 fe 67 be b3 c9 a0 bd
       0.026738813 0.085496835 -0.22655857 -0.07850971
0003a0 8f 68 c4 3a 9f c2 73 bc 0a 16 52 3d 35 00 16 be
       0.0014984774 -0.014877944 0.05129055 -0.14648516
0003b0 08 9a 13 3e a7 6a 42 be 5a a4 d3 bc 82 73 d8 bd
       0.14414227 -0.18985997 -0.025835205 -0.10568906
0003c0 67 c7 70 3d 70 5b 21 3c 70 53 b8 bd f0 ab aa 3d
       0.058783915 0.009848461 -0.090002894 0.08333576
0003d0 4d 31 95 bc 0b 0f 31 be 53 28 82 be 20 bd b0 3c
       -0.018211985 -0.17290895 -0.2542139 0.021574557
0003e0 2b dc 0d bd 03 c4 95 bd ff b6 e7 bc c7 03 41 be
       -0.034633797 -0.07312777 -0.028285502 -0.18849097
0003f0 e6 b0 42 be 61 16 46 bd 25 2d 05 3c a5 31 88 bc
       -0.19012794 -0.048361186 0.008128439 -0.016625235

model/hidden_layers/1/b f4 [75]
000000 60 9e a5 3d 32 69 53 3e b0 c4 20 be ac d0 0a 41
       0.08086848 0.20645598 -0.1570003 8.675945
000010 0a 5b b0 3c 76 1e 31 bf fd 50 cc 40 11 9e 6c 3f
       0.021527786 -0.69187105 6.3848863 0.9242869
000020 95 62 fd 3e 2e d6 56 c0 21 5d ce 40 64 72 c6 3e
       0.49489275 -3.3568225 6.4488683 0.38759148
000030 7c 5d 57 be fd fb 9c be 40 7b fa 3f 90 ca c4 bd
       -0.21031755 -0.30661002 1.9568863 -0.09608948
000040 9d a0 3b 40 56 6a 22 be a0 4e 68 3e e8 8b 99 41
       2.931678 -0.15860876 0.22686243 19.193314
000050 11 5a 17 42 e2 e9 55 3f bd cc 3e c0 d9 61 0f bf
       37.837955 0.8356 -2.9812462 -0.5600868
000060 e7 87 06 40 df a3 bc 3c 9a db 17 bf 12 34 47 be
       2.1020448 0.023027359 -0.5931946 -0.19453457
000070 3c 68 64 3f cb e0 89 be a7 88 8f be bb e9 0a bd
       0.8922155 -0.26929316 -0.28033945 -0.03391431
000080 5e 05 0b 3f 92 77 f9 bf f9 35 08 3e a9 e4 1c 3f
       0.54305065 -1.9489615 0.13301839 0.6128641
000090 e7 0c a1 3e 11 71 c8 be 6b ac 6b 3f 9a 26 01 c1
       0.31455156 -0.39148763 0.92059964 -8.071924
0000a0 a9 2e b4 3f 47 6e 44 bf d1 40 ee 3f fc 19 21 3e
       1.407674 -0.7673077 1.861353 0.15732569
0000b0 c5 3a 19 3f cd 90 01 3e 03 d3 0a 3f af 1e 51 3f
       0.598553 0.12652893 0.5422823 0.81687444
0000c0 02 8b f8 bc 73 a3 d1 41 13 e5 21 c0 66 66 fe be
       -0.030339722 26.20481 -2.5296066 -0.496875
0000d0 b0 7b c4 3f ce 66 b3 3f be e8 12 bb 13 62 2e 3f
       1.5350246 1.4015749 -0.0022416557 0.681184
0000e0 dc 58 27 3e 31 4a 3f bd 28 a6 17 3e 60 08 28 be
       0.16342491 -0.046701614 0.14809477 -0.16409445
0000f0 26 20 2b bf fa 88 3b 41 d4 9d 0e 3f 08 bf a2 bc
       -0.6684593 11.720942 0.55709577 -0.019866481
000100 49 ee 94 3e ba f7 ce 3f be e9 5e bf 7b 25 ac bd
       0.29088047 1.616935 -0.8707541 -0.08405586
000110 41 46 b9 3e b8 ef a6 bf 54 c5 f8 be a5 29 ad bf
       0.36186412 -1.3041906 -0.4858805 -1.3528334
000120 4a 25 bc be 62 93 e0 bd 59 e4 0d 41
       -0.367472 -0.10965611 8.868249

model/output/W f4 [4, 75]
000000 f6 74 84 3b a9 fa fb 3b 68 3d 0e 3d 22 74 91 bc
       0.004042263 0.007689793 0.03472653 -0.017755572
000010 3e 90 84 bd e3 aa 34 bd 1e 0f cb 3d 11 90 17 bd
       -0.064728245 -0.044108283 0.09914993 -0.037002627
000020 c7 05 dd 3c b8 8d 94 bc 73 50 e4 3c 84 33 86 3d
       0.026980294 -0.018133983 0.027870392 0.065527946
000030 fc e3 7a 3d 0f 86 da bc 69 e2 dc bc 11 3c b6 3c
       0.06125258 -0.026675252 -0.02696343 0.022245439
000040 01 2c e2 3b 92 3e 72 3c b8 0e fd 3d ae db 22 bd
       0.0069022183 0.014785426 0.12356323 -0.039760284
000050 40 f4 e1 bf 2c 15 3d bd 60 44 91 3d ae 38 da bc
       -1.7652664 -0.04616277 0.070931196 -0.026638355
000060 2f f0 0a bd 71 ac 2a 3d 30 cb 97 3d 6f 8e b7 3d
       -0.033920463 0.04166836 0.07411802 0.08962714
000070 a5 43 c9 bc 08 88 a0 3c 43 59 1a bd 14 76 ac 3d
       -0.024568388 0.019596115 -0.037682783 0.08420959
000080 7c 70 00 be ae 25 03 3d 41 0b e0 3d e8 b4 e5 bc
       -0.1254291 0.032018356 0.109396465 -0.028040364
000090 3a 2f 85 3c 94 f0 38 bd 02 07 ba 3c a4 f3 65 bd
       0.016257871 -0.04515131 0.02270842 -0.056140557
0000a0 84 13 c3 38 1e ce 69 3d 69 2b e3 3c 77 f2 cb 3a
       9.30196e-05 0.057081334 0.02773066 0.0015559931
0000b0 0c c8 5d bd 2b 34 ad 3c 01 da ba bd ea d4 c0 ba
       -0.054145858 0.02114304 -0.09123612 -0.0014711891
0000c0 c2 ef 97 bc 79 74 81 bc 3b a9 3e 3c b2 a0 4b 3c
       -0.018546943 -0.015802609 0.011637027 0.0124284495
0000d0 95 61 4c 3c f6 c1 1c 3d da 58 3d 3c 73 5f ee 3c
       0.012474437 0.038270913 0.011556828 0.029098248
0000e0 54 10 e4 3b f5 38 9f bc 90 b1 3c bd cf 2d 23 bd
       0.0069599543 -0.019436339 -0.046067774 -0.03983861
0000f0 1d 9c 92 bb 26 3f 99 bd 40 e5 89 bd 66 a1 96 3d
       -0.0044741766 -0.07482748 -0.06733179 0.07355003
000100 8e 52 f1 3d 83 7f 6b bd 24 4e 8a bd b7 62 ad 3b
       0.11783324 -0.05749465 -0.067531854 0.0052913087
000110 5b e6 97 3c fe 01 4b bc eb 6b a1 3d d3 85 05 3d
       0.01854246 -0.012390612 0.07881912 0.032598328
000120 fb fd 14 3d 84 2e 92 bd 5a 89 a8 3c 00 83 a2 3d
       0.036375027 -0.071377784 0.020573307 0.079351425
000130 1c fd 57 3d 68 9e a3 bc d7 29 86 3d 5d 59 18 bd
       0.05273162 -0.019972995 0.06550949 -0.0371946
000140 f3 4b 81 3d ac 19 97 3c 4f ac b2 3c 58 bf 37 bd
       0.06313314 0.018444858 0.021810679 -0.044860214
000150 c7 73 ef 3c 41 e3 7f 3c 43 77 20 3c 47 75 f4 3c
       0.029230012 0.015618146 0.009794059 0.029841078
000160 76 f4 28 3d a3 e2 2e bd 04 fe a2 3c d3 90 6d bd
       0.04124876 -0.042696606 0.019896515 -0.057999443
000170 4d 5c 59 ba b6 8f 71 3d 7d 6b 9e bb 1d 4b e6 bf
       -0.0008291647 0.058974944 -0.004834591 -1.7991673
000180 b1 67 70 bd 2d cb 21 bd 43 54 1a be 88 f1 24 3d
       -0.058692638 -0.039500404 -0.15071206 0.040269405
000190 d0 e5 3a 3d 26 1e c0 3d ed af e7 bc 3f b5 14 3c
       0.045629323 0.0938075 -0.02828213 0.009076416
0001a0 46 ea 5e 3d 38 0b 10 bd 4d c3 5d 3d 1d d3 68 bd
       0.05442264 -0.03516695 0.05414133 -0.05684196
0001b0 73 dd 21 3d c1 09 dd 3d 34 a7 32 3d 2a 06 92 bc
       0.03951783 0.10792876 0.04361649 -0.017825205
0001c0 7e 70 9b bc b6 d1 f8 3c 4b 4e 8a bc b7 46 01 bc
       -0.018974539 0.030373435 -0.016883036 -0.007890395
0001d0 7b 78 f0 bc c2 46 e6 3b 73 7f 2b 3d 15 74 f5 bb
       -0.029354325 0.007027478 0.041869592 -0.0074906447
0001e0 e4 71 10 bd 09 a2 30 ba 37 97 e0 bc 19 75 58 3d
       -0.035264865 -0.00067380123 -0.027415855 0.052846048
0001f0 cb f7 5e bd 62 21 74 3c 4f 3d 9d bd f8 ed 6f 3d
       -0.054435533 0.014900537 -0.07677709 0.058576554
000200 0c f6 a6 3d 19 5d c2 bc 6e cf 75 3d b1 74 8a 3d
       0.081523985 -0.023726033 0.060012273 0.06760538
000210 90 09 ba 3c fe 51 ab bd a0 f9 b7 3b e2 39 c0 3c
       0.022709638 -0.08365248 0.0056144744 0.0234651
000220 46 4a 8e bc f2 21 95 bd d7 26 b4 bb e5 32 a5 3d
       -0.0173694 -0.07281865 -0.005497794 0.08066348
000230 60 50 a6 3d 8f 8d 8e bc 28 d7 a1 3c 65 c4 1f 3e
       0.08120799 -0.017401485 0.019755915 0.15602262
000240 87 28 7b 3b 80 f7 ea bc 55 25 88 bd 6a c4 2b 3c
       0.0038323717 -0.02868247 -0.066477455 0.0104838405
000250 64 98 01 3d 43 4f 61 bd ef 3e 66 3c fc 1e bc 3c
       0.03163947 -0.05500723 0.0140530905 0.022963993
000260 c7 d2 cf 3c db 10 43 bb 8f 23 88 bc d3 bb 26 bd
       0.025369061 -0.0029764685 -0.016618518 -0.040706467
000270 b7 56 71 3d ab 72 6a bd 5e cc e8 39 14 7f 42 bc
       0.05892059 -0.057238262 0.00044402754 -0.011871118
000280 03 0d a8 3c de 03 38 3d 40 5e 5d 3c a0 2c 03 3d
       0.020514017 0.044925563 0.0135112405 0.03202498
000290 ed bc 49 bd 67 06 39 3d 4d 55 ca ba 82 75 d1 bc
       -0.04925244 0.04517212 -0.0015436799 -0.025568727
0002a0 a1 4c f4 3c 49 d8 62 bd 76 74 e7 bf ee 32 93 bd
       0.029821696 -0.055382047 -1.8082416 -0.071874484
0002b0 3d 84 31 3c 14 45 f4 bc 31 75 36 3d f2 1d 09 3d
       0.010834751 -0.029818095 0.044545356 0.033475824
0002c0 56 cf 93 3d de 3c 9d bd c6 ef 33 bd 2c fa da 3d
       0.072172806 -0.07677625 -0.043929838 0.10692248
0002d0 6f 7e cd bb 5a 57 13 bc 50 bf c6 bd fe 3b 6b bd
       -0.0062711756 -0.008992994 -0.09704459 -0.05743026
0002e0 d0 84 2b 3e 32 ea be bc 58 93 df b9 24 47 9d 3d
       0.16749883 -0.023305032 -0.00042643654 0.076795846
0002f0 91 cf b9 3d 7f d2 bc bc a6 39 97 ba e0 94 79 3c
       0.09072793 -0.023049591 -0.0011537566 0.0152332485
000300 ab 19 04 3e d6 f0 80 bc 87 a9 2a bc e3 a9 91 bd
       0.12900417 -0.01573984 -0.010416395 -0.071124814
000310 27 fa e0 bd 55 b7 3d bd 95 a9 24 3d df ea f1 bc
       -0.10985213 -0.046317417 0.04020079 -0.02953094
000320 1e c3 84 bd 08 b6 5f bd 9c 21 69 3d db 6a 83 3c
       -0.06482528 -0.054616958 0.056916818 0.016042164
000330 c7 59 59 3d 70 64 29 bd b8 92 02 3e 24 9a 35 3d
       0.053064134 -0.04135555 0.12751281 0.044336453
000340 ff 8b 6f bd d1 2d ea 3c 24 ca b8 3c 85 18 85 bd
       -0.05848312 0.0285863 0.022557326 -0.06498817
000350 ac fa 8c 3c 0c 96 a0 3c 58 64 1d 3d 19 af 82 3d
       0.017209373 0.019602798 0.038425773 0.063810535
000360 fa 3b f3 bc e5 3e 8c 3c 1d c5 77 3d 4b 2e ee bc
       -0.029691685 0.017119834 0.060490716 -0.029074809
000370 f7 74 29 bd 94 31 30 bb e3 7a 12 3d 76 95 c3 bd
       -0.041371312 -0.002688502 0.035761725 -0.09549992
000380 dc 08 54 bd b8 66 b7 3d 9e df 78 bb 28 05 99 3c
       -0.05176626 0.08955139 -0.0037975083 0.018679217
000390 5b 20 83 3c 83 2b 4f bd b9 37 0b bc c1 8a c5 3c
       0.01600664 -0.050578605 -0.008497172 0.024114015
0003a0 90 79 ff bc 78 26 3f b9 2a 0a 5e bc cf fd 8b 3c
       -0.031185895 -0.0001822951 -0.013552228 0.017088799
0003b0 1c 8c fe 3d e6 c3 9f 3c ed 2d a2 bb 76 17 91 3b
       0.124290675 0.019502591 -0.0049493224 0.0044278456
0003c0 d8 18 f1 3c e8 a8 21 bd 1f dc f8 bb 20 06 be bb
       0.029430792 -0.039467722 -0.0075946 -0.00579907
0003d0 1d a4 1b bd df c7 ef bf 11 f6 05 bd ae f6 e0 3c
       -0.037998307 -1.8732871 -0.03270537 0.027461376
0003e0 36 3d 05 bc 53 b5 85 3d 32 e6 97 3b ae e0 40 3d
       -0.00813227 0.065287255 0.0046355957 0.04708927
0003f0 30 18 98 3d b2 a4 75 bd 6e 78 ac 3d bc 30 25 bc
       0.074264884 -0.05997152 0.08421408 -0.01008242

model/output/b f4 [4]
000000 4b a4 f4 c1 7a 78 ed c1 65 2a e4 c1 24 2c d7 c1
       -30.580221 -29.683826 -28.5207 -26.896553
