experiments/rovers/rovers_full_train_set_2-75-3/best/model.npz (npz, 29655 bytes, 6 tensors)

model/hidden_layers/0/W f4 [75, 20]
0.22943799 0.021907194 0.029098555 -0.5017128 0.03190049 -0.15148152 0.07057158 -0.10660495
-0.116526134 -0.068493865 -0.51701117 0.19544037 0.23436444 0.44409117 0.16120772 0.075266965
-0.12430733 -0.18936847 0.11391053 -0.23034696 -0.25872198 -0.064811945 0.34664908 0.06523388
-0.20845243 -0.051612347 0.09098892 -0.02497321 -0.24576673 -0.18585432 0.21207239 0.41010135
-0.14638479 -0.1265921 -0.13651781 -0.4683221 -0.23833792 -0.097135715 0.14675239 -0.010383925
-0.36819562 0.14460103 -0.079664566 -0.20407492 -0.116829574 -0.13951443 -0.19540602 0.0066442112
-0.32030395 -0.032166246 0.22654054 0.16310161 0.24779826 0.24173275 0.33236086 -0.2549541
0.16154432 -0.41610754 -0.10634419 -0.42575815 0.31613317 0.3099295 0.018653706 -0.07648275
-0.223356 0.12953988 0.001660657 -0.07998232 -0.3818848 0.22111903 -0.1328121 0.13523541
0.07927032 -0.06423912 -0.08205773 0.22829504 0.07795174 0.16951506 -0.64778465 0.11239503
-0.29997417 0.056607462 0.16788235 -0.0801054 0.034665413 0.28102505 -0.0103987465 -0.1894808
-0.32367924 -0.29822195 -0.13482751 -0.120482795 -0.13900961 -0.021673338 -0.15714708 -0.003645525
0.14683715 -0.11562934 -0.023853825 0.37974194 0.22698347 -0.30401886 -0.018952293 0.009430684
0.22156726 0.09064058 -0.14111622 -0.14190103 0.017382404 -0.055394888 -0.05860577 -0.06376045
-0.11853398 0.044606183 -0.2408484 0.14831226 0.1689236 0.08325984 -0.25584412 0.25119534
-0.16138843 0.09535378 -0.16845079 -0.18939266 0.09641239 0.058410306 -0.017316325 0.06173079
-0.11342926 -0.12796365 -0.052203055 0.41396093 0.18219808 -0.12881093 0.19167931 -0.10968648
-0.11521512 0.19214174 -0.067335226 -0.38136923 -0.077272214 0.044497337 0.17126797 -0.04935047
-0.30927026 0.26778397 0.12892549 0.025103925 -0.14972202 0.07129977 -0.07071535 0.30143094
-0.15940842 -0.30382445 -0.10905017 0.14735253 -0.10041585 0.10578432 -0.29223028 0.15069905
-0.18829301 0.012903055 -0.061949536 -0.17712435 0.630698 0.0040218187 -0.32768604 0.31673473
-0.20334832 0.061434686 0.2018939 -0.14025234 -0.09152332 -0.19999358 -0.049943283 -0.33846003
-0.27155593 -0.02665391 0.16746831 0.07481686 0.19374518 0.11689601 -0.17064485 -0.101457156
-0.3646439 -0.23732096 -0.05546882 -0.0837881 0.06702209 -0.107734025 -0.27842242 -0.27328455
-0.118839785 0.13135958 0.23068453 0.11013436 0.5171695 0.2984973 -0.13047358 -0.13892366
-0.06881655 0.021927278 0.007640419 -0.16620849 0.16026902 0.31255946 0.21425995 -0.0054630693
-0.1760649 -0.16927578 -0.12989531 0.34600988 -0.09005788 0.1272628 -0.12426538 0.06251471
0.16232938 0.018116258 -0.17569461 -0.11813967 -0.07508722 -0.031514656 -0.090189785 0.13334405
-0.072595194 0.4243208 -0.6015112 0.04304374 -0.09299929 -0.12680215 0.28121263 0.14702983
-0.05135789 -0.114795856 0.5627818 0.076654956 0.07096049 -0.088340566 -0.1718881 -0.33036208
-0.035595186 0.5484052 0.22709453 -0.12669146 0.25352314 0.44058624 0.13323843 0.46614796
-0.119848564 0.038700595 0.40188825 -0.52703124 -0.12241383 -0.10155597 -0.22130603 -0.015317838
00000000: cbf1 6a3e b776 b33c 1860 ee3c 4070 00bf
00000010: 17aa 023d f91d 1bbe d587 903d b253 dabd
00000020: 41a5 eebd 8346 8cbd d85a 04bf 8521 483e
00000030: 3bfd 6f3e eb5f e33e a313 253e 9125 9a3d
00000040: d794 febd cfe9 41be ed49 e93d 13e0 6bbe
00000050: 3577 84be 20bc 84bd fd7b b13e 5799 853d
00000060: 8e74 55be 7867 53bd 6658 ba3d 9e94 ccbc
00000070: 46aa 7bbe 9850 3ebe 8129 593e cef8 d13e
00000080: e5e5 15be 5ca1 01be 53cb 0bbe eac7 efbe
00000090: db0e 74be 17ef c6bd 4246 163e 5721 2abc
000000a0: 2384 bcbe 4b12 143e 2d27 a3bd 04f9 50be
000000b0: 5844 efbd dfdc 0ebe 8418 48be afb7 d93b
000000c0: e1fe a3be c1c0 03bd 3efa 673e 1c04 273e
000000d0: d4be 7d3e ca88 773e 342b aa3e 5889 82be
000000e0: e06b 253e 0c0c d5be fcca d9bd f9fc d9be
000000f0: 35dc a13e 14af 9e3e a8cf 983c fda2 9cbd
00000100: 6fb7 64be 1aa6 043e 67aa d93a c5cd a3bd
00000110: 6886 c3be 076d 623e e5ff 07be 277b 0a3e
00000120: 7a58 a23d cd8f 83bd e20d a8bd 2dc6 693e
00000130: 29a5 9f3d 5b95 2d3e 37d5 25bf 5e2f e63d
00000140: 3796 99be 3add 673d 5ae9 2b3e 4d0e a4bd
00000150: 52fd 0d3d 84e2 8f3e 815f 2abc 4107 42be
00000160: 49b9 a5be 8cb0 98be 3910 0abe afbf f6bd
00000170: 8958 0ebe 498c b1bc 2aeb 20be c3e9 6ebb
00000180: 7a5c 163e 13cf ecbd 1969 c3bc 896d c23e
00000190: 5b6e 683e 5ca8 9bbe d741 9bbc 2883 1a3c
000001a0: 87e2 623e c5a1 b93d c580 10be 814e 11be
000001b0: 8b65 8e3c c0e5 62bd 9b0c 70bd d794 82bd
000001c0: f1c1 f2bd f9b4 363d f7a0 76be 2bdf 173e
000001d0: 4ffa 2c3e 2384 aa3d 00fe 82be ad9c 803e
000001e0: 0243 25be d848 c33d 5d7e 2cbe 26f0 41be
000001f0: dc73 c53d a53f 6f3d f7da 8dbc 6dd9 7c3d
00000200: 9a4d e8bd e708 03be dfd2 55bd b0f2 d33e
00000210: 2292 3a3e 03e7 03be 9547 443e 4ea3 e0bd
00000220: e8f5 ebbd cec0 443e 0de7 89bd d442 c3be
00000230: e540 9ebd d742 363d df60 2f3e b823 4abd
00000240: ac58 9ebe fb1a 893e 0b05 043e bfa6 cd3c
00000250: bb50 19be 9d05 923d 36d3 90bd 2855 9a3e
00000260: f63b 23be e18e 9bbe b255 dfbd 95e3 163e
00000270: d3a6 cdbd 73a5 d83d 359f 95be da50 1a3e
00000280: e2cf 40be 5667 533c ccbe 7dbd 1660 35be
00000290: 6d75 213f 76c9 833b 77c6 a7be 0e2b a23e
000002a0: 8b3a 50be f0a2 7b3d 46bd 4e3e 4f9e 0fbe
000002b0: 9470 bbbd 1ecb 4cbe 5491 4cbd a24a adbe
000002c0: 6109 8bbe 4d59 dabc d07c 2b3e 9539 993d
000002d0: 2365 463e 2d67 ef3d 86bd 2ebe c5c8 cfbd
000002e0: 9bb2 babe 4404 73be 4633 63bd 1899 abbd
000002f0: e142 893d a8a3 dcbd 628d 8ebe f4eb 8bbe
00000300: 4662 f3bd 2083 063e 9138 6c3e 208e e13d
00000310: 3865 043f a3d4 983e de9a 05be 0142 0ebe
00000320: b1ef 8cbd d6a0 b33c 7b5c fa3b 8f32 2abe
00000330: 901d 243e cb07 a03e f666 5b3e 8c03 b3bb
00000340: 5b4a 34be a156 2dbe 4703 05be 3528 b13e
00000350: 4470 b8bd 2e51 023e d97e febd b607 803d
00000360: ac39 263e 8c68 943c 4ae9 33be 36f3 f1bd
00000370: 54c7 99bd 8315 01bd 6cb5 b8bd 588b 083e
00000380: caac 94bd 9340 d93e a3fc 19bf a24e 303d
00000390: 6976 bebd 6cd8 01be 1afb 8f3e fd8e 163e
000003a0: a75c 52bd 171a ebbd 7812 103f 46fd 9c3d
000003b0: bc53 913d e6eb b4bd 6f03 30be 3825 a9be
000003c0: 42cc 11bd 4864 0c3f 788b 683e 68bb 01be
000003d0: c9cd 813e 8594 e13e a86f 083e f2aa ee3e
000003e0: 2a73 f5bd 8484 1e3d 4cc4 cd3e 85eb 06bf
000003f0: 1ab4 fabd 94fc cfbd 0c9e 62be abf7 7abc

model/hidden_layers/0/b f4 [75]
2.4081829 -0.2653119 -0.325913 -0.65543693 -0.34946188 -0.6199818 -0.1928011 -1.0688933
-0.240194 2.991368 -0.22233151 -0.5824526 -0.21207762 -0.13611498 3.094666 -0.20292777
-0.15415895 -0.24412145 -0.2382849 -0.210026 -0.19047683 -0.11890179 -0.007634739 -0.18436873
-0.27565587 -0.2905656 -1.2067667 -0.29004234 -0.08624136 -0.26832116 0.057154886 -0.185053
-0.2169274 -0.41587728 -0.30631346 -1.0254374 -0.20834239 -0.34974712 -0.51621765 -0.34801653
-0.2612693 -0.35795516 -0.31500843 -0.251677 -0.23720318 -0.3307264 -0.3004006 -0.20793566
-0.2373948 -0.10753495 -0.9910656 -0.7007991 -0.36738488 -0.35059923 -0.37107432 -0.20804663
-0.11343118 -0.9446905 -0.2243871 -0.07817034 -0.28407633 -0.35266784 -0.24515438 -0.31510273
2.3684564 3.0399144 -0.23488076 -0.3810468 -0.21141462 -0.44422016 -0.8312864 -0.09379766
-0.23225129 -0.29717833 -0.33072674
00000000: ab1f 1a40 f6d6 87be 12de a6be b7ca 27bf
00000010: abec b2be 21b7 1ebf a76d 45be 7fd1 88bf
00000020: 6af5 75be 9372 3f40 dfaa 63be 9d1b 15bf
00000030: e02a 59be ba61 0bbe 020f 4640 4ccc 4fbe
00000040: d8db 1dbe f9fa 79be f500 74be 0e11 57be
00000050: 5c0c 43be c882 f3bd d52c fabb 28cb 3cbe
00000060: c422 8dbe 04c5 94be 5577 9abf 6e80 94be
00000070: 4f9f b0bd 6461 89be 3e1b 6a3d 897e 3dbe
00000080: 3722 5ebe deed d4be 1ed5 9cbe 8841 83bf
00000090: b557 55be 0e12 b3be d726 04bf 392f b2be
000000a0: 17c5 85be e645 b7be c948 a1be cfdb 80be
000000b0: 64e5 72be f854 a9be 1cce 99be 16ed 54be
000000c0: 9f17 73be 493b dcbd 7ab6 7dbf 9267 33bf
000000d0: df19 bcbe be81 b3be 74fd bdbe 2d0a 55be
000000e0: 9b4e e8bd 3dd7 71bf bbc5 65be c517 a0bd
000000f0: 7472 91be e190 b4be c009 7bbe 2555 a1be
00000100: ca94 1740 f58d 4240 9584 70be 9118 c3be
00000110: 137d 58be d370 e3be 2fcf 54bf fd18 c0bd
00000120: 48d3 6dbe c227 98be 0455 a9be

model/hidden_layers/1/W f4 [75, 75]
-0.3207994 0.060517985 0.055905055 -0.14490423 0.14158994 -0.01852636 -0.30461374 0.09322503
0.12760869 -0.078111686 -0.11463551 0.14383039 -0.034767233 -0.35367298 -0.055118475 0.0407526
-0.05550386 -0.13408116 0.041509427 -0.24935181 0.034706276 -0.11436251 -0.0755028 -0.047055442
0.04632672 0.08589145 -0.123318546 0.020560168 -0.069249675 -0.16118068 -0.24775723 0.18855317
0.096365504 -0.17441085 0.10265824 0.07769493 0.08536773 0.12047628 -0.2555045 -0.07799592
0.12585501 0.122181654 -0.01093697 -0.24959183 0.008595888 -0.11700296 -0.013253323 -0.20540278
0.09909868 -0.11307752 0.040576447 -0.11056597 -0.17346245 -0.19389078 0.0333444 -0.21997023
0.08280505 0.17442745 -0.08930069 -0.22422828 0.08573364 0.08399339 -0.123924695 -0.06181397
-0.1106148 -0.16396247 -0.024854809 0.074890696 0.20529485 -0.19633465 0.1658741 -0.11515403
-0.0068109604 0.039952166 0.111558095 0.05945212 -0.016863972 0.02996634 -0.09215289 -0.15058477
-0.106021024 -0.091686286 -0.0073789875 0.09900467 0.04287493 0.15579051 -0.022536656 -0.07628377
-0.103997506 -0.09843938 -0.033760324 0.15248604 -0.18222345 0.05656443 0.00306766 0.09583837
-0.05948706 0.08030459 -0.06345567 0.07917123 -0.23555861 0.04180003 0.08702292 -0.21110313
0.10249106 -0.15432294 0.11519781 -0.0037294566 0.052991956 0.045121033 -0.13036577 0.18795317
0.1387227 -0.11604775 0.06310061 0.052459028 -0.07914525 -0.120091 0.14723745 -0.05313422
0.09312536 0.22103013 0.05044004 -0.09484703 0.11094235 -0.16095126 -0.1038389 0.338324
-0.08830049 0.0458043 -0.11219846 -0.009266777 0.019659411 -0.3049723 -0.07282554 0.087117426
0.1110438 0.027270274 -0.11212408 0.06280349 -0.054863974 -0.094122656 -0.0018892228 0.24779016
-0.10258937 0.12358016 0.023592586 -0.16542052 -0.11315954 -0.02454382 -0.047910217 0.037075922
-0.10721095 -0.10779704 0.1240447 0.0014376008 -0.090993114 0.0047626575 0.21888413 -0.061325252
-0.16831437 0.11043028 0.22815262 0.14701483 -0.14748405 -0.23399554 0.14781123 -0.018638141
0.06394666 -0.016191615 0.19914514 0.009371727 -0.03271297 0.02221268 -0.13448562 0.022977384
-0.0106871035 -0.24117303 -0.13383102 -0.14308591 -0.18209115 0.04349497 0.13259307 0.03831828
-0.16969515 -0.20469585 0.091277786 -0.034558926 -0.012253408 -0.14679454 -0.23431799 0.26044622
-0.07054174 -0.02779555 -0.1318546 0.17295861 -0.042345315 -0.017754829 0.0033562966 -0.009599838
0.16073355 -0.21452558 0.07089072 -0.07225732 -0.051959332 -0.07447038 0.046141483 -0.15506636
-0.06587883 0.059107367 -0.06965285 -0.060129717 0.03556394 0.006268834 -0.045749355 0.0003997227
-0.10643133 0.093032785 -0.12975691 -0.18969463 0.04466459 -0.15657808 -0.11535378 -0.03303261
0.07612369 -0.061764654 -0.05681718 -0.055214398 0.031232089 -0.06515674 0.021169925 0.15010734
-0.03645159 -0.049918897 -0.1144222 -0.09483223 -0.15065281 -0.1344126 -0.07535102 0.029899864
0.04801742 -0.057731345 0.027873227 -0.15797369 0.22911032 0.2770218 -0.021857878 0.049613792
0.0032212678 0.081603564 -0.0809468 -0.18330812 0.08460196 -0.13389733 0.032413196 -0.11560528
00000000: d23f a4be b5e1 773d b3fc 643d c661 14be
00000010: f4fc 103e 98c4 97bc 55f6 9bbe c4ec be3d
00000020: daab 023e 05f9 9fbd 06c6 eabd 4648 133e
00000030: 1668 0ebd a014 b5be e9c3 61bd 33ec 263d
00000040: 0458 63bd 924c 09be ca05 2a3d 1556 7fbe
00000050: 2b28 0e3d e436 eabd 36a1 9abd 35bd 40bd
00000060: 16c1 3d3d dbe7 af3d 6f8e fcbd cc6d a83c
00000070: c6d2 8dbd 8c0c 25be 12b4 7dbe 1514 413e
00000080: 475b c53d c298 32be 7c3e d23d 851e 9f3d
00000090: 47d5 ae3d 45bc f63d 7cd1 82be 53bc 9fbd
000000a0: 23e0 003e 603a fa3d fa30 33bc 0095 7fbe
000000b0: c4d5 0c3c 3f9f efbd 7724 59bc 1b55 52be
000000c0: 40f4 ca3d 3095 e7bd 7d33 263d 6970 e2bd
000000d0: 24a0 31be 4e8b 46be 2394 083d e03f 61be
000000e0: b295 a93d 1c9d 323e 48e3 b6bd 199c 65be
000000f0: 1e95 af3d ba04 ac3d 3bcc fdbd a530 7dbd
00000100: 038a e2bd c7e5 27be 509c cbbc 4b60 993d
00000110: d038 523e f30b 49be e6da 293e e0d5 ebbd
00000120: 7a2e dfbb e2a4 233d 9278 e43d 1184 733d
00000130: 5026 8abc f87b f53c a8ba bcbd e532 1abe
00000140: 8d21 d9bd 05c6 bbbd 6fcb f1bb f6c2 ca3d
00000150: 9f9d 2f3d 8c87 1f3e cb9e b8bc aa3a 9cbd
00000160: a5fc d4bd 969a c9bd 4448 0abd 4d25 1c3e
00000170: c998 3abe 1bb0 673d cb0a 493b e846 c43d
00000180: b4a8 73bd bc76 a43d 0cf5 81bd 8724 a23d
00000190: 4736 71be 8236 2b3d 1339 b23d 6b2b 58be
000001a0: d5e6 d13d d506 1ebe d4ec eb3d e669 74bb
000001b0: 180e 593d d5d0 383d 9b7e 05be cc76 403e
000001c0: 530d 0e3e 71aa edbd e53a 813d 47df 563d
000001d0: e816 a2bd 45f2 f5bd 6ac5 163e 45a3 59bd
000001e0: 82b8 be3d b955 623e 379a 4e3d 293f c2bd
000001f0: be35 e33d 68d0 24be 7da9 d4bd ce38 ad3e
00000200: e3d6 b4bd 4a9d 3b3d 4ec8 e5bd aed3 17bc
00000210: c60c a13c 5425 9cbe 8f25 95bd 9f6a b23d
00000220: ef6a e33d e965 df3c 4fa1 e5bd 1e9f 803d
00000230: 0cb9 60bd 61c3 c0bd cc9f f7ba b4bc 7d3e
00000240: 601a d2bd 9817 fd3d 3d45 c13c ff63 29be
00000250: 30c0 e7bd 1f10 c9bc 813d 44bd ecdc 173d
00000260: 6a91 dbbd b2c4 dcbd 260b fe3d e16d bc3a
00000270: 995a babd 1110 9c3b 2923 603e 3030 7bbd
00000280: 9a5a 2cbe 4529 e23d d7a0 693e 0e8b 163e
00000290: 0f06 17be 879c 6fbe d45b 173e 04af 98bc
000002a0: 77f6 823d 47a4 84bc b4ec 4b3e df8b 193c
000002b0: 09fe 05bd 5ef7 b53c 99b6 09be 113b bc3c
000002c0: f618 2fbc 10f6 76be 000b 09be 1d85 12be
000002d0: 1a76 3abe c827 323d 7ac6 073e a1f3 1c3d
000002e0: 91c4 2dbe ca9b 51be d9ef ba3d a98d 0dbd
000002f0: 85c2 48bc 4f51 16be 0ef1 6fbe 3559 853e
00000300: 3078 90bd 7eb3 e3bc e404 07be 101c 313e
00000310: 4872 2dbd 9372 91bc 50f5 5b3b a448 1dbc
00000320: 5697 243e 98ac 5bbe 272f 913d a5fb 93bd
00000330: 4fd3 54bd ed83 98bd dafe 3c3d b7c9 1ebe
00000340: 7beb 86bd 911a 723d 27a6 8ebd 944a 76bd
00000350: 7eab 113d cb6a cd3b ad63 3bbd df91 d139
00000360: abf8 d9bd f987 be3d ffde 04be 4f3f 42be
00000370: 38f2 363d 0156 20be 9a3e ecbd 344d 07bd
00000380: bde6 9b3d effc 7cbd 22b9 68bd 7e28 62bd
00000390: 70da ff3c e670 85bd 8d6c ad3c bdb5 193e
000003a0: 434e 15bd c277 4cbd 3056 eabd 6637 c2bd
000003b0: bb44 1abe 75a3 09be a351 9abd 8ff0 f43c
000003c0: eaad 443d b477 6cbd 6556 e43c dbc3 21be
000003d0: e59b 6a3e cdd5 8d3e 4b0f b3bc d537 4b3d
000003e0: e81b 533b c51f a73d 70c7 a5bd 20b5 3bbe
000003f0: cb43 ad3d 621c 09be b3c3 043d 76c2 ecbd

model/hidden_layers/1/b f4 [75]
1.9614983 -0.053445693 -0.0061497656 -0.00052308216 2.209911 0.030591428 -0.092246704 -0.029219272
2.8746264 2.561594 -0.1494814 2.5650094 -0.23833781 -0.16063716 -0.035857238 -0.026159342
2.500878 2.0214264 1.8633665 -0.15634151 0.061410714 -0.2059786 1.8157367 2.1034186
-0.11871657 2.9268768 -0.023386339 0.09794535 -0.019994367 0.085082635 3.2220373 -0.040667553
-0.059255283 0.44746563 0.105368294 -0.084739774 -0.02406013 -0.018945044 2.4752793 -0.2618865
2.1353781 0.00036184175 1.6714762 0.00011629827 3.215436 0.06412254 2.4452295 -0.3655284
-0.23345226 -0.054848585 -0.10121507 1.7604116 0.10525695 2.4235907 2.6930356 -0.055336103
2.210287 3.24588 2.690602 2.766853 0.023064334 -0.19325799 -0.101366 -0.04507463
-0.025093112 -0.40927795 0.043921307 -0.14628154 -0.019765794 2.4400723 2.0691338 2.6980383
-0.02031895 -0.09734566 -0.14781485
00000000: 6012 fb3f dfe9 5abd f983 c9bb 731f 09ba
00000010: 2f6f 0d40 e09a fa3c d7eb bcbd 415d efbc
00000020: e1f9 3740 28f1 2340 a711 19be 1d29 2440
00000030: d40e 74be 117e 24be 0adf 12bd 1e4c d6bc
00000040: 630e 2040 0d5f 0140 cb82 ee3f fd17 20be
00000050: cd89 7b3d 0eec 52be 0f6a e83f 699e 0640
00000060: ac21 f3bd f351 3b40 b594 bfbc 9297 c83d
00000070: 3acb a3bc ce3f ae3d dc35 4e40 0593 26bd
00000080: abb5 72bd 371a e53e 55cb d73d 0c8c adbd
00000090: c019 c5bc a332 9bbc fa6a 1e40 fd15 86be
000000a0: 09aa 0840 94b5 bd39 eff2 d53f 29e5 f338
000000b0: b4c9 4d40 ae52 833d a47e 1c40 8a26 bbbe
000000c0: 1c0e 6fbe e9a8 60bd d949 cfbd 2b55 e13f
000000d0: f590 d73d 1c1c 1b40 b25a 2c40 1ca8 62bd
000000e0: 5875 0d40 7fbc 4f40 d332 2c40 1f14 3140
000000f0: 6af1 bc3c 6ce5 45be fa98 cfbd 2da0 38bd
00000100: 1290 cdbc e18c d1be d4e6 333d d4ca 15be
00000110: e0eb a1bc 252a 1c40 b06c 0440 a9ac 2c40
00000120: ed73 a6bc 295d c7bd c75c 17be

model/output/W f4 [4, 75]
-0.87759566 0.097445436 0.0024066274 -0.03439639 -0.6243592 -0.04945721 -0.11586916 -0.16367495
-0.6585099 -0.72169423 0.28305477 -0.70834404 0.092916116 0.04172575 0.09249029 0.06378846
-0.6731807 -0.6019674 -0.59784454 0.092739925 -0.08606484 0.010346894 -0.5578478 -0.6016335
0.10378627 -0.8119465 0.11344748 -0.103042714 0.035389476 0.027115485 -0.9251992 0.028182404
-0.068700224 0.039928112 -0.06713647 -0.052372295 -0.05216805 0.028676966 -0.73396146 -0.15858275
-0.5871245 -0.11048853 -0.46828988 -0.11290237 -1.1571965 -0.11985388 -0.7298747 0.197676
0.18150869 0.077641584 -0.06301927 -0.58998454 -0.09447655 -0.63204646 -0.8352285 -0.022343474
-0.6433274 -1.1405609 -0.7490037 -0.69436324 0.01971448 0.07758211 -0.17732547 -0.010441245
0.07874451 0.05643265 0.033159204 -0.09084789 0.20427825 -0.66564435 -0.66579866 -0.71565264
-0.001779802 -0.14027949 0.071478605 -0.89636743 -0.10399915 0.26278347 0.14192332 -0.67285085
-0.022439858 -0.010362824 -0.12441196 -0.76608515 -0.71852714 0.16857497 -0.65619296 0.07051729
0.038979363 0.32397577 0.06368682 -0.689125 -0.5744577 -0.6138298 -0.006006717 -0.064858936
-0.10023348 -0.5886674 -0.63638854 0.044503104 -0.8052172 0.0768984 -0.08287131 -0.18616366
0.013564887 -1.0621265 0.09069497 0.01128264 -0.048147824 -0.19952409 -0.01778705 -0.011209921
-0.083849385 -0.6587216 -0.1565506 -0.55396277 -0.07585163 -0.4898742 -0.051125992 -1.07933
0.043102227 -0.6584632 0.09627876 0.014538222 -0.033884812 -0.006578798 -0.594332 -0.0945847
-0.7250291 -0.7701595 -0.024612183 -0.6648737 -1.0758674 -0.75386083 -0.7414762 0.06481127
-0.0021706743 -0.09865947 -0.009582593 0.07540012 0.029102888 0.005538099 -0.030484978 -0.068807244
-0.62833774 -0.59812456 -0.7390402 0.17558368 0.20892584 0.045451805 -0.8283025 -0.05041172
0.018686222 -0.108990155 -0.6382781 -0.09403055 0.14431119 -0.13484603 -0.83334553 -0.6217132
-0.05404311 -0.6851517 0.09956441 0.0605485 -0.07051743 0.15793717 -0.67443085 -0.65995145
-0.5075348 0.07732316 0.1211556 -0.026868071 -0.5704917 -0.585417 0.09284625 -0.97340727
0.018501917 -0.10560395 -0.10009023 -0.31384516 -1.083449 -0.012603994 0.052755237 0.07585368
-0.19466692 -0.047126967 -0.030864567 0.23118323 -0.64752537 -0.23244451 -0.57220405 -0.2145978
-0.58710414 0.18781653 -0.99763346 -0.048584446 -0.686532 0.089177765 -0.0356697 0.06435877
-0.089325264 -0.51168656 -0.068774104 -0.7487197 -0.71358585 0.15190713 -0.71476865 -0.9412832
-0.7184304 -0.78212297 -0.20379472 0.11395531 -0.10362969 0.022238534 -0.12097362 0.10965329
-0.31299713 -0.17697205 0.035297345 -0.69886255 -0.5656812 -0.80959415 0.03381708 0.16705538
0.038038936 -1.0448906 0.054975137 -0.03669457 -0.09115939 -0.61924076 0.050545365 -0.06250653
0.13189036 -0.8295192 -0.74674803 -0.36510605 -0.5744478 0.023627548 0.020761555 0.07083707
0.03417886 -0.7318654 -0.42429522 -0.57852244 -0.05082827 -0.12454266 0.13129963 -0.63150936
-0.5262972 0.033133168 -0.95642024 -0.10301882 0.08217127 0.060967036 0.060715158 -1.056046
00000000: 1caa 60bf 7991 c73d 82b8 1d3b 3be3 0cbd
00000010: 01d6 1fbf a593 4abd cf4c edbd 689a 27be
00000020: 1b94 28bf f4c0 38bf 8eec 903e 0956 35bf
00000030: ce4a be3d 9fe8 2a3d 8d6b bd3d 86a3 823d
00000040: 9255 2cbf 891a 1abf 570c 19bf 6eee bd3d
00000050: c342 b0bd 0586 293c 1dcf 0ebf a704 1abf
00000060: e58d d43d badb 4fbf 2757 e83d 0f08 d3bd
00000070: 8ef4 103d 4b21 de3c dbd9 6cbf c9de e63c
00000080: b4b2 8cbd a98b 233d d87e 89bd 5584 56bd
00000090: 2aae 55bd f5eb ea3c e6e4 3bbf 8463 22be
000000a0: cb4d 16bf cf47 e2bd b1c3 efbe 5c39 e7bd
000000b0: 041f 94bf f375 f5bd 11d9 3abf 946b 4a3e
000000c0: 6add 393e 8d02 9f3d 3f10 81bd 3a09 17bf
000000d0: ec7c c1bd cccd 21bf 89d1 55bf a909 b7bc
000000e0: 1bb1 24bf e6fd 91bf b5be 3fbf cac1 31bf
000000f0: 4380 a13c 5fe3 9e3d cf94 35be c111 2bbc
00000100: cd44 a13d ec25 673d f2d1 073d 750e babd
00000110: 512e 513e ab67 2abf c871 2abf 0335 37bf
00000120: 3f48 e9ba 6da5 0fbe 6063 923d 5678 65bf
00000130: 82fd d4bd 8e8b 863e 5954 113e f43f 2cbf
00000140: cbd3 b7bc d6c8 29bc b3cb febd 281e 44bf
00000150: 65f1 37bf eb9e 2c3e 43fc 27bf 5e6b 903d
00000160: d3a8 1f3d 27e0 a53e 3c6e 823d 7f6a 30bf
00000170: a90f 13bf f323 1dbf ffd3 c4bb c3d4 84bd
00000180: 3647 cdbd e8b2 16bf 5cea 22bf e348 363d
00000190: b722 4ebf e97c 9d3d 6fb8 a9bd b0a1 3ebe
000001a0: 433f 5e3c c3f3 87bf 49be b93d d2da 383c
000001b0: a736 45bd 0b50 4cbe 26b6 91bc d1a9 37bc
000001c0: 3ab9 abbd fba1 28bf cd4e 20be 81d0 0dbf
000001d0: 1958 9bbd cbd0 fabe 7d69 51bd 7c27 8abf
000001e0: f68b 303d 0b91 28bf cc2d c53d b931 6e3c
000001f0: cdca 0abd f592 d7bb 2426 18bf a0b5 c1bd
00000200: 829b 39bf 2c29 45bf 7d9f c9bc 2a35 2abf
00000210: 06b6 89bf 06fd 40bf 62d1 3dbf c5bb 843d
00000220: df41 0ebb fa0d cabd 4f00 1dbc 616b 9a3d
00000230: 2e69 ee3c f178 b53b a2bb f9bc d0ea 8cbd
00000240: beda 20bf b11e 19bf bd31 3dbf 35cc 333e
00000250: a8f0 553e ac2b 3a3d a20b 54bf 857c 4ebd
00000260: d913 993c 3b36 dfbd 3266 23bf 1793 c0bd
00000270: 50c6 133e 1415 0abe 2256 55bf 9928 1fbf
00000280: 4f5c 5dbd 1a66 2fbf 6de8 cb3d b401 783d
00000290: 716b 90bd 48ba 213e 80a7 2cbf 94f2 28bf
000002a0: cded 01bf 9b5b 9e3d 6d20 f83d 6e1a dcbc
000002b0: be0b 12bf e3dd 15bf 2d26 be3d 3831 79bf
000002c0: 5591 973c e246 d8bd 1bfc ccbd 50b0 a0be
000002d0: 75ae 8abf fc80 4ebc e015 583d 2d59 9b3d
000002e0: c456 47be 3508 41bd b0d7 fcbc 4cbb 6c3e
000002f0: 39c4 25bf ef05 6ebe f77b 12bf 87bf 5bbe
00000300: 754c 16bf fa52 403e e864 7fbf 7c00 47bd
00000310: 90c0 2fbf d5a2 b63d 641a 12bd 88ce 833d
00000320: 2af0 b6bd e4fd 02bf 70d9 8cbd 18ac 3fbf
00000330: 90ad 36bf 8b8d 1b3e 14fb 36bf f0f7 70bf
00000340: 0eeb 37bf 3639 48bf 90af 50be 6761 e93d
00000350: ce3b d4bd 962d b63c 04c1 f7bd e791 e03d
00000360: 2941 a0be 2938 35be f393 103d a8e8 32bf
00000370: 7cd0 10bf 9041 4fbf c783 0a3d 9110 2b3e
00000380: b7ce 1b3d fabe 85bf 9c2d 613d 0c4d 16bd
00000390: c6b1 babd 9086 1ebf a808 4f3d 6c03 80bd
000003a0: 440e 073e 5f5b 54bf e12a 3fbf 2eef babe
000003b0: 030f 13bf 8f8e c13c 2314 aa3c 0713 913d
000003c0: 22ff 0b3d 885b 3bbf 393d d9be 0c1a 14bf
000003d0: 4e31 50bd 3910 ffbd 6973 063e 99aa 21bf
000003e0: 6abb 06bf a5b6 073d f5d7 74bf 88fb d2bd
000003f0: 6949 a83d 92b8 793d 75b0 783d 842c 87bf

model/output/b f4 [4]
-2.4443226 -2.256271 -2.4294848 -2.621925
00000000: c86f 1cc0 be66 10c0 ae7c 1bc0 9fcd 27c0
