experiments/rovers/rovers_full_train_set_2-75-3/best/target_model.npz (npz, 29654 bytes, 6 tensors)

model/hidden_layers/0/W f4 [75, 20]
00000000: 7101 6a3e e23b 993c 89dc e53c 445b 00bf
00000010: 0e3a 003d 781c 1ebe ab00 753d e0b1 dbbd
00000020: 0f3f edbd 796b 8ebd 113b 05bf 0a1e 3d3e
00000030: 6380 6e3e 6785 e33e cfb8 233e 9b3a 933d
00000040: e04d 0abe 9766 43be 3be7 e93d 6f25 6dbe
00000050: 3577 84be 20bc 84bd fd7b b13e 5799 853d
00000060: 8e74 55be 0a67 53bd 6658 ba3d 9e94 ccbc
00000070: 1cc6 7bbe a953 3ebe 8129 593e cef8 d13e
00000080: e5e5 15be 5ca1 01be 53cb 0bbe eac7 efbe
00000090: db0e 74be 17ef c6bd 4246 163e 5721 2abc
000000a0: 2384 bcbe 4b12 143e 2d27 a3bd 04f9 50be
000000b0: 5844 efbd dfdc 0ebe 8418 48be afb7 d93b
000000c0: e1fe a3be c1c0 03bd 3efa 673e 1c04 273e
000000d0: d4be 7d3e ca88 773e 342b aa3e 5889 82be
000000e0: e06b 253e 0c0c d5be fcca d9bd f9fc d9be
000000f0: 35dc a13e 14af 9e3e a8cf 983c fda2 9cbd
00000100: 6fb7 64be 1aa6 043e 67aa d93a c5cd a3bd
00000110: 6886 c3be 076d 623e e5ff 07be 277b 0a3e
00000120: 7a58 a23d cd8f 83bd e20d a8bd 2dc6 693e
00000130: 29a5 9f3d 5b95 2d3e 37d5 25bf 5e2f e63d
00000140: 3796 99be 3add 673d 5ae9 2b3e 4d0e a4bd
00000150: 52fd 0d3d cce2 8f3e 815f 2abc 4107 42be
00000160: 12ca a5be 2db2 98be 3910 0abe afbf f6bd
00000170: 8958 0ebe 498c b1bc 2aeb 20be c3e9 6ebb
00000180: 7a5c 163e 13cf ecbd 1969 c3bc 896d c23e
00000190: 5b6e 683e 5ca8 9bbe d741 9bbc 2883 1a3c
000001a0: 87e2 623e c5a1 b93d c580 10be 814e 11be
000001b0: 8b65 8e3c c0e5 62bd 9b0c 70bd d794 82bd
000001c0: f1c1 f2bd f9b4 363d f7a0 76be 2bdf 173e
000001d0: 4ffa 2c3e 2384 aa3d 00fe 82be ad9c 803e
000001e0: 0243 25be d848 c33d 5d7e 2cbe 26f0 41be
000001f0: dc73 c53d a53f 6f3d f7da 8dbc 6dd9 7c3d
00000200: 9a4d e8bd e708 03be dfd2 55bd b0f2 d33e
00000210: 2292 3a3e 03e7 03be 9547 443e 4ea3 e0bd
00000220: e8f5 ebbd cec0 443e 0de7 89bd d442 c3be
00000230: e540 9ebd d742 363d df60 2f3e b823 4abd
00000240: ac58 9ebe fb1a 893e 0b05 043e bfa6 cd3c
00000250: bb50 19be 9d05 923d 36d3 90bd 2855 9a3e
00000260: f63b 23be e18e 9bbe b255 dfbd 95e3 163e
00000270: d3a6 cdbd 73a5 d83d 359f 95be da50 1a3e
00000280: e2cf 40be 5667 533c ccbe 7dbd 1660 35be
00000290: 6d75 213f 76c9 833b 77c6 a7be 0e2b a23e
000002a0: 8b3a 50be f0a2 7b3d 46bd 4e3e 4f9e 0fbe
000002b0: 9470 bbbd 1ecb 4cbe 5491 4cbd a24a adbe
000002c0: 6109 8bbe 4d59 dabc d07c 2b3e 9539 993d
000002d0: f8a7 443e 90a1 e43d a0d2 30be a2ce cfbd
000002e0: 0d52 bbbe 53d6 76be 9115 85bd 525a adbd
000002f0: b2dc 893d 3c4a ddbd cac8 90be d4ca 90be
00000300: c834 f7bd cf74 063e a4a4 6b3e 56ce d83d
00000310: c7f5 013f 09e0 973e 0ca4 05be 5bbc 0ebe
00000320: b1ef 8cbd d6a0 b33c 7b5c fa3b 8f32 2abe
00000330: 901d 243e cb07 a03e f666 5b3e 8c03 b3bb
00000340: 624a 34be a156 2dbe 4703 05be 3528 b13e
00000350: 4470 b8bd 2e51 023e d97e febd b607 803d
00000360: ac39 263e 8c68 943c 4ae9 33be 36f3 f1bd
00000370: 54c7 99bd 8315 01bd 6cb5 b8bd 588b 083e
00000380: caac 94bd 9340 d93e a3fc 19bf a24e 303d
00000390: 6976 bebd 6cd8 01be 1afb 8f3e fd8e 163e
000003a0: a75c 52bd 171a ebbd 7812 103f 46fd 9c3d
000003b0: bc53 913d e6eb b4bd 6f03 30be 3825 a9be
000003c0: 42cc 11bd 4864 0c3f 788b 683e 68bb 01be
000003d0: c9cd 813e 8594 e13e a86f 083e f2aa ee3e
000003e0: 2a73 f5bd 8484 1e3d 4cc4 cd3e 85eb 06bf
000003f0: 1ab4 fabd 94fc cfbd 0c9e 62be abf7 7abc
0.22852112 0.018705312 0.02805926 -0.5013926 0.031305365 -0.15440547 0.05981509 -0.10727286
-0.11584293 -0.069540925 -0.52043253 0.1846849 0.23291163 0.44437715 0.15988468 0.071889125
-0.1350627 -0.19082104 0.11421057 -0.23158811 -0.25872198 -0.064811945 0.34664908 0.06523388
-0.20845243 -0.051611938 0.09098892 -0.02497321 -0.24587291 -0.18586601 0.21207239 0.41010135
-0.14638479 -0.1265921 -0.13651781 -0.4683221 -0.23833792 -0.097135715 0.14675239 -0.010383925
-0.36819562 0.14460103 -0.079664566 -0.20407492 -0.116829574 -0.13951443 -0.19540602 0.0066442112
-0.32030395 -0.032166246 0.22654054 0.16310161 0.24779826 0.24173275 0.33236086 -0.2549541
0.16154432 -0.41610754 -0.10634419 -0.42575815 0.31613317 0.3099295 0.018653706 -0.07648275
-0.223356 0.12953988 0.001660657 -0.07998232 -0.3818848 0.22111903 -0.1328121 0.13523541
0.07927032 -0.06423912 -0.08205773 0.22829504 0.07795174 0.16951506 -0.64778465 0.11239503
-0.29997417 0.056607462 0.16788235 -0.0801054 0.034665413 0.2810272 -0.0103987465 -0.1894808
-0.3238073 -0.29823437 -0.13482751 -0.120482795 -0.13900961 -0.021673338 -0.15714708 -0.003645525
0.14683715 -0.11562934 -0.023853825 0.37974194 0.22698347 -0.30401886 -0.018952293 0.009430684
0.22156726 0.09064058 -0.14111622 -0.14190103 0.017382404 -0.055394888 -0.05860577 -0.06376045
-0.11853398 0.044606183 -0.2408484 0.14831226 0.1689236 0.08325984 -0.25584412 0.25119534
-0.16138843 0.09535378 -0.16845079 -0.18939266 0.09641239 0.058410306 -0.017316325 0.06173079
-0.11342926 -0.12796365 -0.052203055 0.41396093 0.18219808 -0.12881093 0.19167931 -0.10968648
-0.11521512 0.19214174 -0.067335226 -0.38136923 -0.077272214 0.044497337 0.17126797 -0.04935047
-0.30927026 0.26778397 0.12892549 0.025103925 -0.14972202 0.07129977 -0.07071535 0.30143094
-0.15940842 -0.30382445 -0.10905017 0.14735253 -0.10041585 0.10578432 -0.29223028 0.15069905
-0.18829301 0.012903055 -0.061949536 -0.17712435 0.630698 0.0040218187 -0.32768604 0.31673473
-0.20334832 0.061434686 0.2018939 -0.14025234 -0.09152332 -0.19999358 -0.049943283 -0.33846003
-0.27155593 -0.02665391 0.16746831 0.07481686 0.192047 0.11163628 -0.17267847 -0.10146834
-0.36586037 -0.24105196 -0.06498254 -0.08464493 0.067315474 -0.10805175 -0.2827819 -0.28279746
-0.12070614 0.13130496 0.23012024 0.105862305 0.5076565 0.29663113 -0.1305086 -0.1393904
-0.06881655 0.021927278 0.007640419 -0.16620849 0.16026902 0.31255946 0.21425995 -0.0054630693
-0.176065 -0.16927578 -0.12989531 0.34600988 -0.09005788 0.1272628 -0.12426538 0.06251471
0.16232938 0.018116258 -0.17569461 -0.11813967 -0.07508722 -0.031514656 -0.090189785 0.13334405
-0.072595194 0.4243208 -0.6015112 0.04304374 -0.09299929 -0.12680215 0.28121263 0.14702983
-0.05135789 -0.114795856 0.5627818 0.076654956 0.07096049 -0.088340566 -0.1718881 -0.33036208
-0.035595186 0.5484052 0.22709453 -0.12669146 0.25352314 0.44058624 0.13323843 0.46614796
-0.119848564 0.038700595 0.40188825 -0.52703124 -0.12241383 -0.10155597 -0.22130603 -0.015317838

model/hidden_layers/0/b f4 [75]
00000000: 8f1b 1a40 0cc9 87be 12de a6be b7ca 27bf
00000010: e2db b2be 21b7 1ebf a76d 45be 7fd1 88bf
00000020: 6af5 75be f26d 3f40 d8aa 63be 9d1b 15bf
00000030: e02a 59be a576 0cbe 320a 4640 280f 50be
00000040: 08d5 1dbe b0f8 79be 793f 74be 1111 57be
00000050: 5c0c 43be 3a3a f3bd 0bfd dcbb a3f6 3dbe
00000060: b322 8dbe 04c5 94be 5577 9abf 6e80 94be
00000070: 1b05 b1bd 6461 89be 1151 643d 897e 3dbe
00000080: 8f0f 5ebe e026 d5be 1ed5 9cbe 8841 83bf
00000090: ec3e 55be e836 b2be d726 04bf 392f b2be
000000a0: 3fd0 85be e645 b7be c948 a1be cfdb 80be
000000b0: 4ff1 72be 2255 a9be 2ad6 99be 6c1a 55be
000000c0: a217 73be 9f3b dcbd 7ab6 7dbf 9267 33bf
000000d0: df19 bcbe be81 b3be 74fd bdbe 381d 54be
000000e0: 9b4e e8bd 3dd7 71bf 2acb 65be a9c3 a0bd
000000f0: 4776 91be e190 b4be 4669 7bbe f04f a1be
00000100: fd93 1740 2789 4240 a70e 70be a518 c3be
00000110: ff82 58be d370 e3be 2fcf 54bf 4357 bfbd
00000120: 78d5 6dbe c227 98be 0455 a9be
2.407932 -0.26520574 -0.325913 -0.65543693 -0.34933382 -0.6199818 -0.1928011 -1.0688933
-0.240194 2.9910855 -0.2223314 -0.5824526 -0.21207762 -0.13717134 3.0943723 -0.20318282
-0.15413296 -0.24411273 -0.23852338 -0.21002604 -0.19047683 -0.1187634 -0.0067440323 -0.18551116
-0.27565536 -0.2905656 -1.2067667 -0.29004234 -0.08643552 -0.26832116 0.055741373 -0.185053
-0.21685623 -0.41631222 -0.30631346 -1.0254374 -0.20824784 -0.34807515 -0.51621765 -0.34801653
-0.26135442 -0.35795516 -0.31500843 -0.251677 -0.23724864 -0.33072764 -0.30046207 -0.2081086
-0.23739484 -0.10753559 -0.9910656 -0.7007991 -0.36738488 -0.35059923 -0.37107432 -0.20714271
-0.11343118 -0.9446905 -0.22440782 -0.07849819 -0.2841055 -0.35266784 -0.24551877 -0.315063
2.3684075 3.039621 -0.2344309 -0.3810474 -0.21143721 -0.44422016 -0.8312864 -0.09342816
-0.23225963 -0.29717833 -0.33072674

model/hidden_layers/1/W f4 [75, 75]
00000000: 8017 a3be b5e1 773d b3fc 643d c661 14be
00000010: f4fc 103e 98c4 97bc 55f6 9bbe c4ec be3d
00000020: daab 023e 666c 9cbd 06c6 eabd 4648 133e
00000030: 1668 0ebd e916 b5be 1379 5bbd 33ec 263d
00000040: 0458 63bd 924c 09be 8564 2a3d 1556 7fbe
00000050: 2b28 0e3d a436 eabd 3ab1 9abd 9752 40bd
00000060: 16c1 3d3d dbe7 af3d 6f8e fcbd cc6d a83c
00000070: c6d2 8dbd 8c0c 25be 5e36 7dbe 1514 413e
00000080: 0d59 c53d c298 32be 7c3e d23d 851e 9f3d
00000090: 47d5 ae3d 45bc f63d 7cd1 82be 53bc 9fbd
000000a0: 23e0 003e 603a fa3d fa30 33bc 0095 7fbe
000000b0: c4d5 0c3c 3f9f efbd 7724 59bc 1b55 52be
000000c0: 40f4 ca3d 5a96 e7bd 7d33 263d 6970 e2bd
000000d0: 24a0 31be 4e8b 46be 2394 083d e03f 61be
000000e0: b295 a93d 1c9d 323e 48e3 b6bd 199c 65be
000000f0: 7396 af3d ba04 ac3d 3bcc fdbd a530 7dbd
00000100: cd67 debd e162 26be 509c cbbc 4b60 993d
00000110: 073d 523e f30b 49be e6da 293e dfd5 ebbd
00000120: 7f2e dfbb e2a4 233d 9278 e43d 1184 733d
00000130: 5026 8abc f87b f53c a8ba bcbd e532 1abe
00000140: 8d21 d9bd 05c6 bbbd 6fcb f1bb f6c2 ca3d
00000150: 9f9d 2f3d 8c87 1f3e cb9e b8bc aa3a 9cbd
00000160: a5fc d4bd 969a c9bd 4448 0abd 4d25 1c3e
00000170: c998 3abe 1bb0 673d cb0a 493b e846 c43d
00000180: b4a8 73bd bc76 a43d 0cf5 81bd 8724 a23d
00000190: 4736 71be 8236 2b3d 1339 b23d 6b2b 58be
000001a0: d5e6 d13d d506 1ebe d4ec eb3d e669 74bb
000001b0: 180e 593d d5d0 383d 9b7e 05be cc76 403e
000001c0: 530d 0e3e 71aa edbd e53a 813d 47df 563d
000001d0: e816 a2bd 45f2 f5bd 6ac5 163e 45a3 59bd
000001e0: 82b8 be3d b955 623e 379a 4e3d 293f c2bd
000001f0: be35 e33d 68d0 24be 7da9 d4bd ce38 ad3e
00000200: e3d6 b4bd 4a9d 3b3d 4ec8 e5bd aed3 17bc
00000210: c60c a13c 5425 9cbe 8f25 95bd 9f6a b23d
00000220: ef6a e33d e965 df3c 4fa1 e5bd 1e9f 803d
00000230: 0cb9 60bd 61c3 c0bd cc9f f7ba b4bc 7d3e
00000240: 601a d2bd 9817 fd3d 3d45 c13c ff63 29be
00000250: 30c0 e7bd 1f10 c9bc 813d 44bd ecdc 173d
00000260: 6a91 dbbd b2c4 dcbd 260b fe3d e16d bc3a
00000270: 995a babd 1110 9c3b 2923 603e 3030 7bbd
00000280: 9a5a 2cbe 4529 e23d d7a0 693e 0e8b 163e
00000290: 0f06 17be 879c 6fbe d45b 173e 04af 98bc
000002a0: 77f6 823d 47a4 84bc b4ec 4b3e df8b 193c
000002b0: 09fe 05bd 5ef7 b53c 99b6 09be 113b bc3c
000002c0: f618 2fbc 10f6 76be 000b 09be 1d85 12be
000002d0: 1a76 3abe c827 323d 7ac6 073e a1f3 1c3d
000002e0: 91c4 2dbe ca9b 51be d9ef ba3d a98d 0dbd
000002f0: 85c2 48bc 4f51 16be 0ef1 6fbe 3559 853e
00000300: 3078 90bd 7eb3 e3bc e404 07be 101c 313e
00000310: 4872 2dbd 9372 91bc 50f5 5b3b a448 1dbc
00000320: 5697 243e 98ac 5bbe 272f 913d a5fb 93bd
00000330: 4fd3 54bd ed83 98bd dafe 3c3d b7c9 1ebe
00000340: 7beb 86bd 911a 723d 27a6 8ebd 944a 76bd
00000350: 7eab 113d cb6a cd3b ad63 3bbd df91 d139
00000360: abf8 d9bd f987 be3d ffde 04be 4f3f 42be
00000370: 38f2 363d 0156 20be 9a3e ecbd 344d 07bd
00000380: bde6 9b3d effc 7cbd 22b9 68bd 7e28 62bd
00000390: 70da ff3c e670 85bd 8d6c ad3c bdb5 193e
000003a0: 434e 15bd c277 4cbd 3056 eabd 6637 c2bd
000003b0: bb44 1abe 75a3 09be a351 9abd 8ff0 f43c
000003c0: eaad 443d b477 6cbd 6556 e43c dbc3 21be
000003d0: e59b 6a3e cdd5 8d3e 4b0f b3bc d537 4b3d
000003e0: e81b 533b c51f a73d 70c7 a5bd 20b5 3bbe
000003f0: cb43 ad3d 621c 09be b3c3 043d 76c2 ecbd
-0.31853867 0.060517985 0.055905055 -0.14490423 0.14158994 -0.01852636 -0.30461374 0.09322503
0.12760869 -0.07637863 -0.11463551 0.14383039 -0.034767233 -0.35369042 -0.053582262 0.0407526
-0.05550386 -0.13408116 0.04159977 -0.24935181 0.034706276 -0.11436203 -0.075533345 -0.046953764
0.04632672 0.08589145 -0.123318546 0.020560168 -0.069249675 -0.16118068 -0.2472777 0.18855317
0.09636126 -0.17441085 0.10265824 0.07769493 0.08536773 0.12047628 -0.2555045 -0.07799592
0.12585501 0.122181654 -0.01093697 -0.24959183 0.008595888 -0.11700296 -0.013253323 -0.20540278
0.09909868 -0.11307974 0.040576447 -0.11056597 -0.17346245 -0.19389078 0.0333444 -0.21997023
0.08280505 0.17442745 -0.08930069 -0.22422828 0.08573618 0.08399339 -0.123924695 -0.06181397
-0.10859642 -0.16248657 -0.024854809 0.074890696 0.20531093 -0.19633465 0.1658741 -0.11515402
-0.0068109627 0.039952166 0.111558095 0.05945212 -0.016863972 0.02996634 -0.09215289 -0.15058477
-0.106021024 -0.091686286 -0.0073789875 0.09900467 0.04287493 0.15579051 -0.022536656 -0.07628377
-0.103997506 -0.09843938 -0.033760324 0.15248604 -0.18222345 0.05656443 0.00306766 0.09583837
-0.05948706 0.08030459 -0.06345567 0.07917123 -0.23555861 0.04180003 0.08702292 -0.21110313
0.10249106 -0.15432294 0.11519781 -0.0037294566 0.052991956 0.045121033 -0.13036577 0.18795317
0.1387227 -0.11604775 0.06310061 0.052459028 -0.07914525 -0.120091 0.14723745 -0.05313422
0.09312536 0.22103013 0.05044004 -0.09484703 0.11094235 -0.16095126 -0.1038389 0.338324
-0.08830049 0.0458043 -0.11219846 -0.009266777 0.019659411 -0.3049723 -0.07282554 0.087117426
0.1110438 0.027270274 -0.11212408 0.06280349 -0.054863974 -0.094122656 -0.0018892228 0.24779016
-0.10258937 0.12358016 0.023592586 -0.16542052 -0.11315954 -0.02454382 -0.047910217 0.037075922
-0.10721095 -0.10779704 0.1240447 0.0014376008 -0.090993114 0.0047626575 0.21888413 -0.061325252
-0.16831437 0.11043028 0.22815262 0.14701483 -0.14748405 -0.23399554 0.14781123 -0.018638141
0.06394666 -0.016191615 0.19914514 0.009371727 -0.03271297 0.02221268 -0.13448562 0.022977384
-0.0106871035 -0.24117303 -0.13383102 -0.14308591 -0.18209115 0.04349497 0.13259307 0.03831828
-0.16969515 -0.20469585 0.091277786 -0.034558926 -0.012253408 -0.14679454 -0.23431799 0.26044622
-0.07054174 -0.02779555 -0.1318546 0.17295861 -0.042345315 -0.017754829 0.0033562966 -0.009599838
0.16073355 -0.21452558 0.07089072 -0.07225732 -0.051959332 -0.07447038 0.046141483 -0.15506636
-0.06587883 0.059107367 -0.06965285 -0.060129717 0.03556394 0.006268834 -0.045749355 0.0003997227
-0.10643133 0.093032785 -0.12975691 -0.18969463 0.04466459 -0.15657808 -0.11535378 -0.03303261
0.07612369 -0.061764654 -0.05681718 -0.055214398 0.031232089 -0.06515674 0.021169925 0.15010734
-0.03645159 -0.049918897 -0.1144222 -0.09483223 -0.15065281 -0.1344126 -0.07535102 0.029899864
0.04801742 -0.057731345 0.027873227 -0.15797369 0.22911032 0.2770218 -0.021857878 0.049613792
0.0032212678 0.081603564 -0.0809468 -0.18330812 0.08460196 -0.13389733 0.032413196 -0.11560528

model/hidden_layers/1/b f4 [75]
00000000: ca34 fb3f dfe9 5abd f983 c9bb 731f 09ba
00000010: 366a 0d40 e09a fa3c d7eb bcbd 415d efbc
00000020: fef3 3740 0bec 2340 a711 19be 6324 2440
00000030: d40e 74be 117e 24be 1b68 16bd 1e4c d6bc
00000040: 0609 2040 995a 0140 1778 ee3f fd17 20be
00000050: cd89 7b3d 0eec 52be f85e e83f fb99 0640
00000060: 2728 f1bd 9e4b 3b40 b594 bfbc 7a0e c93d
00000070: 3acb a3bc ce3f ae3d e42f 4e40 0593 26bd
00000080: abb5 72bd 4b1a e53e 55cb d73d bfb3 adbd
00000090: c019 c5bc a332 9bbc bd65 1e40 fd15 86be
000000a0: 1ba5 0840 bab5 bd39 78df d53f 29e5 f338
000000b0: 70c4 4d40 ae52 833d 5879 1c40 8a26 bbbe
000000c0: 1c0e 6fbe 7f73 60bd d949 cfbd 5247 e13f
000000d0: c76d d73d 0817 1b40 7255 2c40 1ca8 62bd
000000e0: 0f70 0d40 1ab7 4f40 a72d 2c40 720e 3140
000000f0: 6af1 bc3c 6ce5 45be fa98 cfbd 2da0 38bd
00000100: 1290 cdbc e18c d1be d4e6 333d d4ca 15be
00000110: e0eb a1bc ff24 1c40 1e67 0440 54a7 2c40
00000120: ed73 a6bc 295d c7bd c75c 17be
1.9625485 -0.053445693 -0.0061497656 -0.00052308216 2.2096076 0.030591428 -0.092246704 -0.029219272
2.874267 2.561282 -0.1494814 2.5647209 -0.23833781 -0.16063716 -0.036720376 -0.026159342
2.5005507 2.0211546 1.8630399 -0.15634151 0.061410714 -0.2059786 1.8153982 2.1031482
-0.117752366 2.9264903 -0.023386339 0.09817214 -0.019994367 0.085082635 3.221673 -0.040667553
-0.059255283 0.44746622 0.105368294 -0.084815495 -0.02406013 -0.018945044 2.4749596 -0.2618865
2.1350772 0.00036184286 1.6708822 0.00011629827 3.2151146 0.06412254 2.4449062 -0.3655284
-0.23345226 -0.054797646 -0.10121507 1.759989 0.10518985 2.4232807 2.6927152 -0.055336103
2.2099645 3.2455506 2.6902864 2.7665067 0.023064334 -0.19325799 -0.101366 -0.04507463
-0.025093112 -0.40927795 0.043921307 -0.14628154 -0.019765794 2.439758 2.0687938 2.697713
-0.02031895 -0.09734566 -0.14781485

model/output/W f4 [4, 75]
00000000: e96e 61bf 7991 c73d 82b8 1d3b 3be3 0cbd
00000010: 1b0a 20bf a593 4abd cf4c edbd 689a 27be
00000020: fe92 28bf d5da 38bf 8eec 903e 387e 35bf
00000030: ce4a be3d 9fe8 2a3d 8d6b bd3d 86a3 823d
00000040: 744a 2cbf 6f89 1abf e4c8 19bf 6eee bd3d
00000050: c342 b0bd 0586 293c ab3c 0fbf cd26 1abf
00000060: e267 d43d c8d9 4fbf 2757 e83d 0f08 d3bd
00000070: 8ef4 103d 4b21 de3c a5d8 6cbf c9de e63c
00000080: b4b2 8cbd a98b 233d d87e 89bd 328e 56bd
00000090: 2aae 55bd f5eb ea3c 71f3 3bbf 8463 22be
000000a0: ac6d 16bf cf47 e2bd 3794 f0be 5c39 e7bd
000000b0: 921c 94bf f375 f5bd 2fdd 3abf 946b 4a3e
000000c0: 6add 393e 9a04 9f3d 3f10 81bd 6d35 17bf
000000d0: 8b71 c1bd f8ea 21bf 66d6 55bf a909 b7bc
000000e0: dccf 24bf 9ef8 91bf 70b8 3fbf b0c8 31bf
000000f0: 4380 a13c 5fe3 9e3d cf94 35be c111 2bbc
00000100: cd44 a13d ec25 673d f2d1 073d 750e babd
00000110: 512e 513e 1c6d 2abf 53cf 2abf 3735 37bf
00000120: 3f48 e9ba 6da5 0fbe 6063 923d cb34 66bf
00000130: 82fd d4bd 8e8b 863e 5954 113e e882 2cbf
00000140: cbd3 b7bc d6c8 29bc b3cb febd ee45 44bf
00000150: 0124 38bf eb9e 2c3e 7d3f 28bf 5e6b 903d
00000160: d3a8 1f3d cdcb a53e 3c6e 823d db81 30bf
00000170: 6f75 13bf 239a 1dbf ffd3 c4bb c3d4 84bd
00000180: 3647 cdbd 9617 17bf f710 23bf 3aa4 353d
00000190: 0646 4ebf e97c 9d3d 2e28 aabd b0a1 3ebe
000001a0: 433f 5e3c 4107 88bf 49be b93d d2da 383c
000001b0: a736 45bd 0b50 4cbe 26b6 91bc d1a9 37bc
000001c0: 3ab9 abbd 8dcb 28bf cd4e 20be 0e07 0ebf
000001d0: 1958 9bbd 5747 fbbe 7d69 51bd a039 8abf
000001e0: f68b 303d 77b4 28bf cc2d c53d b931 6e3c
000001f0: 41e5 0bbd f592 d7bb 0844 18bf a0b5 c1bd
00000200: d6cf 39bf 7156 45bf 7d9f c9bc ba5d 2abf
00000210: fbc4 89bf e11d 41bf 14f3 3dbf c5bb 843d
00000220: df41 0ebb fa0d cabd 4f00 1dbc 616b 9a3d
00000230: 2e69 ee3c f178 b53b a2bb f9bc d0ea 8cbd
00000240: edfd 20bf e85e 19bf 9953 3dbf 35cc 333e
00000250: a8f0 553e ac2b 3a3d 26f4 52bf 857c 4ebd
00000260: d913 993c 3b36 dfbd cb12 23bf 1793 c0bd
00000270: 50c6 133e 1415 0abe cf37 55bf cafa 1ebf
00000280: 4f5c 5dbd 672c 2fbf 6de8 cb3d b401 783d
00000290: 716b 90bd 48ba 213e 6895 2cbf e289 28bf
000002a0: ee7c 01bf 9b5b 9e3d 6d20 f83d 6e1a dcbc
000002b0: a38a 11bf 41ae 15bf f8fe be3d be17 79bf
000002c0: 5591 973c e246 d8bd 1bfc ccbd 50b0 a0be
000002d0: 8ca0 8abf fc80 4ebc e015 583d 2d59 9b3d
000002e0: c456 47be 3508 41bd b0d7 fcbc 4cbb 6c3e
000002f0: 9e9b 25bf ef05 6ebe 024d 12bf 87bf 5bbe
00000300: acda 15bf fa52 403e f14b 7fbf 7c00 47bd
00000310: d6a0 2fbf d5a2 b63d 641a 12bd 88ce 833d
00000320: 2af0 b6bd e4ad 02bf 70d9 8cbd ad7e 3fbf
00000330: c984 36bf 8b8d 1b3e 5fc7 36bf 35e6 70bf
00000340: ebcc 37bf 881a 48bf 90af 50be 6761 e93d
00000350: ce3b d4bd 962d b63c 04c1 f7bd e791 e03d
00000360: 2941 a0be 2938 35be f393 103d 2bc3 32bf
00000370: 5d75 10bf 9424 4fbf c783 0a3d 9110 2b3e
00000380: b7ce 1b3d d570 85bf 9c2d 613d 0c4d 16bd
00000390: c6b1 babd 5756 1ebf a808 4f3d 6c03 80bd
000003a0: 440e 073e 3c41 54bf 5600 3fbf 2eef babe
000003b0: 0de1 12bf 8f8e c13c 2314 aa3c f012 913d
000003c0: 22ff 0b3d 1e45 3bbf 2689 d8be 2d58 13bf
000003d0: 4e31 50bd 3910 ffbd 6973 063e 0340 21bf
000003e0: b38c 06bf f796 063d 79bd 74bf 88fb d2bd
000003f0: 6949 a83d 92b8 793d 75b0 783d e01f 87bf
-0.8805986 0.097445436 0.0024066274 -0.03439639 -0.6251542 -0.04945721 -0.11586916 -0.16367495
-0.6584929 -0.7220891 0.28305477 -0.7089572 0.092916116 0.04172575 0.09249029 0.06378846
-0.67301106 -0.6036596 -0.6007216 0.092739925 -0.08606484 0.010346894 -0.55951947 -0.60215455
0.103713766 -0.8119168 0.11344748 -0.103042714 0.035389476 0.027115485 -0.92518073 0.028182404
-0.068700224 0.039928112 -0.06713647 -0.0523817 -0.05216805 0.028676966 -0.7341834 -0.15858275
-0.58761096 -0.11048853 -0.4698808 -0.11290237 -1.1571219 -0.11985388 -0.7299375 0.197676
0.18150869 0.077645496 -0.06301927 -0.59065896 -0.09445485 -0.6324916 -0.8353027 -0.022343474
-0.6437967 -1.1403997 -0.74890804 -0.6944685 0.01971448 0.07758211 -0.17732547 -0.010441245
0.07874451 0.05643265 0.033159204 -0.09084789 0.20427825 -0.6657274 -0.667226 -0.71565574
-0.001779802 -0.14027949 0.071478605 -0.89924306 -0.10399915 0.26278347 0.14192332 -0.6738725
-0.022439858 -0.010362824 -0.12441196 -0.76669204 -0.7192994 0.16857497 -0.65721875 0.07051729
0.038979363 0.3238205 0.06368682 -0.68948144 -0.57601064 -0.6156332 -0.006006717 -0.064858936
-0.10023348 -0.59020364 -0.6369776 0.04434607 -0.805756 0.0768984 -0.08308445 -0.18616366
0.013564887 -1.0627214 0.09069497 0.01128264 -0.048147824 -0.19952409 -0.01778705 -0.011209921
-0.083849385 -0.65935594 -0.1565506 -0.55479515 -0.07585163 -0.49077865 -0.051125992 -1.0798836
0.043102227 -0.6590037 0.09627876 0.014538222 -0.03415418 -0.006578798 -0.5947881 -0.0945847
-0.7258276 -0.77085024 -0.024612183 -0.66549265 -1.0763239 -0.75436217 -0.7419903 0.06481127
-0.0021706743 -0.09865947 -0.009582593 0.07540012 0.029102888 0.005538099 -0.030484978 -0.068807244
-0.6288746 -0.5991044 -0.73955685 0.17558368 0.20892584 0.045451805 -0.8240379 -0.05041172
0.018686222 -0.108990155 -0.6370055 -0.09403055 0.14431119 -0.13484603 -0.8328828 -0.62101424
-0.05404311 -0.6842713 0.09956441 0.0605485 -0.07051743 0.15793717 -0.67415476 -0.6583539
-0.5058125 0.07732316 0.1211556 -0.026868071 -0.5685217 -0.58469015 0.09325975 -0.9730185
0.018501917 -0.10560395 -0.10009023 -0.31384516 -1.0830245 -0.012603994 0.052755237 0.07585368
-0.19466692 -0.047126967 -0.030864567 0.23118323 -0.6469058 -0.23244451 -0.57148755 -0.2145978
-0.5853679 0.18781653 -0.9972525 -0.048584446 -0.6860479 0.089177765 -0.0356697 0.06435877
-0.089325264 -0.51046586 -0.068774104 -0.74802667 -0.71296364 0.15190713 -0.71397966 -0.9410127
-0.71797055 -0.78165483 -0.20379472 0.11395531 -0.10362969 0.022238534 -0.12097362 0.10965329
-0.31299713 -0.17697205 0.035297345 -0.6982905 -0.5642908 -0.8091519 0.03381708 0.16705538
0.038038936 -1.0425059 0.054975137 -0.03669457 -0.09115939 -0.61850494 0.050545365 -0.06250653
0.13189036 -0.8291204 -0.7460989 -0.36510605 -0.5737465 0.023627548 0.020761555 0.0708369
0.03417886 -0.7315234 -0.42292136 -0.5755642 -0.05082827 -0.12454266 0.13129963 -0.629883
-0.5255844 0.032858815 -0.9560161 -0.10301882 0.08217127 0.060967036 0.060715158 -1.0556602

model/output/b f4 [4]
00000000: f26f 1cc0 1e6c 10c0 4073 1bc0 e7c3 27c0
-2.4443326 -2.256599 -2.4289093 -2.621332
