experiments/sokoban/sokoban_full_train_set_2-75-1/best/target_model.npz (npz, 29719 bytes, 6 tensors)

model/hidden_layers/0/W f4 [75, 20]
0	0x3eb8fae2	0.36128908
1	0xbe699d3d	-0.22813888
2	0xbd1f9a78	-0.038965672
3	0xbe6f23ff	-0.23353575
4	0x3d9e86ab	0.077405296
5	0xbe9c13e8	-0.30483937
6	0x3dd90317	0.105962925
7	0xbd5022ec	-0.050814554
8	0xbc4c909f	-0.012485652
9	0x3be4051e	0.006958618
10	0x3ebaa95f	0.36457345
11	0xbf08a7c0	-0.53380966
12	0x3c53b89d	0.012922433
13	0xbd5cefd7	-0.053939667
14	0xbe0a2cf4	-0.13493711
15	0x3db9c8f7	0.09071534
16	0xbe45a297	-0.19300304
17	0x3d9bfba7	0.07616358
18	0xbe39b30d	-0.18134709
19	0xbd730cbd	-0.05933832
20	0xbe729d4e	-0.2369282
21	0x3e66bfb6	0.2253407
22	0x3d3a91c6	0.045549177
23	0xbc5755ce	-0.013143016
24	0x3de733a8	0.112891495
25	0xbd76ea6b	-0.060282152
26	0x3c615d8a	0.013755212
27	0xbd2120fe	-0.039338104
28	0xbe3a4263	-0.18189387
29	0x3e3fede4	0.18743092
30	0xbd95d458	-0.07315892
31	0xbd7a4ceb	-0.06110851
32	0xbe42b2b7	-0.19013487
33	0xbe9b3052	-0.30310303
34	0x3d7dcc6a	0.061962523
35	0x3e8fb4ee	0.28067726
36	0xbe3e2fc9	-0.18572916
37	0x3d5ba6c1	0.053625826
38	0x3e22d281	0.15900613
39	0xbc8e0671	-0.017337056
40	0xbd615656	-0.055013977
41	0xbe083890	-0.13302827
42	0xbe030747	-0.12795745
43	0x3e6d0841	0.2314768
44	0x3d797d19	0.060910318
45	0xbe0af450	-0.1356976
46	0xbda4bf06	-0.08044247
47	0x3e93da3e	0.28877443
48	0xbd63f4f0	-0.055653512
49	0x3da49c59	0.080376334
50	0x3dc576f2	0.09641828
51	0xbc0cbad1	-0.008589462
52	0xbdbcdc04	-0.09221652
53	0xbe144377	-0.14478861
54	0x3c27e42c	0.0102472715
55	0x3d485e57	0.048918094
56	0xbd5ac909	-0.05341438
57	0x3b094306	0.002094449
58	0xbd01ee6e	-0.031721525
59	0x3c452c8b	0.012034546
60	0xbde90758	-0.11378354
61	0x3e641786	0.22274598
62	0xbd78fc6e	-0.06078761
63	0xbec35e73	-0.38157997
64	0x3d5d73ba	0.054065444
65	0x3cc47484	0.02398134
66	0x3e26ace9	0.16276897
67	0x3decae74	0.11556712
68	0x3ed1876a	0.40923625
69	0xbe5fdaaa	-0.21860757
70	0xbc85dc18	-0.0163403
71	0x3c1680ee	0.009186013
72	0x3e0a2a5c	0.13492721
73	0x3e168c6f	0.14702009
74	0xbc8b9929	-0.017040806
75	0xbe97e8b0	-0.29669714
76	0xbcce64fb	-0.025194636
77	0x3bbd938e	0.005785412
78	0xbe387a1a	-0.18015328
79	0xbc9063bb	-0.01762568
80	0xbd04cb1f	-0.032420274
81	0xbd4b6672	-0.049658246
82	0xbdcd0e17	-0.10012453
83	0xbea546a7	-0.32280466
84	0xbdac664e	-0.084179506
85	0x3d4ae726	0.049536847
86	0xbd72dc9f	-0.059292432
87	0x3ddc8bf5	0.10768882
88	0xbe64153e	-0.22273728
89	0x3e83e4e3	0.25760564
90	0x3d819003	0.06326296
91	0x3ef2fa7e	0.47456735
92	0xbe2a1be4	-0.16612202
93	0xbed68604	-0.4189912
94	0x3c8d916a	0.017281253
95	0xbb8d6101	-0.0043145423
96	0xbda35a6d	-0.07976232
97	0xbe13f0fc	-0.14447397
98	0xbf0c5594	-0.5481808
99	0x3c9f2fb3	0.019431924
100	0xbddfdec8	-0.10931164
101	0x3e89f317	0.26943275
102	0x3df8c0f4	0.12146178
103	0x3c924e25	0.017859528
104	0xbe1a418f	-0.15064071
105	0x3d41b6e9	0.047293577
106	0xbd328497	-0.04358348
107	0xbe8e0c4a	-0.2774375
108	0xbe369fc8	-0.17834389
109	0xbde36dfb	-0.111049615
110	0xbe3af356	-0.18256888
111	0x3d01a3af	0.03165024
112	0x3e08e48d	0.13368435
113	0xbe4259a1	-0.18979503
114	0xbbc0b8a7	-0.0058813873
115	0xbe0c221c	-0.13684887
116	0xbc49b41c	-0.012311008
117	0xbce0f1a1	-0.027458968
118	0x3e59990a	0.21249786
119	0x3a1bc085	0.00059414684
120	0xbd4f4e28	-0.050611645
121	0xbd99043f	-0.07471513
122	0x3e16e8a5	0.14737184
123	0x3e89791f	0.2685022
124	0xbea6bc44	-0.3256551
125	0x3e91983c	0.28436458
126	0x3e705f84	0.23473936
127	0xbd3e761f	-0.046499368
128	0xbed69753	-0.41912326
129	0x3da7a7d5	0.08186308
130	0x3d493d8f	0.049130972
131	0xbcebd666	-0.028788757
132	0xbd31e2b7	-0.043429103
133	0x3d5793fc	0.052631363
134	0x3c91db78	0.017804846
135	0xbd9d82b5	-0.07690946
136	0x3d688b58	0.056773514
137	0x3da38cc7	0.079858355
138	0x3c9f9d99	0.019484328
139	0x3baf9b2a	0.005359073
140	0xbcdef325	-0.02721555
141	0xbde6751f	-0.11252808
142	0x3e809574	0.25114024
143	0xbaaefb0a	-0.0013349962
144	0x3df3ffca	0.11914022
145	0x3daa5cca	0.08318479
146	0xbd3b6879	-0.04575393
147	0xbcb21245	-0.021737227
148	0xbd835249	-0.06412179
149	0x3dc811d2	0.09769024
150	0x3e1da755	0.15395863
151	0xbece3f0c	-0.40282476
152	0x3e1c166f	0.15242933
153	0x3eeff8c8	0.46869493
154	0x3c8f89e6	0.01752181
155	0x3d806048	0.06268364
156	0x3d64b761	0.055838946
157	0xbb09cd0b	-0.0021026756
158	0xbdfedc1c	-0.12444326
159	0x3c02bf8a	0.007980237
160	0xbe008c97	-0.12553631
161	0xbe8b347b	-0.27188477
162	0x3cf387be	0.029727813
163	0xbe8b340a	-0.2718814
164	0x3e02fe3f	0.127923
165	0xbd36b894	-0.04460962
166	0x3e6f6145	0.23376949
167	0x3d685a42	0.0567267
168	0x3e5d3230	0.21601176
169	0xbec495f1	-0.38395646
170	0xbe8a9f57	-0.27074692
171	0xbccce4d3	-0.025011456
172	0x3e94ce45	0.2906362
173	0xbd78f1e3	-0.060777556
174	0x3c5a9dbd	0.013343272
175	0xbd53d2bb	-0.05171464
176	0x3bd75373	0.006571227
177	0xbbb58f90	-0.0055407956
178	0xbd96597e	-0.07341288
179	0x3aba11e4	0.0014196006
180	0xbe8c0f2c	-0.27355325
181	0x3d0f63de	0.03500735
182	0x3d8e717f	0.069552414
183	0x3e3501b6	0.17676434
184	0xbe3a6383	-0.18202023
185	0xbd973c00	-0.07384491
186	0x3e1ca7ee	0.15298435
187	0x3e037e37	0.12841116
188	0x3d8b5a60	0.06804347
189	0xbdfc5671	-0.12321175
190	0x3e01206e	0.12610027
191	0x3e5b453c	0.2141313
192	0x3e1ae294	0.15125495
193	0x3d24ab06	0.040202163
194	0x3e08e353	0.13367967
195	0xbe0ddcc6	-0.1385375
196	0x3e0365d8	0.12831819
197	0xbe03cefb	-0.12871926
198	0x3dea28bc	0.11433551
199	0x3d22152b	0.03957097
200	0xbda22ff7	-0.07919305
201	0x3e58ca4e	0.21170923
202	0xbdca7686	-0.09885888
203	0x3e68eadf	0.22745846
204	0xbea6b53b	-0.32560143
205	0xbebd7792	-0.37005287
206	0xbeb950c8	-0.36194444
207	0xbdce505a	-0.100739196
208	0xbeccc31c	-0.39992607
209	0x3ee75065	0.45178524
210	0x3da47e6b	0.08031925
211	0xbe0ca9e9	-0.1373669
212	0x3e6e7719	0.2328762
213	0xbe0ece5a	-0.13945904
214	0x3d5f33a4	0.054492608
215	0x3e3c5543	0.183919
216	0xbabe4fac	-0.0014519594
217	0xbe0755a8	-0.13216269
218	0x3c608a94	0.013704915
219	0x3c7821dc	0.015144791
220	0x3ead5648	0.3385489
221	0x3dcd236a	0.1001652
222	0x3e793dee	0.2434003
223	0xbc3bbe40	-0.011458933
224	0xbe6664d9	-0.22499408
225	0x3f058196	0.5215086
226	0xbe22a61c	-0.15883678
227	0x3d2c07c2	0.041999586
228	0xbe3d6a25	-0.18497522
229	0xbd1231a2	-0.035691865
230	0xbbf3dae1	-0.007441864
231	0xbddb7505	-0.10715679
232	0x3d4873ec	0.048938677
233	0x3e98c3c7	0.29836866
234	0xbca7e250	-0.020493656
235	0xbe5caa70	-0.21549392
236	0xbe90da5c	-0.28291595
237	0xbbe43f67	-0.006965566
238	0xbea2e594	-0.3181578
239	0x3ca59eba	0.020217288
240	0xbe4d8687	-0.2007085
241	0x3b125de9	0.0022333807
242	0xbd5f4159	-0.05450568
243	0xbe52fc15	-0.20603974
244	0x3ca17e7e	0.019713636
245	0x3df00e2f	0.11721455
246	0x3e193ffb	0.14965813
247	0xbd82fd7c	-0.063960046
248	0x3ebf7036	0.37390298
249	0xbe3356b6	-0.17513546
250	0xbe1186fd	-0.1421165
251	0x3da2869f	0.07935833
252	0xbecf6ab9	-0.4051111
253	0xbd766c33	-0.06016178
254	0x3dcb96b2	0.09940852
255	0xbd813bc3	-0.06310227

model/hidden_layers/0/b f4 [75]
0	0x3f34bacf	0.7059755
1	0xbf67a197	-0.9048094
2	0x3fa8f4f6	1.3199756
3	0x3ef2ac4e	0.47397083
4	0xbf908b97	-1.12926
5	0x3fac5a07	1.3464974
6	0x3f8c4911	1.0959798
7	0x3f752ccf	0.957715
8	0xbeb399c3	-0.35078248
9	0xbf1abae2	-0.6044141
10	0xbf147f23	-0.58006495
11	0xbe882908	-0.26593804
12	0xbf2bc21b	-0.67093056
13	0xbe0cefe5	-0.13763388
14	0xbfa0eade	-1.2571676
15	0xbeb216ee	-0.3478312
16	0xbe3e1ee2	-0.18566468
17	0xbe118044	-0.14209086
18	0xbecbbff6	-0.39794892
19	0xbd2cf2c2	-0.0422237
20	0xbefdaa16	-0.49543828
21	0xbf98e125	-1.1943709
22	0x3fc236eb	1.517301
23	0x3fb2568e	1.3932664
24	0xbf2fdcac	-0.68696094
25	0xbf3ccff0	-0.7375479
26	0x3f9c6fb3	1.2221588
27	0x3fbbc674	1.4669938
28	0x3f0315b6	0.51205003
29	0xbeb24f50	-0.34826136
30	0xbe7baa0b	-0.24576585
31	0xbe014e58	-0.12627542
32	0xbe0b564c	-0.13607138
33	0x3fb9419e	1.447315
34	0x3f9e6152	1.237345
35	0xbe5f6e12	-0.21819332
36	0x3e89c756	0.26909894
37	0xbe99cedd	-0.30040637
38	0xbe6ea294	-0.23304206
39	0xbf33cd73	-0.70235366
40	0xbf6ae4b3	-0.9175522
41	0x3f906d5e	1.1283376
42	0xbe027ba1	-0.12742473
43	0xbf42b835	-0.7606233
44	0xbf062ded	-0.5241383
45	0xbf4bd714	-0.7962506
46	0xbf49200a	-0.7856451
47	0x3efd0648	0.49418855
48	0x3e763e5b	0.24047224
49	0xbf06b56a	-0.52620566
50	0xbeb7d97b	-0.35908112
51	0xbeb6cf69	-0.35705116
52	0x3fa45e43	1.2841266
53	0xbead3bc3	-0.33834657
54	0xbf677fdf	-0.9042949
55	0xbe2b8486	-0.16749772
56	0x3fb5cabb	1.4202493
57	0x3f65bde6	0.8974289
58	0xbd99a373	-0.075018786
59	0x3decf96d	0.11571012
60	0x3fc07b0f	1.5037555
61	0xbf4016ab	-0.7503459
62	0xbf835fb8	-1.0263586
63	0x3fad65f4	1.3546739
64	0xbf00a644	-0.502537
65	0xbf11c889	-0.5694662
66	0xbf9f0bf1	-1.2425519
67	0x3f46b9e3	0.7762739
68	0xbf0d413b	-0.5517766
69	0x3faf02b3	1.3672699
70	0xbf35ecfd	-0.7106474
71	0x3fb4ff87	1.4140481
72	0xbe6184ee	-0.22023365
73	0x3e50a0d6	0.20373854
74	0xbf4b7118	-0.7946944

model/hidden_layers/1/W f4 [75, 75]
0	0x3dccee5c	0.10006401
1	0xbdf5f002	-0.120086685
2	0xbd3e2ac6	-0.04642751
3	0x3e3afbb9	0.18260087
4	0xbd3dfed8	-0.046385616
5	0x3d01f60a	0.03172878
6	0xbe043dbd	-0.12914176
7	0xbe5c7def	-0.21532415
8	0xbd94ff86	-0.072753
9	0x3e1de9ba	0.15421191
10	0xbc6b2341	-0.014351667
11	0x3d277c39	0.040889952
12	0xbbd28887	-0.0064249667
13	0x3ba24917	0.0049525606
14	0xbd8326db	-0.064038955
15	0xbc4c189b	-0.012457038
16	0xbe87084b	-0.26373515
17	0xbd9d600e	-0.076843366
18	0xbe46fddf	-0.19432782
19	0x3cdd68c7	0.0270275
20	0x3cc2968b	0.023753425
21	0xbda8b032	-0.082367316
22	0x3d6157a2	0.055015214
23	0xbc1f50d2	-0.009723859
24	0x3c36e73a	0.011163527
25	0xbd72a8ae	-0.059242897
26	0x3c963063	0.01833362
27	0x3dd3cb86	0.103415534
28	0xbdbdb60b	-0.092632376
29	0xbdfaa945	-0.12239317
30	0x3e09f3ce	0.1347191
31	0xbe859e7e	-0.26097482
32	0xbead31aa	-0.33826953
33	0xbe750c1f	-0.23930405
34	0x3bd9913c	0.0066396277
35	0xbcec52f6	-0.028848153
36	0x3cfd8da1	0.030951323
37	0x3c302281	0.010750414
38	0x3e020eb4	0.12700921
39	0x3e168c91	0.1470206
40	0x3e03f67e	0.12886998
41	0xbe2a363a	-0.16622248
42	0x3c9e5760	0.019328773
43	0xbdd64e73	-0.10464182
44	0xbd530834	-0.051521495
45	0xbe281012	-0.1641238
46	0xbc175840	-0.009237349
47	0x3c3955d3	0.011311966
48	0xbc70b45c	-0.0146914385
49	0xbe1edcaa	-0.15513864
50	0xbe2dfb95	-0.16990502
51	0xbd84300c	-0.06454477
52	0xbe039368	-0.128492
53	0x3d97cf75	0.07412616
54	0xbda2c3a7	-0.07947474
55	0xbcd3f27f	-0.025872467
56	0xbd72cfe0	-0.059280276
57	0x3db0e6fc	0.08637807
58	0x3e4ba074	0.19885427
59	0xbc5ef08f	-0.013607158
60	0xbd93db44	-0.07219556
61	0x3de25a91	0.110524304
62	0x3d4e5abd	0.050379504
63	0xbd74eef2	-0.05979819
64	0x3de25dd2	0.11053051
65	0xbd2642a6	-0.040590905
66	0xbe36a851	-0.17837645
67	0x3d887b77	0.06664174
68	0x3c62fede	0.01385471
69	0xbe9243d6	-0.2856738
70	0xbe8c1220	-0.27357578
71	0x3b3c7372	0.0028755334
72	0x3d6c80eb	0.057740133
73	0x3d117b3d	0.03551792
74	0xbe714b09	-0.2356378
75	0xbd441752	-0.047873802
76	0x3b4791e8	0.0030451957
77	0xbe24d7e8	-0.16097987
78	0xbb5707a0	-0.0032810941
79	0x3ce76bb5	0.0282496
80	0x3de10655	0.10987536
81	0xbe92e008	-0.28686547
82	0x3b822f08	0.0039728917
83	0x3e378849	0.17923082
84	0xbdf7ae95	-0.12093846
85	0xbd2af91e	-0.041741483
86	0x3e212fdd	0.15740915
87	0xbe29f66b	-0.16597907
88	0x3e1d3fa3	0.15356307
89	0x3dac777c	0.08421227
90	0xbe46e83b	-0.19424526
91	0xbcfa5de8	-0.030562356
92	0xbe59b7b4	-0.21261483
93	0x3e1032c8	0.14081872
94	0xbdf0b5c3	-0.11753418
95	0xbe97a098	-0.2961471
96	0xbe09370a	-0.13399902
97	0xbc0e3903	-0.008680585
98	0x3e1354e4	0.14387852
99	0xbc8b1c63	-0.01698131
100	0x3cba0089	0.022705333
101	0x3e1a9dc1	0.15099241
102	0xbc4944b9	-0.012284451
103	0xbc48c5a9	-0.012254157
104	0xbd351a80	-0.044214725
105	0x3dc696d2	0.096967354
106	0x3e69552c	0.22786397
107	0x3d26b707	0.040701892
108	0xbcb5f8b9	-0.022213327
109	0x39aa5771	0.00032490076
110	0xbd98d108	-0.074617445
111	0x3db5b11e	0.08871673
112	0xbe101cfe	-0.1407356
113	0x3b5ec3c8	0.0033991206
114	0xbe5b573e	-0.21419999
115	0xbe66a7ed	-0.22524996
116	0xbe90b807	-0.28265402
117	0xbd8ee583	-0.0697737
118	0x3c27a2a2	0.010231646
119	0xbcfeb1d7	-0.03109066
120	0xbdd5e35b	-0.10443755
121	0xbe650ca2	-0.223681
122	0xbe3064d2	-0.1722596
123	0xbdc94db8	-0.09829277
124	0xbb0605fc	-0.0020450344
125	0x3e722716	0.23647723
126	0x3cfb6ac4	0.030690558
127	0xbe2eea5d	-0.1708159
128	0x3e5694f3	0.20955257
129	0xbe0ddf5d	-0.13854738
130	0x3e318821	0.17337085
131	0xbb8f5b74	-0.0043749157
132	0xbb238cbd	-0.0024955713
133	0x3ee6d25e	0.45082372
134	0xbe52654b	-0.20546453
135	0xbd969369	-0.07352335
136	0x3b822a3c	0.00397232
137	0x3ba53a1e	0.0050423285
138	0xbc531033	-0.01288228
139	0xbd933763	-0.071882986
140	0x3e06f8d0	0.13180852
141	0x3de47f5d	0.11157105
142	0xbdcb67b5	-0.0993189
143	0xbe3d25cf	-0.18471454
144	0x3e1da059	0.15393199
145	0xbe4aee4d	-0.19817467
146	0x3dd3c66d	0.10340581
147	0x3d23ad88	0.039960414
148	0xbe0933e2	-0.13398698
149	0x3bd4e63c	0.0064971726
150	0xbe0daa35	-0.1383446
151	0xbe08e915	-0.13370164
152	0xbe406eaf	-0.18792222
153	0x3d932dd6	0.07186477
154	0xbdbb6b9a	-0.09151383
155	0x3ddcc172	0.10779084
156	0xbdffb2bf	-0.12485265
157	0x3d24cfae	0.04023712
158	0x3e280e29	0.16411652
159	0xbd3b8d3c	-0.04578899
160	0xbd651e69	-0.055937205
161	0xbd3fc10f	-0.046814974
162	0x3cadef42	0.021232251
163	0x3d7d06de	0.061774127
164	0xbd601ccd	-0.054714967
165	0xbe4ffe93	-0.20311956
166	0x3dde87f4	0.10865775
167	0x3e1a2773	0.15054111
168	0x3e45f074	0.19330007
169	0x3d95215c	0.072817534
170	0x3c380c9d	0.011233476
171	0xbe1140b8	-0.14184844
172	0xbdeda70f	-0.116041295
173	0xbe89c6d0	-0.26909494
174	0x3e7a06fb	0.24416725
175	0xbd3bbcd1	-0.045834366
176	0x3e5c694b	0.21524541
177	0xbd33337a	-0.043750264
178	0xbe40d819	-0.18832435
179	0x3e508fa0	0.20367289
180	0xbd1da56d	-0.03848784
181	0xbd801f3f	-0.0625596
182	0x3e266182	0.16248134
183	0x3dc2b282	0.09506704
184	0xbe70c124	-0.23511177
185	0xbbeff3f1	-0.0073227813
186	0xbdca01c8	-0.09863621
187	0x3d43f9ef	0.047845777
188	0x3e821ec7	0.25414106
189	0xbdf622d3	-0.12018361
190	0x3e13c584	0.14430815
191	0xbe1f9531	-0.15584256
192	0x3e568561	0.20949318
193	0xbdd6685e	-0.10469125
194	0xbd96eeeb	-0.07369789
195	0x3bc90feb	0.006135931
196	0xbe58c2d6	-0.21168074
197	0x3e28e456	0.16493353
198	0xbdeaaf04	-0.11459163
199	0x3d0906ac	0.03345363
200	0xbe4378e4	-0.19089085
201	0x3c802b4c	0.015645646
202	0xbd904f7e	-0.07046412
203	0xbd41a7be	-0.047279112
204	0x3cdfae6d	0.027304852
205	0xbde4fbf2	-0.11180867
206	0x3e3fe5a2	0.18739942
207	0xbc572234	-0.013130713
208	0xbea78205	-0.32716385
209	0x3e6a74bf	0.22896098
210	0xbc8c6f1a	-0.017142821
211	0x3e1153bd	0.141921
212	0xbc833404	-0.016016014
213	0xbe85c471	-0.26126435
214	0xbd67c9f7	-0.056589093
215	0xbe11350a	-0.14180389
216	0xbb39a558	-0.0028327312
217	0xbd5e9c65	-0.05434837
218	0x3c969b40	0.018384576
219	0xbe6d62c4	-0.23182207
220	0x3d178d08	0.036999732
221	0xbe09678e	-0.13418409
222	0x3dbceb1e	0.092245325
223	0xbe4f0512	-0.20216778
224	0xbd9e79b2	-0.07738055
225	0x3e503fcc	0.20336837
226	0xbea256c8	-0.31706834
227	0x3eab6346	0.33474177
228	0x3e0b8fd3	0.13629083
229	0xbd239249	-0.03993443
230	0x3eb82773	0.35967597
231	0x3e6750e2	0.22589448
232	0x3e8fd8c2	0.2809506
233	0xbdbe5556	-0.0929362
234	0xbdddbd4e	-0.10827123
235	0x3db4a288	0.08820063
236	0xbdfeb480	-0.124367714
237	0xbddde4c0	-0.10834646
238	0xbe08c756	-0.1335729
239	0xbeb2d96c	-0.34931505
240	0xbd835ee4	-0.06414583
241	0x3e272a63	0.16324763
242	0xbdbc3745	-0.09190229
243	0x3c7316e3	0.014837
244	0xbe0bae6f	-0.1364076
245	0xbe1588fb	-0.14603035
246	0xbd42d4a4	-0.04756607
247	0x3f0ffe26	0.56247175
248	0x3f032780	0.5123215
249	0x3ca5c949	0.020237582
250	0xbe0cd5ab	-0.13753383
251	0x3d770ca4	0.06031479
252	0x3f0995d9	0.53744274
253	0x3d3cb70e	0.046073012
254	0xbd2672a0	-0.04063666
255	0xbdeaa4d9	-0.114572234

model/hidden_layers/1/b f4 [75]
0	0x3c79f387	0.015255815
1	0x3e922dad	0.28550473
2	0xbe520e75	-0.20513327
3	0x3faaa229	1.3330737
4	0x3f54b051	0.8308154
5	0xbd2ae54c	-0.04172258
6	0x3d4a3990	0.049371302
7	0x3f498823	0.78723353
8	0x3f8fcc17	1.1234158
9	0xbe2b4654	-0.16726047
10	0x3fa5dbc6	1.2957695
11	0xbd40a82e	-0.04703539
12	0xbb0b4f1f	-0.0021256877
13	0xbd824b9a	-0.06362076
14	0x3fa76eca	1.3080685
15	0xbc12c7e1	-0.008958788
16	0x3fa45aa2	1.2840159
17	0xbef74a99	-0.482991
18	0xbceb1c88	-0.028700128
19	0x3f5ff8e3	0.87489146
20	0x3fb213d7	1.3912305
21	0x3fa15075	1.2602679
22	0xbf31dafe	-0.6947478
23	0xbe0549ed	-0.13016482
24	0x3fb5f7ad	1.421621
25	0xbcc7bf0f	-0.024383096
26	0xbb94d413	-0.004541883
27	0xbaab1c2a	-0.0013054658
28	0x3f59b53d	0.8504217
29	0x3ee8d83e	0.4547748
30	0xbe31d657	-0.1736692
31	0x3d12ddf1	0.03585619
32	0x3f520cf8	0.8205104
33	0xbe2c791c	-0.16843075
34	0x3f9ba110	1.2158527
35	0x3f9e0df8	1.2348013
36	0x3f4ceb56	0.80046594
37	0x3f552f1f	0.83275026
38	0x3f8f1a79	1.1179954
39	0xbc426e47	-0.0118671125
40	0x3fa4563b	1.2838815
41	0xbe0cea05	-0.13761146
42	0x3fb6ad77	1.4271687
43	0x3f48bd9c	0.7841432
44	0x3f968296	1.1758602
45	0x3d081e8e	0.033232264
46	0x3f8af83d	1.0857006
47	0x3d9f5ea4	0.07781723
48	0x3f3c957b	0.7366559
49	0x3fbb7026	1.46436
50	0xbd53306a	-0.051559843
51	0xbebb9947	-0.3664038
52	0x3fa1cd37	1.2640752
53	0x3f4f5d40	0.81001663
54	0xbd815c80	-0.06316471
55	0x397cc5a3	0.00024106218
56	0x3f85cae9	1.0452548
57	0xbc7ac879	-0.0153065855
58	0xbbae4612	-0.0053184116
59	0x3f302194	0.68801236
60	0xbf945121	-1.1587259
61	0x3fab66ab	1.3390707
62	0x3e2c36c8	0.16817772
63	0x3f684413	0.90728873
64	0x3f682351	0.9067889
65	0x3f9d611b	1.2295259
66	0xbda42449	-0.08014733
67	0xbd307a38	-0.043085307
68	0x3f95b579	1.1696006
69	0xbea82ae9	-0.32845238
70	0x3c74cd97	0.014941595
71	0xbc48794c	-0.012235951
72	0xbf63f9a9	-0.89052826
73	0x3f5bb555	0.85823566
74	0x3f91ab2c	1.1380363

model/output/W f4 [4, 75]
0	0xbe543aca	-0.20725551
1	0xbda94aa7	-0.08266192
2	0x3e08fd9f	0.13377999
3	0xbeea46c1	-0.45757106
4	0xbec2f4d7	-0.38077423
5	0xbe2a1dd8	-0.16612947
6	0xbab1874a	-0.0013544348
7	0xbe1bdde5	-0.15221365
8	0xbea120d4	-0.31470358
9	0x3e152cc5	0.1456786
10	0xbef58ffa	-0.47961408
11	0x3df987d1	0.12184108
12	0xbd81f414	-0.06345382
13	0x3e904efd	0.28185263
14	0xbf03acf9	-0.5143581
15	0x3d0f31ff	0.03495979
16	0xbebd46dd	-0.36968127
17	0x3d8e2f1e	0.06942581
18	0x3d5ad435	0.053425033
19	0xbe9b8550	-0.30375147
20	0xbef80553	-0.48441562
21	0xbf1250c5	-0.57154495
22	0x3e1e7911	0.1547587
23	0xbe5e9067	-0.21734773
24	0xbf1dae72	-0.6159431
25	0xbe88084d	-0.26568833
26	0xbd9f2297	-0.07770269
27	0xbd659c5c	-0.05605732
28	0xbea74a5c	-0.3267392
29	0xbdd88cc9	-0.10573728
30	0x3e053663	0.13009028
31	0xbaf70550	-0.0018846188
32	0xbdec4f6d	-0.11538587
33	0x3dfdd234	0.12393609
34	0xbed72875	-0.42023054
35	0xbf060a56	-0.5235952
36	0xbe898f67	-0.2686722
37	0xbe8ecb06	-0.2788927
38	0xbe9312f4	-0.28725398
39	0xbcc2ca86	-0.023778211
40	0xbf11b27b	-0.56912965
41	0xbe52ab63	-0.20573191
42	0xbf39d9fa	-0.7259823
43	0xbe2e233d	-0.1700563
44	0xbebc6cc9	-0.36801746
45	0xbec20fbc	-0.3790263
46	0xbe875bb0	-0.2643714
47	0x3a842c7b	0.0010084057
48	0xbe6b9afe	-0.23008344
49	0xbf178a02	-0.5919496
50	0xbbc999f3	-0.0061523854
51	0xbbdf0cc2	-0.006806941
52	0xbf1af529	-0.60530335
53	0xbdf7469d	-0.12074015
54	0xbcf7c0ea	-0.030243356
55	0xbdc8ccbd	-0.09804676
56	0xbebfc066	-0.37451476
57	0x3d02dbd9	0.031947944
58	0x3e1b4bf4	0.15165693
59	0xbe37e07a	-0.17956725
60	0x3e8650b8	0.2623346
61	0xbf136577	-0.575767
62	0xbe31fc0f	-0.17381309
63	0xbe1ba191	-0.15198351
64	0xbed5a965	-0.417308
65	0xbef4e493	-0.47830638
66	0x3d8ba38e	0.06818305
67	0xbc07b3ae	-0.008282585
68	0xbe89e632	-0.26933438
69	0x3e69f7b4	0.22848397
70	0x3da8b5a0	0.08237767
71	0xbcf3c913	-0.029758966
72	0x3e938be1	0.28817657
73	0xbe5050fa	-0.2034339
74	0xbef4290d	-0.4768757
75	0xbdb91032	-0.09036292
76	0xbdab3152	-0.083590165
77	0x3def0adb	0.116719924
78	0xbed263bf	-0.41091725
79	0xbe4db944	-0.20090204
80	0x3e1abe6d	0.15111704
81	0xbdbfbec4	-0.093625575
82	0xbe4aa36f	-0.19788907
83	0xbeb1bb7e	-0.34713358
84	0xbb8479a7	-0.0040428224
85	0xbecd7a73	-0.40132484
86	0xbd16d5bb	-0.036824923
87	0xbd014dc4	-0.031568304
88	0x3d9f9dc4	0.07793763
89	0xbf08d83a	-0.53454936
90	0x3ca21ffa	0.019790638
91	0xbeddc1d5	-0.43311945
92	0x3e0b2b9d	0.13590856
93	0xbde8845d	-0.11353371
94	0xbe4887ae	-0.19583008
95	0xbf08684e	-0.53284156
96	0xbf00a93f	-0.5025825
97	0x3dd3349d	0.103127696
98	0xbd509a33	-0.050928306
99	0xbf3b40dc	-0.7314584
100	0x3cf33421	0.029687943
101	0x3d7ec2b6	0.06219741
102	0xbb1fa508	-0.002435984
103	0xbe9c8dff	-0.30577084
104	0xbdcf5e7d	-0.10125444
105	0xbdad712e	-0.08468853
106	0xbdd4b777	-0.10386556
107	0xbddb9f18	-0.10723704
108	0x3e612a2f	0.21988748
109	0xbed54c95	-0.4165999
110	0xbf1c5222	-0.61062825
111	0xbe1a4f21	-0.15069248
112	0xbe7568ca	-0.23965755
113	0xbeb887c2	-0.36041075
114	0x3c94d29b	0.01816683
115	0xbf1c4ea9	-0.61057526
116	0xbdc11885	-0.09428505
117	0xbeed2c63	-0.46322927
118	0xbe3d5e60	-0.18493032
119	0xbe76780e	-0.24069235
120	0xbdc1d318	-0.09464091
121	0xbea5caff	-0.32381436
122	0x3bb60fb7	0.0055560726
123	0xbde17d2c	-0.11010203
124	0xbf3f8f93	-0.7482845
125	0xbdf609c6	-0.12013583
126	0x3e397c02	0.18113711
127	0xbf0da331	-0.55327135
128	0xbe87544d	-0.26431504
129	0xbc265775	-0.010152687
130	0xbc12b4ed	-0.008954269
131	0xbea50dbb	-0.32237038
132	0xbc061621	-0.008183987
133	0x3d3ae4b6	0.045628272
134	0xbe352088	-0.17688191
135	0x3e5c5930	0.21518397
136	0xbf0afc2d	-0.5429104
137	0xbdd328be	-0.10310505
138	0xbe7bbe75	-0.24584372
139	0xbeae8336	-0.3408448
140	0xbf094dcc	-0.53634334
141	0xbcf91f9d	-0.030410582
142	0x3e116be0	0.14201307
143	0xbef14c08	-0.4712832
144	0x3dae0d34	0.08498612
145	0xbe0b340e	-0.13594076
146	0x3dbf7d5c	0.09350082
147	0x3e447bd0	0.19187856
148	0xbe002f3d	-0.1251802
149	0xbf01ac86	-0.50653875
150	0x3e79e667	0.24404298
151	0xbc81ddc0	-0.015852809
152	0x3dba72c6	0.091039225
153	0xbf39c36c	-0.72563815
154	0xbed0813f	-0.40723607
155	0xbd952fd0	-0.0728451
156	0xbdabc772	-0.083876505
157	0xbda1e0da	-0.07904215
158	0xbea78536	-0.3271882
159	0x3e3685bd	0.17824455
160	0xbf034b1e	-0.51286495
161	0x3b11dfe9	0.0022258705
162	0x3dcf6908	0.10127455
163	0x3dddd26a	0.10831149
164	0xbf113bba	-0.5673176
165	0xbcaf1199	-0.021370696
166	0xbef90fbc	-0.48644817
167	0x3dcc02ca	0.099614695
168	0x3d887662	0.06663205
169	0xbe275607	-0.1634141
170	0xbeb19c83	-0.3468972
171	0xbee58e73	-0.44835243
172	0x3e0dd7cd	0.13851853
173	0x3c32da82	0.010916354
174	0xbf12f7c0	-0.57409286
175	0x3c8af1cd	0.016961003
176	0x3e083058	0.13299692
177	0x3d6bb9d4	0.057550266
178	0xbe447379	-0.19184674
179	0xbb8d8892	-0.004319259
180	0x3cbb31c1	0.022850873
181	0x3dc2aac4	0.09505227
182	0xbe6e80df	-0.23291348
183	0xbe43fd50	-0.191396
184	0xbf0c59bb	-0.5482442
185	0xbeb04bcf	-0.34432837
186	0xbe113c36	-0.14183125
187	0xbe552dbb	-0.20818226
188	0xbeb66230	-0.35621786
189	0x3c7c3cde	0.015395371
190	0xbf1bc93f	-0.6085395
191	0x3d16e04c	0.036835
192	0xbf1e10ba	-0.6174427
193	0xbe515904	-0.20444113
194	0xbebf58fb	-0.37372574
195	0xbc30dec1	-0.010795296
196	0xbef0e579	-0.47050074
197	0xbd73d5b8	-0.05952999
198	0xbe1f457d	-0.15553851
199	0xbf43645e	-0.76325023
200	0x3d68263f	0.0566771
201	0x3d137840	0.03600335
202	0xbee0feb2	-0.43944317
203	0xbe5d59d9	-0.21616305
204	0x3e346a17	0.17618595
205	0x3cc71491	0.024301799
206	0xbe9f7bf5	-0.3114926
207	0x3e27a2f6	0.16370758
208	0x3e077c6c	0.13231057
209	0xbdc739ae	-0.097277984
210	0x3ebc455e	0.36771673
211	0xbee8418c	-0.45362508
212	0xbdc8c14d	-0.09802494
213	0xbe6e6871	-0.23282029
214	0xbe5c61cb	-0.2152168
215	0xbf02d6e0	-0.51109123
216	0x3d7c8526	0.061650418
217	0x3e5c6b2b	0.21525256
218	0xbed58a69	-0.4170716
219	0x3e0d9444	0.1382609
220	0xbd134701	-0.035956386
221	0xbe43b591	-0.19112231
222	0xbcef7cfe	-0.029234406
223	0xbe5163a7	-0.2044817
224	0xbef268ed	-0.47345677
225	0xbd8fa986	-0.07014756
226	0x3b4b64ea	0.0031035491
227	0x3d9e7a4b	0.07738169
228	0xbef6c3dd	-0.48196307
229	0xbdf839a8	-0.12120372
230	0xbd72a30c	-0.059237525
231	0xbd3bdb08	-0.04586318
232	0xbddbbc93	-0.10729327
233	0xbeb5ff29	-0.35546234
234	0xbd66163f	-0.05617356
235	0xbed5810d	-0.4170002
236	0xbd832331	-0.064031966
237	0xbd9a4183	-0.075320266
238	0x3e457a5d	0.19284959
239	0xbf347ba4	-0.7050116
240	0x3d593747	0.053031232
241	0xbeefd577	-0.46842548
242	0x3d825b7c	0.063651055
243	0xbe2e1b2f	-0.17002557
244	0xbe474900	-0.19461441
245	0xbf110d89	-0.5666128
246	0xbecfb493	-0.40567455
247	0x3e2e278f	0.17007278
248	0x3d78c3d4	0.06073363
249	0xbf1987f1	-0.59973055
250	0x3dc8d793	0.098067425
251	0xb9382e01	-0.00017564745
252	0xbcc04694	-0.023471154
253	0xbe1e8883	-0.15481763
254	0xbce8ce48	-0.028418675
255	0x3b49eeab	0.0030812423

model/output/b f4 [4]
0	0xbf94876f	-1.1603831
1	0xbf91ccbe	-1.1390607
2	0xbf927f74	-1.1445146
3	0xbf98c9c4	-1.1936574
