experiments/blocksworld/blocksworld_full_train_set_2-75-2/best/model.npz (npz, 29726 bytes, 6 tensors)

model/hidden_layers/0/b f4 [75]
00000000: 8c3d 26c0 74df 35c0 5103 15bf 7d25 85c0
00000010: 0b13 73c0 3423 49c0 20eb ba3f 52fe 11c0
00000020: 0d69 44c0 4589 17c0 a4ca c7bf 8122 783e
00000030: 185d 11c0 d31e 59c0 604f 17c0 5be0 32c0
00000040: 1cd6 19bf 0e9c 1cc0 c7ac 11c0 41a1 46c0
00000050: d0a4 cebf 7176 bf3f df7f 2ec0 be84 0e41
00000060: 3591 a9bf 96e4 26c0 77da 2cc0 125c 02c0
00000070: 3aed 1ac0 609d 42c0 ca3e 84bf c178 48c0
00000080: c730 6fc0 26e9 3ec0 b56e 04c0 86a1 24bf
00000090: bd2f 12c0 21a8 35c0 6369 33c0 ac39 bcbf
000000a0: df63 d5bf b832 8ec0 52c2 2fc0 278c 33c0
000000b0: 75c3 56c0 0478 25c0 6f50 8ec0 7fe7 ebc0
000000c0: a3fa 39c0 21a5 a540 1d58 4cc0 2b6d 94c0
000000d0: a81c 8dc0 3d9b 57c0 7123 7cc0 0bd2 f0bf
000000e0: 4ba5 2dc0 8ca5 efbf 3339 2ec0 eed5 e8bf
000000f0: 5904 8fc0 935d efbe cf5c 29c0 89c6 1ec0
00000100: f16c 0ac0 99d7 17c0 e032 5fc0 fb8f 13c0
00000110: 69b3 6ec0 fd64 5cc0 15fe 0bc0 dca4 babf
00000120: b6f4 34c0 b74d 84bf 6ba4 01c0
-2.5975065 -2.8417635 -0.58208185 -4.160826 -3.7980373 -3.1427736 1.4603004 -2.2811475
-3.0689118 -2.3677533 -1.5608716 0.24231912 -2.271307 -3.3925064 -2.3642197 -2.7949436
-0.6009233 -2.4470248 -2.2761705 -3.1035922 -1.6144047 1.495802 -2.7265546 8.907408
-1.3247439 -2.6077018 -2.700834 -2.0368695 -2.4207292 -3.0408554 -1.0331662 -3.1323702
-3.7373521 -2.9829803 -2.069257 -0.64308965 -2.2841637 -2.8383868 -2.8033073 -1.47051
-1.6671103 -4.4436913 -2.7462354 -2.8054292 -3.3556798 -2.5854502 -4.4473186 -7.372009
-2.9059227 5.1764073 -3.192878 -4.638326 -4.409748 -3.36885 -3.9396632 -1.88141
-2.7132137 -1.8722396 -2.7222412 -1.8190286 -4.4692807 -0.4675108 -2.6462896 -2.4808676
-2.1628993 -2.372534 -3.4874802 -2.3056629 -3.7297003 -3.4436638 -2.187383 -1.4581561
-2.827436 -1.0336217 -2.0256603

model/hidden_layers/0/W f4 [75, 20]
00000000: 4d52 86bd c89c 5dbc 989b d6be 8bd9 ddbf
00000010: 2e92 d6be dca3 663d 02b6 913d c722 f3be
00000020: 3ffe d5bf 23cd d3be 453f 2e3f 8781 543e
00000030: d790 a5bc 6a64 bcbf 1896 3b3c 334c 543d
00000040: 59f0 acbe d436 e93c fe94 b6bf 7e0b 643c
00000050: 8f11 1ebe 36d6 1dbd 9ec9 363e e474 00c0
00000060: c82d ffbd f8de 113d a629 6cbd f765 4d3d
00000070: d9f8 0cc0 1989 69bd 0a51 863e 5706 893e
00000080: 92f7 743c 10c6 9abf d6ef 183d efc4 153f
00000090: f7ef 92be a7f2 f63d dddd 99bf 1ab0 793b
000000a0: 5bdc 7fbd ad3c 253e 5381 ffbd 8d37 53bf
000000b0: c207 833e 8162 43bd 008e 2c3d a493 1ebd
000000c0: 8f84 51bf aa8b 83be bdf9 113f 8009 e2be
000000d0: b077 b43d 45b8 5dbf 1481 413d 3749 c83e
000000e0: 7344 18bf 37b8 253d d225 4bbf dbec 853c
000000f0: 378e 7abc c453 61bd 9da0 cf3d 6a18 23c0
00000100: 143d f6be 0305 833d b569 7ebe 5f1f 2fbd
00000110: db35 17c0 7a26 49bf dbc9 703f 960a d9bd
00000120: 04fb bf3c a243 30bf 935e 49bc 5a7b 783f
00000130: 1727 6ebf eba7 8ebd fcd2 3abf 0cd3 e43b
00000140: b591 c9be 6991 3abd 9e36 ac3e 44c3 90bf
00000150: 712e dc3e 5f98 1bbf bf6f 913e e4a9 0f3e
00000160: 4f20 86bf 7f02 7dbd 24f4 953e c83f a7be
00000170: e4c7 813d 8757 17bf 25f4 68bb 705e 083f
00000180: dfcb aabe 21e1 b73a c1af ffbe f60d a63d
00000190: 00f2 883e 8dd9 b43d d4e0 3fbe 360f dcbf
000001a0: a2da 89bd 642e 3a3f fa5d cd3e 3f7b ffbb
000001b0: 0042 d1bf 9889 29bf f578 953e d5ff cfbe
000001c0: 065f 453d 8526 84bf ee43 77ba 4b62 103e
000001d0: cfc4 b9be 4f10 333d 8029 21bf aea7 b03c
000001e0: 3013 15bf 4c3e 3c3e ef4d d9bd ec10 55bf
000001f0: 366e fa3d 7379 d03e bd41 8b3e c395 833c
00000200: 7673 4abf 471c a9be 9681 4e3d ffe8 3e3d
00000210: d5b9 683e b90d 54bf 52c3 9cbc f907 df3d
00000220: 5d78 33bd 4aeb 333e 96be 38bf 3b32 3e3c
00000230: 6a73 8dbe fe6c 7bbd cc66 8fbe df08 f6bf
00000240: fde8 2f3f f48d 923e 17dd c13e 53be 10bd
00000250: 2d20 c9bf f910 1ebe 6957 113f f147 9fbe
00000260: 6e9b 52bc d275 93bf 50e8 b8bc 4385 dd3e
00000270: 3f88 10bd a82b f43d af98 27bf 53c7 45bc
00000280: 7817 c9be e377 5f3e c407 46bd befb f0bf
00000290: c75c 303e 5285 c1bd 27a4 e13c c856 a33d
000002a0: f831 67bf ab34 9abe bb28 8c3f dac0 1ebf
000002b0: f554 d13d 81ef 18bf 651e 1cbd 159e d3bd
000002c0: ff89 a4bd 5127 39bd f990 9abf aabc bf3c
000002d0: 9fe7 c03e c81a 7e3d e663 6ebd 76ae f7bf
000002e0: f46a d83d 4944 c43d 66bd edbe 9a81 1dbe
000002f0: 81d1 f1bf a066 65be 2fc0 b83e ed11 81be
00000300: 88a4 d13d 78c1 aabf 36b4 9ebb f2e4 663f
00000310: ef86 d4be 1a8e 343c ba2b 93bf e399 00bc
00000320: 39fa 9ebe f4ee c2bd 95dc 2b3e 6e01 87bf
00000330: 76c9 7f3e da0f d1be 8c22 da3d 839c 9ebd
00000340: e69c b5bf 5a88 55be cffa 90bd 9382 7bbe
00000350: b322 b43d 12ec 81bf f045 073c c780 9f3e
00000360: 66a1 e1be 2486 bf3c e96f 62bf 1c37 2cbb
00000370: a3a5 63bd daba df3e fd2c 363d ae64 2fbf
00000380: 1ee1 93be 7346 5bbd ac9b 193e 3926 053e
00000390: 77ff 31bf 54ad 123e 9d82 c53d 323a e03e
000003a0: 39c8 0b3e 785d 23bf d967 423d 852e 2a3e
000003b0: 9752 dfbe ee7f c93d 6fc1 0ebf cb01 bb3c
000003c0: 06e2 60be 3de7 e7be c0c8 683c 8b30 bfbf
000003d0: fa03 edbc ec6c a63e 2b0c 7bbe 1877 b7bd
000003e0: 1af4 98bf 98bf 78bf 3d22 303c 28fb 81be
000003f0: 41bd 013c 356e 59bf 748e aeba da4a 023f
-0.065586664 -0.013526149 -0.41915584 -1.7332014 -0.419084 0.056308612 0.07114793 -0.4748747
-1.6718215 -0.41367444 0.6806529 0.20752536 -0.020210667 -1.4718144 0.011449359 0.05183048
-0.3377712 0.028468527 -1.4264219 0.013918756 -0.15436386 -0.038534366 0.17850348 -2.0071344
-0.12459904 0.03561303 -0.057656907 0.05014607 -2.2026885 -0.057015512 0.26233703 0.2676265
0.0149516035 -1.2091694 0.0373381 0.5850362 -0.28698704 0.12058001 -1.2020832 0.003809935
-0.062466007 0.16136427 -0.124758385 -0.8250664 0.25591856 -0.047701363 0.04212761 -0.03871502
-0.81842893 -0.25692493 0.57021695 -0.44147873 0.08811891 -0.866093 0.04724224 0.39118358
-0.59479445 0.040458884 -0.79354584 0.016348293 -0.015292696 -0.055011526 0.101380564 -2.548365
-0.48093474 0.0639744 -0.24845012 -0.042754527 -2.362662 -0.78574336 0.94058007 -0.10597722
0.023435123 -0.688532 -0.012290615 0.9706322 -0.93028396 -0.069656216 -0.72978187 0.0069831666
-0.39368978 -0.04554883 0.3363542 -1.130959 0.43004182 -0.60779375 0.28405568 0.14029652
-1.047861 -0.06176996 0.29287827 -0.3266585 0.06336954 -0.5911793 -0.0035545912 0.532691
-0.33358666 0.0014028886 -0.49938777 0.081081316 0.2674713 0.08830557 -0.18738109 -1.7192142
-0.06731154 0.72727036 0.4011076 -0.0077966745 -1.6348267 -0.66225576 0.29193845 -0.40624872
0.048186325 -1.0324255 -0.00094324246 0.14099996 -0.36282966 0.043716725 -0.6295395 0.02156433
-0.582324 0.1838314 -0.10610568 -0.83228946 0.12228052 0.40717658 0.27198592 0.016062623
-0.7908243 -0.33029386 0.05041655 0.04660892 0.2272714 -0.8283344 -0.019136105 0.108901925
-0.04381596 0.17570224 -0.7216581 0.011608656 -0.27627116 -0.06138324 -0.28008115 -1.9221457
0.68714887 0.28623927 0.3786399 -0.035337757 -1.5712944 -0.15436162 0.56774 -0.31109574
-0.01285444 -1.1520331 -0.022571713 0.43265733 -0.035286184 0.11922389 -0.6546735 -0.012071448
-0.39275718 0.21823077 -0.04834725 -1.8826826 0.17222892 -0.09449257 0.027544094 0.079755366
-0.9031062 -0.30118307 1.094993 -0.6201302 0.102212824 -0.59740454 -0.038114924 -0.10332886
-0.08034133 -0.04520351 -1.2075492 0.023405392 0.37676713 0.06203726 -0.05820074 -1.9350116
0.10567275 0.09583337 -0.46433562 -0.1538147 -1.889206 -0.2240243 0.36084124 -0.2520899
0.1023646 -1.3340292 -0.00484326 0.9019309 -0.41509196 0.011020208 -1.1497719 -0.007849189
-0.3105028 -0.09518233 0.16783364 -1.0547311 0.24979195 -0.40832406 0.106511205 -0.07744696
-1.4188507 -0.20852795 -0.07079088 -0.24561529 0.08795681 -1.0150168 0.0082564205 0.31152937
-0.4406845 0.023379393 -0.8845201 -0.0026277965 -0.055577885 0.43697244 0.044476498 -0.68513
-0.28882688 -0.053533982 0.1500079 0.13002862 -0.69530433 0.14323932 0.09644053 0.437944
0.13650598 -0.63814497 0.047462318 0.16619308 -0.436177 0.09838854 -0.55763906 0.022828003
-0.21961221 -0.45293608 0.014208019 -1.4936689 -0.02893256 0.32504976 -0.2451636 -0.08958262
-1.1949494 -0.9716735 0.010750351 -0.2538693 0.007918657 -0.8493379 -0.0013317601 0.50895464

model/hidden_layers/1/b f4 [75]
00000000: fa32 563d dbcb 8e40 218c 7540 e111 60be
00000010: 3f76 aebe e2e8 eb40 2361 75be 1ea9 67be
00000020: 69bd aa40 11e6 8dbd dc71 d93e 968a 12bd
00000030: a757 0541 2c31 7bbd 2b8a e7bf db94 c2be
00000040: 100e c0bd 78ef b940 0801 e7bd 48ff a940
00000050: 809e 133f 326b 7840 4ba9 d1bf 2342 773e
00000060: ca3d 55c0 8ccc 65bd 0fcd 9b3e 9f9a dabd
00000070: 6f5f b040 8abd 9540 92b4 67bc 2b03 febd
00000080: 725c 283e d037 55be a9e4 373e 9d50 0c40
00000090: e21b 6f3e 75f8 d1bd bd24 b7bd 0f43 dd40
000000a0: 3118 bc40 9a48 69bd 6106 e2be 1379 4340
000000b0: bf83 6dbe 58c7 40bf cde5 263d 85d5 9f40
000000c0: 7707 cd40 ea71 fc3e b61a 9440 48d8 383e
000000d0: c027 8db9 4542 93be bd62 15bf 473b 113f
000000e0: 85e5 eabc d7a4 acbf 428d 1741 2bdc d040
000000f0: 1e19 e340 6592 dabe 8c13 8abe 2685 f9bd
00000100: 2ea8 6dbe a481 4fbf a1e3 99be 7bfb cdbf
00000110: 4cc8 f540 a1f2 323e 1e79 a440 a2b4 8f40
00000120: b11c 0940 b207 24bd 21af 51c0
0.05229471 4.4623847 3.8366778 -0.2188182 -0.3407459 7.372178 -0.23962836 -0.22623107
5.3356214 -0.06928647 0.4246968 -0.035776697 8.3338995 -0.06132619 -1.808904 -0.38004193
-0.09377682 5.810482 -0.112794936 5.3124123 0.57663727 3.8815427 -1.6379789 0.24146323
-3.3318963 -0.056103274 0.30429885 -0.10674023 5.5116496 4.679387 -0.014142172 -0.12402948
0.16441515 -0.20822072 0.1795832 2.1924202 0.2335048 -0.102524675 -0.08942554 6.914436
5.877953 -0.056954004 -0.44145492 3.0542648 -0.23194788 -0.75304174 0.0407465 4.9948144
6.407161 0.4930566 4.6282606 0.18051255 -0.00026923232 -0.28761497 -0.5835379 0.56731075
-0.028673897 -1.3487805 9.471987 6.526876 7.096816 -0.42689815 -0.26968038 -0.12183599
-0.23208687 -0.8105719 -0.3005648 -1.6092371 7.6807003 0.17475368 5.139785 4.4908
2.1423762 -0.0400464 -3.276314

model/hidden_layers/1/W f4 [75, 75]
00000000: 7030 993c 82cb 3abb 9772 183d 40f9 643d
00000010: 9d6e 04be 2e57 16be 10ec 0ebe b81d 2f3d
00000020: b781 64bd 6087 cbbd 681e 50be e366 ee3c
00000030: e1c0 d9bc 48ce 06bd 4fce 9fbd 53ab 3bbe
00000040: db4a c23d 1df5 44bd 9e4b a8bc 5036 e1bd
00000050: 3ac1 b13d 62f0 eabd 81d1 eabd 05d7 d7bd
00000060: 5ae1 25be 627b 963d 867d a1bd 9550 16be
00000070: 9b3c 39bd 5f69 75bd 0756 02bd 2530 19be
00000080: 950b 1fbd 5956 50be 3149 01be c67a 9d3d
00000090: 6d27 3c3d 7378 71be e898 c8bb d4e2 533c
000000a0: 0010 9e3d 6628 28be 3623 02bc bbf9 363d
000000b0: 88e2 2cbe 961f c9bd 2b2b c43c 4c8e cabd
000000c0: 2657 323d 1ae2 19bd 3b89 35be ad31 c6bc
000000d0: 0c3c 58bd 3fbb d2bd ea0e 943d 5e02 45be
000000e0: c34c 59bd 5a36 b8bd 8926 02be 77fe 47be
000000f0: ea8c 83be 27cd 48be d497 3fbd 5100 1fbe
00000100: d0d1 8ebd 674d 73bd d6f2 ebbd d90c c8bc
00000110: fed5 3a3c 3b18 4dbe cdd5 803c 43a5 6cbe
00000120: 0343 153e 8c1e eabd a17a d4bd c9a1 21be
00000130: 5a2a 99be 4c54 d53d b921 b9bd 3707 59bd
00000140: 68ea 7a3d f56b 0bbe 9765 2bbc 7727 8abe
00000150: 9fe7 c73c 7289 153e 4564 90bd c8eb 293c
00000160: b5f2 bebd e318 d6bd a0fb 373d 5432 213e
00000170: c6dc 783c ea95 543e 72ac 4ebd e49a debc
00000180: 3911 c1bd 1d3c 373c 1eb4 2abe cc3e b23c
00000190: 4e85 acbc 0661 45be e52d 2c3e 55e5 093d
000001a0: 7c85 a8bd 8a52 273d feb5 9dbd 26b8 533c
000001b0: 5755 dcbd b6fb c7bd 7c61 1fbd 1a59 5a3c
000001c0: adf0 823d ed49 743e 9525 0bbc 38b0 e03d
000001d0: d444 57ba f01a 18be b5da e8bd bac0 11be
000001e0: 4f1a 39bd 0142 82be 0ada 26be e5d6 b23d
000001f0: f52e 67bd e1bb 8abd 4928 093e 4249 6fbe
00000200: 934a 2d3d 1f68 25bd d413 23bd c1e4 06be
00000210: eac1 8b3c 16bc f33d 81c2 7b3b dc4b ff3c
00000220: c23b 1fbc 05db 753d 6983 db3c e195 6fbc
00000230: 7c2b 573d 493c ca3c 5468 863d 3930 afbd
00000240: 8e4c a1bd f3fc 0e3d 73ac 003e 127f 753d
00000250: 4aa9 053e 2926 37bc f294 3dbe c303 373d
00000260: dd1f e5bd bd28 2a3e d16d ad3d 5814 d13c
00000270: 4567 75bd cd25 a1be a2d3 1fbc 20e0 a8bd
00000280: 2e36 c4bb 0623 3fbd 98c4 60bd 7bdf 083d
00000290: 3b7f 223e 7752 5fbd fa66 45bd db44 ca3c
000002a0: cb94 583e 0f69 a23d fc61 c93b 995f 03be
000002b0: e4fa 03bd c719 e4bd cc98 eabd cbc6 953d
000002c0: 8e53 a8bc 29f9 ad3d 5411 5abd dd58 b6be
000002d0: 7fa2 a13d fc22 97bb 971b 7ebe 2b1f 6abd
000002e0: 95f9 57bd f2d1 c03d 9ae3 05be 6856 2abe
000002f0: bdc4 02be f6a7 5cbe b502 c63d c1ba fd3d
00000300: 4827 403e 8592 85bd 2a45 e43d 9119 253d
00000310: ec65 073e 8fbc 47be 23b9 8cbd aed3 31be
00000320: 8a39 d33d 0d9d 8d3d 9dfe e4bd b2a0 fe3c
00000330: cf2b b43e dd88 d73d 01c4 b9be d301 2bbd
00000340: c796 453d 27d5 e33c 728d 923c 26d4 ad3d
00000350: af4f 45bd a938 f4bc 85e9 d9bd 4dde 593c
00000360: 5301 833e 2703 133d afbf 063e e93d c6bd
00000370: 414f a83c d697 293d 3fe8 5f3d a7c0 97bc
00000380: 4db3 343e 2daf b5bc 82b4 aabe 3918 04bf
00000390: 6bb3 083d 1d37 1cbf f2f7 41be 2b6d 34be
000003a0: 52b8 0dbe 45ba 833e 9b5b c6bd 3535 9ebe
000003b0: 6e32 fcbe f1e2 2ebf e71c 1abd c4aa a6bc
000003c0: 8283 203e db1b bcbd 3947 36be 890f 203c
000003d0: f910 273d 07d3 04be 2315 14bd 9d17 dabd
000003e0: a8f8 19be eecd 75be c352 96be 0679 4fbe
000003f0: e5a2 d1bb ea7d 0a3e c565 f63c 9b6d ebbd
0.018699855 -0.0028502648 0.037218656 0.055901766 -0.1293282 -0.14681694 -0.13957238 0.04275295
-0.05578777 -0.0993793 -0.20324099 0.029101795 -0.02658123 -0.03291157 -0.07803022 -0.18327074
0.09486934 -0.04808532 -0.02054387 -0.109966874 0.08679433 -0.11471631 -0.11465741 -0.105390586
-0.16199246 0.07347752 -0.0788527 -0.14679177 -0.045223814 -0.059914943 -0.031820323 -0.14959772
-0.038829405 -0.20345439 -0.12625577 0.07689433 0.045936037 -0.23581104 -0.0061217435 0.012932498
0.077178955 -0.16421661 -0.007942965 0.044671755 -0.1688329 -0.09820478 0.023946365 -0.09890422
0.043540142 -0.037569143 -0.1772813 -0.02419361 -0.05279164 -0.102896206 0.07229407 -0.19239184
-0.05305172 -0.08994742 -0.12710012 -0.19530664 -0.25693446 -0.1960951 -0.046775654 -0.15527464
-0.06973612 -0.05939999 -0.11520927 -0.024420189 0.011403559 -0.20028774 0.015726948 -0.23109917
0.14576344 -0.114316076 -0.10374952 -0.15784372 -0.29915124 0.10416469 -0.09039635 -0.052985396
0.061258703 -0.13615401 -0.010461233 -0.26983234 0.024402438 0.14603212 -0.07050375 0.010371156
-0.093236364 -0.104539655 0.044917703 0.15741855 0.015189355 0.20760313 -0.050457425 -0.027173467
-0.09427113 0.011183766 -0.16670272 0.02175846 -0.021059658 -0.19275293 0.16814382 0.033665974
-0.08228585 0.0408502 -0.07700728 0.012922322 -0.10758465 -0.09764807 -0.038911328 0.0133269075
0.063935615 0.23856325 -0.008492847 0.10971111 -0.00082118553 -0.14854026 -0.1136984 -0.14233676
-0.045191105 -0.25440982 -0.16294113 0.08732394 -0.056441266 -0.06774116 0.13394274 -0.2336779
0.042307448 -0.0403825 -0.03981383 -0.131732 0.017060239 0.11901109 0.0038415494 0.031164102
-0.009718837 0.060023326 0.02679606 -0.014623136 0.052531704 0.02468695 0.06562868 -0.085541196
-0.0787593 0.0349092 0.12565784 0.059935637 0.1305286 -0.011178532 -0.1851385 0.04468132
-0.11187718 0.16617103 0.084682114 0.025522396 -0.05991294 -0.31474152 -0.009755047 -0.082458735
-0.005987904 -0.04666426 -0.054874986 0.033416253 0.15868847 -0.054522004 -0.04819391 0.024691036
0.2115051 0.079301946 0.006145714 -0.12829436 -0.03222169 -0.11137729 -0.11454925 0.073133074
-0.020547654 0.08494789 -0.05323918 -0.35614672 0.07892322 -0.0046123248 -0.24815212 -0.05715863
-0.052728254 0.09415044 -0.13075104 -0.16634524 -0.12770362 -0.21548447 0.09668485 0.12389136
0.18764985 -0.06522087 0.111460045 0.040307585 0.13222474 -0.19505523 -0.068712495 -0.17365906
0.10313709 0.06914721 -0.11181376 0.031082485 0.35189673 0.105241515 -0.36282352 -0.041749787
0.048239496 0.0278116 0.017889712 0.0848773 -0.048171695 -0.029812174 -0.106402434 0.01329763
0.25586948 0.03589168 0.13159059 -0.09679777 0.020545604 0.041404568 0.054664847 -0.018524481
0.17646523 -0.022178257 -0.33340842 -0.5159946 0.03337423 -0.61021596 -0.1894224 -0.1761977
-0.13839844 0.2572805 -0.09685441 -0.3089997 -0.49257225 -0.68315035 -0.03762522 -0.0203451
0.15675166 -0.091850005 -0.17800607 0.009769329 0.04078767 -0.12971126 -0.03615297 -0.10649035
-0.15036261 -0.24004337 -0.29360017 -0.2026101 -0.0063975924 0.13524595 0.030077824 -0.11495515

model/output/b f4 [4]
00000000: 683d cbc0 a77e 03c1 cd73 cac0 c378 eec0
-6.351246 -8.218421 -6.326636 -7.4522414

model/output/W f4 [4, 75]
00000000: 37e7 1ebc 8fe6 edbe 27c9 babe 911e 6bbe
00000010: 4a55 02bd 1593 1ebf 5a4a 9abd 6709 94be
00000020: 2f71 e1be 5a1f 4abe e99b 8bbd 8fd9 303e
00000030: c263 5bbf b0f0 c1bd 21af a33e 6403 0b3e
00000040: cfd5 15bc a100 a8be bfc9 a4bd dd7b cabe
00000050: 4982 823d 4653 02c0 41d0 7dbe fb9c 44bd
00000060: de53 163f 9a74 19be 1726 58be e9aa acbd
00000070: 2121 8cbe 6fbb 78bf 7b63 60bd fef3 bdbe
00000080: 5590 eebd 0086 183e 5679 71bc fe5e cbbe
00000090: 9362 3fbe 0608 87bc e054 49be 4854 35be
000000a0: 6893 06bf 67cc 1a3e 6773 31bf 7edc d9be
000000b0: edc8 e7bc 2ecf a83e 79eb b23d 4516 d9be
000000c0: 52a7 adbe 4a8c dfbe 3e08 d2bf e966 90bd
000000d0: 0644 2a3d bcb8 63be 5581 c03e 7d4c adbc
000000e0: c6da 043e 3468 863e 2ee9 b0bf 803a 97be
000000f0: 641d a2be f7e9 2cbe 8dfe 8fbd 157d d9bd
00000100: 2c04 8039 0574 e1bd 8f4e 1e3d 9daa fb3e
00000110: 23a4 b9be 7958 88bd fcb1 0ebe 9180 e8be
00000120: 16df 30bf d683 90be 5d10 6d3f 6fd4 38bd
00000130: 5a33 99be 009a 6bbe 0811 e53c 93e8 d3bd
00000140: 2113 00bf 6d5e a13d a775 c03c 1245 22bf
00000150: 598e 9f3d 79fa 8dbd 7b82 b93b c73e 4dbf
00000160: 27f1 b1bd 0bfa 783e aee0 e93c 32d9 3abe
00000170: 1cea c0be 8885 8a3d 8811 9abe f0da 66be
00000180: 9f75 e7bf 703e 253b 77cf 52be e6db 1a3f
00000190: f461 87be 7d0c 763d c524 b23d 855f 94be
000001a0: b999 61bf f7ce aabc a5fe 1dbe 09f4 d4bd
000001b0: fe32 a83d f067 11be 8a9e d2be 13fe 5dbe
000001c0: e042 713a 60a3 74bd 5762 9dbe 156d d2be
000001d0: 16ce fb3c d38f 013f 4fea d2be 815f 2f3d
000001e0: 15ab 9d3e 63bc 67bd a774 14be 4057 b9be
000001f0: fbac 35bd 582d c4bf f4fe fabc 7aae 66bd
00000200: 50f5 aebe eaba d43e 82e1 01be afad 75bd
00000210: a2be 8c3e e1e2 adbf 4539 88be 7e35 d2be
00000220: 11e2 d6bc 6fb5 8fbd aede 3b3d f939 283d
00000230: 2e46 80be 8156 3d3c 600b 153f df06 fabe
00000240: 9a12 ffbd 52d1 7bbe 4e10 82be e2c5 88bf
00000250: c101 06be a65e 6c3f a8bc ba3b 98ea 93be
00000260: 0169 67be 8f6c 2ebe 7239 a83d 7616 12bf
00000270: 1d0e d63d 54a2 963d 1256 efbe bb9c 49be
00000280: d3cb 0fbe d685 a5bb 498e 3cbf ddb6 25be
00000290: 0dd5 b03e 1961 cd3c abc1 d1bc 2e96 cbbe
000002a0: 95a2 16be 64f0 d4be d390 9ebe c44b 0dc0
000002b0: e417 bd3d 1d38 85bd 903c 1f3f 6af1 4dbe
000002c0: 008b 273d ce83 1ebe 7cf2 70be c342 8cbf
000002d0: cc48 9dbd e156 f73d e081 563c d47a 2abd
000002e0: 8059 fdbd fc89 a7be c235 37be 10c1 2bbd
000002f0: e586 2e3e 0026 a0be d9da e6be 0f30 063e
00000300: 3f39 8f3d 1215 debe 9d9f 163d 5557 7a3e
00000310: da47 00be ed7b 88bd ec12 05bf fa94 4ebe
00000320: 227c f2bf 7561 67be f2f3 873d a56b 03be
00000330: cd1d ae3e 43e8 2cbe 0685 8abe 015e ba3e
00000340: efcd 9ebf 5b81 64be d4ae ebbe 013c 07bd
00000350: b6a3 c23d 8c58 d2bc 0531 bd3e 7d86 1f3e
00000360: bd4c c2bd cdca 123f f36d 27bf 1058 0e3e
00000370: 0a7e 7ebe d96d 74be 8ee5 73bf ede7 1c3c
00000380: e844 803f 8e61 2abd 7d13 9dbe 720d 25be
00000390: f293 0fbd c9b7 45bc 32a4 f9be 4469 a3bd
000003a0: bf96 54bd 5460 e2be ebd6 003e 2af8 31be
000003b0: a7a2 0d3e 2397 4cbf 35ff eabd bd31 053f
000003c0: 53fd c7ba 75a9 06bc 2c27 ecbe 69a4 23bd
000003d0: e449 e5be b636 4ebe 8e29 07c0 d69d 563d
000003e0: 7576 07bf 19d7 163f 3bd7 823d 521c 60bd
000003f0: ca53 00bd e8b2 6dbe ed2a 5cbf cf45 78bd
-0.009698681 -0.46464965 -0.36481592 -0.22960879 -0.03181962 -0.6194318 -0.07533713 -0.28913423
-0.44031665 -0.19738522 -0.06816847 0.17270492 -0.85699093 -0.094697356 0.3196955 0.13575512
-0.009145214 -0.3281298 -0.080462925 -0.39547625 0.06372506 -2.0363326 -0.24786474 -0.04800127
0.5872172 -0.14985886 -0.2110828 -0.08431036 -0.27369025 -0.97161 -0.054782372 -0.37100214
-0.11648623 0.14894867 -0.014738401 -0.3972091 -0.18689947 -0.016483318 -0.19661283 -0.17707932
-0.52568674 0.15117036 -0.69316715 -0.42551035 -0.028294051 0.32970566 0.08736319 -0.42399803
-0.33916718 -0.4366172 -1.6408765 -0.070508786 0.04156878 -0.2223844 0.37598673 -0.021154637
0.1297408 0.26251376 -1.3821161 -0.2953682 -0.31663048 -0.16886126 -0.070309736 -0.10619561
0.0002441717 -0.11008457 0.038649138 0.49153605 -0.3625804 -0.066575 -0.13935083 -0.45410588
-0.690904 -0.28225583 0.92603093 -0.045124467 -0.2992199 -0.23007965 0.027962223 -0.103470944
-0.5002919 0.078793384 0.023493601 -0.6338664 0.077908225 -0.069325395 0.0056613064 -0.80173916
-0.08688574 0.24314134 0.028549518 -0.18246916 -0.3767861 0.0676375 -0.300915 -0.22544456
-1.808277 0.0025214218 -0.20586954 0.6049179 -0.2644192 0.060070504 0.086984195 -0.28979126
-0.8812519 -0.020850642 -0.1542917 -0.103981085 0.08212851 -0.14199805 -0.4113658 -0.21678953
0.00092033856 -0.05972612 -0.3073909 -0.41098848 0.030737918 0.50610083 -0.41194388 0.04281569
0.30794588 -0.056576144 -0.14497624 -0.3619938 -0.04435442 -1.5326338 -0.03063915 -0.056318738
-0.34171534 0.41548854 -0.1268368 -0.05998009 0.2748919 -1.3584863 -0.26606193 -0.41056436
-0.026230844 -0.070170276 0.04586666 0.041070912 -0.25053543 0.011556269 0.5822048 -0.48833367
-0.1245472 -0.24591568 -0.25403064 -1.0685389 -0.13086607 0.9233192 0.005698759 -0.28889918
-0.2259865 -0.170336 0.08214082 -0.5706552 0.10451911 0.073551804 -0.46745354 -0.19688694
-0.14042597 -0.005051355 -0.7365461 -0.16183038 0.34537545 0.025070714 -0.025605043 -0.39763016
-0.14710458 -0.41589653 -0.30969867 -2.2077494 0.092330724 -0.065048434 0.62201786 -0.20111623
0.040904045 -0.15479967 -0.2353 -1.0957874 -0.076799005 0.12077118 0.013092488 -0.041621044
-0.123705864 -0.3272246 -0.178916 -0.041932166 0.17043646 -0.31278992 -0.45088843 0.1310427
0.06993341 -0.4337545 0.036773313 0.24447377 -0.12527409 -0.06664262 -0.51982 -0.20174018
-1.8944132 -0.2259577 0.06638326 -0.12834032 0.3400711 -0.16885476 -0.27054614 0.36399844
-1.2406596 -0.2231497 -0.4603182 -0.03301621 0.09503882 -0.025676988 0.3695146 0.15578647
-0.09487293 0.573407 -0.65402144 0.1390078 -0.24852768 -0.23870029 -0.9527215 0.00957678
1.0021029 -0.04159694 -0.3067893 -0.1611841 -0.0350532 -0.012067744 -0.48758084 -0.07979062
-0.051901575 -0.44214118 0.12581985 -0.17379823 0.13831578 -0.79918116 -0.11474458 0.5202902
-0.0015257992 -0.008219113 -0.46123636 -0.039951716 -0.44782937 -0.20138058 -2.1119113 0.052396618
-0.52915126 0.5892196 0.06388708 -0.05471451 -0.031329907 -0.23212779 -0.86003 -0.06061345
