experiments/blocksworld/blocksworld_full_train_set_2-75-1/best/model.npz (npz, 29687 bytes, 6 tensors)

model/hidden_layers/0/b f4 [75]
000000 7f 6b f5 bf d9 fc 2f c0 35 59 fe bf a6 f3 00 c0
       -1.917343 -2.7498076 -1.9870974 -2.0148711
000010 51 9c 85 c0 a0 4d 21 c0 90 e6 1b c0 2e ef 45 c0
       -4.1753316 -2.5203629 -2.4359474 -3.0927234
000020 07 07 d3 bf bb 5b 22 c0 66 8a 1c c0 e8 b5 cf c0
       -1.648652 -2.5368488 -2.4459472 -6.4909554
000030 15 f4 1c c0 aa 12 41 c0 8e 15 a4 c0 ce 79 20 c0
       -2.4523976 -3.0167642 -5.127631 -2.5074344
000040 50 43 f1 bf f5 89 86 c0 eb 0c 8d c0 e2 da a8 bf
       -1.8848667 -4.2043405 -4.407827 -1.3191798
000050 6a 22 8d c0 5f 66 8a c0 65 60 eb bf 44 bf 26 40
       -4.410451 -4.3249965 -1.8388792 2.605424
000060 11 58 dc bf 84 42 2a c0 32 54 26 c0 7c 78 1d c0
       -1.7214376 -2.6603098 -2.5988889 -2.4604788
000070 71 ec 83 c0 a8 cd 6f c0 ea 55 26 c0 fa c4 0b c0
       -4.1226125 -3.7469273 -2.5989938 -2.1838975
000080 67 d3 27 bf 09 9b eb 40 00 4f 0f 41 fb 28 e3 bf
       -0.6555695 7.362675 8.956787 -1.7746881
000090 b9 ed 11 c0 04 56 43 c0 18 28 28 c0 fa e4 21 c0
       -2.2801344 -3.052125 -2.6274471 -2.5296006
0000a0 e8 5c 40 c0 31 33 60 3f 87 86 52 c0 87 f7 30 c0
       -3.0056705 0.8757811 -3.289461 -2.7651079
0000b0 31 7e 26 c0 86 7f 31 c0 30 bc 52 c0 55 c9 76 c0
       -2.601452 -2.7734084 -3.292736 -3.8560383
0000c0 c0 27 9a bd a7 77 02 c0 ce e9 e4 bf dc b6 2b c0
       -0.07527113 -2.038553 -1.7883852 -2.6830359
0000d0 f3 c7 3a c0 78 60 3c c0 c1 86 7c c0 16 1c a1 bf
       -2.918454 -2.943388 -3.9457247 -1.2586696
0000e0 cc 44 26 c0 24 51 20 40 b6 5b 58 bf 25 5b ac c0
       -2.597949 2.5049524 -0.8451494 -5.386126
0000f0 f2 37 0b 41 c3 de 9b c0 e7 5c 24 c0 03 98 57 c0
       8.701159 -4.8709426 -2.5681703 -3.368653
000100 97 33 11 c0 c0 2d 21 c0 78 43 f9 bf 5f 5e 93 c0
       -2.2687738 -2.5184174 -1.9473715 -4.60527
000110 6d d0 f9 c0 d5 d9 fe bf c4 92 85 c0 2a 37 1d c0
       -7.8066926 -1.9910227 -4.1741657 -2.456492
000120 1e ea 92 c0 b5 35 05 3e 85 46 70 c0
       -4.5910788 0.13008769 -3.7543042

model/hidden_layers/0/W f4 [75, 20]
000000 4c 7e a8 3e a4 c8 10 be 88 a6 3c 3d 1d ca b3 bf
       0.32908857 -0.14139038 0.046057254 -1.4046055
000010 34 9c 42 3e 78 4a 00 bf e7 15 88 3e 32 cc a6 bd
       0.190049 -0.5011363 0.2657921 -0.08144416
000020 56 1e 85 bf df ae 58 bf 6e 45 3a 3f 2d b3 2a bf
       -1.0399883 -0.8464183 0.7276219 -0.6667965
000030 fb 04 fd 3c d5 81 59 bf b7 68 97 3c 65 69 36 3e
       0.030886164 -0.8496373 0.01848255 0.17813642
000040 76 94 7a be fb e1 c7 3c 99 e7 6d bf 03 91 26 3d
       -0.24470696 0.024399748 -0.92931515 0.040665638
000050 53 3d 6f be 15 c0 80 3e 42 9e 67 3e b5 9b e9 bf
       -0.23363237 0.25146547 0.22618964 -1.8250643
000060 f9 38 57 3e 55 de a0 bd 1e 77 4b bd 7a 64 1d bc
       0.21017827 -0.078549065 -0.049674146 -0.009606475
000070 50 6e 01 c0 b3 57 9f be 57 b6 80 3d 0a 58 99 be
       -2.022358 -0.31121597 0.062847786 -0.2994998
000080 e6 84 cb 3c 4f 43 b7 bf e3 36 ca 3c 21 ee b4 3e
       0.024843644 -1.4317416 0.024684375 0.35337928
000090 32 d6 eb be 55 3c 92 3d ea da 39 bf 72 a9 b5 bc
       -0.46061856 0.07140414 -0.7259966 -0.022175524
0000a0 e2 5e 47 bd 29 00 50 be 38 7b 78 bd 88 10 be bf
       -0.04867447 -0.20312561 -0.060664386 -1.4848795
0000b0 4b 92 dd 3c 2f 93 5c 3d 66 e7 7e bc 3d a4 1a bd
       0.027047297 0.053851303 -0.015558099 -0.037754286
0000c0 94 27 d0 bf c4 1f 1e bf fe c2 c2 3e c5 db 66 be
       -1.6262078 -0.6176722 0.38039392 -0.22544773
0000d0 c2 b4 3b 3e 59 e1 5c bf f3 78 e0 bc 68 56 08 3f
       0.18330672 -0.86281353 -0.027401423 0.53256845
0000e0 46 92 27 3d bf 6f 9b 3d 7e e2 96 bf d3 89 77 3d
       0.04091098 0.07589673 -1.178787 0.060434174
0000f0 fc 1b 4d be 43 ac 8c 3e 30 0f a2 3d b7 1f db bf
       -0.20030206 0.27475175 0.07913053 -1.7119054
000100 93 cf 11 3e 69 4b 9a 3d 27 36 51 3e ce 31 e0 bb
       0.1423934 0.075339146 0.20430814 -0.0068418747
000110 3f 73 8b bf 46 1c 94 bf e7 18 83 bd 37 ba a9 be
       -1.0894545 -1.1571128 -0.06401234 -0.33149883
000120 f3 fb 46 3e 1f 50 82 bf 78 6a f6 bb 19 53 96 3c
       0.19432048 -1.0180701 -0.0075200163 0.01835017
000130 76 07 93 be ce 73 99 bc b2 00 89 bf ec 0e b6 3c
       -0.2871663 -0.018731978 -1.0703337 0.022223912
000140 fe 10 83 bd a8 81 13 bd 76 0c 40 bd 85 09 31 c0
       -0.063997254 -0.03601232 -0.046886884 -2.766206
000150 7b cd 1a 3d 45 73 86 be 8d 6c 54 bd 25 4e d6 3e
       0.037793618 -0.2625982 -0.051861335 0.41856495
000160 c9 4e 4b c0 42 7b 52 3f be 06 fe be 36 f3 41 3e
       -3.1766837 0.82219326 -0.4961452 0.18940434
000170 8f a2 d0 3e da 72 02 c0 1b d2 76 3d 71 a6 0b bf
       0.40749022 -2.03826 0.060258966 -0.54550844
000180 64 a4 91 3d b0 15 d8 3e 92 ae 0c c0 c9 72 f7 3c
       0.07111433 0.42204046 -2.198155 0.030206101
000190 9a 12 01 be b8 93 8c 3e d6 e3 50 3d 39 fa 03 c0
       -0.12604752 0.2745645 0.05099853 -2.0621474
0001a0 3e 63 45 be ac 0d 06 3e ca f7 02 3e 50 c4 02 3c
       -0.19276139 0.13091153 0.12789837 0.007981375
0001b0 d2 65 02 c0 1b cb 15 bf 4b 25 8e be 49 5c 71 be
       -2.0374646 -0.5851304 -0.27762827 -0.2357036
0001c0 c4 18 b2 3e 98 7f 9f bf bd 33 38 3c 8b 74 16 be
       0.3478452 -1.2460814 0.011242804 -0.14692895
0001d0 31 31 a1 be 06 a0 fb 3d 2f 5f b0 bf 10 c0 59 3b
       -0.31482843 0.122863814 -1.3779048 0.003322605
0001e0 f4 e9 1c 3c 17 39 33 be 5c 46 b2 3e d9 bc ae bf
       0.009577263 -0.17502247 0.34819305 -1.3651382
0001f0 59 19 e2 be 1d df c6 3e 68 bb b6 3e 61 7e a9 3d
       -0.44159964 0.38842097 0.35689855 0.08276058
000200 04 87 ed bf 3d 4f 83 be bc ac d2 3e 80 28 05 bf
       -1.8556828 -0.25646392 0.4114741 -0.52014923
000210 37 dc 09 3e ac 11 4c bf 51 ad 7f bb ce fd 89 3e
       0.13462912 -0.79714465 -0.0039013217 0.2695145
000220 91 94 89 be 6a ec 24 3d ea a9 69 bf 8e 30 0a 3d
       -0.2687116 0.040264525 -0.91274893 0.03373771
000230 af 80 4e bd 29 bb c3 bc 77 21 0f 3e b7 2d d4 bf
       -0.05041569 -0.023892956 0.1397761 -1.6576451
000240 3d 07 15 3e d3 59 25 bb fd 35 1c bc 97 0c a1 3d
       0.14553542 -0.0025230541 -0.009534356 0.078637294
000250 13 00 ec bf 04 88 22 be 81 9c 50 3e c1 77 1b bf
       -1.8437523 -0.15872198 0.20372202 -0.60729605
000260 03 90 2b 3e 26 c1 f6 be 95 0b 5b 3d 2a c3 6e 3e
       0.16754155 -0.48194236 0.053477842 0.23316637
000270 8b 35 bf bd 16 1f 4c 3d 48 20 96 bf d3 7b d8 bc
       -0.093363844 0.049834333 -1.1728601 -0.026426231
000280 cc de 39 be 8d 8a 71 be 52 8e 1e 3e 5c bf c1 bf
       -0.18151397 -0.23588009 0.15483978 -1.5136523
000290 80 13 08 3d 92 38 62 3d d3 7c 00 bc b1 0b a6 3e
       0.03322172 0.05522973 -0.00784226 0.32430795
0002a0 41 c3 b0 bf d1 8d d9 bf da a2 32 3e 92 06 97 be
       -1.3809587 -1.6996404 0.17444935 -0.294972
0002b0 66 11 93 3e c5 0a b1 bf bc 35 87 bc 95 54 02 3e
       0.2872421 -1.3831412 -0.016505115 0.12727578
0002c0 31 9b 4b be 03 71 d6 3e 66 f0 b2 bf a3 df 57 3d
       -0.1988342 0.41883096 -1.3979614 0.05270351
0002d0 b4 ad 6a be d2 ce 78 3d 23 76 6a 3e d9 c7 d5 bf
       -0.22917825 0.060744114 0.22896628 -1.6701614
0002e0 22 82 ca bd e8 ad c1 3d 57 3d 88 3c 6e 32 6d be
       -0.09888102 0.09456998 0.016630812 -0.23163769
0002f0 98 48 c3 bf b0 25 70 bf 83 68 4b 3f 9f 2f 3a be
       -1.5256529 -0.93807507 0.7945635 -0.18182229
000300 b3 21 b3 bc ed 68 96 bf 8c 26 d8 3c 0a c7 a9 3d
       -0.021866655 -1.1750771 0.026385568 0.08289917
000310 a1 df 04 be fd 4b ec 3d 6c 10 83 bf e5 ad b7 bc
       -0.12975933 0.11537931 -1.0239387 -0.022421787
000320 18 20 94 bd 4d df 37 3e 1c bd 06 be 07 ee c0 bf
       -0.07232684 0.17956276 -0.13158077 -1.507264
000330 10 82 a2 be 89 43 cc be c7 4d d3 be 0d c4 95 3d
       -0.31739855 -0.39895275 -0.41270277 0.07312784
000340 9f 5f fa bf 0b d6 de bd 90 7f 93 3c 90 da db be
       -1.9560431 -0.10880669 0.018005162 -0.42940187
000350 12 0a 4c 3d 72 a8 84 bf 23 b5 28 3c 24 35 ff 3e
       0.04981429 -1.0363905 0.010297093 0.4984523
000360 09 62 27 3c 7b 69 c9 3d 72 a3 5b bf 23 ad 8d 3c
       0.0102162445 0.09834572 -0.8579627 0.017294472
000370 55 fc cd 3e 11 78 ea 3d e3 95 b8 3e 59 80 66 c0
       0.40231577 0.11448682 0.36051854 -3.6015837
000380 62 24 9b be 63 a8 e4 3f 8f 77 7c be 96 44 1b bf
       -0.30301195 1.7863888 -0.24654983 -0.6065153
000390 17 fb 58 c0 05 d5 95 bf 72 f6 09 3e aa 3b 1c bd
       -3.3903253 -1.1705633 0.13472918 -0.038142838
0003a0 83 59 5c bd 71 7a 8e bd 5b 7d ee bc 54 8a 46 bf
       -0.053796303 -0.069569476 -0.029112509 -0.7755482
0003b0 87 fe b1 be 78 40 f5 bd 3c 87 fc bf 7b db 17 3d
       -0.347645 -0.11975187 -1.972877 0.037074547
0003c0 24 d8 80 bd 9b 72 98 bd 51 ef 6f 3d 8f db fd bf
       -0.062912256 -0.07443734 0.05857784 -1.9832629
0003d0 a4 d5 82 be 2f b8 72 3e 1c 09 47 3d 3e b2 88 bd
       -0.2555362 0.23703073 0.04859267 -0.06674622
0003e0 97 12 8b bf ad a7 7f bf 3e 96 ea 3e 9b c4 ba be
       -1.0865048 -0.9986523 0.4581775 -0.36478123
0003f0 d9 4b 03 3e 80 58 5d bf 67 42 82 3d 70 52 25 3e
       0.12821902 -0.86463165 0.063603215 0.16144729

model/hidden_layers/1/b f4 [75]
000000 6f a4 e3 40 bb 81 92 40 6b e5 bf bb 19 b6 ce 3f
       7.1138225 4.5783362 -0.005856206 1.6149322
000010 c2 29 9c 3f d6 25 29 be 2c ac 26 41 36 cd fc 3e
       1.2200243 -0.1651834 10.417034 0.49375314
000020 41 c0 9d 3e 94 d6 98 be a6 3c 10 41 16 e7 00 be
       0.3081074 -0.2985121 9.014807 -0.12588152
000030 dd b5 16 3d 35 e8 92 bd 92 9b 75 3e e3 13 a9 be
       0.036794532 -0.07173196 0.23985127 -0.33022985
000040 de 36 0a 3f 3d 79 58 c0 ef 6d db 40 63 7b 93 40
       0.5398997 -3.3823998 6.8571696 4.608812
000050 84 0c a9 40 69 a0 5c 3e a1 5c 3d bf 76 1e c6 be
       5.282778 0.21545567 -0.73969465 -0.38695115
000060 bd b9 fc 40 92 2c 9d be 22 7c d4 bf 9e db 97 bd
       7.897673 -0.30698067 -1.6600382 -0.074149355
000070 6f 94 ef 40 7d 33 a7 bd 72 c2 fc be 7a 45 ff bd
       7.4868693 -0.081641175 -0.493671 -0.124644235
000080 48 97 70 3f f1 1b 0d bf 8d 30 e7 3c eb 32 cf 40
       0.93980837 -0.5512076 0.028221393 6.4749656
000090 e3 3a 99 3d 36 f6 12 be d4 8a 13 41 b8 e7 8d be
       0.07481935 -0.14351735 9.221394 -0.2771585
0000a0 25 a9 05 40 0f 52 3a bf 90 84 c0 3f 40 bf 1a c0
       2.0884488 -0.7278146 1.5040455 -2.417923
0000b0 fb d2 00 40 81 35 04 3e 78 da a1 40 f7 28 c1 40
       2.0128772 0.12911035 5.0579185 6.0362506
0000c0 81 90 d8 40 21 6d d6 40 41 ca a9 bf 0c b6 90 bf
       6.7676396 6.7008214 -1.3264848 -1.1305556
0000d0 99 f0 90 40 f5 aa 91 40 9b 1a 0c be b7 33 9f be
       4.52937 4.552119 -0.13682024 -0.31094143
0000e0 ff 4e 47 be fa 48 26 bc 7a 05 1a bd 8c 5b 20 be
       -0.19463728 -0.010149235 -0.03760288 -0.15659922
0000f0 70 62 16 bf ee be b1 40 b3 f6 60 40 a4 d0 6a bd
       -0.58743954 5.554557 3.5150573 -0.05732788
000100 e0 30 2b 3f 4d e4 28 3f 3b 37 4e be e1 c3 05 be
       0.6687145 0.6597336 -0.20138256 -0.13063003
000110 95 37 c3 3f db 75 58 be 80 22 03 bd bd d1 db 3c
       1.5251337 -0.21138708 -0.032015324 0.02683341
000120 4c e4 b5 bf 6a b4 64 40 c1 ff 80 3f
       -1.4210296 3.5735116 1.007805

model/hidden_layers/1/W f4 [75, 75]
000000 4e 11 b3 bd 5b ae ff 3b 05 3b c2 3b ed 40 d9 bb
       -0.08743535 0.007802767 0.005927446 -0.006630054
000010 9f fc 50 bd 54 57 b8 3d ad e6 21 bd c5 91 89 bd
       -0.05102217 0.090010315 -0.03952663 -0.067172565
000020 1e 0a 44 bd d9 ae ea 3b 1d 70 35 be 91 2f 3e 3d
       -0.04786121 0.0071619567 -0.17718549 0.04643208
000030 9c f1 b2 bd fa b6 ea bc 30 49 95 be 17 cb de bd
       -0.087374896 -0.028651703 -0.291574 -0.1087858
000040 e8 70 5b bd dd 1a 2a 3d f7 39 0d 3d e2 d4 af bd
       -0.053574473 0.041529525 0.034479108 -0.08585526
000050 83 e5 ed bd cb 51 61 3d 42 19 ac bd 35 14 08 3d
       -0.116160415 0.055009644 -0.08403255 0.033222396
000060 00 74 64 bd 3b f9 e5 3c 11 a7 37 be 63 64 85 3c
       -0.05577469 0.028072944 -0.17934825 0.01628322
000070 f4 14 88 bd 17 07 a4 bc f1 79 a1 bb 56 11 7a bc
       -0.066446215 -0.020022912 -0.0049278666 -0.015262922
000080 36 43 21 3c 88 b1 7f 3c 3c 46 4b 3e 85 c4 83 3d
       0.0098426845 0.015606292 0.19851011 0.064339675
000090 73 88 15 bd cf 61 ac 3b 86 8e 4e 3e 78 59 3e bb
       -0.03650708 0.005260683 0.20171556 -0.0029045027
0000a0 93 33 7b bd e1 9c 1c 3b 25 76 4e be da 5d 1b bd
       -0.061328482 0.0023897218 -0.20162256 -0.0379313
0000b0 f9 e5 8d 3d 63 61 d3 bd 3c 5f d4 bc 47 6f b3 bc
       0.069286294 -0.103213094 -0.025924318 -0.021903647
0000c0 a0 3a 0b 3d 30 a8 55 be 63 81 18 3d 52 c8 4f bc
       0.033991456 -0.2086494 0.037232768 -0.012682037
0000d0 4d 5c e8 bd bd 49 e8 3d 1b d5 02 bd f3 ce 81 3d
       -0.1134573 0.113421895 -0.031941514 0.063383006
0000e0 bc 4b 52 3c cc 5f 98 3b cf 8d 2d bd eb 7a d2 bd
       0.012835439 0.0046500918 -0.042371567 -0.10277351
0000f0 fd d1 82 3e 4d d1 a9 bc 55 32 ad bd 5d bd ff bc
       0.25550833 -0.020729685 -0.08456866 -0.031218225
000100 27 34 e0 3d 42 dc 3a 3e ec 4b 1c 3d 53 1a 38 bd
       0.10947447 0.18248084 0.038158342 -0.04494698
000110 55 96 92 be a6 6d 63 3d fb 2e 64 bd 3c 08 42 bb
       -0.2863032 0.05552449 -0.055708867 -0.002960696
000120 e7 7c 2e be fb ad 87 3d 68 ba 59 bd f3 a4 ba be
       -0.17039834 0.06624981 -0.053156286 -0.3645397
000130 df 9c 37 be 91 d3 87 be 36 aa 7e be 48 61 90 be
       -0.17930935 -0.265286 -0.24869618 -0.2819922
000140 61 e9 80 3d a1 04 91 bd 33 62 ea bd f6 46 8f be
       0.062945135 -0.07080961 -0.11444511 -0.27983826
000150 b7 53 6c bd b7 37 f6 bd fa 68 97 bd d5 63 1b bd
       -0.057697024 -0.120223455 -0.073930696 -0.037937004
000160 e2 68 83 be e8 0f 08 bf b7 17 12 bc 42 18 d1 be
       -0.25665957 -0.5314927 -0.008916787 -0.4083882
000170 e6 d7 6d be 10 fa 6e 3e 7a a8 9f be c1 ad c8 3d
       -0.2322689 0.23337579 -0.31183225 0.09798766
000180 17 ff 79 bd 9d d1 88 3c 92 e8 84 3c 9a 31 50 bd
       -0.06103429 0.016701514 0.01622418 -0.050828554
000190 9e f1 8e be d5 0b 93 bc f8 7f 1b bd ef c8 c9 be
       -0.27918714 -0.017949978 -0.037963837 -0.39411113
0001a0 95 6f ca bc 40 21 d1 3d cd 17 6f be 6c 5c 84 bc
       -0.02471141 0.1021142 -0.23348923 -0.016157351
0001b0 54 78 dd bd f2 40 3a be 57 74 71 be c2 6f cd 3d
       -0.108139664 -0.18188837 -0.23579536 0.10031082
0001c0 02 3a 22 be 9f bd 00 3d 7b 2d 63 bd c8 6c c7 bd
       -0.1584244 0.031430837 -0.055463295 -0.09737545
0001d0 18 d2 d9 be 7a e0 48 bc c0 7b c3 bd 77 e4 8e bc
       -0.425431 -0.012260551 -0.09545088 -0.017442925
0001e0 c0 b4 8a be 6f 45 8a bd d7 24 22 3a 1a c4 91 3d
       -0.27091026 -0.06751525 0.0006185299 0.071174815
0001f0 d2 e0 89 3c 8b f4 e2 3b 3a ed 28 be ff 85 00 be
       0.016830835 0.0069261244 -0.16496745 -0.12551115
000200 04 4f 31 be 6e 75 be 3d 15 cf 25 bd 8d a1 86 3d
       -0.17315298 0.09299742 -0.040480692 0.06573782
000210 35 26 2f bc 43 e0 dd bd 2b 6a 8b bd f8 b6 47 be
       -0.010690262 -0.1083379 -0.06807359 -0.19503391
000220 a0 e8 9d bd 08 eb 61 3c 52 63 71 be 4f 23 25 be
       -0.07710385 0.013788946 -0.23573044 -0.1612675
000230 a3 8f cd bd af ae 7b bd 4f f0 40 bd 93 1e 11 3e
       -0.10037162 -0.061445888 -0.047104176 0.1417182
000240 b5 2b 44 be 70 4f 08 be c4 24 70 be 59 29 da 3d
       -0.19157298 -0.13311553 -0.23451525 0.10652418
000250 9c 52 00 3c 47 92 33 be b5 d4 11 be 5a 85 36 be
       0.007832196 -0.17536269 -0.14241298 -0.17824307
000260 b2 84 50 be 1c c1 01 bc 14 a7 b0 bd 28 fd 94 3d
       -0.20363119 -0.007919576 -0.086256176 0.07274848
000270 74 7c 0c be 1f 27 cc bd 15 7d 35 bb cd 9d ea bd
       -0.1371935 -0.09968399 -0.0027692963 -0.11455879
000280 63 d9 21 be 86 63 96 bd 87 73 ce bd 15 1b 26 3d
       -0.15805583 -0.07343201 -0.10080629 0.04055317
000290 dd 38 e7 bd 25 98 76 be c2 7b cf bd 19 22 ee 3d
       -0.11290143 -0.24081476 -0.10131027 0.11627597
0002a0 56 64 e7 3d cb 6a ea 3b c3 3d 8a bc aa f8 c5 bd
       0.112984344 0.007153844 -0.016875153 -0.096665695
0002b0 14 d6 22 be 22 1d 8f be f7 d7 3e 3e 9f ea 4a bd
       -0.15901977 -0.27951914 0.18637072 -0.04954016
0002c0 f1 85 49 3d 97 4d c5 bd 12 9b d7 bd 10 f8 ce 3d
       0.049200002 -0.0963394 -0.10527624 0.10105908
0002d0 f6 45 31 be 4b 36 26 be 09 1e 65 3d ef d4 20 3d
       -0.17311844 -0.16231649 0.055936847 0.03926557
0002e0 90 4b ab be 7f dc 08 be 9f 20 9c be 7e 9a 64 bd
       -0.33456087 -0.13365363 -0.30493638 -0.055811398
0002f0 0e ae e1 3d f2 26 24 be cb 28 30 3e 83 36 40 be
       0.110195264 -0.16030481 0.17203061 -0.18770795
000300 81 4c 11 3e ac aa f7 bd 21 c9 39 be 30 39 82 bd
       0.1418934 -0.120931 -0.18143131 -0.06358564
000310 47 80 60 be d5 f0 6d 3e c2 12 42 be 03 a4 08 bd
       -0.21923934 0.23236401 -0.18952468 -0.03335954
000320 88 5d 23 be c8 9f 06 be 2a 0e db bc e0 b4 e7 bc
       -0.15953648 -0.13146889 -0.026740152 -0.02828449
000330 e6 ab 97 3c d1 6b 66 be 6d e8 11 3d 57 44 bd bd
       0.018514585 -0.22502066 0.03562205 -0.092415504
000340 b0 95 dd be fd ab 71 3d 97 58 b8 bd db 55 7e bd
       -0.43278265 0.05900191 -0.09001272 -0.062093597
000350 80 cc f1 bd 03 72 92 be 1c 62 cc bd cd 63 7f be
       -0.118065834 -0.2860261 -0.099796504 -0.24940415
000360 e3 aa f8 bd db ff 3b bd be 18 e0 bd cc 27 80 be
       -0.12141969 -0.0458983 -0.10942219 -0.25030363
000370 56 40 2c be 4d 1c b8 bd 42 52 8e bc ff 41 df be
       -0.16821417 -0.08989773 -0.017373208 -0.4360504
000380 9e e4 2e be 7d 93 92 3d 45 e4 e1 bd 93 4d 6c 3c
       -0.17079398 0.071570374 -0.11029867 0.014422792
000390 4c 49 a2 3d 20 93 69 be 91 d9 c1 bc e1 b3 a4 bd
       0.079241365 -0.2281003 -0.023663314 -0.08042122
0003a0 a4 69 b4 3d 64 00 e3 bd a0 c1 13 3e 82 89 ca 3c
       0.08809212 -0.11084059 0.14429331 0.024723772
0003b0 bd ea ba be ed 48 ad 3c e3 b6 61 be 80 58 d3 be
       -0.36507216 0.021152938 -0.22042422 -0.41278458
0003c0 31 40 a9 be 6f aa 21 be 5e 54 ce bd 20 ba 3c 3b
       -0.33056787 -0.15787672 -0.100746855 0.0028797463
0003d0 9c e1 7d be 00 30 49 be ff 2c 0d be bc 2e 05 be
       -0.24793094 -0.19647217 -0.13786696 -0.13006109
0003e0 7a 01 a6 bd 6f 0a 76 bd ad 7e c0 bb 56 fa ac be
       -0.081057504 -0.060068544 -0.005874476 -0.3378474
0003f0 9e 3a 2e 3e 7d ac 18 bf aa be 57 be 46 81 84 be
       0.17014548 -0.59638196 -0.21068826 -0.25879878

model/output/b f4 [4]
000000 f8 65 e0 c0 45 23 02 c1 d6 72 02 c1 70 56 00 c1
       -7.0124474 -8.133611 -8.153036 -8.021103

model/output/W f4 [4, 75]
000000 74 fc 18 bf 32 7c 83 bf f9 66 30 be 05 d2 8a 3d
       -0.5976021 -1.0272276 -0.17226781 0.06778339
000010 a1 6a a9 3b 6b a3 42 3d 87 c8 a0 bf 84 4a ce bd
       0.005170182 0.04751913 -1.2561196 -0.100728065
000020 d2 01 4f bd 60 46 b7 3b fa 14 3a bf 12 03 94 bc
       -0.050538845 0.005593106 -0.7268826 -0.01806787
000030 57 07 02 3e fc 1a ad bd f1 cc 93 3b f8 13 7d 3d
       0.12698112 -0.084524125 0.004510515 0.06178662
000040 39 19 5b be 2c 32 fd 3e 81 b5 e6 be f0 9a 2a bf
       -0.2139634 0.4945234 -0.45060351 -0.66642666
000050 e3 bf ef be b4 58 7a bd 9b cc 3b bc 26 aa 58 3e
       -0.46826085 -0.06111975 -0.011462356 0.21158656
000060 1a 3d bc be 60 e5 42 be c4 a8 b2 3e 1c ba d1 bd
       -0.36765367 -0.19032812 0.34894383 -0.10240576
000070 38 bc 09 bf 1a 97 59 bb 4f d8 3d 3d 17 37 3d be
       -0.53802824 -0.0033201636 0.046348866 -0.18478046
000080 9e c3 64 be f4 0a 68 3a 40 6f bc 3c e0 63 12 c0
       -0.22340247 0.000885173 0.023002267 -2.287346
000090 3e 44 45 3d 8e 80 b7 bc b4 6b 35 bf fb 0a 87 bd
       0.048160784 -0.022400167 -0.70867467 -0.06593891
0000a0 f5 18 d9 be 20 fd 94 3e e4 42 64 be 4b a0 b5 3e
       -0.42401853 0.2909937 -0.22291142 0.35473856
0000b0 94 20 8d be 72 55 27 be 56 4d 9b be 43 55 52 bf
       -0.27563918 -0.16341189 -0.3033244 -0.8216135
0000c0 70 50 8d be da c6 b8 be b1 4f 4d 3e 77 c8 f1 bd
       -0.2760043 -0.36089212 0.20049931 -0.11805814
0000d0 0e 86 61 bf 72 a3 dd be 26 e5 85 3d 45 5f 3f 3d
       -0.88095176 -0.4328876 0.06537847 0.046721715
0000e0 a7 f4 cb be 89 cb 76 3d 07 68 a9 bc b7 a8 c7 bb
       -0.39835092 0.0602527 -0.020679487 -0.0060931104
0000f0 f0 14 47 3e c4 ce b5 be d0 f0 55 bf 04 1f 52 bc
       0.19441581 -0.35509312 -0.83570576 -0.0128247775
000100 84 c0 09 3e 2f 3b b0 be ad cd d5 3e ba 58 a0 be
       0.13452345 -0.34420153 0.4175848 -0.31317693
000110 09 e9 20 bc 3e 8d 3f bd 95 06 e5 3d d3 67 d2 bd
       -0.009821185 -0.04676556 0.11182896 -0.10273709
000120 5e ff b5 3e 14 f2 d5 bd 4c 1c 64 bc d8 16 06 bf
       0.35546392 -0.10446563 -0.013922762 -0.52378607
000130 d8 fe 8e bf d7 be e0 bd 5b 9d 8d bd d0 d1 89 3e
       -1.1171522 -0.109739 -0.06914779 0.26917887
000140 0f 63 f2 3c 9c 95 9a bf b0 48 db be f9 bf 2d 3d
       0.02958825 -1.2076907 -0.42828894 0.042419408
000150 44 0f 24 be 65 42 37 bf 57 83 b1 be 9e 36 f2 bd
       -0.16021448 -0.71585685 -0.34670517 -0.11826824
000160 c6 6c 92 bd 83 98 f5 bd c5 ac 25 be a6 2f 79 be
       -0.07149653 -0.1199198 -0.16179188 -0.24334583
000170 e1 e7 14 3f 50 e8 1d bf 5f 65 5d bf 39 ce 14 bf
       0.5816632 -0.61682606 -0.86482805 -0.5812717
000180 eb ff b7 3d 93 f6 ac 3d a3 0c 2f 3e 60 ac 80 be
       0.08984359 0.08445468 0.17094664 -0.25131512
000190 45 1e ef 3e 66 39 73 3e 4b 65 4c bd ee 57 cb be
       0.4670278 0.23752365 -0.049901288 -0.39715523
0001a0 c4 5c e1 3d 9e d7 06 bd cc 3d 5b bd e5 3a 75 be
       0.11004022 -0.032920472 -0.05352573 -0.23948248
0001b0 d5 67 3e be 4f 6a 43 3d e7 12 0e c0 53 66 31 3c
       -0.18594296 0.047708806 -2.2199037 0.010827619
0001c0 c2 2c b2 3d 46 d3 3a bf 20 e7 02 3d 7a 9b b8 be
       0.08699943 -0.7297863 0.0319587 -0.3605612
0001d0 e4 6b 1d 3e 93 8b a1 be ab fe bf 3e dc fa 1c be
       0.15373188 -0.315518 0.37498984 -0.1533007
0001e0 49 36 46 bd 45 e5 9c be ed d9 55 bf 2e 21 a5 be
       -0.048391614 -0.3064367 -0.83535653 -0.32251877
0001f0 40 c5 69 be 42 bc b8 3e 89 5c ba bd 83 9f 0c bf
       -0.22829151 0.3608113 -0.09099681 -0.54930896
000200 d8 f5 fc be e6 7e f5 bd 9c 84 c8 bc d7 a2 10 3e
       -0.49406314 -0.119870946 -0.024477296 0.14124618
000210 7e 8b 86 3d 0d 36 05 3d 1d f8 32 be 73 39 9a 3e
       0.06569575 0.03252225 -0.1747746 0.30121955
000220 0f ba f2 be 44 2e 55 bf eb 3c 74 be 7d 9d 89 be
       -0.47407576 -0.8327372 -0.23851363 -0.26877967
000230 f6 69 20 be 29 b1 48 3f b3 a8 3e bd b3 cb 4a be
       -0.15665421 0.78395325 -0.046547603 -0.19804268
000240 1e 49 89 3a 99 67 3b bd 2b 13 c8 bd fa f8 c9 3e
       0.0010474061 -0.045753095 -0.09769281 0.39447767
000250 77 f5 15 be 52 a1 57 be 9f a9 d3 be 06 aa 98 bf
       -0.14644419 -0.21057633 -0.41340348 -1.1926887
000260 7f e0 96 bc b6 df 46 be 16 ad 2b 3e 28 4d a8 bc
       -0.018417595 -0.19421276 0.16765246 -0.020544603
000270 fc 76 9b bf db 0f 34 be c1 a5 9f bc 95 67 16 3d
       -1.2145686 -0.17584173 -0.019488217 0.036719877
000280 67 93 27 bf 52 1a 03 bd 34 07 87 3d 3e f3 cf 3b
       -0.65459293 -0.032007523 0.06593171 0.0063461354
000290 3e 90 e6 3d a2 5f d0 bc a0 11 26 be 0b ac 10 3f
       0.11257981 -0.025436226 -0.16217661 0.56512517
0002a0 13 88 c8 be 0b 75 61 bf a5 cb be be af 13 98 bc
       -0.39166316 -0.8806922 -0.37264743 -0.018564073
0002b0 2f 30 03 3e df 05 4f 3e a2 a8 ac be f5 30 10 3d
       0.1281135 0.20217083 -0.33722407 0.03520294
0002c0 ee 9a 12 3f 4c 2b 3f 3d 54 20 b0 be 7a 8c f0 3c
       0.57267654 0.04667215 -0.34399664 0.02936386
0002d0 e2 df 8c bc 7c 09 3f 3e bd eb d0 bd 36 08 0f bc
       -0.0171966 0.18655962 -0.102012135 -0.008729985
0002e0 3f 57 63 bd f6 3f 1b c0 51 f6 ab 3c 4d 02 17 bd
       -0.055503126 -2.4257789 0.020991476 -0.03686743
0002f0 f4 6f 1d bf 67 37 83 3c 42 52 7d bd 01 b0 0b 3e
       -0.6149895 0.016017629 -0.061846025 0.13641359
000300 dc 04 04 bf 9a 4f cc 3e 33 26 2f be 46 e2 13 3d
       -0.51569915 0.3990448 -0.17104416 0.036104463
000310 16 2b fb be 43 9c 2a bf b2 40 42 bf ee a7 c0 be
       -0.4905631 -0.66644686 -0.7587997 -0.3762812
000320 ae 63 12 3f a7 55 29 3e ba 61 18 bf a8 26 85 be
       0.5718335 0.1653658 -0.5952412 -0.26006055
000330 04 44 9d 3d e2 78 80 3d 66 4d 6d 3e fe f7 bd 3d
       0.076789886 0.062730566 0.23174056 0.092758164
000340 e2 81 24 3d 0f 49 9c 3e 1a 49 ec 3d 0a 4d d2 be
       0.04016293 0.3052449 0.115373805 -0.410744
000350 a8 6b 4e bf 27 8b 2a 3b 2a 01 83 be cd 7c 4c be
       -0.8063302 0.0026022883 -0.25586826 -0.19969483
000360 ad 86 d2 3e fd 82 8f 3b 49 45 7a be 40 5d 82 be
       0.41118374 0.0043796287 -0.24440493 -0.2546177
000370 57 0b a6 bd 4e 57 75 bd d3 25 dc 3e bf f7 a8 be
       -0.08107632 -0.059897713 0.42997608 -0.33001515
000380 68 34 4c 3e a3 2e d0 be 69 58 8a bf d4 80 8d 3d
       0.19941866 -0.4066058 -1.0808231 0.06909338
000390 d9 1b 95 be bd 3b 50 3b c0 78 d7 3c 6f 98 89 bf
       -0.2912281 0.0031773888 0.026302695 -1.0749644
0003a0 8f 14 ec bd 60 7b b5 bd 72 e3 9a bd 14 15 44 bf
       -0.11527359 -0.088614225 -0.07562913 -0.7659466
0003b0 59 a5 b2 3c 95 fd af bd 5b 8d 91 bd d0 0b 2a be
       0.02180736 -0.08593289 -0.071070395 -0.16606069
0003c0 96 69 c1 3c 92 30 15 3d fe 67 10 3f 11 6b fe be
       0.023609918 0.036423273 0.5640868 -0.4969106
0003d0 5d 4d 44 bf 00 94 a0 be f1 be 5d bc 45 5f 14 be
       -0.76680547 -0.31362915 -0.0135342935 -0.14489467
0003e0 a5 ca 31 3e 0e 5a c5 be f4 2d f1 3e 98 02 d1 3e
       0.17362459 -0.3854527 0.47105372 0.4082229
0003f0 b3 0f ca bc c2 52 7c be be 35 27 be a4 5e e9 bd
       -0.02466569 -0.24640945 -0.16329095 -0.113950044
