experiments/barman/barman_full_train_set_2-75-1/best/model.npz (npz, 29763 bytes, 6 tensors)

model/output/b f4 [4]
00000000: 8daf 49c0 042b 42c0 b8d4 44c0 3544 39c0
-3.1513398 -3.0338755 -3.0754833 -2.894788

model/output/W f4 [4, 75]
00000000: e5b7 94bf 35d1 53bf c802 3a3e d16d a0bf
00000010: a720 abbf d536 513c 0561 48be 2b70 84bf
00000020: 3e4d 2cbf a68b 9f3e 60e5 4cbf c04f 84bd
00000030: 1cf5 fabc 15c9 7f3e 7bbe 85bf 20cd 1a3e
00000040: 8215 5dbf 7379 bb3f 852c 7abf 8081 ad3c
00000050: 343f 5ebf 3059 90bf 24e7 d43e 6d5f 3fbd
00000060: 0a92 64bf 55da 0f3e 716e 96bd 2627 3d3d
00000070: 051c 89bf e583 8e3d ed0a e13d e5f7 623e
00000080: c299 003e 20af 3f3c 165a 55bd 2ca8 8bbf
00000090: 4451 e6bd 672b 01be 95e0 78bf f4b8 593e
000000a0: 9528 52bf 9059 b33c 4898 77bf ea4e 6fbf
000000b0: a8a1 47bf 7523 a4be d5de 46bf bbb5 57bf
000000c0: bbbe 12be 6848 85bf 7cdb 383e 056b 183f
000000d0: 2ae5 8bbf d3d3 5abf c1bf e33d daa0 ae3d
000000e0: 89d0 b1bd 63c0 423e 53ff f2bc fbb7 963d
000000f0: 91ea 1f3f 3504 77bf efcc 8fbe a494 b73e
00000100: 1a2f 50bd 72fd 4fbf 09d0 283e fd79 abbd
00000110: 6549 46bf 4367 683e 6149 c73d 8bcb 453e
00000120: cb55 423f a3f7 37bd 3c66 68bf 22fc 9abf
00000130: 1c3a 54bf 015f 333e 26d0 95bf 3b98 a5bf
00000140: 577e 3f3e e7d9 5bbd 196e 89bf 6e50 2abf
00000150: a1df b53d 3da3 4abf 26a4 0bbd 8881 b53e
00000160: 33a1 8d3e b904 7abf 0e61 e5bd a4d5 53bf
00000170: 7dbe b53f 6702 6abf f0bd 9dbd fd32 6ebf
00000180: fdbd 91bf 07cc b73e 644c 1a3e 0415 66bf
00000190: b0a8 273e 6207 7cbb 7e60 df3c 0d63 88bf
000001a0: 3ad5 8b3d b3a6 403e fdf3 853e 0022 adbd
000001b0: a966 2d3e 9682 2d3e b71a 86bf 8794 ccbd
000001c0: 0539 383d 4be3 75bf a3d0 ac3c ca62 4fbf
000001d0: 41a6 a3bd cf1a 86bf 21d2 6dbf 01c6 48bf
000001e0: d221 02be 1fc7 53bf 2f25 52bf 9026 563e
000001f0: 74d3 8cbf 53ff 183e d743 163f 1f78 8abf
00000200: f13b 62bf 0ca2 323e 9f7a ef3c bbaa a1bd
00000210: dbc5 7dbd e977 11be a416 b8bd 9af8 2d3f
00000220: 2fa1 6dbf 98c8 eebd d81a 8c3e e568 0a3e
00000230: 132f 4bbf bead 813e 98c4 d73d 14a5 5bbf
00000240: 5543 c93e b93e 8cbd dc20 f43d d914 413f
00000250: fe9e 3b3d 1413 7ebf 7e14 9dbf 27dd 4bbf
00000260: d955 663e 5038 aabf f42d b3bf 8c27 13bd
00000270: b320 33bd fbcd 73bf 510b 25bf b9f8 333e
00000280: 7a27 4cbf 8003 783e 3873 143e 4324 8a3e
00000290: 2ebd 81bf a951 633d 8eda 5cbf 9d2e b03f
000002a0: 6833 69bf 92e0 eb3b b29f 54bf 33e9 87bf
000002b0: f5c8 883e 416d 3c3e 516e 56bf 379b 473e
000002c0: 0678 793c 05c0 7f3d 0818 83bf ed4c 43bd
000002d0: 1228 5d3e 4081 7c3e 4162 c6bb 2f29 07bd
000002e0: 07b1 d9bd 30f6 8fbf 2bee 913e 5da2 97bb
000002f0: 27b2 6dbf 2c00 383b e0c9 66bf ee31 8e3d
00000300: f9ee 7ebf e6f6 62bf 9d72 4ebf 8646 ab3d
00000310: 0d31 6dbf 745f 50bf d8bf 6abd ed5c 8dbf
00000320: b226 9abb 7e14 103f 647a 87bf 2c40 68bf
00000330: f7d4 0d3e 7a25 e6bc 7d9c e23d 0bbb 62bd
00000340: 0b03 23be aa1d 463e 3c81 463f 4607 64bf
00000350: 6e01 abbd bc16 843e f444 133e 99be 51bf
00000360: 87d4 803e 2056 043e f775 5abf 46f5 493d
00000370: de83 77bd afb4 03be d74c 463f 0e42 c7bd
00000380: 1b72 7ebf ffa9 acbf da10 59bf d007 95bb
00000390: 6910 a3bf 23d4 a5bf 332d 18bd f4dd 83bd
000003a0: b041 77bf f6ea 31bf 9c93 6a3d 4933 55bf
000003b0: 3c33 813e bb41 9c3d e3fc b33e c7f0 82bf
000003c0: b7c4 6abe 30e4 5fbf ae85 b43f b7fe 61bf
000003d0: 89af 48bd 0b3d 76bf 4cde 81bf 35e0 b93e
000003e0: f419 f03d 0e7e 5fbf 313c 1d3e 96ab c5bd
000003f0: f393 793d 3c04 81bf 9859 07bd cc59 213e
-1.161862 -0.827411 0.18165123 -1.2533513 -1.336934 0.012769421 -0.1956826 -1.0346731
-0.6730536 0.3116123 -0.800375 -0.064605236 -0.030634455 0.2497905 -1.0448755 0.15117311
-0.86360943 1.4646438 -0.9772418 0.021179914 -0.8681519 -1.1277218 0.41582596 -0.046721864
-0.8928534 0.14048131 -0.07345284 0.046179913 -1.0711676 0.06958751 0.10988412 0.22164877
0.12558654 0.011699468 -0.052087866 -1.0910697 -0.11245969 -0.12614213 -0.97217685 0.2126196
-0.82093173 0.021893293 -0.9671674 -0.9347979 -0.7798104 -0.32058302 -0.77683765 -0.84261674
-0.1433057 -1.0412722 0.18052477 0.595383 -1.092931 -0.8547947 0.111205585 0.08526774
-0.08682353 0.19018702 -0.029662764 0.0735931 0.62467295 -0.96490794 -0.2808604 0.3585559
-0.05082617 -0.812461 0.16485609 -0.08372877 -0.7745574 0.22695641 0.09730793 0.19315927
0.7591216 -0.0449139 -0.90781 -1.2108195 -0.8290117 0.1751671 -1.1704147 -1.2937082
0.18700539 -0.053674605 -1.0736724 -0.66528976 0.088805445 -0.7915533 -0.03409209 0.35450387
0.27662048 -0.97663456 -0.11200152 -0.82747865 1.4198757 -0.91409916 -0.07702243 -0.9304655
-1.1386105 0.35897848 0.15068203 -0.8987582 0.16372943 -0.003845655 0.02726769 -1.0655228
0.06827779 0.1881359 0.2616271 -0.084537506 0.16933693 0.16944346 -1.0476903 -0.09989267
0.044976253 -0.96049947 0.02109558 -0.81010115 -0.07990695 -1.0476931 -0.92898756 -0.7842713
-0.12708214 -0.8272571 -0.8208799 0.20913148 -1.100203 0.14941148 0.58697265 -1.0817908
-0.88372713 0.17444628 0.029233275 -0.078938924 -0.061956268 -0.14205898 -0.08988693 0.6795746
-0.9282407 -0.11659354 0.2736423 0.13516577 -0.79368705 0.25327867 0.10535544 -0.85798764
0.39309183 -0.06847901 0.1192033 0.75422436 0.045805924 -0.9924786 -1.2271879 -0.79634327
0.22493686 -1.3298435 -1.3998399 -0.035926387 -0.043732356 -0.95236176 -0.6447039 0.17575349
-0.79747736 0.24220085 0.14497077 0.2698079 -1.0135858 0.0554978 -0.8627099 1.3764225
-0.91094065 0.0071984017 -0.83056176 -1.0618042 0.26715818 0.18401052 -0.8376208 0.19492804
0.01522637 0.062438983 -1.0241709 -0.047680784 0.21597317 0.2465868 -0.0060541932 -0.03299826
-0.106294684 -1.1247005 0.2850202 -0.0046275095 -0.92849964 0.0028076274 -0.90151787 0.06943117
-0.99583393 -0.8865799 -0.80643636 0.08363061 -0.9265297 -0.8139565 -0.057311863 -1.1043984
-0.00470432 0.5628127 -1.0584226 -0.9072292 0.13850771 -0.028094042 0.11065004 -0.05535416
-0.1591913 0.19347253 0.77540946 -0.890736 -0.08349882 0.25798595 0.14381772 -0.81931454
0.25162145 0.12923479 -0.8533625 0.049306177 -0.060428493 -0.12861894 0.77461 -0.09729396
-0.9939286 -1.3489379 -0.8479134 -0.0045480505 -1.2739383 -1.2955364 -0.03715248 -0.064388186
-0.96584606 -0.69499147 0.057269678 -0.8328138 0.252344 0.076297246 0.35153875 -1.022973
-0.22926603 -0.8745756 1.4103296 -0.8827929 -0.04899553 -0.96186894 -1.0145965 0.3630387
0.117237 -0.8730172 0.15354992 -0.09651868 0.06093211 -1.0079417 -0.033044428 0.15756911

model/hidden_layers/0/b f4 [75]
00000000: 4edd d4be bef5 043f 8c54 d3be 299e 03c0
00000010: c78f 8abf 2d26 bbbe 70e3 12bf 93fc 1dbf
00000020: 66a3 74bf 1b42 d9be 1750 e8be 65bf f0be
00000030: 681c 70bf 83f5 05bf e777 a1bf 61ed 16bf
00000040: a1ee 29bf 0845 9ebf f032 3fbf d9df 15bf
00000050: 57d6 94bf 2ace 3bbf 2fb1 34bf 0c19 b2be
00000060: e970 0ec0 c533 2fbf 01f9 6c40 5114 0fbf
00000070: 8856 2cbf d0f5 16bf 02e9 8abf 41ec f23f
00000080: 2b0f 50bf 6ab3 18bf 7c1a 9d3c 72dc 1840
00000090: 6522 18bf 6be4 d7be 2c8f 86bf 6f6f 3abf
000000a0: ac3a 39bf fa32 f53c 02b9 d2be e2cd bebf
000000b0: 20c0 a7be fd66 6ebf 2b79 6dbf b331 28bf
000000c0: 0071 3cbf 5705 2ebf ae7b d9be 30a5 2bbf
000000d0: ef95 b1be a44a 7ebf 6da9 f1be d28e e8be
000000e0: 5fdc fcbe 1019 bf3d 630e 06bf 82ac c6bf
000000f0: f99d 6840 0430 c4bf ed90 19bf 8f2a 0dbf
00000100: 7787 7fbf 6e71 07bf e703 c9bf 5012 e3bf
00000110: 1e3b 2bc0 1354 28bf 8016 9fbf 164d fdbe
00000120: 6165 cfbe 4fe4 5740 9db1 3abf
-0.41575092 0.5193747 -0.41275442 -2.0565283 -1.0825127 -0.36552563 -0.5737829 -0.6171352
-0.95561826 -0.42433247 -0.45373604 -0.47021022 -0.93793344 -0.52327746 -1.2614716 -0.5895596
-0.66379744 -1.2364817 -0.746871 -0.5854469 -1.1627911 -0.73361456 -0.7058286 -0.34784734
-2.2256415 -0.6843837 3.702698 -0.55890375 -0.67319536 -0.5896883 -1.0852358 1.8978349
-0.81273144 -0.59648764 0.019177668 2.388455 -0.5942748 -0.42166457 -1.0512443 -0.72826284
-0.7235515 0.029931534 -0.41156775 -1.490658 -0.32763767 -0.931259 -0.9276301 -0.65700835
-0.73609924 -0.679769 -0.42477173 -0.6704893 -0.34684703 -0.9933264 -0.47199574 -0.45421463
-0.4938688 0.09330952 -0.523657 -1.5521395 3.634642 -1.5327153 -0.59986764 -0.55143064
-0.9981608 -0.52907455 -1.5704316 -1.7739964 -2.6754832 -0.6575329 -1.2428741 -0.49472874
-0.40507033 3.3733099 -0.72927266

model/hidden_layers/0/W f4 [75, 20]
00000000: b7dc 7e3e 2fe1 27be 2f2b 02bd c48c debe
00000010: 799d ae3e 2590 eebe 5128 883e dc9e 89bd
00000020: 94ca 93be 64a6 7fbd 01ea bf3e 3bbe f5be
00000030: 0b49 2f3b d388 91be f1fc 973b 1a0a 39be
00000040: f7ff 6cbd 599d 74bc 6249 7cbe 0cdb 90bb
00000050: 4a37 8dbe bdc0 e83e 292e ed3d 16c8 4fbe
00000060: 3176 503e 99cf 91be 2c00 a93a 6292 d4bb
00000070: e47d f8be 271a 38be cde8 cdbd 41f0 2fbc
00000080: 3fe7 09bd 3630 7cbd 8c39 6a3c 0432 173e
00000090: 4ffc 2fbe f53d e0bc 7933 023e d14b acbb
000000a0: de5c 73bd e10c 42be d2cf 82bd 2bf2 c2bd
000000b0: 4540 42bd 23c8 93bd 3da6 cd3c 220a 6cbd
000000c0: 6cd6 9cbe 2b0a 54bd 8624 363e 7bf8 54be
000000d0: b312 bd3b cbe5 4bbe 6fd1 4b3b 6e8d 673e
000000e0: 1c29 6f3d 2147 34bc 30e5 30be fec9 84ba
000000f0: a39f 40be ca74 873e 0970 903d cf34 9dbf
00000100: fe64 3b3e 0cce 6b3e c0ff e53e 359f 32bd
00000110: b27d e5be defe 4abe e91a 77bf 1a22 d2bd
00000120: e921 063d 1616 56bf 5a59 a1bc 5783 82bf
00000130: c3ab 6ebd 00c9 e33c b6c0 85bf feb1 02bd
00000140: ecb4 02bd 3cbf 11bd 24d6 003d 2baa 4abf
00000150: 4638 5b3d 98bf 253e 8a4a 1ebc e3ee 273d
00000160: 7f3e 03bf 7f53 0e3e db62 1c3e 403d 363d
00000170: 0af4 a53a 3797 29bf 7e50 b4ba 5c6e 9dbd
00000180: e324 97bd 86ee c5bd e349 3abf b5aa a5bb
00000190: eff0 10be 2786 863e e417 7e3c e6b1 8fbe
000001a0: 788c 53be 98a2 473c ab56 7d3d f692 81bd
000001b0: 7dcf 95be f79f 3fbd c6b0 72bd a82b 93bd
000001c0: 7f60 72bb 968a 97be 26f6 a4ba c549 8cbd
000001d0: d99b 1abe 8414 6f3b 4efc 09be 1a3b 2cbb
000001e0: 59e4 10bc 1657 4bbe 64f1 8a3e 4e1a adbd
000001f0: c4fc debe 0244 903e e1c7 8b3e 8990 55bd
00000200: c64b 0dbf c338 78bc 4098 a7bd 83ae 57be
00000210: 70e1 d13a 6720 b7be 3492 513a 2a97 30be
00000220: 3631 273d 937b 393b a2ee 91be 9ade ccbb
00000230: 7113 4dbd 74c5 6dbd e4cf 283e fae8 dfbe
00000240: 641b e23d e886 553d 194f 0dbe 8cb7 b2bd
00000250: 82b0 0dbf bb83 763a 3662 0e3d 5c37 1dbf
00000260: 5a88 4d3c 0226 31be fcc8 153b f092 69bc
00000270: 2231 cdbd ec4f 1aba 11c9 86be 7df4 8ebb
00000280: 93b3 d7bd b905 62be 9bd4 a03b c6aa 54bf
00000290: a6b6 e43d 0718 d23c 8690 793e d4d4 1cbe
000002a0: 1f73 9bbd 5dbf 08be bedb a0be b53e d3bc
000002b0: 6413 90bc 063e 34bf 03a0 f9ba 407e 6bbe
000002c0: 3a18 903d 1964 a3ba 27dd 18bf f4d7 f6bb
000002d0: 85cf 8fbe cec0 893d 6344 cf3d 98fd 23be
000002e0: b766 17bd 5480 d4bd 76f1 283e 735f ef3b
000002f0: eeeb a0be 0b43 7b3c 3f4c 5d3e 4660 90bd
00000300: e1b8 b23b 0b2d 1cbe ff99 4e3b 3d14 c6be
00000310: 6606 97bc 6bbe 493b 3f27 81be e709 75bb
00000320: d335 39be 55fb 153e b649 e3bd 6756 a6bd
00000330: 3b1b a0be c9c4 56be 390b 63bf 50b1 cdbc
00000340: 4246 dcbe 607e abbd 8109 0a3d 707a b0be
00000350: 6462 213c cb9b 0abe b31b 3739 98f3 aa3e
00000360: 516e c23d aef4 8d3c 55de a6bc d63e db3a
00000370: 2c0d b13e 95f9 d03d 1561 933e 079e 62be
00000380: d7e5 89be 4ef6 083f 851a 46be 2987 b1bc
00000390: 2303 d8be 0507 39bb 0575 0f3e ef3f a6bb
000003a0: f0ec 2c3c 5fe7 a23d 2889 093c 6e48 4fbe
000003b0: 5410 a1be b2a8 61bc eec1 d7be 2b55 16bb
000003c0: e9e4 29be a7e4 9bbd dffc eb3d b58d 3ebf
000003d0: f6a7 0bbe b9e4 b23d 87dd 143e 1c43 a4bd
000003e0: 4874 f23c d2bf 11be 01c0 e0bd 877a 94be
000003f0: 6254 f8bb 3351 dfb9 2302 9bba fc04 7fbe
0.24888884 -0.16394494 -0.031779464 -0.4346677 0.34104517 -0.4659435 0.2659326 -0.06719753
-0.28865492 -0.06241454 0.37483218 -0.47996697 0.0026746418 -0.284247 0.0046383073 -0.1807026
-0.057861295 -0.014930093 -0.24637368 -0.0044206437 -0.27581245 0.45459548 0.1158107 -0.2029117
0.20357586 -0.28478697 0.0012893728 -0.0064871768 -0.48533547 -0.17978726 -0.10054169 -0.010738433
-0.0336678 -0.061569415 0.014295947 0.14765173 -0.17186092 -0.027373293 0.12714948 -0.0052580615
-0.059414737 -0.18950225 -0.06387295 -0.09518846 -0.047424573 -0.072159074 0.025103683 -0.05762685
-0.3063234 -0.05176751 0.1778737 -0.20797913 0.0057700514 -0.19911878 0.0031100174 0.22612545
0.058388814 -0.011003287 -0.17274928 -0.0010130999 -0.18810897 0.2645629 0.07052619 -1.2281741
0.18300244 0.2302782 0.44921684 -0.043608863 -0.4482246 -0.19823787 -0.96525437 -0.102604106
0.032747183 -0.8362745 -0.019695926 -1.0196332 -0.058269273 0.027805805 -1.0449436 -0.031908028
-0.03191082 -0.035582766 0.03145422 -0.79165906 0.053520463 0.16186368 -0.009661326 0.040999305
-0.51267236 0.13899039 0.15272085 0.044492006 0.001266123 -0.6624636 -0.0013756899 -0.07687065
-0.073800825 -0.09664635 -0.7276899 -0.0050557503 -0.14154409 0.26274225 0.015508626 -0.28065413
-0.20659053 0.012184761 0.06185023 -0.06326859 -0.29259863 -0.046783414 -0.059250616 -0.07186061
-0.0036983786 -0.2959792 -0.0012585565 -0.06850008 -0.15098514 0.0036480734 -0.13475153 -0.0026280344
-0.008843505 -0.1985744 0.2713729 -0.08452283 -0.4355222 0.28176886 0.27300933 -0.052139793
-0.55193746 -0.015150252 -0.08183336 -0.21062665 0.001601262 -0.3576691 0.0007994503 -0.17245165
0.040818416 0.0028302416 -0.28502375 -0.006252122 -0.05006737 -0.058049634 0.16485554 -0.43732435
0.110403806 0.05213061 -0.13799705 -0.08726415 -0.55347455 0.00094037846 0.03476163 -0.61412597
0.012544716 -0.17299655 0.0022855392 -0.014256224 -0.10019137 -0.0005886543 -0.26325276 -0.0043626414
-0.10532298 -0.22072496 0.004908157 -0.8307308 0.1116765 0.025646223 0.24371538 -0.15315562
-0.07590317 -0.1335425 -0.3141765 -0.025786737 -0.017587371 -0.7040714 -0.001904488 -0.2299738
0.07035871 -0.0012465745 -0.5971245 -0.007533068 -0.28088012 0.06726228 0.101204656 -0.16014707
-0.03696319 -0.10376039 0.1649836 0.0073050796 -0.3143 0.0153358085 0.21611117 -0.07049613
0.005454168 -0.15251558 0.0031524894 -0.38687316 -0.018435668 0.0030783664 -0.25225255 -0.0037389935
-0.18086939 0.14646657 -0.110980436 -0.08121949 -0.31270775 -0.20973505 -0.88689 -0.025108963
-0.43022352 -0.083737135 0.03370047 -0.34468412 0.009850118 -0.13535993 0.00017462559 0.33388972
0.094936974 0.017328586 -0.020369688 0.0016727101 0.34580362 0.10203854 0.28785005 -0.22130595
-0.26933166 0.5350083 -0.19346054 -0.021670895 -0.42189893 -0.0028232944 0.14009483 -0.0050735394
0.010554537 0.07954287 0.008394517 -0.20242473 -0.3145777 -0.01377313 -0.42140144 -0.0022938948
-0.16591229 -0.07611971 0.11522841 -0.7443498 -0.13638291 0.08735032 0.14537631 -0.080206126
0.029596463 -0.1423333 -0.10974122 -0.2899973 -0.0075784186 -0.00042594373 -0.0011826198 -0.24904245

model/hidden_layers/1/b f4 [75]
00000000: 3e4f 3440 82ad 5640 4df5 a2be a963 4c40
00000010: 2cc3 2d40 85f2 12be 5427 fd3e 69ce 6040
00000020: d81e ad3f d960 dabe 63a7 7940 7752 b3be
00000030: 22ba 97bd c113 31bf 8c7d 8840 a73a e2be
00000040: 9dff 7b40 a864 22c0 efc7 2640 5860 ca3d
00000050: f21b 6140 3540 4d40 9d40 5bbf 6edc efbd
00000060: a9b0 7640 0a50 c7be ea85 69bc 7191 b2bc
00000070: 72c4 4340 d8e3 4fbd 64bc c5be 829d 0ebf
00000080: 035b f3bd 8e36 1bbf 1466 803d 2859 5040
00000090: aba4 593e 4d26 2ebd 407e 8340 31d6 c3be
000000a0: ce74 6240 88f5 acbe fbc8 1840 dfd9 4b40
000000b0: 93ef e53f 7130 9f3d 6c46 1f40 73e6 6940
000000c0: 6723 1ebb 3ded 5340 fe29 6dbd c69a a8bf
000000d0: 5adb 5940 c808 7b40 f2a3 b2be 3159 5abd
000000e0: 8ac4 8a3d 1fd3 37bd deb1 e13d 8897 11bd
000000f0: 5de4 b7bf 11fd 8040 ace7 903e be15 00bf
00000100: 8db6 d4bd 4d43 bd3f f9b2 0dbf e263 c6bd
00000110: 81e3 5740 46d7 00bf 24ee 7cbc 697e 00be
00000120: 9dea f0bf 0f6d ef3c c6c0 7b40
2.8173366 3.35434 -0.31827775 3.1935828 2.7150373 -0.14350326 0.49444067 3.5125983
1.3525038 -0.42652014 3.9008415 -0.35023853 -0.07408549 -0.6917077 4.2653255 -0.44185373
3.9374764 -2.5373936 2.605953 0.09881657 3.5173306 3.207044 -0.8564547 -0.117119655
3.8545325 -0.38928252 -0.014253119 -0.021797867 3.058865 -0.050754398 -0.38620293 -0.5570909
-0.118825935 -0.6063012 0.0626947 3.2554417 0.21254222 -0.042516995 4.1091614 -0.38249353
3.5383792 -0.33781075 2.3872669 3.1851728 1.7963737 0.07772911 2.4886732 3.6546905
-0.0024129988 3.3113549 -0.057901375 -1.3172233 3.4040132 3.922411 -0.34890705 -0.053307716
0.06775768 -0.044879075 0.110202536 -0.035544902 -1.4366566 4.030892 0.28301752 -0.50033176
-0.10386381 1.4786164 -0.55351216 -0.0968702 3.3732607 -0.5032848 -0.0154376365 -0.12548222
-1.8821598 0.029226808 3.933641

model/hidden_layers/1/W f4 [75, 75]
00000000: 1178 ed3d 210b bc3d a2da 5338 55e6 1f3e
00000010: 05c7 e6bd 3731 fe3d 78a8 62bd 118d 10be
00000020: c625 6bbc 911b a7bc 0288 b23d 55bf 8f3c
00000030: d525 35bd cc33 6c3b 3118 b1bd e20d 19bd
00000040: 49ac 67be 70d0 3cba 07cf 80be 44d5 7a3d
00000050: bfe5 263c 8bcb 4fbe 3598 99bd 8958 ba3d
00000060: 1832 bf3d a659 1fbd d5c5 f0bd d929 d33d
00000070: ed66 12be c272 54bd c097 743d 8b24 6abe
00000080: 04cd b6be 6171 d4bd 2138 083c 7986 05bd
00000090: af74 523d c701 4c3d f0e1 f63d 44bb f93d
000000a0: 702b 473d 20c5 263c 019e 0bbd 3404 f2bd
000000b0: 41d6 cebd be1c e7bd 8b0d dcba 08dd 9d3d
000000c0: ecc5 03bd 7baa 22be e99d a2bd 0a14 edbd
000000d0: b487 233d 9ecb c4bc 04f4 65bd a37c dc3c
000000e0: 97d1 74bd 822c a53d 7d60 133d 3092 873d
000000f0: 613b ecbd 6aa8 143c 23e4 d3bc edfa 923d
00000100: 3152 8c3c 16e4 9e3c 10ae 06be 4d14 fe3d
00000110: 7595 d33c 2784 82be 0bff 61be 47f1 c63d
00000120: caa2 64bd 2e18 5e3c fe96 90bd ae85 a4bd
00000130: ec25 ee3c 49d9 d9bd 1701 bdba 7f6b 743d
00000140: bd6e ee3b b5fe 40be 5b0a a63d ba88 e43d
00000150: d51f 95bd b1fd 21bd 34bb 3a3d bece febc
00000160: 5916 e23d c8e9 a03d d53d fcbd 22ed 083d
00000170: 356d 2cbe b6cd 03ba 444d 85bd de62 16be
00000180: 979f 98bd 3d8b 7d3c fe71 633d 9911 cd3d
00000190: 7ca4 d33d 6c2c 623e 2eea a0bd c088 7abd
000001a0: 3f77 253c 786d 263d ef09 3c3e 6690 70bd
000001b0: e8d4 a9bd 2aa9 063d fea4 86bd c602 c0bc
000001c0: bebd 09be 993f ed3c c425 19be 8fc9 10be
000001d0: e404 24be b7f4 e4bd 2a0a 09be a2f8 49bd
000001e0: 8de4 763d aff8 47bd f206 10be 49da 59be
000001f0: 5e73 c43c db08 503e 1d28 17bd e901 ccbc
00000200: fcdb c23d 6182 e7bc 1471 093d 133b d3bd
00000210: b417 5cbc 3593 a13e fed4 f1bd 4c62 d4bc
00000220: ee5c 5f3d 8eb9 c3bc 5141 153d 17e8 60be
00000230: 12ce 26bd 531a 073d 4897 7b3d 6626 b9bb
00000240: fa8d c03d ef5a 0ebe 34af ac3d 40de 383d
00000250: 86fa 17bd 346f 0e3d e36a 31be c82f 66be
00000260: 7489 64be c9b5 653d c9f0 2bbe 5e14 133e
00000270: f910 2ebe 09dd ba3c a42e ea3c 1484 873b
00000280: 867e 4bbe dc41 06bd 4926 633e a38d 46bc
00000290: eb4a 8cbd b17c 82be 4a9b f7ba 4c81 a93d
000002a0: e299 2c3d 9621 3b3c 91eb f6bd ac67 2cbe
000002b0: e07e 3dbe 4c91 03be 6773 523e 62bb c0bb
000002c0: 0733 173e e252 0abd 633b 5fbe 7ca3 bc3d
000002d0: e7bd 86be 020c c9bc 6588 e43d 58bc 583e
000002e0: 5546 88be a089 9a3c 0634 f3bd e289 cd3d
000002f0: 2deb 6b3e bf35 37be 5082 c23c 7f1b 4bbe
00000300: 165f 253e ac1f eabd d51e 80bd 55cc 803d
00000310: 783b 3fbe b594 0b3e 1602 21be aa4e 7a3d
00000320: d1f8 46be b197 37bc 37b7 203c aa62 02be
00000330: 8eab 86bb 0eb3 f8bd b602 483e 89ad dc3c
00000340: 7cdc b2be 00ce 803e bd76 3dbe cac2 e83d
00000350: 286a a0bc 4379 bfbe c39e 2ebe af33 47be
00000360: c0b6 703d d6cc 31be 1f68 1f3d 6e2c 88be
00000370: 5954 27be d64b 25be 141f e33d 5cc6 40be
00000380: 5442 31be e84e ad3d 9272 25bd 3bee 073d
00000390: 3482 7dbd 7f22 a93d 27ac e33d d46e 783d
000003a0: 5696 e83c 5d92 99bc b969 2cbd 9ddd 9f3d
000003b0: e044 31be fa11 c93a e06b 33be 69bd 61be
000003c0: cdab 61bd 38ed c03d 3348 663d 25aa e8bb
000003d0: 44b9 6bbd 0233 9cbc cb1e f0bc fae1 e73c
000003e0: 3514 183e 22c4 153e d74b d8bd 9c5e 07be
000003f0: 6fa3 4c3e 2236 833d 1914 61bb aa83 833d
0.115951665 0.0918181 5.0509938e-05 0.15615208 -0.11268429 0.12411731 -0.055336446 -0.14116313
-0.014352268 -0.020398887 0.08717348 0.017547289 -0.044225533 0.0036041616 -0.08647192 -0.037366755
-0.22624315 -0.00072026905 -0.2515795 0.061238542 0.010186612 -0.20292489 -0.07499734 0.09098918
0.093357265 -0.038903855 -0.117564835 0.10310716 -0.14297076 -0.051867254 0.059715033 -0.22865503
-0.3570329 -0.10373188 0.008314163 -0.032598946 0.05138081 0.049806383 0.12054813 0.12193921
0.04862541 0.010178834 -0.03408623 -0.11817208 -0.100994594 -0.11284779 -0.0016788704 0.07708174
-0.032171175 -0.15885346 -0.07940275 -0.11576088 0.03992434 -0.024022873 -0.056140915 0.0269149
-0.059770193 0.0806513 0.03598069 0.0661968 -0.11534763 0.009073356 -0.02586562 0.071767665
0.017129036 0.01939587 -0.13152337 0.12406216 0.025828103 -0.2549145 -0.22069947 0.09713989
-0.05581931 0.01355557 -0.070600495 -0.0803331 0.029070817 -0.10637147 -0.001441988 0.05967283
0.0072763846 -0.18847163 0.08107444 0.11158891 -0.07281462 -0.03954858 0.045588687 -0.031104442
0.11039419 0.0785709 -0.12316481 0.033429272 -0.16838534 -0.0005027907 -0.06508878 -0.14686152
-0.07452314 0.0154750915 0.055528633 0.10013122 0.10334107 0.22087258 -0.07857166 -0.06116557
0.010099231 0.04063174 0.18363164 -0.05873146 -0.08292562 0.03287617 -0.065744385 -0.023438822
-0.13451287 0.02896099 -0.14955813 -0.14139389 -0.1601749 -0.11179488 -0.13382784 -0.04930938
0.060276557 -0.048821148 -0.1406515 -0.21274675 0.023980793 0.20315878 -0.03690349 -0.024903255
0.09514615 -0.028260412 0.033555105 -0.10314002 -0.013433386 0.31557623 -0.11808203 -0.025925778
0.054531984 -0.02389219 0.036439244 -0.21963535 -0.040723868 0.03298409 0.06142357 -0.0056503294
0.0940208 -0.13901876 0.08431855 0.04513383 -0.037104152 0.03477402 -0.1732593 -0.22479165
-0.22318059 0.056081567 -0.16791071 0.14363238 -0.16998662 0.022810476 0.028586693 0.004135618
-0.19872484 -0.032777652 0.22182573 -0.01211873 -0.06850227 -0.25485757 -0.0018890884 0.082766145
0.04213894 0.011421582 -0.120566495 -0.16836423 -0.1850543 -0.12848395 0.20551835 -0.005881713
0.14765559 -0.03377045 -0.21799998 0.0921087 -0.2631676 -0.024541859 0.11158828 0.21165597
-0.2661616 0.018864453 -0.11875157 0.10036065 0.23038931 -0.17891596 0.023743778 -0.19834708
0.16149554 -0.11431822 -0.06255881 0.06288973 -0.1867503 0.13630946 -0.15723452 0.061110176
-0.19430853 -0.0112056 0.009809307 -0.1273295 -0.0041098064 -0.12143527 0.19532284 0.026938217
-0.3493384 0.25157166 -0.18502326 0.11365278 -0.01958187 -0.37397203 -0.1705275 -0.1945331
0.058768034 -0.17363295 0.038917657 -0.26596397 -0.1634077 -0.1614221 0.11089912 -0.18825668
-0.17310458 0.08462316 -0.040392466 0.03318618 -0.06189175 0.08258533 0.1111682 0.06065257
0.028391998 -0.01874655 -0.042093012 0.07805941 -0.1731143 0.001534044 -0.1752162 -0.2204491
-0.055095483 0.09420246 0.0562212 -0.007100361 -0.05754973 -0.019067291 -0.029311558 0.028305996
0.14851458 0.146256 -0.1056134 -0.13219684 0.1998422 0.064068094 -0.0034344255 0.06421597
