experiments/blocksworld/blocksworld_full_train_set_2-75-4/best/model.npz (npz, 29718 bytes, 6 tensors)

model/output/W f4 [4, 75]
-0.035805855 -0.07494674 0.00806334 -0.47851998 -0.056497056 0.0328403 0.005431592 -0.089961424
0.012384059 -0.052694846 -0.5413489 -0.23122989 -0.37592494 0.031522833 -0.6796216 -0.20670599
-0.026237361 -0.4358004 0.20840862 -0.086216256 -0.055248074 -0.0014188444 -0.250606 -0.36434957
-0.26348987 0.0850314 -0.71447957 -0.02391207 -0.29081017 0.08564334 -0.14886133 -0.074316785
0.04760696 0.23611526 -0.6670982 -0.2503849 0.04952425 -0.23633137 -0.046193067 -0.0679561
0.041401364 0.15909882 -0.019720597 -0.35503694 -0.04565782 -0.018979602 -0.5622112 0.18635255
0.113852665 -0.17482573 -0.3352515 -0.4007402 0.27202365 0.13300486 -0.036654245 -0.05276179
-0.078527525 0.3106815 -0.07098007 -0.12331188 0.012775606 -0.0018838646 -0.33420965 -0.08226095
0.0647735 0.031081738 0.050295312 -0.4661434 -0.6414551 -0.06440772 -0.52414846 0.070525706
-0.20766547 -0.0998137 -0.010856396 -0.0804428 0.02061091 -0.13618332 -0.376133 0.14840211
0.08696599 0.067104295 0.0018421466 -0.31372017 -0.10566497 -0.5007713 0.08155269 -0.078485
-0.028319199 -0.7722334 -0.10655721 0.09741432 -0.48608908 0.057427365 0.14106236 0.011023603
0.047412906 -0.19018188 -0.2569795 -0.24927664 0.06360716 1.0112435 -0.13817322 -0.30272907
-0.046490006 -0.17971942 0.013137325 0.022013236 0.1806282 -0.62211233 -0.23193263 -0.017427364
-0.2968631 -0.14253083 -0.023792675 -0.06448776 0.47470978 -0.044373475 -0.56477153 -0.09764007
-0.0058949213 0.740045 0.47005522 0.014812783 0.019674156 0.078625105 -0.35218316 -0.10864208
0.07863107 0.046047214 -0.0021612667 -0.15195352 0.27556995 0.038996946 0.10000625 -0.046815358
0.012051231 -0.66793483 -0.06619696 0.052196547 0.092800766 -0.15022148 -0.43091664 -0.5251044
0.08965576 -0.6796195 0.00010230662 -0.25915003 0.011757563 0.10076545 -0.09593482 0.09971695
-0.022402756 -0.35747913 0.3180656 -0.08843149 -0.104558304 0.09536779 -0.17267498 -0.06103642
-0.43185487 0.11268501 0.38075525 -0.12780227 -0.69367313 -0.157371 -0.087669745 -0.49368945
0.044944234 -0.03498121 -0.06591779 -0.094796576 -0.15051806 -0.30300188 -0.21425462 -0.0054640477
0.20133902 0.0121392 -0.13395537 0.02453914 0.17108212 0.26648387 0.007981218 0.06420909
-0.7936985 -0.13283639 0.21330386 -0.4461849 0.029736632 0.050826762 -0.24699664 0.8373075
0.04511248 -0.7714904 0.1925906 -0.07135953 0.33130896 -0.31131938 0.13709944 0.029632485
-0.031811412 -0.42026544 0.026559608 0.008767245 -0.037650213 -0.007308047 0.2572642 -0.13546851
-0.0391763 0.110108316 0.020691477 0.03629001 0.03485384 0.029049652 -0.021248039 -0.03867232
-0.15467353 -0.3353753 -0.5898061 0.040647537 -0.6156517 -0.033675987 -0.19961907 -0.04568037
-0.09205251 -0.0067803976 0.05742839 -0.12468061 -0.4002132 0.15560438 -0.05226161 0.10099211
0.072193556 -0.24612433 -0.06807366 -0.49639705 0.1774744 0.48801658 -0.13550688 -0.64679533
-0.19466005 -0.107953265 -0.46205837 -0.04907089 -0.08914697 0.034523107 0.019675205 -0.06360409
-0.39970332 -0.21455325 0.049684476 0.0781674 -0.06370743 -0.12375914 0.024176098 0.16385444
00000000: 29a9 12bd ad7d 99bd 191c 043c 9200 f5be
00000010: 7569 67bd 8d83 063d 7ffb b13b b23d b8bd
00000020: 82e6 4a3c 8dd6 57bd d795 0abf 87c7 6cbe
00000030: 3c79 c0be 161e 013d aefb 2dbf bcaa 53be
00000040: bcef d6bc 3b21 dfbe 1269 553e 2692 b0bd
00000050: ce4b 62bd 85f8 b9ba 6e4f 80be 078c babe
00000060: 25e8 86be f124 ae3d 22e8 36bf 3fe3 c3bc
00000070: 12e5 94be c765 af3d 1b6f 18be 6633 98bd
00000080: 84ff 423d 33c8 713e f3c6 2abf 7332 80be
00000090: f1d9 4a3d da00 72be f134 3dbd 912c 8bbd
000000a0: 7a94 293d cdea 223e 178d a1bc 67c7 b5be
000000b0: b203 3bbd 1c7b 9bbc 13ed 0fbf 34d3 3e3e
000000c0: 962b e93d 8405 33be 16a6 abbe d22d cdbe
000000d0: af46 8b3e 6d32 083e c322 16bd bf1c 58bd
000000e0: 0ad3 a0bd a511 9f3e 005e 91bd f08a fcbd
000000f0: c650 513c 02ec f6ba 871d abbe 6e78 a8bd
00000100: f8a7 843d 219f fe3c 7502 4e3d 59aa eebe
00000110: 6736 24bf 32e8 83bd 982e 06bf c86f 903d
00000120: 42a6 54be 206b ccbd 06df 31bc 32bf a4bd
00000130: 36d8 a83c a473 0bbe 8194 c0be b9f6 173e
00000140: 3a1b b23d fa6d 893d 2f74 f13a ee9f a0be
00000150: e066 d8bd 8c32 00bf 1905 a73d bebc a0bd
00000160: aafd e7bc 17b1 45bf ab3a dabd 2981 c73d
00000170: abe0 f8be f538 6b3d a772 103e 589c 343c
00000180: 0934 423d 0abf 42be d192 83be 6042 7fbe
00000190: 7844 823d 6d70 813f 487d 0dbe 4eff 9abe
000001a0: 4e6c 3ebd 5e08 38be ef3d 573c 1a55 b43c
000001b0: 99f6 383e c142 1fbf bf7f 6dbe d5c3 8ebc
000001c0: 71fe 97be 9af3 11be dbe8 c2bc 2912 84bd
000001d0: 290d f33e f6c0 35bd de94 10bf 84f7 c7bd
000001e0: 2f2a c1bb 9773 3d3f 14ab f03e 51b1 723c
000001f0: b22b a13c 3306 a13d 5a51 b4be bd7f debd
00000200: 5409 a13d 019c 3c3d 0aa4 0dbb b499 1bbe
00000210: 8117 8d3e 43bb 1f3d 14d0 cc3d 76c1 3fbd
00000220: 8772 453c c7fd 2abf 4692 87bd 0ccc 553d
00000230: 540e be3d a9d3 19be 1ba1 dcbe 3e6d 06bf
00000240: 709d b73d 8bfb 2dbf 738d d638 50af 84be
00000250: cba2 403c 1e5e ce3d 7a79 c4bd 6638 cc3d
00000260: fc85 b7bc 8107 b7be 7fd9 a23e 921b b5bd
00000270: aa22 d6bd 3050 c33d b6d1 30be 5301 7abd
00000280: 151c ddbe 66c7 e63d 5af2 c23e 99de 02be
00000290: 9094 31bf dd25 21be 328c b3bd ddc4 fcbe
000002a0: 7217 383d 7548 0fbd e8ff 86bd b524 c2bd
000002b0: 6821 1abe 1023 9bbe 9065 5bbe c10b b3bb
000002c0: d12b 4e3e 7fe3 463c 992b 09be 4e06 c93c
000002d0: 2730 2f3e 9370 883e a8c3 023c 0e80 833d
000002e0: d32f 4bbf 4306 08be 546c 5a3e 5972 e4be
000002f0: 3d9a f33c b92f 503d b0ec 7cbe c959 563f
00000300: ddc7 383d 6580 45bf 7836 453e f224 92bd
00000310: 54a1 a93e 4165 9fbe cc63 0c3e d3bf f23c
00000320: af4c 02bd 082d d7be 8993 d93c 7ea4 0f3c
00000330: 1c37 1abd 5778 efbb 22b8 833e 42b8 0abe
00000340: 5477 20bd 7880 e13d 2c81 a93c d5a4 143d
00000350: e6c2 0e3d 89f9 ed3c 5e10 aebc de66 1ebd
00000360: bd62 1ebe 50b6 abbe 88fd 16bf 087e 263d
00000370: 5a9b 1dbf d5ef 09bd f168 4cbe 571b 3bbd
00000380: 0786 bcbd 192e debb 083a 6b3d 8c58 ffbd
00000390: bfe8 ccbe c156 1f3e 4510 56bd f4d4 ce3d
000003a0: 37da 933d 0408 7cbe 346a 8bbd c127 febe
000003b0: d9bb 353e 4fdd f93e 51c2 0abe 6194 25bf
000003c0: f754 47be 9a16 ddbd ea92 ecbe 8ffe 48bd
000003d0: b092 b6bd 1a68 0d3d e52d a13c dc42 82bd
000003e0: eaa5 ccbe d9b3 5bbe f381 4b3d 3b16 a03d
000003f0: 0b79 82bd 6f75 fdbd f40c c63c 75c9 273e

model/output/b f4 [4]
-4.6065745 -5.9275026 -4.5268416 -4.919187
00000000: 0f69 93c0 1aae bdc0 e3db 90c0 fb69 9dc0

model/hidden_layers/0/W f4 [75, 20]
-0.007286317 0.11321615 -0.14548238 -1.186422 -0.02946178 -0.10598894 -0.19800808 -0.14852732
-0.9989246 -1.167518 -0.04196476 -0.30612943 -0.026946755 -0.8587488 0.018401068 0.3001723
-0.36956793 -0.22236249 -0.71533906 -0.01615821 -0.20497774 0.011641458 0.033130027 -1.2610931
0.48417458 0.2169852 0.36100596 -0.0885484 -0.74568146 -0.5935008 0.019049535 -0.30109143
0.03492425 -0.96888214 -0.021487966 0.484923 0.03417767 0.13789876 -0.7263364 -0.03382243
-0.4558488 0.058092624 -0.17814463 -0.048581515 -0.43440634 0.14455023 -0.09317824 0.20380479
-0.19209175 0.7219643 0.5750014 -0.49172407 -0.0128561575 -0.10975027 0.018805945 0.37993485
-0.42292818 0.16516109 0.08945183 0.0006912186 0.46623278 0.07015685 0.11528581 -0.6539215
-0.0614693 -0.3964422 0.19024368 0.09547619 -0.5294573 0.8163672 1.0808907 -0.18379672
0.12456457 -0.1853734 -0.002474374 0.4327061 -0.4700659 0.113129005 -0.34504655 0.015683968
-0.042061944 -0.120800905 -0.46833935 -1.6387497 -0.52265304 0.8843768 -0.13320847 -0.48312375
-1.4877965 -0.7924457 0.33951938 -0.26071417 -0.004941263 -1.4759967 -0.04068821 0.8492718
-0.4046064 -0.0615908 -1.6227573 -0.02720173 -0.021745069 0.11998676 0.012729436 -0.45124674
0.31076032 -0.22346614 -0.042983327 0.14516322 -0.538043 0.3424657 0.18723315 -0.16669719
0.07984461 -0.41560695 0.027813053 -0.025184255 0.026166195 0.25634566 -0.33192316 -0.011485419
0.1494164 0.37863755 -0.015680587 -2.1654909 0.09765027 1.3213766 0.07270736 -0.36327466
-1.3694756 -1.3410386 1.1870545 -0.5083807 -0.06757757 -1.478038 0.01545301 1.718865
-0.3563054 -0.019119145 -1.5239911 -0.0045105675 -0.24342576 -0.25037882 -0.053911015 -1.1500264
0.08849313 -0.03965575 -0.017295988 0.16931415 -0.5707734 -0.37318933 0.3647379 -0.022064857
0.05420888 -0.65163684 0.010132266 -0.039072692 0.111246474 0.107385844 -0.8044764 -0.00023432894
-0.40446663 0.16011997 -0.28278434 -0.52854323 -0.052122775 -0.19352856 0.03080712 -0.07809368
-0.34868333 -0.68876696 -0.045708057 0.17676672 0.15204158 -0.048476875 0.0042582103 -0.47797364
0.5299405 0.16221039 -0.52265835 -0.011532793 -0.015488983 0.23090784 -0.19412826 -0.43358412
0.023272797 -0.18462975 -0.10118621 -0.30153596 -0.10187197 -0.13661611 0.15244137 -0.08093996
0.16848306 -0.7755017 0.00078853336 0.3763542 -0.20863226 0.1393406 -0.5977632 -0.013743288
-0.094593026 0.020053905 0.29251418 -0.727843 -0.09654191 -0.19870351 -0.35085243 0.3476211
-0.9746219 -0.27661452 0.82533807 -0.4405835 7.0557944e-05 -0.8257154 0.0077227443 0.5780452
-0.08941358 0.02742821 -0.6336466 0.04214478 0.048491385 0.056425028 -0.17406528 -2.3091667
-0.24411502 0.34609213 0.57529664 0.30433396 -2.706558 0.37073237 -0.15547855 0.2811951
0.20098884 -1.6451923 -0.040841725 -0.34775823 -0.24537094 0.11619185 -1.9662302 -0.009435036
0.21918462 -0.014840374 0.07560677 -1.614668 0.24410535 0.98745716 -0.12105524 -0.56353086
-0.81290287 -1.0559323 0.4388437 -0.1799292 0.076430045 -1.3029854 0.004991351 1.5852904
00000000: 0fc2 eebb dedd e73d 55f9 14be addc 97bf
00000010: d559 f1bc bb10 d9bd a1c2 4abe 8c17 18be
00000020: 86b9 7fbf 3b71 95bf 3de3 2bbd ffbc 9cbe
00000030: 71bf dcbc f6d6 5bbf d6bd 963c 2fb0 993e
00000040: 0238 bdbe feb2 63be 7620 37bf 395e 84bc
00000050: afe5 51be d0bb 3e3c 5ab3 073d 806b a1bf
00000060: bbe5 f73e 5e31 5e3e c6d5 b83e dd58 b5bd
00000070: fbe4 3ebf abef 17bf c50d 9c3c a828 9abe
00000080: bb0c 0f3d a908 78bf 8807 b0bc d447 f83e
00000090: e2fd 0b3d 5535 0d3e 2ff1 39bf 6389 0abd
000000a0: 0465 e9be 88f2 6d3d 8c6b 36be 69fd 46bd
000000b0: 826a debe fa04 143e 3cd4 bebd 34b2 503e
000000c0: b3b3 44be a7d2 383f 4b33 133f 42c3 fbbe
000000d0: a2a2 52bc c0c4 e0bd ed0e 9a3c d286 c23e
000000e0: 0b8a d8be fd1f 293e 8532 b73d e532 353a
000000f0: 10b6 ee3e 65ae 8f3d f71a ec3d 6667 27bf
00000100: 3cc7 7bbd 79fa cabe 3dcf 423e 0589 c33d
00000110: 838a 07bf 71fd 503f a05a 8a3f 3535 3cbe
00000120: b61b ff3d 86d2 3dbe 1b29 22bb a78b dd3e
00000130: 7aac f0be 2eb0 e73d f1a9 b0be aa7b 803c
00000140: 2549 2cbd 7766 f7bd 2dca efbe 8dc2 d1bf
00000150: 97cc 05bf 8566 623f cd67 08be ff5b f7be
00000160: 1e70 bebf b9dd 4abf 7cd5 ad3e 547c 85be
00000170: 51ea a1bb 76ed bcbf aea8 26bd e069 593f
00000180: 9228 cfbe a246 7cbd 83b6 cfbf 2ad6 debc
00000190: b722 b2bc 9ebb f53d 208f 503c d009 e7be
000001a0: fa1b 9f3e 4fd4 64be 490f 30bd aba5 143e
000001b0: 30bd 09bf aa57 af3e 0cba 3f3e abb2 2abe
000001c0: 9285 a33d 6fca d4be 33d8 e33c 364f cebc
000001d0: 7d5a d63c bd3f 833e d5f1 a9be 572d 3cbc
000001e0: 9d00 193e c8dc c13e 9374 80bc 6797 0ac0
000001f0: ddfc c73d de22 a93f 99e7 943d 23ff b9be
00000200: fa4a afbf 27a7 abbf 67f1 973f 3d25 02bf
00000210: 1c66 8abd 5930 bdbf 9f2e 7d3c c503 dc3f
00000220: a96d b6be c19f 9cbc 2412 c3bf 62cd 93bb
00000230: 9a44 79be a731 80be ccd1 5cbd 1134 93bf
00000240: e33b b53d 116e 22bd 51b0 8dbc b060 2d3e
00000250: 351e 12bf ac12 bfbe edbe ba3e 5cc1 b4bc
00000260: 210a 5e3d acd1 26bf ce01 263c b00a 20bd
00000270: 31d5 e33d 1ced db3d 2af2 4dbf 32b6 75b9
00000280: 4016 cfbe 7df6 233e 1cc9 90be 9c4e 07bf
00000290: b17e 55bd 5a2c 46be 375f fc3c 94ef 9fbd
000002a0: 9f86 b2be 0853 30bf 5f38 3bbd 5602 353e
000002b0: cab0 1b3e b08f 46bd 7588 8b3b f6b8 f4be
000002c0: 2eaa 073f 7b1a 263e f0cc 05bf 0af4 3cbc
000002d0: 81c5 7dbc 1b73 6c3e 8fc9 46be bdfe ddbe
000002e0: 98a6 be3c 950f 3dbe b73a cfbd ec62 9abe
000002f0: 40a2 d0bd 18e5 0bbe 9719 1c3e dac3 a5bd
00000300: d386 2c3e 4887 46bf 94b5 4e3a 7fb1 c03e
00000310: b2a3 55be 4daf 0e3e 0207 19bf 872b 61bc
00000320: fdb9 c1bd 1648 a43c 6bc4 953e eb53 3abf
00000330: c4b7 c5bd ef78 4bbe eea2 b3be 65fb b13e
00000340: d280 79bf 6ba0 8dbe 5b49 533f 2994 e1be
00000350: 82f8 9338 1662 53bf 130f fd3b c5fa 133f
00000360: 781e b7bd 20b1 e03c aa36 22bf 01a0 2c3d
00000370: e79e 463d ee1d 673d 2b3e 32be 63c9 13c0
00000380: 4af9 79be fd32 b13e a446 133f a9d1 9b3e
00000390: 3f38 2dc0 a2d0 bd3e c535 1fbe cef8 8f3e
000003a0: 05d0 4d3e a995 d2bf a749 27bd 5e0d b2be
000003b0: 8542 7bbe fef5 ed3d 6ead fbbf 6995 1abc
000003c0: ef71 603e 0a25 73bc b9d7 9a3d 71ad cebf
000003d0: c1f6 793e fec9 7c3f cfeb f7bd 8f43 10bf
000003e0: 671a 50bf ca28 87bf 1fb0 e03e 5c3f 38be
000003f0: 5b87 9c3d 3ac8 a6bf 7d8e a33b ccea ca3f

model/hidden_layers/0/b f4 [75]
-1.448135 -1.563569 2.1928792 0.058989387 -1.6477811 0.5963058 -2.5244215 -1.2348485
2.447012 -0.6299985 -1.464949 -2.6197612 -2.454628 -3.5753407 -1.9493812 3.9144557
-1.8973011 -2.5414047 -1.1040612 2.0319457 -0.9007319 1.6103432 0.64797294 -1.7490222
-1.5067201 -3.5059972 -1.6037463 -1.3835626 -1.0951979 -0.90220493 -1.524593 -2.305348
-2.483029 -1.2759302 -2.6278508 -1.1873835 6.087157 -2.7169137 -3.1145437 -1.1825728
-0.7557676 -1.2826982 -2.1432652 5.4055486 -0.92418796 1.9552392 -4.2612677 -0.9159115
-1.98238 -0.77355236 -1.498494 -1.9318382 -1.0980512 -2.515959 -3.9228075 -2.6870503
-1.8227861 3.8399906 -1.7022748 -1.1136506 -3.6007543 1.4598922 -1.6505916 -0.59933233
-1.0154587 -1.2858961 -1.1167452 -2.245144 -0.34834644 -1.2001253 -1.6663198 -4.447871
-3.2529807 -1.6585835 -2.1025257
00000000: 7d5c b9bf 0723 c8bf 2258 0c40 db9e 713d
00000010: 7eea d2bf 7fa7 183f 1f90 21c0 840f 9ebf
00000020: d89b 1c40 9547 21bf 7383 bbbf 2baa 27c0
00000030: a018 1dc0 62d2 64c0 5385 f9bf 7186 7a40
00000040: c3da f2bf 60a6 22c0 e151 8dbf 660b 0240
00000050: 5e96 66bf ba1f ce3f 8ee1 253f f6df dfbf
00000060: 34dc c0bf 4262 60c0 8f47 cdbf 9418 b1bf
00000070: 722f 8cbf e7f6 66bf dd25 c3bf d28a 13c0
00000080: f2e9 1ec0 ae51 a3bf b52e 28c0 2ffc 97bf
00000090: fdc9 c240 eae1 2dc0 af54 47c0 8c5e 97bf
000000a0: fc79 41bf 742f a4bf 422b 09c0 41fa ac40
000000b0: 9597 6cbf 4745 fa3f 4e5c 88c0 2d79 6abf
000000c0: a1be fdbf 8707 46bf a7ce bfbf 7946 f7bf
000000d0: f18c 8cbf 7905 21c0 470f 7bc0 a2f8 2bc0
000000e0: 0e51 e9bf 68c2 7540 24e4 d9bf 1a8c 8ebf
000000f0: c272 66c0 bfdd ba3f 9646 d3bf d86d 19bf
00000100: 8dfa 81bf 3e98 a4bf 82f1 8ebf 70b0 0fc0
00000110: 775a b2be b59d 99bf f849 d5bf f654 8ec0
00000120: d630 50c0 774c d4bf c88f 06c0

model/hidden_layers/1/W f4 [75, 75]
0.17071575 -0.1904215 -0.067030735 -0.14550643 -0.005887706 -0.053602308 0.19673531 -0.17142506
-0.10599881 -0.07656951 -0.038851347 0.03281928 -0.19296464 -0.019445034 -0.037893385 -0.24889351
-0.28139606 -0.1040948 -0.039300993 -0.11523904 0.31398866 0.12319827 -0.046210352 0.25054145
0.043234125 -0.36105558 0.07783314 0.044000115 0.010770787 -0.17894813 -0.06511421 -0.08856469
0.116987675 -0.041158073 -0.12120795 -0.33431488 0.40513948 -0.22756822 0.025403403 -0.017240096
-0.22561193 -0.21642226 0.049740966 -0.26062253 -0.050070126 -0.076736785 -0.35565358 0.014604044
-0.15077412 -0.03001201 -0.1156683 -0.15358482 -0.078318976 0.22709863 0.09070454 -0.1657079
0.022408377 -0.2158528 0.026022121 -0.18699922 -0.22069454 -0.27112633 -0.25088063 -0.17016761
-0.082730725 0.08766123 -0.027178265 0.07171123 -0.18901138 0.096086755 -0.1621898 0.19803883
-0.10161086 -0.32971877 -0.020011079 -0.2018874 -0.08767511 -0.14974932 0.049445707 -0.064410955
-0.14108111 -0.27225304 0.087664746 0.015644955 -0.1452702 0.1744909 -0.03295231 0.029247968
-0.05126197 -0.065802924 -0.24092616 0.09975394 0.007945603 -0.09007331 0.071595356 -0.09151123
-0.018751854 -0.24734098 -0.04818039 0.07053555 -0.08612911 -0.18240893 -0.26167393 -0.18059058
0.05229091 -0.033422876 -0.13859034 0.093292624 -0.1337281 0.04380654 -0.13551942 -0.13310467
-0.07690191 -0.04362843 0.0334331 -0.10826937 -0.25427172 0.023981396 -0.0664145 -0.026400948
0.050299488 -0.076527975 0.056948707 0.080198 -0.13757887 -0.19963875 -0.23032606 -0.003492547
-0.18233709 0.04633948 0.05079662 -0.17303199 0.16689833 -0.19473074 0.04673355 -0.07468506
-0.21256658 -0.07808794 0.14991322 -0.12694103 -0.14121103 -0.039376296 0.02619616 -0.24712183
-0.06911736 -0.26424515 -0.08028961 -0.11436752 0.041653223 -0.016601382 0.05660308 -0.050232816
0.10915563 -0.2794717 -0.16711703 -0.06511095 -0.07476182 -0.074904315 -0.02669059 0.03443104
-0.09339115 0.0013785934 0.13204354 -0.064929835 0.13542424 -0.32468522 -0.22468667 -0.15407091
0.046112802 -0.0050272224 -0.07651869 -0.18291105 -0.14865531 -0.1442503 -0.15705849 -0.07338321
-0.22698897 -0.13253798 -0.07555641 -0.15519802 -0.16237047 -0.30101165 -0.0066788043 0.039573357
-0.14318521 -0.08317922 -0.37984797 0.17057037 -0.2704313 -0.13815783 -0.10021446 -0.30427572
-0.12284412 -0.05356253 -0.026049225 -0.11447165 0.28352618 -0.1716887 -0.1338433 -0.087501295
-0.066704564 -0.15838744 0.16620152 0.14608507 -0.2115606 -0.00073625933 0.09562546 -0.006490328
-0.15454958 -0.13010791 0.045585338 0.061879206 -0.12559998 -0.09851224 0.009118168 -0.28245634
-0.14207569 -0.14294568 -0.12450943 0.020321606 -0.068889394 0.021545473 -0.29140574 -0.22182198
-0.23279652 -0.06767686 0.028856514 -0.05525557 -0.039532248 0.011918963 -0.014455432 -0.041970514
-0.10575954 0.021246482 0.012222128 -0.14528954 0.026839709 0.02617688 -0.07553156 0.047719233
-0.016560018 -0.07931507 0.03238302 -0.05097932 -0.03471102 -0.07219872 -0.108699195 -0.014521483
-0.13416876 0.04186452 -0.099525526 0.0021176143 -0.012310945 -0.018165799 -0.058913674 -0.03585426
00000000: 1cd0 2e3e dbfd 42be 6947 89bd a3ff 14be
00000010: a8ed c0bb 188e 5bbd fb74 493e 0d8a 2fbe
00000020: e715 d9bd 7ad0 9cbd 9722 1fbd 826d 063d
00000030: 8698 45be 314b 9fbc 1836 1bbd f1dd 7ebe
00000040: 2513 90be a82f d5bd 14fa 20bd 7202 ecbd
00000050: 1fc3 a03e 604f fc3d 1147 3dbd f846 803e
00000060: 4416 313d 47dc b8be fb66 9f3d 7739 343d
00000070: f477 303c 2e3e 37be 995a 85bd 6761 b5bd
00000080: 3c97 ef3d 5e95 28bd e03b f8bd 522b abbe
00000090: 716e cf3e a507 69be cc1a d03c 1a3b 8dbc
000000a0: d006 67be cc9d 5dbe 2fbd 4b3d 5170 85be
000000b0: 5516 4dbd 2d28 9dbd 3a18 b6be cd45 6f3c
000000c0: 8864 1abe bfdb f5bc 80e3 ecbd 5745 1dbe
000000d0: b365 a0bd 8b8c 683e 4dc3 b93d 55af 29be
000000e0: c691 b73c 8408 5dbe 582c d53c b97c 3fbe
000000f0: c0fd 61be 12d1 8abe 6d73 80be 6b40 2ebe
00000100: ba6e a9bd bb87 b33d f4a4 debc 56dd 923d
00000110: 338c 41be 22c9 c43d 1515 26be b1ca 4a3e
00000120: 5b19 d0bd e6d0 a8be 46ee a3bc 92bb 4ebe
00000130: 028f b3bd e357 19be 9587 4a3d e4e9 83bd
00000140: 9177 10be c064 8bbe 9389 b33d d929 803c
00000150: b6c1 14be bead 323e 00f9 06bd 6f99 ef3c
00000160: 12f8 51bd afc3 86bd 59b5 76be cb4b cc3d
00000170: 462e 023c 5b78 b8bd 96a0 923d 3d6a bbbd
00000180: 7d9d 99bc f446 7dbe cd58 45bd f174 903d
00000190: 7564 b0bd 68c9 3abe 20fa 85be bdec 38be
000001a0: fe2e 563d 6de6 08bd a0ea 0dbe 3410 bf3d
000001b0: 05f0 08be 7d6e 333d 9ac5 0abe 974c 08be
000001c0: c07e 9dbd bab3 32bd 25f1 083d 55bc ddbd
000001d0: e72f 82be a274 c43c 5304 88bd cd46 d8bc
000001e0: d606 4e3d b3ba 9cbd 0c43 693d d93e a43d
000001f0: 7ae1 0cbe 1a6e 4cbe 98da 6bbe 37e3 64bb
00000200: 93b6 3abe 77ce 3d3d 1e10 503d 4c2f 31be
00000210: 65e7 2a3e 7f67 47be ae6b 3f3d 7bf4 98bd
00000220: 0eab 59be 92ec 9fbd da82 193e d4fc 01be
00000230: a099 10be 0a49 21bd 5499 d63c 810d 7dbe
00000240: 678d 8dbd 244b 87be e16e a4bd 8539 eabd
00000250: 929c 2a3d 9fff 87bc a2d8 673d edc0 4dbd
00000260: fd8c df3d ea16 8fbe ba20 2bbe e458 85bd
00000270: ba1c 99bd 6f67 99bd 39a6 dabc 9007 0d3d
00000280: dc43 bfbd ebb1 b43a 6c36 073e eff9 84bd
00000290: a7ac 0a3e 243d a6be 4314 66be c4c4 1dbe
000002a0: c7e0 3c3d 66bb a4bb d5b5 9cbd 094d 3bbe
000002b0: 1939 18be 5ab6 13be f1d3 20be f049 96bd
000002c0: cc6f 68be 09b8 07be 52bd 9abd 3bec 1ebe
000002d0: 7244 26be 331e 9abe dfd9 dabb ac17 223d
000002e0: 259f 12be de59 aabd 6f7b c2be 00aa 2e3e
000002f0: f975 8abe 3f79 0dbe 3d3d cdbd 07ca 9bbe
00000300: b395 fbbd 6264 5bbd 2f65 d5bc 1d70 eabd
00000310: 582a 913e 2acf 2fbe 380e 09be e133 b3bd
00000320: 679c 88bd 5130 22be bb30 2a3e 5397 153e
00000330: 58a3 58be 8701 41ba 48d7 c33d d1ac d4bb
00000340: 3f42 1ebe 023b 05be b1b7 3a3d 0d75 7d3d
00000350: 489d 00be c9c0 c9bd 5e64 153c 1e9e 90be
00000360: 4a7c 11be 5a60 12be cdfe febd 7f79 a63c
00000370: e215 8dbd 2280 b03c 2233 95be 4d25 63be
00000380: 3662 6ebe 2a9a 8abd 7f64 ec3c aa53 62bd
00000390: 91ec 21bd c147 433c 7ad6 6cbc 46e9 2bbd
000003a0: 7598 d8bd 1a0d ae3c 523f 483c c8c6 14be
000003b0: f3de db3c e570 d63c 4ab0 9abd 3e75 433d
000003c0: e0a8 87bc f06f a2bd 0fa4 043d b1cf 50bd
000003d0: 242d 0ebd ecdc 93bd af9d debd 84eb 6dbc
000003e0: 8963 09be 227a 2b3d 0ad4 cbbd acc7 0a3b
000003f0: d9b3 49bc 71d0 94bc 774f 71bd ebdb 12bd

model/hidden_layers/1/b f4 [75]
2.7374048 -0.2047569 -0.17795926 4.9785557 0.28016454 -0.34980705 -0.016401883 -0.04230141
2.2759526 3.4961808 5.2112713 0.045743417 -0.48264438 1.1267034 5.9994826 1.5259846
-0.02876374 5.6767077 -0.2590922 -0.08686556 0.04356461 -0.06581927 0.67216504 4.7369695
0.619546 0.7819105 -0.18005992 0.0021940598 0.12585928 -0.18129058 -0.17179658 -0.3327051
-0.0138408085 -0.2027409 5.982798 4.4824533 0.18448055 3.5462224 -0.004142495 -0.4574116
1.5174056 -1.1384656 -0.46311247 0.2529233 0.5044405 2.663448 -0.20783094 -0.22647996
-0.19809502 -0.011102117 0.108577885 4.2759132 1.7486397 -0.06515545 -0.30709642 0.028186504
0.3623337 -0.16908142 0.252439 0.34690925 -0.09344523 -0.33686262 0.34461233 2.265574
1.1332616 -0.44205585 -0.29217264 4.10711 5.5051565 1.7334688 4.8648343 -0.085016586
0.30800742 0.26256797 -0.021653067
00000000: a431 2f40 cbab 51be f43a 36be 5450 9f40
00000010: ba71 8f3e e919 b3be 3e5d 86bc 3e44 2dbd
00000020: 35a9 1140 6dc1 5f40 bcc2 a640 735d 3b3d
00000030: 2a1d f7be d137 903f c3fb bf40 7753 c33f
00000040: efa1 ebbc 97a7 b540 bca7 84be 92e6 b1bd
00000050: ce70 323d 41cc 86bd 0213 2c3f 4195 9740
00000060: 919a 1e3f 492b 483f a161 38be 37ca 0f3b
00000070: 41e1 003e 3da4 39be 71eb 2fbe 5358 aabe
00000080: 8fc4 62bc 4f9b 4fbe 1573 bf40 4270 8f40
00000090: 78e8 3c3e 4ff5 6240 c4bd 87bb da31 eabe
000000a0: 593a c23f 3eb9 91bf 141d edbe 2a7f 813e
000000b0: 0323 013f ef75 2a40 a2d1 54be 5dea 67be
000000c0: 6cd9 4abe a7e5 35bc 155e de3d 48d4 8840
000000d0: 6dd3 df3f 3870 85bd be3b 9dbe 62e7 e63c
000000e0: cd83 b93e ae23 2dbe af3f 813e 179e b13e
000000f0: 3660 bfbd 4279 acbe 0771 b03e 2aff 1040
00000100: b70e 913f 2555 e2be a797 95be 726d 8340
00000110: 3e2a b040 4ee2 dd3f b9ac 9b40 2d1d aebd
00000120: 26b3 9d3e 4f6f 863e c661 b1bc
