experiments/visitall/visitall_full_train_set_2-75-4/best/model.npz (npz, 29744 bytes, 6 tensors)

model/hidden_layers/0/W f4 [75, 20]
0	0x3e5842b5	0.21119197
1	0x3d8bf25b	0.06833335
2	0xbdb36c57	-0.087608986
3	0xbf561757	-0.83629364
4	0xbf76cc78	-0.96405745
5	0xbf12679d	-0.5718935
6	0xbed87e61	-0.4228392
7	0x3d13d051	0.036087338
8	0xbeb9f307	-0.36318228
9	0xbc5b3472	-0.013379203
10	0xbe1dd55a	-0.15413418
11	0xbe9869af	-0.2976813
12	0xbe0f06dc	-0.1396746
13	0x3d2e4034	0.042541698
14	0xbc0dac2e	-0.008647008
15	0x3dcacd2c	0.09902415
16	0xbed3d1ed	-0.41371098
17	0xbe102118	-0.14075124
18	0xbecd9dde	-0.40159506
19	0x3c0a1840	0.008428633
20	0x3cbf0ac0	0.023320556
21	0x3dad75dd	0.08469746
22	0xbbfa1011	-0.00763131
23	0xbfce5f61	-1.6122857
24	0x3f3253ed	0.6965931
25	0x3f5cc717	0.86241287
26	0x3f0d2afc	0.55143714
27	0xbd3406c2	-0.043951757
28	0xbf4751a8	-0.7785897
29	0x3d338ac4	0.04383351
30	0x3f8c4802	1.0959475
31	0x3e96b0df	0.29431817
32	0xbd499f4d	-0.049224187
33	0xbf82be5a	-1.0214341
34	0xbc1632af	-0.009167357
35	0x3f26979a	0.65075076
36	0x3f23cf29	0.63987976
37	0xbd958dab	-0.07302412
38	0xbf39f6ad	-0.7264202
39	0xbd1e4da2	-0.038648255
40	0x3fb1aff0	1.3881817
41	0x3d64cff5	0.055862386
42	0x3c8d7eef	0.01727244
43	0xbfbc17d8	-1.4694777
44	0x3eb06b9c	0.344571
45	0x40766557	3.8499353
46	0xbea4483e	-0.32086366
47	0xbd82ce04	-0.063869506
48	0xbe0e632d	-0.1390502
49	0xbc239170	-0.0099834055
50	0x406ae869	3.6704352
51	0xbf2a2cb3	-0.66474456
52	0x3d1f188a	0.03884176
53	0xbf2ee92b	-0.68324536
54	0x3b26d8f8	0.0025458913
55	0x4082cd84	4.0875874
56	0xbf141e23	-0.57858485
57	0x3ba4292e	0.005009792
58	0xbe0a45b2	-0.13503149
59	0x3bbff907	0.005858544
60	0x3ed8ecd3	0.42368183
61	0x3df23a98	0.11827582
62	0xbdd531e9	-0.1040991
63	0xbf9bc0bf	-1.2168196
64	0x3f023bfb	0.5087277
65	0xbf9113c4	-1.1334157
66	0xbe1a1dd8	-0.15050447
67	0xbd4f899b	-0.05066834
68	0xbefd3c54	-0.4946009
69	0xba6077a0	-0.00085627474
70	0xbee5727e	-0.44813913
71	0xbec2e1e5	-0.3806297
72	0xbe01b890	-0.12668061
73	0xbdc99cb9	-0.098443456
74	0x3bbd9a74	0.0057862345
75	0xbf6ce5c9	-0.92538124
76	0xbf232925	-0.63734657
77	0x3c922aaf	0.017842619
78	0xbfafbcaf	-1.3729457
79	0x3cfece1e	0.031104144
80	0x3e2f62c0	0.17127514
81	0xbdea9576	-0.11454289
82	0xbe573307	-0.21015559
83	0xbf429e3a	-0.76022685
84	0xbef25812	-0.47332817
85	0x3fa89780	1.3171234
86	0xbec27003	-0.37976083
87	0xbe50bdce	-0.20384905
88	0xbf194088	-0.5986409
89	0xbd46d0fe	-0.048539154
90	0x3f37ef5f	0.71849626
91	0xbe5857ba	-0.21127215
92	0xbc1af514	-0.009457845
93	0xbf2ddd03	-0.6791536
94	0xbb9cec52	-0.0047889138
95	0x3ff3aa60	1.9036369
96	0xbeba881d	-0.3643197
97	0x3d714191	0.05890042
98	0xbfa4181a	-1.2819855
99	0x3c9a14a8	0.018808678
100	0x3f10e5ad	0.5660046
101	0x3e2107e6	0.1572567
102	0x3dbf1395	0.09329907
103	0x3d34f685	0.04418041
104	0x3f136e92	0.5759059
105	0x3fd03813	1.6267112
106	0xbd8a5b78	-0.067557275
107	0xbd039656	-0.032125793
108	0x3e79a447	0.24379073
109	0xbd3c5d30	-0.045987308
110	0x4000e8e3	2.0142143
111	0x3cab8d0e	0.020941284
112	0xbc712c58	-0.014720045
113	0x3ecdb755	0.40178934
114	0x3cc8b0ed	0.024498427
115	0x3fe2fafc	1.7732844
116	0x3e6ead63	0.2330833
117	0xbcf12591	-0.029436858
118	0x3de8eec1	0.11373664
119	0x3cc4d3de	0.024026807
120	0x3dc42c8a	0.09578808
121	0x3ed15015	0.4088141
122	0x3b1dbf4f	0.0024070328
123	0xbf8c4b63	-1.0960506
124	0xbbdd7621	-0.006758467
125	0x3e859b17	0.26094887
126	0xb9006a8a	-0.0001224672
127	0x3ddc3b51	0.10753501
128	0xbfbb850b	-1.4649976
129	0x3c15fa14	0.009153862
130	0xbdb25e3c	-0.0870938
131	0xbe77fac3	-0.24216752
132	0xbe0d91c7	-0.13825141
133	0xbfca806e	-1.5820444
134	0xbb2d46fe	-0.002644002
135	0xbe8f8e0b	-0.28038058
136	0xbdaa19fe	-0.08305739
137	0x3de08e8c	0.10964689
138	0xbfcd089c	-1.6018252
139	0xbc722fcd	-0.014781904
140	0xbee1f086	-0.44128817
141	0xbe74b03e	-0.23895356
142	0x3e901bcc	0.28146207
143	0xbf8ee6e3	-1.1164211
144	0x3d4e6dfa	0.05039785
145	0xbea616e8	-0.3243935
146	0xbe815f55	-0.25268045
147	0xbcaa95a9	-0.020823317
148	0xbf8d0020	-1.1015663
149	0x3c265de3	0.01015422
150	0x3b4a53a3	0.0030872605
151	0xbe3fce1e	-0.18730971
152	0xbeab1ef0	-0.3342204
153	0xbf6be5e9	-0.9214769
154	0xbcc82258	-0.024430439
155	0xbeec8b0c	-0.46199834
156	0xbd82f25d	-0.063938834
157	0xbeb7947f	-0.3585548
158	0xbfefa890	-1.8723316
159	0x3ba27b8d	0.004958576
160	0xbf65a156	-0.89699304
161	0x3b837902	0.004012228
162	0x39a29a82	0.00031014165
163	0xbf36ac81	-0.7135697
164	0xbcbbed83	-0.022940403
165	0xbf2371ac	-0.63845325
166	0x3e1a9d8c	0.15099162
167	0x3e20addd	0.15691324
168	0xbf95700d	-1.167482
169	0xbc239940	-0.009985268
170	0x3ecebd79	0.4037893
171	0x3e3c603c	0.18396086
172	0x3e126837	0.14297567
173	0xbe5cc575	-0.21559699
174	0xbc166ef0	-0.009181723
175	0xbf816e85	-1.0111853
176	0x3f0b1ef0	0.5434408
177	0x3eb81649	0.35954502
178	0xbfa603d0	-1.2969913
179	0xbcb57d78	-0.022154555
180	0xbf5216b9	-0.8206592
181	0x3e034897	0.1282066
182	0xbe642286	-0.22278795
183	0xbfae4050	-1.3613377
184	0xbef74fb0	-0.48302984
185	0xbfba7bc6	-1.4569023
186	0xbea9a49f	-0.33133408
187	0xbdde68cc	-0.10859832
188	0xbfbf2325	-1.49326
189	0xbd90a580	-0.070628166
190	0xbfdbdc91	-1.7176687
191	0xbdfacb0a	-0.12245758
192	0xbcec2b25	-0.028829167
193	0xc00b9221	-2.180794
194	0x3c83cdee	0.016089406
195	0xbff021c5	-1.8760306
196	0xbe83f809	-0.25775173
197	0xbe418b1b	-0.18900721
198	0xc0176054	-2.3652544
199	0x3cb2216d	0.021744454
200	0x3d561828	0.05226913
201	0x3cf41250	0.029793888
202	0xbe42027a	-0.18946257
203	0x402afb93	2.6716049
204	0xbec92382	-0.39284903
205	0x3ee311f1	0.44349626
206	0xbf2ee308	-0.6831517
207	0xbdfaf78f	-0.12254249
208	0x3d985c26	0.07439451
209	0xbd05f48e	-0.03270393
210	0x3fd7bb91	1.6854116
211	0xbf069a38	-0.5257907
212	0xbdc96665	-0.09833983
213	0x3acd34a4	0.0015655947
214	0x3be6f903	0.0070487275
215	0x3f725f33	0.9467651
216	0xbe0aabbb	-0.13542072
217	0xbd3901db	-0.045167785
218	0x3ed889bb	0.4229258
219	0x3c16d1c6	0.009205287
220	0x3ffe1122	1.9848979
221	0xbd04d678	-0.032431096
222	0xbbd521a9	-0.0065042567
223	0xbedb83d0	-0.42874002
224	0xbe761d4b	-0.24034612
225	0x40b4c869	5.649464
226	0x3ed50bad	0.4161047
227	0x3ca5f578	0.02025865
228	0xbef7d178	-0.48402
229	0x3c44864b	0.011994909
230	0x40846245	4.136996
231	0x3ea2a0db	0.31763348
232	0x3cd50f2d	0.026008213
233	0x3f822b45	1.0169455
234	0xbcf8be37	-0.030364139
235	0x40aff6f9	5.498898
236	0xbe623ace	-0.22092745
237	0xbce32180	-0.027725935
238	0xbda81401	-0.082069404
239	0x3bb95bd9	0.005656701
240	0x3d71b769	0.059012804
241	0x3d4ba8cc	0.049721524
242	0x3e2f0f76	0.17095742
243	0xbf350264	-0.7070677
244	0x3dfa8743	0.122328304
245	0xc009d0ef	-2.1533773
246	0xbe97202b	-0.2951673
247	0xbcb83132	-0.022484396
248	0xbf5607d0	-0.8360567
249	0x3c760e98	0.015018128
250	0xbfc65505	-1.5494696
251	0x3d908d24	0.070581704
252	0x3d95d6d8	0.07316369
253	0xbf0507bb	-0.5196492
254	0x3c75aa20	0.014994174
255	0xbfcda13f	-1.6064833

model/hidden_layers/0/b f4 [75]
0	0xc030e2bd	-2.763839
1	0xbfc01dd0	-1.5009098
2	0xbf471eab	-0.7778117
3	0xbf4d17dd	-0.8011454
4	0xbfa8e289	-1.3194133
5	0x4023ba34	2.55824
6	0xc02b1752	-2.6732984
7	0xbf642acf	-0.8912782
8	0xbe65fbfd	-0.22459407
9	0x3f601615	0.87533695
10	0xbfaa7fa4	-1.3320203
11	0xbf368252	-0.71292603
12	0xc077707f	-3.8662412
13	0xbfada1e8	-1.3565035
14	0xc0e4638a	-7.137151
15	0x3d8930f5	0.06698791
16	0xc0290b1e	-2.6413035
17	0xc08c2321	-4.379288
18	0x3e3d4754	0.18484241
19	0xbf7be5ee	-0.9839772
20	0xbf9bac2f	-1.2161921
21	0x3f3ab74b	0.7293593
22	0x3f557ef4	0.8339684
23	0xbffd3ee9	-1.9784824
24	0xc003723a	-2.0538468
25	0xc026fb65	-2.609094
26	0xc0488085	-3.1328442
27	0xbf5e0b87	-0.8673634
28	0xbff616d4	-1.9225717
29	0xbf4db61e	-0.80356014
30	0xbf73a888	-0.95179033
31	0xbfde16bc	-1.7350688
32	0xc09d7960	-4.9210663
33	0xc07c9608	-3.9466572
34	0xc074759f	-3.819679
35	0xbfbb8a99	-1.4651672
36	0x4156299c	13.385159
37	0xbfc140a7	-1.5097855
38	0xbfc4e5a8	-1.5382586
39	0xbf830b00	-1.0237732
40	0x40d2cb30	6.587303
41	0x3f796560	0.9742031
42	0xbeaa1cfe	-0.33225244
43	0x4023a8d9	2.5571806
44	0xbf0e00c1	-0.554699
45	0x419ca19f	19.578917
46	0xc01a94f0	-2.4153404
47	0xc0302828	-2.752451
48	0xbfc08042	-1.5039141
49	0xbf9fd48e	-1.2486742
50	0xbfa75bf2	-1.3074934
51	0xc05e68a3	-3.4751365
52	0x3f6b198c	0.91835856
53	0xbf61f908	-0.88270617
54	0xc068a02b	-3.6347759
55	0xc0be326c	-5.943655
56	0xc00bb5f9	-2.1829817
57	0x3ec4aeca	0.38414603
58	0xbf9fb5bb	-1.2477335
59	0xc02ecc1b	-2.7312076
60	0xbf910d49	-1.1332179
61	0x3fa9ac11	1.3255635
62	0xc012f65b	-2.2962863
63	0xbf249949	-0.64296395
64	0x3bd48b71	0.0064863493
65	0xbf97718c	-1.1831527
66	0x3dcaf6c5	0.09910349
67	0xc026ba2f	-2.6051137
68	0xbf7e0dd0	-0.99239826
69	0xbfc59484	-1.5435948
70	0xbf8e5de5	-1.1122404
71	0xc06ad562	-3.6692739
72	0xc07c7831	-3.944836
73	0xbfc4c59d	-1.5372807
74	0xbfc85627	-1.5651292

model/hidden_layers/1/W f4 [75, 75]
0	0xbc1e26b0	-0.0096527785
1	0xbe094f36	-0.13409123
2	0xbd493ecf	-0.049132165
3	0xbe2f2637	-0.17104422
4	0x3e1c84bd	0.1528501
5	0xbe873342	-0.26406294
6	0xbbed0496	-0.0072332127
7	0x3d7ad147	0.06123474
8	0xbeab3f35	-0.3344666
9	0xbe36577e	-0.17806813
10	0xbdef4348	-0.11682755
11	0xbe84768c	-0.25871694
12	0xbdc392a2	-0.09549452
13	0xbd0e75ef	-0.03478044
14	0xbdae4221	-0.08508707
15	0xbe8ab08d	-0.27087823
16	0xbdc2a96a	-0.095049694
17	0x3d8640ac	0.06555304
18	0xbddef79e	-0.10887073
19	0x3bc274b7	0.0059343236
20	0xbb3f6790	-0.0029206015
21	0xbe0d2fb1	-0.13787724
22	0xbdac390f	-0.084093206
23	0xbdb1983e	-0.08671616
24	0xbd89d764	-0.067305356
25	0xbde584e1	-0.11206985
26	0x3dd407e6	0.10353069
27	0xbe3d5ece	-0.18493196
28	0xbe32c97c	-0.17459673
29	0xbdb7c7ef	-0.08973681
30	0x3dd62b0a	0.10457428
31	0x3d2ea562	0.04263819
32	0xbdd50f6b	-0.10403331
33	0xbda2a516	-0.07941644
34	0xbe7208d9	-0.23636188
35	0xbe73c6d5	-0.23806317
36	0x3db9f569	0.090800114
37	0xbe91700a	-0.28405792
38	0xbdba01d1	-0.09082378
39	0xbdbb5566	-0.09147148
40	0xbdf38325	-0.11890248
41	0xbdd573d1	-0.10422481
42	0xbe5d1a7c	-0.21592134
43	0xbecc8859	-0.39947775
44	0xbcad4cef	-0.021154849
45	0xbce5f246	-0.028069627
46	0xbe4e6ad0	-0.20157933
47	0xbd3a097e	-0.04541921
48	0xbc389c07	-0.011267669
49	0x3d38e064	0.04513587
50	0xbcee0f0a	-0.029059906
51	0xbed80ac5	-0.42195717
52	0xbe52e2cc	-0.20594329
53	0x3e819df8	0.25315833
54	0xbe22aa35	-0.15885241
55	0xbe4af97a	-0.1982173
56	0xbdf05404	-0.11734775
57	0xbd9ce376	-0.07660572
58	0xbe1996c7	-0.14998923
59	0xbe6289cf	-0.22122882
60	0xbe209dd8	-0.15685213
61	0xbea3545f	-0.31900308
62	0xbc9ff160	-0.019524276
63	0x3db1853f	0.08667993
64	0xbc9d6f2d	-0.019218052
65	0xbcfb5eb4	-0.030684806
66	0xbd2ea89f	-0.04264128
67	0x3e1e7b80	0.15476799
68	0x3c6c71dc	0.014431443
69	0xbdd6728c	-0.10471067
70	0xbdea61bc	-0.114444226
71	0x3d95eb3f	0.0732026
72	0x3c1562ab	0.009117763
73	0x3c8cfd01	0.017210485
74	0x3e07be2e	0.13256142
75	0xbe24bea4	-0.16088349
76	0xbd74174f	-0.05959254
77	0xbe52c5b4	-0.2058323
78	0xbc950911	-0.0181928
79	0xbd8f45f4	-0.069957644
80	0xbdfdae65	-0.12386779
81	0xbea296a9	-0.3175557
82	0x3d8ab066	0.067719266
83	0x3b222b1d	0.0024744936
84	0xbe1f62e8	-0.15565073
85	0x3cf08892	0.029361997
86	0xbdbb347c	-0.0914087
87	0x3b1876af	0.00232641
88	0xbdedadbc	-0.11605403
89	0xbe0215e9	-0.1270367
90	0xbdf52e50	-0.11971724
91	0x3db3329c	0.08749887
92	0x3c96f871	0.018429013
93	0xbd823ea6	-0.063596055
94	0xbda257cc	-0.07926902
95	0xbd9faddd	-0.07796834
96	0xbd70dbb8	-0.05880329
97	0xbe4fca76	-0.20292076
98	0xbca2fd63	-0.019896215
99	0x3df346c9	0.118787356
100	0xbe098d37	-0.13432775
101	0xbe7dee22	-0.24797872
102	0xbe3ecfd0	-0.18633962
103	0xbe383a51	-0.17990996
104	0x3e11df8e	0.14245436
105	0xbc0244bb	-0.007950957
106	0xbe179076	-0.14801201
107	0xbc0046ae	-0.007829351
108	0xbe0f592e	-0.13998863
109	0xbd2a809d	-0.04162656
110	0xbe25174a	-0.16122165
111	0xbe276ed1	-0.16350867
112	0xbe0489ae	-0.12943146
113	0xbe17ef93	-0.14837484
114	0x3d618b89	0.05506471
115	0xbd43cf18	-0.047804922
116	0xbe102d46	-0.1407977
117	0xbc637137	-0.013881973
118	0xbe48272d	-0.19546194
119	0xbd1f9dea	-0.038968958
120	0xbe083d96	-0.13304743
121	0xbdaa7130	-0.0832237
122	0x3cc7b681	0.024379017
123	0x3e08a1f0	0.13343024
124	0xbd9bf1db	-0.0761449
125	0xbdce723b	-0.100803815
126	0xbe769946	-0.24081907
127	0x3c877e82	0.016539816
128	0xbe0d924d	-0.1382534
129	0xbd6abff5	-0.05731197
130	0x3bb2f93a	0.005461839
131	0xbdaee90a	-0.085405424
132	0x3e059705	0.1304589
133	0xbe21ce0c	-0.15801257
134	0xbd1bf0e9	-0.038071547
135	0xbe0dcd2a	-0.13847795
136	0xbe8ce6ed	-0.27519932
137	0xbda29884	-0.07939246
138	0xbc0069b8	-0.007837705
139	0xbde9f34c	-0.11423358
140	0xbe267685	-0.16256149
141	0xbcb2c199	-0.02182083
142	0x3c221d31	0.009894655
143	0xbe588d37	-0.21147619
144	0xbdb123d7	-0.08649414
145	0xbe45b102	-0.19305804
146	0xbe748aaa	-0.23881021
147	0xbb748ac0	-0.0037314147
148	0x3d060f4a	0.032729425
149	0x3dd08a71	0.101826556
150	0xbcd0a362	-0.025468532
151	0xbe3ee9eb	-0.1864392
152	0x3d02eb71	0.031962816
153	0xbe9737b5	-0.2953469
154	0xbdc8731a	-0.09787579
155	0xbe010a88	-0.12601674
156	0xbdddcdea	-0.108302906
157	0xbe47f193	-0.19525747
158	0xbe091c90	-0.13389802
159	0x3d7dbdd1	0.0619486
160	0x3da1b765	0.07896308
161	0x3d951e96	0.072812244
162	0x3d82ac7c	0.06380555
163	0xbcd98bc1	-0.026555898
164	0xbe230c08	-0.15922558
165	0xbea805ee	-0.32817024
166	0xbb966434	-0.004589582
167	0xbe3c21c0	-0.1837225
168	0xbd15b8bd	-0.036553133
169	0x3ce45b38	0.027875528
170	0xbdb6dacd	-0.08928452
171	0xbe2102ec	-0.15723771
172	0xbe5ac90c	-0.21365756
173	0xbd60e998	-0.054910272
174	0xbd30b3d0	-0.043140233
175	0xbdb3d32a	-0.08780511
176	0xbe5683cf	-0.20948718
177	0xbdf3bf9b	-0.1190178
178	0x3dca0479	0.09864134
179	0xbe89489e	-0.26813215
180	0xbe30ee99	-0.17278518
181	0xbe68e380	-0.22743034
182	0xbd839ac1	-0.06426001
183	0xbd81d7d8	-0.06339997
184	0xbdd9d23c	-0.10635802
185	0xbe7a9570	-0.24471068
186	0xbe6e0fb2	-0.23248175
187	0xbcd1458a	-0.025545854
188	0xbe3df3bb	-0.18550007
189	0xbdf94fd4	-0.12173429
190	0x3c518da3	0.0127901165
191	0xbe730552	-0.23732498
192	0xbe759ebe	-0.23986337
193	0xbca3c147	-0.019989623
194	0xbd3aae86	-0.045576595
195	0xbc2844f6	-0.010270348
196	0x3c562091	0.013069288
197	0xbe11f1cd	-0.14252396
198	0xbde329d2	-0.11091961
199	0x3cbfd86b	0.023418626
200	0xbe8db34d	-0.27675858
201	0xbe309ca9	-0.17247261
202	0x3da4159e	0.08011936
203	0x3da5c1f5	0.08093635
204	0xbe8fa2c3	-0.28053865
205	0x3d984ede	0.07436918
206	0x3d5327a7	0.051551487
207	0xbd7cb729	-0.061698113
208	0xbced1202	-0.02893925
209	0xbdbb3f1e	-0.09142898
210	0xbc28863f	-0.010285913
211	0xbdd5858e	-0.10425864
212	0xbe1939ab	-0.14963405
213	0xbb8a4fa0	-0.004220918
214	0xbd887b7e	-0.06664179
215	0xbe7d44ef	-0.24733327
216	0xbe87dfa0	-0.265378
217	0xbe3e9aa5	-0.1861368
218	0xbc5471e8	-0.0129666105
219	0xbe20f78d	-0.15719433
220	0xbdc9beda	-0.09850855
221	0xbd6c0a80	-0.0576272
222	0xbe3fc0ce	-0.18725893
223	0xbe5f7687	-0.21822558
224	0xbe868dac	-0.26279962
225	0xbdba0a65	-0.09084014
226	0xbe21d7a3	-0.15804915
227	0x3e1e2480	0.15443611
228	0x3d205b38	0.039149493
229	0x3da7c7fc	0.08192441
230	0xbe46cbce	-0.19413683
231	0xbe14ac92	-0.14518955
232	0xbe1aea8e	-0.15128538
233	0xbe0804b4	-0.13283044
234	0x3c2e2706	0.010629421
235	0x3d463f73	0.048400354
236	0x3d2f51f0	0.04280275
237	0x3cf9d273	0.030495858
238	0xbe9924ca	-0.2991088
239	0xbdef6784	-0.11689666
240	0xbd81ba86	-0.06334405
241	0x3c2cfa9d	0.010557798
242	0xbcb007bf	-0.021488069
243	0x3c1c5ffa	0.009544367
244	0xbd20d5ee	-0.03926652
245	0xbda3971f	-0.079878084
246	0x3d2c15ff	0.042013165
247	0xbde61701	-0.112348564
248	0xbd81829c	-0.0632374
249	0xbc9790ac	-0.018501602
250	0xbda59872	-0.08085717
251	0xbcf3c7d6	-0.029758375
252	0x3d725027	0.05915847
253	0xbdea3f98	-0.11437911
254	0x3abd0e39	0.0014423794
255	0x3d4c62a4	0.04989876

model/hidden_layers/1/b f4 [75]
0	0x3f76e52e	0.9644345
1	0xbe14d425	-0.14534052
2	0xbec906c8	-0.39262986
3	0x3dc120d2	0.09430088
4	0x3f1c7e61	0.6113034
5	0xbe27e52f	-0.1639602
6	0xbea402ba	-0.3203333
7	0xbd73a1bf	-0.059480425
8	0x3e62f554	0.22163898
9	0x3f25f18d	0.648217
10	0x406e01f7	3.71887
11	0xbe252403	-0.16127019
12	0xbe627ad8	-0.22117174
13	0x3f249a96	0.6429838
14	0x3f7f631d	0.9976061
15	0x3f8a7965	1.0818297
16	0xbeae9184	-0.34095395
17	0x4121ce8d	10.112927
18	0xbf1e955a	-0.6194664
19	0x3d498971	0.04920334
20	0x3f089e6c	0.5336673
21	0x3da53d25	0.08068303
22	0xbf46fa00	-0.7772522
23	0x4196c119	18.844286
24	0x3b88498b	0.0041591576
25	0x3e6136fa	0.21993628
26	0xc0b41230	-5.62722
27	0x3caf2e59	0.021384405
28	0x3e0f1c9a	0.13975754
29	0xbe0b2767	-0.1358925
30	0xbeeef099	-0.46667936
31	0xbf3823ba	-0.71929514
32	0xbdaf4d73	-0.08559694
33	0xbf2489af	-0.6427259
34	0x3de3d584	0.11124709
35	0x3f8be320	1.0928688
36	0x3e1382f6	0.14405426
37	0xbd6f593e	-0.058434717
38	0x3e6bd6fa	0.23031226
39	0xbefd7b44	-0.49508107
40	0x3c9f2ee4	0.019431539
41	0xbfe1cbcf	-1.7640322
42	0xbe55a866	-0.2086502
43	0x3dad195a	0.08452101
44	0x3efb7e72	0.49119908
45	0x3ea45b31	0.32100824
46	0xbf3fe578	-0.74959517
47	0xc0108d63	-2.2586296
48	0xbef9814d	-0.4873146
49	0xbd625112	-0.055253096
50	0xbe5e68b3	-0.21719627
51	0x3fc688e3	1.5510525
52	0x4023f880	2.5620422
53	0xc00e0b65	-2.2194455
54	0xbe21666c	-0.15761727
55	0xbef26820	-0.47345066
56	0x3d812640	0.06306124
57	0xbe20ccd3	-0.15703134
58	0xbe11b5d7	-0.14229523
59	0x3e4991fc	0.19684595
60	0x3d821147	0.06350952
61	0xbf3ee80f	-0.74572843
62	0xbe8b1283	-0.2716256
63	0x3f204065	0.6259826
64	0x3feb2fbd	1.8373944
65	0xbe0fbe13	-0.14037351
66	0xbf4c789b	-0.7987153
67	0x4009241d	2.1428292
68	0x41915932	18.168552
69	0x408c77d0	4.3896255
70	0x412b44af	10.704268
71	0x3c602abc	0.013682064
72	0x3e6c8c80	0.23100471
73	0xbc678ede	-0.014133183
74	0xbfcd6180	-1.604538

model/output/W f4 [4, 75]
0	0xbc6d30e4	-0.014476988
1	0xbd58cd3c	-0.0529301
2	0x3d66068f	0.0561586
3	0xbd43ad58	-0.047772735
4	0x3e891205	0.2677156
5	0x3dbf8433	0.09351387
6	0x3d397efc	0.045287117
7	0xbdc464a4	-0.09589508
8	0xbd9f466a	-0.07777102
9	0x3c9e734c	0.019342087
10	0xbe0551a2	-0.13019422
11	0x3c250154	0.010071117
12	0xbb3a9ad2	-0.0028473628
13	0xbe82f058	-0.25573993
14	0xbe50cb49	-0.20390047
15	0xbdaa39da	-0.083118156
16	0xbd9f8eca	-0.07790907
17	0xbdc3eb51	-0.095663674
18	0x3e3c6f5d	0.18401857
19	0xbd4eb992	-0.050469942
20	0x3e1b7394	0.15180808
21	0x3f21d16a	0.63210166
22	0xbccf8805	-0.025333414
23	0xbf12cc18	-0.5734267
24	0xbd537442	-0.051624544
25	0x3b956754	0.004559437
26	0x3e32d300	0.17463303
27	0x3e0b4494	0.13600379
28	0xbe5ac723	-0.21365027
29	0xbdd048fd	-0.101701714
30	0xbdb213a9	-0.08695156
31	0x3de8f90c	0.11375627
32	0x3e8b769d	0.27238932
33	0x3e3368a3	0.17520384
34	0xbc0b8da6	-0.008517658
35	0x3e09efee	0.13470432
36	0x3e1a3dbe	0.15062615
37	0xbd2ad16b	-0.041703623
38	0x3d6abd83	0.05730964
39	0x3d42c9f6	0.047555886
40	0x3f09136a	0.5354525
41	0x3df8917a	0.121371225
42	0xbd98b8ff	-0.0745716
43	0xbe475ece	-0.19469759
44	0xbde4d22b	-0.11172899
45	0xbc34a418	-0.011025451
46	0x3cb0479f	0.021518527
47	0x3d8c4d3a	0.06850667
48	0x3dc48777	0.0959615
49	0x3ea58262	0.32326037
50	0x3e7591e7	0.23981439
51	0xbe8bff57	-0.27343246
52	0xbd40b639	-0.04704878
53	0x3cb53270	0.022118777
54	0xbceabdfd	-0.028655047
55	0xbced4bdc	-0.028966837
56	0x3c5faf05	0.013652568
57	0x3a7e8434	0.0009709031
58	0x3c2c1ae5	0.010504459
59	0x3e87c700	0.26519012
60	0xbd908a8b	-0.07057675
61	0xbcc03ab3	-0.02346549
62	0xbea2c4fb	-0.3179091
63	0xbec95dfb	-0.39329514
64	0xbea43b36	-0.32076424
65	0xbdb4019a	-0.08789368
66	0x3dc48321	0.09595323
67	0xbd8c2e92	-0.0684482
68	0xbef657a6	-0.48113745
69	0xbe2b52a2	-0.1673074
70	0xbeeebb00	-0.46627045
71	0xbda13aea	-0.07872565
72	0xbdabcfc9	-0.08389241
73	0xbe1436c0	-0.1447401
74	0x3d1768e0	0.03696525
75	0xbd3d95cd	-0.04628544
76	0x3c0cbca8	0.008589901
77	0x3aa6a83e	0.0012714935
78	0x3d076e6e	0.0330643
79	0xbda0b744	-0.07847455
80	0x3d9f6725	0.07783345
81	0x3e2bef09	0.16790403
82	0x3e12c5e4	0.14333302
83	0xbd04b6a2	-0.032400735
84	0xbd4683ff	-0.048465725
85	0xbe1dc145	-0.15405758
86	0xbd8652cc	-0.06558761
87	0xbcd6fee8	-0.026244596
88	0xbe9aac40	-0.3020954
89	0x3e3234e4	0.17402989
90	0xbc5d8d13	-0.013522404
91	0x3d5671cb	0.052354615
92	0xbd002757	-0.031287517
93	0xbca41ce5	-0.02003331
94	0x3d51290d	0.05106454
95	0xbe822edc	-0.25426376
96	0x3e91cc29	0.28476074
97	0xbd200548	-0.039067537
98	0xbf0ed42e	-0.5579251
99	0x3dc07864	0.09397963
100	0x3cc7f939	0.02441083
101	0x3e2267ce	0.15859911
102	0xbe089186	-0.13336763
103	0xbe535df3	-0.20641308
104	0x3d6015b1	0.054708187
105	0x3ddbdb0e	0.10735141
106	0x3e9e9fd9	0.3098133
107	0xbe6694d8	-0.22517717
108	0x3de1fb38	0.11034244
109	0xbd1d70ff	-0.03843784
110	0x3df90520	0.12159181
111	0x3dc5c634	0.09656945
112	0x3d9722c7	0.0737968
113	0xbba86ebf	-0.005140155
114	0x3d7a055d	0.06104027
115	0xbca67497	-0.020319266
116	0xbb9c8ff5	-0.004777903
117	0x3dde6663	0.108593725
118	0xbd7e4044	-0.062073007
119	0xbe029263	-0.12751155
120	0xbdc8f3ca	-0.09812124
121	0x3d095b0b	0.03353409
122	0x3d9f3613	0.07773986
123	0x3e1044e9	0.14088787
124	0x3e93155e	0.2872724
125	0xbe00654c	-0.12538642
126	0xbe3b1f3c	-0.18273634
127	0xbac225aa	-0.001481225
128	0x3af5f97b	0.0018766368
129	0x3be0be0d	0.0068585933
130	0x3d0b5f02	0.034026153
131	0x3e2a2d90	0.16618943
132	0x3d144a36	0.036203586
133	0x3deeb71f	0.11656021
134	0xbdaf5e21	-0.085628755
135	0xbe4f2556	-0.20229086
136	0xbcf15022	-0.029457156
137	0xbe5a811e	-0.21338317
138	0xbe45b3a0	-0.19306803
139	0xbe8ba5db	-0.27274975
140	0xbd85f21f	-0.065403216
141	0x3e105c5d	0.14097734
142	0xbdb21dbf	-0.0869708
143	0xbeecda5e	-0.4626035
144	0xbd8a7dbb	-0.067622624
145	0xbeed9cd8	-0.46408725
146	0xbd849110	-0.06472981
147	0x3ced7a79	0.028989064
148	0xbe0e9c9e	-0.13926932
149	0x3dabc7dc	0.083877295
150	0xbd06bf62	-0.03289736
151	0xbb0848e6	-0.0020795404
152	0xbc278bb4	-0.010226179
153	0xbcb4d372	-0.022073481
154	0xbde62a99	-0.112385936
155	0x3bd4120a	0.006471877
156	0x3d28f692	0.041250773
157	0x3ea24fca	0.317015
158	0xbdc87240	-0.097874165
159	0x3bf8e43f	0.0075955684
160	0xbe3473ff	-0.17622374
161	0x3dfbcd01	0.12294961
162	0xbcf03db4	-0.029326297
163	0xbe9af33f	-0.30263707
164	0x3c0b9a9c	0.0085207485
165	0x3be5a96a	0.007008721
166	0xbb8afa38	-0.004241254
167	0x3c22fa6c	0.009947401
168	0x3e2a7d61	0.16649391
169	0xbc46e66e	-0.0121399
170	0xbd4576c1	-0.048208956
171	0x3e8e263d	0.27763548
172	0x3c31c318	0.010849737
173	0xbf07397c	-0.5282209
174	0xbdc2bce5	-0.09508685
175	0xbcbc0d03	-0.022955423
176	0x3e1aeab0	0.15128589
177	0xbdba84c8	-0.09107357
178	0xbe6fd101	-0.23419572
179	0xbcd93e38	-0.026518926
180	0x3df927a2	0.121657625
181	0x3e0d45df	0.13796185
182	0xbdbac52a	-0.09119637
183	0x3e535d0c	0.20640963
184	0xbbfe8e25	-0.00776841
185	0x3e19150d	0.14949436
186	0x3db7afcd	0.08969078
187	0x3d0836d1	0.033255402
188	0x3ddd496a	0.10805018
189	0x3e919968	0.28437352
190	0x3d1e3e9f	0.03863394
191	0x3c7109b9	0.014711791
192	0x3d960d49	0.07326753
193	0x3aab9c8d	0.001309292
194	0xbe196acc	-0.14982146
195	0xbdb1ced3	-0.08682027
196	0x3c2131a5	0.009838496
197	0x3d7e7bed	0.062129904
198	0x3e021181	0.1270199
199	0x3eea355e	0.4574384
200	0x3e27c306	0.1638299
201	0xbe39e712	-0.18154553
202	0x3d079f0d	0.033110667
203	0x3d210808	0.0393143
204	0xbd856c4b	-0.06514796
205	0xbd01bc4a	-0.031673707
206	0x3d611b15	0.054957468
207	0xbd93b4ee	-0.07212244
208	0x3d537fe4	0.051635638
209	0xbd85a68e	-0.065259084
210	0xbdefd2df	-0.11710142
211	0xbc381981	-0.011236549
212	0xbdcbe81d	-0.099563815
213	0xbe743db9	-0.2385167
214	0xbe8f03ab	-0.27932486
215	0xbdf38c4a	-0.118919924
216	0x3e27e9af	0.16397737
217	0xbd81069d	-0.063000895
218	0xbeef034a	-0.46682197
219	0xbdd0a49d	-0.101876475
220	0xbeeb0361	-0.45901015
221	0xbddad070	-0.106842875
222	0xbcd36ea1	-0.025809588
223	0xbd280d4d	-0.04102831
224	0x3d94bdca	0.07262762
225	0x3d967bba	0.07347818
226	0xbd54fc48	-0.051998407
227	0xbd6d1f1d	-0.057891
228	0xbdba866f	-0.091076724
229	0x3d9f88cd	0.077897646
230	0xbd673d83	-0.056455147
231	0x3dafe54e	0.08588658
232	0x3e91d388	0.28481698
233	0xbd0bd351	-0.034137074
234	0xbd361e9b	-0.04446278
235	0xbe0bc140	-0.13647938
236	0x3c7063fa	0.014672274
237	0xbd8098d6	-0.06279151
238	0xbe9f4b2e	-0.31112045
239	0x3dfb65fa	0.1227531
240	0x3d49b7de	0.049247615
241	0x3b786444	0.003790156
242	0xbcf8bb1f	-0.030362664
243	0x3e4deae3	0.20109133
244	0xbdd67f8a	-0.10473545
245	0xbdd520c3	-0.104066394
246	0x3e7dd23a	0.24787226
247	0xbc010cdd	-0.007876602
248	0xbf0d11b4	-0.5510514
249	0xbda78e2f	-0.08181416
250	0xbc3d3572	-0.011548387
251	0x3e1f9ba7	0.1558672
252	0xbe760d64	-0.24028546
253	0xbe3a3a99	-0.18186416
254	0xbe33a479	-0.1754321
255	0x3d78dff7	0.060760465

model/output/b f4 [4]
0	0xc157107b	-13.441524
1	0xc180b8d0	-16.09024
2	0xc18c7316	-17.556194
3	0xc18051e9	-16.039995
