experiments/sokoban/sokoban_full_train_set_2-75-4/best/model.npz (npz, 29732 bytes, 6 tensors)

model/output/b f4 [4]
0	0xbff848d5	-1.9397227
1	0xbfe5f4ab	-1.7965292
2	0xc004de41	-2.0760653
3	0xbfea49d3	-1.8303779

model/output/W f4 [4, 75]
0	0xbf0e93b5	-0.55694133
1	0xbb08b9a9	-0.0020862615
2	0x3d1f270b	0.038855594
3	0xbf0fb1ce	-0.56130683
4	0xbf33d614	-0.7024853
5	0x3c9c2c94	0.019064225
6	0x3c5972b6	0.013271978
7	0xbcad5345	-0.02115787
8	0xbd80fbb8	-0.062980115
9	0xbf27a93d	-0.6549261
10	0xbf5e5f10	-0.86863804
11	0xbe0954d6	-0.13411269
12	0x3d17eb26	0.03708949
13	0xbde994a8	-0.11405307
14	0xbdc7ffce	-0.09765588
15	0xbe0c0fd8	-0.13677919
16	0xbb11e978	-0.0022264402
17	0xbf27e542	-0.65584195
18	0xbd61d574	-0.055135205
19	0x3cb56b28	0.022145823
20	0x3cf77944	0.030209191
21	0xbc1d3e62	-0.009597393
22	0x3a6dee2f	0.00090763246
23	0xbe8db3c7	-0.27676222
24	0xbd3ed6c5	-0.04659154
25	0xbe8517d8	-0.25994754
26	0xbf0da0f7	-0.5532374
27	0xbb748de6	-0.0037316023
28	0xbda08605	-0.07838062
29	0xbdf205d2	-0.118175164
30	0xbda6e413	-0.081489705
31	0xbdfd79e6	-0.12376766
32	0x3da380f5	0.07983581
33	0xbf1a24fc	-0.60212684
34	0x3dc5b7fb	0.09654232
35	0xbf30ec35	-0.69110423
36	0xbeca6da8	-0.39536786
37	0xbecc98e7	-0.39960405
38	0xbd2f8737	-0.04285356
39	0xbc9b3450	-0.018945843
40	0xbec12232	-0.377214
41	0x3d10906a	0.035293974
42	0x3d136a62	0.035990126
43	0xbc4b9cd3	-0.0124275265
44	0x3be602a4	0.0070193578
45	0xbd82770f	-0.06370365
46	0xbd31dc99	-0.04342327
47	0xbe040020	-0.12890673
48	0xbec16c90	-0.3777814
49	0xbf012eeb	-0.50462216
50	0xbe5e682d	-0.21719427
51	0xbf0f12ed	-0.55888253
52	0xbf26cb63	-0.65154094
53	0x3e658316	0.22413287
54	0xbd007454	-0.03136094
55	0xbd275df9	-0.040861104
56	0x3b41ebfe	0.0029590125
57	0x3c7c2e6b	0.015391926
58	0xbcfc274b	-0.030780455
59	0xbe52e06f	-0.20593427
60	0xbf06b324	-0.52617097
61	0xbd0678ff	-0.032830235
62	0xbd7fc36e	-0.062442236
63	0xbce03fb9	-0.027374135
64	0x3ba045fa	0.0048911544
65	0xbc40b4e9	-0.011761882
66	0x3cfa5cb6	0.030561786
67	0x3d157dcc	0.036496922
68	0xbf5d577e	-0.8646163
69	0xbd115049	-0.035476957
70	0xbda0046e	-0.07813345
71	0xbe1e7608	-0.15474713
72	0xbdda1628	-0.10648757
73	0xbdb9c9d3	-0.09071698
74	0xbc97561f	-0.018473683
75	0xbf2aefa1	-0.66771895
76	0x3cf9ebeb	0.030508002
77	0xbd0f783d	-0.035026778
78	0xbf037cb9	-0.51362187
79	0xbf1f9ca4	-0.6234839
80	0x3dc68827	0.09693938
81	0x3e027506	0.12739953
82	0x3bdbe515	0.0067106583
83	0xbcf97805	-0.030452738
84	0xbf23fcb3	-0.64057463
85	0xbf46f6b6	-0.777202
86	0xbb2104fe	-0.0024569626
87	0xbc8efa6e	-0.017453399
88	0xbee38010	-0.4443364
89	0xbd8876ab	-0.06663259
90	0xbd9536e5	-0.07285861
91	0x3c0f0086	0.008728152
92	0xbf46d566	-0.7766937
93	0x3cb5c528	0.022188738
94	0x3e354fe9	0.17706265
95	0xbda93fff	-0.082641594
96	0x3e54c233	0.20777206
97	0xbd5eed49	-0.05442551
98	0xbf09fc4e	-0.5390061
99	0x3d27337a	0.040820576
100	0xbe4eaf94	-0.20184165
101	0xbede6096	-0.43433064
102	0xbdda6a20	-0.10664773
103	0xbc475dc3	-0.012168351
104	0xbc80ce07	-0.015723241
105	0x3d331c77	0.043728318
106	0x3dc3a632	0.095531836
107	0x3d89fd24	0.06737736
108	0xbe5ac23a	-0.21363154
109	0x3ce65c3e	0.028120156
110	0xbf35b7a8	-0.7098336
111	0xbe5f8cb2	-0.21831015
112	0xba1bc728	-0.00059424574
113	0x3cf8cda2	0.03037149
114	0x3d6d4213	0.05792434
115	0xbed07887	-0.40716955
116	0x3e2e223f	0.17005251
117	0x3e6283f9	0.22120656
118	0xbe3a0809	-0.18167128
119	0xbe85fd85	-0.26169983
120	0xbe3ad07d	-0.18243594
121	0x3c99d1c7	0.018776787
122	0x3bebf2ce	0.0072005754
123	0x3d906808	0.070510924
124	0xbd9a9122	-0.07547213
125	0xbf1e9f18	-0.6196151
126	0xbeccdf05	-0.400139
127	0xbf29636c	-0.6616733
128	0x3d941b86	0.07231812
129	0xbcd4edf4	-0.025992371
130	0xbd9ebeec	-0.07751259
131	0x3e08e90c	0.1337015
132	0x3dcdbe16	0.10046022
133	0xbe597baf	-0.21238588
134	0xbd9e5588	-0.077311575
135	0xbf09d9d5	-0.5384801
136	0x3de6d98d	0.11271963
137	0xbc0989eb	-0.008394699
138	0xbdedd554	-0.11612955
139	0xbd8abba5	-0.067740716
140	0x3dd3a70f	0.10334598
141	0x3e1d1de0	0.15343428
142	0xbcb2464f	-0.021762041
143	0xbf41e151	-0.7573443
144	0xbd8a50f2	-0.0675372
145	0xbddce41a	-0.107856944
146	0xbcb821ff	-0.022477148
147	0x3cb35361	0.021890344
148	0xb9172ea6	-0.0001441786
149	0xbd8d1b74	-0.06890002
150	0xbeee32ee	-0.4652323
151	0xbcddb4ae	-0.027063694
152	0x3d92ab2c	0.07161555
153	0xbf096bf6	-0.5368036
154	0xbf361012	-0.7111827
155	0xbd3d3e8c	-0.046202227
156	0xbd907ad4	-0.070546776
157	0x3c41ab13	0.011820572
158	0xb9cb14c9	-0.00038734663
159	0xbf4cfad4	-0.80070233
160	0xbf34bcde	-0.7060069
161	0x3c610270	0.013733491
162	0x3b2a55c6	0.0025991066
163	0xbeb06a57	-0.3445613
164	0xbdbca7ea	-0.092117146
165	0xbca7b5b8	-0.020472392
166	0xba819149	-0.0009885217
167	0xbf25086f	-0.64465994
168	0xbd941103	-0.07229807
169	0xbcc1133d	-0.023568744
170	0xbd6e696a	-0.058206
171	0x3ca792b5	0.020455698
172	0xbdad831a	-0.08472271
173	0xbea9442e	-0.3305983
174	0xbca88267	-0.020569993
175	0xbd8d597e	-0.06901835
176	0xbf1052e3	-0.56376475
177	0x3cc1144d	0.02356925
178	0xbd09aabf	-0.0336101
179	0xbd07655d	-0.033055652
180	0x3df35ecf	0.11883318
181	0x3d5a1c1d	0.053249467
182	0x3e22669d	0.15859456
183	0xbea69731	-0.32537225
184	0xbdd8e7c7	-0.10591083
185	0xbf54790b	-0.82997197
186	0xbe78f054	-0.24310428
187	0xbd222e5d	-0.039594997
188	0x3dc4ddd6	0.09612624
189	0xbc77868a	-0.01510776
190	0xbef79b9c	-0.48360908
191	0x3e8bdbdf	0.27316186
192	0xbc96868b	-0.018374702
193	0x3d7205e3	0.059087645
194	0xbe70bc03	-0.23509221
195	0xbe7c52ea	-0.24641004
196	0xbd5e85ec	-0.054326937
197	0xbd091b9a	-0.03347359
198	0xbc7a49df	-0.015276401
199	0xbe37390e	-0.17892858
200	0xbee0ffa0	-0.43945026
201	0xbf0791b3	-0.52956694
202	0xbf258e00	-0.646698
203	0x3e1ebff8	0.15502918
204	0xbc652990	-0.01398696
205	0xbe2193fe	-0.15779111
206	0xbd1f88b6	-0.038948737
207	0xbd8313bd	-0.06400249
208	0xbdbe2768	-0.0928486
209	0xbd45a901	-0.048256878
210	0xbec35c48	-0.38156343
211	0x3a180b0e	0.0005799987
212	0xbd1b58d9	-0.03792653
213	0xbdbef10a	-0.09323318
214	0x3d2a9979	0.04165027
215	0x3d0c22d2	0.034212895
216	0xbd0109dc	-0.031503543
217	0xbc7db4bc	-0.015484985
218	0xbf57f2f0	-0.8435507
219	0xbd5be759	-0.053687427
220	0xbd722821	-0.0591203
221	0xbd28b86c	-0.041191503
222	0x3c380947	0.011232681
223	0xbbf74bcb	-0.007546877
224	0xbda5ea7c	-0.08101365
225	0xbf1ccc11	-0.6124888
226	0x3ccb25b1	0.024798246
227	0x3d0583b1	0.032596294
228	0xbf102490	-0.5630579
229	0xbf009a77	-0.50235695
230	0x3e25fb70	0.16209197
231	0x3d82268c	0.063550085
232	0x3d9bf426	0.07614927
233	0xbdb021f5	-0.08600227
234	0xbf53010f	-0.8242349
235	0xbf3f9fbc	-0.7485311
236	0x3cc7a9c0	0.024372935
237	0x3c87a841	0.016559722
238	0xbea4b6fa	-0.3217085
239	0xbd4af2bf	-0.049547907
240	0xbaa5db03	-0.0012653772
241	0xbe16eae3	-0.1473804
242	0xbf2e7243	-0.681431
243	0xbd209391	-0.03920323
244	0xbe3ba20d	-0.18323536
245	0xbdc0955c	-0.09403488
246	0x3c7d85ef	0.015473827
247	0xbd1ca57a	-0.03824375
248	0xbed9b471	-0.42520478
249	0xbbcd7387	-0.0062698754
250	0xbe8d759a	-0.27628785
251	0xbedeca48	-0.43513703
252	0xbd70c112	-0.058777876
253	0xbd506faf	-0.05088776
254	0xbbaca1e7	-0.0052683237
255	0x3deb67a3	0.114943765

model/hidden_layers/0/b f4 [75]
0	0x40067b6f	2.1012838
1	0xbf3c3c31	-0.73529345
2	0x40076581	2.1155703
3	0x400914cc	2.1418943
4	0xbf3153a7	-0.6926827
5	0x400978ab	2.14799
6	0xbef5fdd2	-0.48045212
7	0xbf7ba2de	-0.9829539
8	0xbe727d22	-0.23680547
9	0x400b340e	2.1750522
10	0xbe503101	-0.20331194
11	0xbe838a36	-0.25691384
12	0xbef48a81	-0.4776192
13	0xbfd1efe5	-1.6401335
14	0xbfea0332	-1.8282225
15	0xbedfca9b	-0.43709263
16	0xbf9c97bc	-1.2233806
17	0xbf943878	-1.1579733
18	0xbe8ee41c	-0.2790841
19	0xbece736e	-0.4032244
20	0xbe9a9ce3	-0.3019782
21	0xbe8eb533	-0.2787262
22	0xbeb12685	-0.345997
23	0x3f910200	1.1328735
24	0xbf2cdc7c	-0.6752393
25	0xbfa98411	-1.3243428
26	0xbf057707	-0.52134746
27	0xbe9a142d	-0.30093518
28	0xbebf4afd	-0.373619
29	0x4006852e	2.1018786
30	0x4008d6d2	2.1381116
31	0xbfd85045	-1.6899496
32	0xbedfb700	-0.43694305
33	0xbfac2681	-1.344925
34	0xbf2b0f42	-0.66820157
35	0xbec85b62	-0.3913222
36	0xbd3be7d5	-0.04587539
37	0xbe982418	-0.29715037
38	0xbe1aa8ce	-0.15103456
39	0xbff44e75	-1.9086443
40	0xbf0036a2	-0.50083363
41	0xbed8a3b0	-0.42312384
42	0xbeed76f4	-0.46379817
43	0x3fd0c4ad	1.6310021
44	0x4003a9d5	2.0572407
45	0x4016b53c	2.3548117
46	0xbfc2bbf8	-1.5213614
47	0xbe83fe74	-0.2578007
48	0xbed11732	-0.4083801
49	0xbe44de5d	-0.1922545
50	0xbf602177	-0.87551063
51	0xbf2293a3	-0.63506526
52	0xbf5d59e2	-0.86465275
53	0xbf8e51aa	-1.1118672
54	0xbf22491f	-0.63392824
55	0xbfdc6b2f	-1.722021
56	0xbec8eb89	-0.392422
57	0xbe863938	-0.2621553
58	0x3ee5d2e2	0.44887453
59	0xbe95593a	-0.29169637
60	0xbf1549ed	-0.58315927
61	0x40044697	2.0668085
62	0xbef06477	-0.4695165
63	0xbe68d54a	-0.22737613
64	0xbf12d429	-0.5735498
65	0x3fd2ff3a	1.6484139
66	0xbeaad67f	-0.33366773
67	0xbfbadb34	-1.4598145
68	0x3d4022d4	0.046908215
69	0xbfcdff84	-1.6093602
70	0xbeb1f98e	-0.34760708
71	0xbe8eefac	-0.2791723
72	0xbfbced45	-1.4759909
73	0xbe6aa7cc	-0.22915572
74	0xbf68a0a3	-0.9087011

model/hidden_layers/0/W f4 [75, 20]
0	0xbd0abf94	-0.03387411
1	0x3ded261d	0.11579535
2	0xbe2bfefb	-0.16796486
3	0x3d1601e0	0.036622882
4	0xbd53ff47	-0.051757123
5	0xbe729737	-0.23690496
6	0xbd2133cc	-0.039356038
7	0x3df4ed2b	0.11959299
8	0x3cf41450	0.029794842
9	0xbe074de2	-0.13213304
10	0x3dc077dc	0.09397861
11	0x3da32e5d	0.079678275
12	0xbdfeae95	-0.12435643
13	0x3d8b5d89	0.0680495
14	0xbac3fa25	-0.0014951868
15	0x3cd26e03	0.025687223
16	0xbdbec771	-0.09315384
17	0xbcf0a377	-0.029374821
18	0x3dc44970	0.095843196
19	0x3cba5d40	0.022749543
20	0xbe674f4a	-0.2258884
21	0xbdfb526f	-0.12271582
22	0x3db38789	0.08766086
23	0xbef5d200	-0.4801178
24	0x3e9cedb6	0.3065011
25	0x3da2f4c1	0.07956839
26	0x3ea36d8e	0.3191952
27	0xbe3a6146	-0.1820117
28	0x3e27d71f	0.16390656
29	0xbebd8670	-0.3701663
30	0xbdbdf65c	-0.09275505
31	0x3d5e745a	0.05431018
32	0x3d29a95f	0.04142129
33	0xbeff2fe2	-0.4984122
34	0x3b547b62	0.0032422175
35	0x3dfa9eee	0.12237345
36	0xbbb6b4ec	-0.005575767
37	0x3e00b63d	0.12569518
38	0xbe085a3c	-0.13315672
39	0xbb63b65c	-0.0034746146
40	0xbe956729	-0.29180267
41	0x3ca7ed66	0.020498943
42	0xbe7481fe	-0.23877713
43	0xbdfd738f	-0.12375557
44	0xbe1b42b7	-0.15162168
45	0x3e7d3e8a	0.24730888
46	0xbe2c6a9e	-0.16837546
47	0x3e698ade	0.2280688
48	0xbdbda2ab	-0.09259542
49	0x3de0db05	0.10979275
50	0x3cef500e	0.029212978
51	0xbce8a1ef	-0.028397528
52	0xbc848b80	-0.0161798
53	0x3cbe7df3	0.023253417
54	0xbbbd7a50	-0.005782403
55	0xbe56c6cb	-0.20974271
56	0xbcb616e0	-0.022227705
57	0xbcbf5140	-0.023354173
58	0x3d9a10bb	0.07522722
59	0x3bb0545c	0.00538115
60	0x3f0a21ef	0.5395803
61	0xbd3b419b	-0.045716863
62	0x3c871fa2	0.016494576
63	0xbe8c7d98	-0.2743957
64	0xbc9cb8ed	-0.019131148
65	0xbdca8845	-0.098892726
66	0x3e9bf98c	0.30463827
67	0xbdeb3aab	-0.114857994
68	0x3c9fac9a	0.019491483
69	0x3eb97c99	0.36227873
70	0x3aa21d99	0.001236844
71	0x3c3dc721	0.011583121
72	0xbb413bca	-0.00294851
73	0xbd98fd58	-0.074701965
74	0x3c81aab9	0.015828477
75	0xbd9a3138	-0.07528919
76	0x3baa8a3e	0.005204468
77	0x3d000b6b	0.03126089
78	0x3e7e95d8	0.24861848
79	0xbce0c658	-0.027438328
80	0xbe62c7f9	-0.22146596
81	0xbe0e77a4	-0.13912827
82	0xbee61a01	-0.44941714
83	0xbeb7b78f	-0.35882232
84	0xbe7afb9c	-0.24510044
85	0x3eea820d	0.45802346
86	0xbe1ba331	-0.15198971
87	0xbe903fa2	-0.28173548
88	0xbde0e335	-0.10980836
89	0xbde0cc2b	-0.10976442
90	0xbdc336e4	-0.09531954
91	0xbcdf2d53	-0.027243292
92	0x3d0284e0	0.031865
93	0xbe1a79cd	-0.15085526
94	0xbccce9e0	-0.025013864
95	0x3e383c5e	0.17991778
96	0xbd88c41b	-0.06678029
97	0x3d5f22bc	0.054476485
98	0xbedaf158	-0.42762256
99	0xbc71e512	-0.014764087
100	0x3dee76db	0.11643764
101	0x3cd609fd	0.02612781
102	0x3e850613	0.25981197
103	0xbdde32d4	-0.108495384
104	0x3e928b54	0.28621924
105	0x3d8d1b9b	0.06890031
106	0x3ccb3e6b	0.024810037
107	0xba8368fe	-0.0010025797
108	0x3cedbfc9	0.029022114
109	0xbd1fd9c4	-0.039026037
110	0x3e05fb71	0.13084199
111	0xbc19131f	-0.009342938
112	0xbde27dab	-0.110591255
113	0xbd25fac1	-0.04052234
114	0x3b030676	0.0019992865
115	0x3e9025a8	0.2815373
116	0x3d20284d	0.039100934
117	0x3da2356a	0.07920344
118	0x3e1b51a5	0.15167864
119	0x3b82a0e3	0.0039864643
120	0x3da0f78f	0.07859718
121	0x3ea5319e	0.32264417
122	0xbd8417af	-0.0644983
123	0xbe99b33b	-0.30019554
124	0x3df3e6d9	0.11909265
125	0x3dbd97b4	0.09257451
126	0x3dcf8b2c	0.10133967
127	0x3e445bf9	0.1917571
128	0xbe755dae	-0.23961517
129	0xbecc7144	-0.39930165
130	0x3e27cad8	0.16385972
131	0xbb8a473e	-0.0042199185
132	0xbe23e942	-0.1600695
133	0xbe5b54e0	-0.21419096
134	0xbc8bdd9f	-0.01707345
135	0xbd0728fd	-0.032998074
136	0xbc1f8344	-0.009735886
137	0x3e4ac51f	0.19801758
138	0xbe4933ff	-0.19648741
139	0xbd29aa9e	-0.04142248
140	0xbe3ed9c9	-0.18637766
141	0xbd8be60c	-0.06830987
142	0xbc9681d2	-0.01837245
143	0xbeea0f93	-0.45715007
144	0xbdea6d7f	-0.11446666
145	0xbd96ab41	-0.07356883
146	0xbdc9fa2e	-0.09862171
147	0x3d945596	0.07242887
148	0x3deae81f	0.11470055
149	0x3d6cf092	0.057846613
150	0x3d8b5161	0.06802631
151	0xbd6a2bb9	-0.057170603
152	0xbc1634ce	-0.009167863
153	0xbd7a9b85	-0.06118347
154	0xbaf01a50	-0.0018318389
155	0xbe29fdb9	-0.16600694
156	0x3d3da9ad	0.046304394
157	0xbdb6eb16	-0.08931558
158	0xbb8393ca	-0.0040154206
159	0xbd105662	-0.03523863
160	0xbd2c860f	-0.042120036
161	0x3df26bf3	0.11836996
162	0xbd383aa3	-0.044977795
163	0xbe1caf07	-0.15301143
164	0x3d9cf142	0.07663204
165	0xbe089692	-0.13338688
166	0xbd256370	-0.040378034
167	0xbd8afe4b	-0.06786784
168	0xbddf9329	-0.109167404
169	0xbe093b58	-0.13401544
170	0xbe69d275	-0.22834189
171	0xbe1cb1ad	-0.15302153
172	0x3e9035e9	0.2816613
173	0x3dabe8ab	0.08393987
174	0x3d56c9ea	0.052438654
175	0x3d34e0da	0.044159748
176	0xbbeb4cb3	-0.007180774
177	0x3d27a07b	0.04092453
178	0xbd83a16d	-0.06427274
179	0x3c28cf5f	0.010303347
180	0xbd9dcaa7	-0.077046685
181	0x3d89d26f	0.0672959
182	0xbdc066ef	-0.09394633
183	0xbe7aa4cd	-0.24476929
184	0x3d9951cf	0.07486307
185	0xbcb85a96	-0.022504132
186	0xbc59e7c4	-0.013299886
187	0xbe26f8d0	-0.16305852
188	0x3ef9c1e4	0.4878074
189	0xbe830a06	-0.25593585
190	0xbe109fd7	-0.14123474
191	0x3d80992b	0.062792145
192	0x3dc09d8a	0.09405048
193	0x3cecdfbd	0.02891528
194	0xbc5459b9	-0.012960845
195	0x3d5d9a20	0.054102063
196	0xbd4874bf	-0.048939463
197	0xbcee2c78	-0.029073939
198	0xbe622a74	-0.22086507
199	0x3c9eb814	0.019374885
200	0xbdcb34f8	-0.09922212
201	0x3cc93b69	0.024564462
202	0x3e28cdbd	0.16484733
203	0x3c17293a	0.009226138
204	0xbdc49a44	-0.09599736
205	0xbe8562a2	-0.26051813
206	0xbe601afe	-0.21885297
207	0x3e75feba	0.24022952
208	0xbe24b259	-0.16083659
209	0x3e066f38	0.13128364
210	0x3e111d35	0.14171298
211	0xbe53249a	-0.20619431
212	0x3c1b4b46	0.009478396
213	0xbdb98891	-0.09059251
214	0x3cd80a56	0.026372116
215	0x3d7598ce	0.05996018
216	0xbd92baae	-0.071645126
217	0x3c839ff8	0.01606749
218	0xbca767f1	-0.020435305
219	0x3ada9ee7	0.0016679437
220	0x3d099fe3	0.033599745
221	0xbe052c04	-0.13005072
222	0xbe701e92	-0.23449162
223	0xbdf10073	-0.11767664
224	0xbe36dce1	-0.17857696
225	0x3ec2c5c7	0.38041517
226	0x3e88456f	0.26615474
227	0x3c77aaa1	0.015116365
228	0xbe492eac	-0.1964671
229	0x3e1ee7bb	0.15518086
230	0xbdba69c6	-0.09102206
231	0x3ce7c2bc	0.028291099
232	0x3d84890b	0.06471451
233	0x3e219778	0.15780437
234	0x3b85147e	0.0040612807
235	0xbdda649d	-0.10663722
236	0xbea04bf1	-0.3130794
237	0x3d4423e8	0.047885805
238	0xbe25a079	-0.16174497
239	0xbd58eb5f	-0.052958842
240	0x3e20c846	0.15701398
241	0xbcba9bf7	-0.022779448
242	0xbdad9f6e	-0.084776744
243	0xbe47f9fa	-0.19528952
244	0x3e85dcb6	0.26144952
245	0xbecee3d3	-0.4040819
246	0x3d81719b	0.06320497
247	0xbde53062	-0.11190869
248	0xbea27fab	-0.31738028
249	0xbdbc84cf	-0.09205019
250	0xbdb44c2d	-0.08803592
251	0x3dd82a2f	0.10554921
252	0xbd29e7c7	-0.041480806
253	0xbdbb4c9a	-0.0914547
254	0x3c70635b	0.014672126
255	0x3dfc1945	0.12309507

model/hidden_layers/1/b f4 [75]
0	0x40074e7f	2.114166
1	0xbdd0007d	-0.10156343
2	0xbe2cfe98	-0.16893995
3	0x3fffcddd	1.99847
4	0x400bf0e0	2.1865768
5	0xbeb12411	-0.3459783
6	0xbd06ee89	-0.03294233
7	0xbcb329a6	-0.021870445
8	0x3d9244d8	0.07142037
9	0x401206a8	2.2816563
10	0x401241e2	2.2852712
11	0xbe2528f0	-0.16128898
12	0xbe94ef71	-0.2908893
13	0x3fdb8022	1.7148478
14	0x3e6daaee	0.23209736
15	0x3e40173d	0.18758865
16	0x3e2b4620	0.1672597
17	0x400f8b64	2.2428827
18	0x3db0bce7	0.0862978
19	0xbcfb0e90	-0.030646592
20	0x3e1015da	0.14070836
21	0xbd042dc9	-0.032270227
22	0x3e78a375	0.24281104
23	0x400e9549	2.2278616
24	0x3eea6add	0.45784655
25	0x3fdc4ce9	1.7210971
26	0x3fe7bd9f	1.8104743
27	0x3b2cd70d	0.0026373297
28	0x3fa32a11	1.2747213
29	0x3f803b83	1.0018162
30	0xbd183fd7	-0.037170257
31	0xbda3317a	-0.07968421
32	0xbeb31e0f	-0.3498387
33	0x3ff406a1	1.9064523
34	0xbb67bf45	-0.0035361808
35	0x40142c72	2.3152127
36	0x3e85aa6f	0.26106593
37	0x3d8fd995	0.07023922
38	0xbbc6dc27	-0.0060687247
39	0xbd9f546b	-0.07779773
40	0x3fe90511	1.8204671
41	0xbf45a867	-0.77210087
42	0xbeacbbe6	-0.33737105
43	0x3c20b282	0.009808185
44	0x3fcd585a	1.6042588
45	0x3fc34324	1.5254865
46	0x3f2ca7d9	0.67443615
47	0x3e971cf6	0.29514283
48	0xbeee660e	-0.46562237
49	0x3d690f57	0.056899395
50	0x3ffd7cf3	1.9803756
51	0x3ff08f34	1.8793702
52	0x40082ddf	2.1277997
53	0xbe81a31e	-0.2531976
54	0x3f745752	0.9544574
55	0x3efa8b69	0.48934487
56	0x3d34389b	0.043999296
57	0xbd992828	-0.07478362
58	0x3fc2e56c	1.5226264
59	0x3fc64f7c	1.5493007
60	0x3fed4993	1.8538078
61	0xbdcf22c0	-0.1011405
62	0x3f5e7fb7	0.8691363
63	0x3fb350a4	1.4008985
64	0x3e8fb997	0.2807128
65	0xbe85a2d2	-0.26100785
66	0xbec2b281	-0.38026813
67	0x3d7f284e	0.062294297
68	0x40183748	2.378374
69	0x3f8e2afb	1.1106867
70	0x3e7c2d36	0.24626622
71	0x3fbe6a4b	1.4876188
72	0x3ea59469	0.3233979
73	0x3fa7cadd	1.3108784
74	0x3ec1343b	0.3773516

model/hidden_layers/1/W f4 [75, 75]
0	0x3eac712f	0.33680102
1	0xbc329b38	-0.010901265
2	0x3ec4cf4a	0.384394
3	0x3e9eb703	0.30999002
4	0x3e343c87	0.17601214
5	0x3e43d3d5	0.19123776
6	0xbc2228de	-0.009897439
7	0x3e3a85e4	0.18215138
8	0xbde4086e	-0.1113442
9	0x3eb8c00e	0.36084026
10	0xbd6f47f4	-0.05841823
11	0xbdb4213b	-0.08795401
12	0xbd566f45	-0.05235221
13	0xbd9a3cc0	-0.075311184
14	0x3bc55c7c	0.006022988
15	0xbc62d817	-0.013845465
16	0xbe218b0b	-0.15775697
17	0xbab8d10b	-0.0014100386
18	0xbd92f0a5	-0.071748056
19	0xbd594c34	-0.05305119
20	0xbce9323f	-0.028466342
21	0xbdc149d0	-0.09437907
22	0xbcd1a924	-0.025593348
23	0x3e585585	0.21126373
24	0xbdae5b84	-0.08513549
25	0xbc8721da	-0.016495634
26	0xbbe846e3	-0.0070885285
27	0xbe0a24a8	-0.13490546
28	0xbcb4c4f7	-0.022066576
29	0x3ea79520	0.3273096
30	0x3ef41a1b	0.47676167
31	0xbd9cd251	-0.07657302
32	0xbddb252f	-0.107004516
33	0xbdf70783	-0.120619796
34	0xbdba1430	-0.09085882
35	0xbdde8dae	-0.10866867
36	0xbd97e6a7	-0.0741704
37	0xbe379283	-0.17926984
38	0x3cc83612	0.024439845
39	0xbe0d7d9f	-0.13817452
40	0xbcf16eda	-0.029471803
41	0xbd0a6296	-0.033785425
42	0xbe147dff	-0.14501189
43	0xbde597d2	-0.11210598
44	0x3e47fb04	0.19529349
45	0x3f039789	0.514031
46	0xbd908e5d	-0.07058404
47	0xbdc698a6	-0.09697084
48	0x3deadb09	0.11467559
49	0x3d62b64e	0.05534964
50	0xbd10ae54	-0.035322502
51	0xbd74c4fd	-0.059758175
52	0xbe1bb6bb	-0.15206425
53	0x3e0e5fae	0.13903686
54	0xbc8bcf41	-0.0170666
55	0xbe86b805	-0.2631227
56	0xbd824a9d	-0.063618876
57	0xbc32c29c	-0.010910656
58	0x3cf446bc	0.029818885
59	0xbcef5bef	-0.029218642
60	0xbdbc0913	-0.09181418
61	0x3e65e7dd	0.2245173
62	0x3bdcb926	0.0067359386
63	0x3d458e6d	0.04823153
64	0x3ca0f293	0.019646918
65	0x3e300405	0.17189033
66	0xbd2de290	-0.042452395
67	0xbd299652	-0.041403122
68	0xbcb1f1cf	-0.021721749
69	0xbbecf821	-0.0072317277
70	0xbde1692a	-0.110063866
71	0xbbad8691	-0.0052955826
72	0x3db6b7fe	0.089218125
73	0x3d90150b	0.07035264
74	0x3c6098e1	0.013708324
75	0xbde8a025	-0.1135867
76	0xbc87339d	-0.016504103
77	0xbe34d68d	-0.1765997
78	0x3dd991b9	0.106234975
79	0xbd7249c3	-0.059152376
80	0xbe329c54	-0.17442447
81	0xbe729f9e	-0.23693702
82	0x3d8ffe6b	0.07030948
83	0x3daee243	0.0853925
84	0xbe1c0d29	-0.15239395
85	0x3e8b40f0	0.2719798
86	0xbdb47d39	-0.08812947
87	0x3e17862e	0.14797279
88	0xbde98420	-0.11402154
89	0xbd5becd3	-0.05369265
90	0xbdd8f6bb	-0.10593935
91	0x3e027c0f	0.12742637
92	0x3df8da46	0.12151007
93	0x3cb5de18	0.02220063
94	0x3d1b2287	0.037874725
95	0xbc530772	-0.012880193
96	0x3cd3f2f5	0.025872687
97	0xbe290b34	-0.1650818
98	0x3c5be0fb	0.013420339
99	0x3dedb97b	0.11607643
100	0xbdcb4978	-0.099261224
101	0xbe1c88f9	-0.15286626
102	0xbe5f18dd	-0.21786828
103	0xbdf1aca2	-0.11800505
104	0x3de07030	0.10958898
105	0x3c3e8a41	0.011629642
106	0xbe4150be	-0.18878457
107	0x3e2e8726	0.17043743
108	0xbde478de	-0.11155866
109	0xbb1aa840	-0.002359882
110	0xbd297829	-0.04137436
111	0xbdf769de	-0.120807394
112	0x3b72c719	0.003704494
113	0xbd6dd864	-0.058067694
114	0xbd83a6e8	-0.06428319
115	0xba76ba72	-0.0009411938
116	0xbe1483c5	-0.14503391
117	0x3d498dd8	0.04920754
118	0xbdc4206b	-0.09576496
119	0x3ccc3389	0.024926918
120	0x3d54e689	0.051977668
121	0x3b58ec53	0.0033099845
122	0x3db35a6d	0.08757482
123	0x3e450eed	0.19243975
124	0xbd6207ec	-0.055183336
125	0xbdc2d2b6	-0.09512846
126	0xbde898a4	-0.11357239
127	0x3dcad7c1	0.09904433
128	0xbdcb2a63	-0.09920194
129	0x3d893201	0.066989906
130	0x3d83f5c4	0.064433604
131	0xbd9cbd30	-0.07653272
132	0x3e3ec486	0.18629655
133	0xbe04b3b6	-0.1295918
134	0x3d74173c	0.05959247
135	0xbb1094d7	-0.0022061372
136	0xbe731534	-0.23738557
137	0xbd8419c0	-0.06450224
138	0x3dc46a8b	0.09590634
139	0xbd94e30a	-0.07269867
140	0xbe2c697a	-0.16837111
141	0x3db35630	0.08756673
142	0x3deb2fd8	0.11483735
143	0xbdf97936	-0.12181322
144	0xbd55f7f3	-0.052238416
145	0xbe14e75b	-0.1454138
146	0xbe252c99	-0.16130294
147	0x3d6ac609	0.057317767
148	0xbcb04be5	-0.021520564
149	0x3e0be2f2	0.13660792
150	0x3d8c4183	0.06848433
151	0xbc9433cb	-0.018091103
152	0x3e01973b	0.12655346
153	0xbdc96b0a	-0.09834869
154	0xbda936ab	-0.0826238
155	0xbc24bf2c	-0.010055345
156	0xbd75a8e3	-0.059975516
157	0xbdf6d4da	-0.12052317
158	0xbd847be9	-0.064689465
159	0x3de2fb11	0.11083043
160	0x3e1db723	0.15401892
161	0x3e0d522b	0.13800876
162	0x3e4e6c3e	0.20158479
163	0x3d97598d	0.07390127
164	0xbd811ceb	-0.06304344
165	0xbe029246	-0.12751111
166	0xbc9f2af2	-0.019429658
167	0xbe4d460f	-0.20046256
168	0x3e281ec2	0.16417983
169	0x3bc42de6	0.005986917
170	0xbd445535	-0.047932822
171	0xbd8a1240	-0.06741762
172	0xbd9330ea	-0.07187064
173	0xbd1209ed	-0.035653997
174	0xbde0ad46	-0.10970549
175	0xbd404827	-0.04694381
176	0xbe085dba	-0.13317004
177	0xbd447d98	-0.047971338
178	0x3dea803b	0.11450239
179	0xbe86a10b	-0.2629474
180	0xbd6b3b5f	-0.057429668
181	0xbe338d11	-0.17534281
182	0xbc339a90	-0.010962144
183	0x3c256fa6	0.01009742
184	0xbd898db2	-0.06716479
185	0xbd623164	-0.055222884
186	0x3c676a48	0.0141244605
187	0x3dc61eb5	0.09673826
188	0xbdcfa6f7	-0.10139268
189	0xbdab150e	-0.08353625
190	0x3dc4adbb	0.09603449
191	0xbe2348de	-0.15945765
192	0xbe379ed0	-0.17931676
193	0x3db965ed	0.09052644
194	0x3e12f854	0.14352542
195	0x3d68c356	0.056826912
196	0x3e2ff0b1	0.1718166
197	0xbde5974f	-0.112105004
198	0xbdaca4b7	-0.08429854
199	0x3ca1b1c5	0.019738087
200	0xbe9b8759	-0.303767
201	0xbd9117e7	-0.07084637
202	0x3e2febcb	0.17179792
203	0x3d8c3427	0.06845885
204	0xbdf13565	-0.11777762
205	0x3e398adc	0.18119377
206	0x3dda514b	0.10660037
207	0x3c43c2c3	0.01194829
208	0xbce75b64	-0.02824182
209	0x3d72081d	0.05908977
210	0x3de2e76e	0.11079298
211	0x3bf68c6f	0.007524065
212	0xbe0a0632	-0.13478926
213	0x3d626fb5	0.055282313
214	0x3cc97427	0.024591519
215	0xbe61cfb6	-0.22051892
216	0xbe060941	-0.13089468
217	0xbe00066c	-0.1250245
218	0x3c6f2d67	0.014598227
219	0xbe4c248b	-0.19935815
220	0xbca5bf9a	-0.020232964
221	0x3b8e1528	0.004336018
222	0xbe12cf9c	-0.14337009
223	0xbe1a18b5	-0.15048487
224	0xbe023c12	-0.12718228
225	0x3e68337b	0.22675888
226	0xbd648dde	-0.055799358
227	0x3ee874f7	0.45401737
228	0x3ea24f30	0.3170104
229	0x3da5dbfb	0.080985986
230	0x3e0eb77b	0.1393718
231	0xbd85dc84	-0.06536201
232	0xbe0cebaf	-0.13761781
233	0xbe08c3c0	-0.13355923
234	0x3ec9180a	0.39276153
235	0x3cdea320	0.027177393
236	0x3d562aae	0.052286796
237	0x3d8ec092	0.069703236
238	0xbe1b91d9	-0.15192355
239	0xbe84fbf9	-0.2597349
240	0x3d2d5a0b	0.0423222
241	0x3c58232d	0.01319198
242	0xbcba76f8	-0.022761807
243	0x3c8299e3	0.01594252
244	0xbd6e2792	-0.058143206
245	0xbd9cd613	-0.07658019
246	0xbc2f27ac	-0.010690611
247	0xbdbeb932	-0.09312667
248	0xbdaeea01	-0.085407265
249	0x3cc123be	0.023576614
250	0xbdbe2ec0	-0.092862606
251	0x3dc8fd0b	0.09813889
252	0xba12c5c1	-0.00055989256
253	0xbd2b3e9f	-0.041807767
254	0x3e77333c	0.24140638
255	0x3ec65ecd	0.38744202
