experiments/visitall/visitall_full_train_set_2-75-5/best/model.npz (npz, 29617 bytes, 6 tensors)

model/output/b f4 [4]
00000000: c537 05c2 8c97 e7c1 d7e6 ebc1 422c f9c1
-33.304462 -28.948997 -29.487715 -31.14661

model/output/W f4 [4, 75]
00000000: acb7 c6bd 9b12 1bbd 83f5 df3d cfd4 51bb
00000010: b3dc 533d 6c22 e63d d165 ba3d c57b 523d
00000020: 1a95 8a3c 1629 8ebf f3c9 ddbb 766e 1dbd
00000030: 4df2 2d3d b23d cb3c 4d88 493e 0368 0abf
00000040: bb90 2b3c 26f7 27bb a18a 913f 2c03 41bb
00000050: 3716 27bd 53c9 2ebc 3dfa e7bc 3ae6 aa3d
00000060: b7ac f93c 0887 903d 0c1f 5dbb 45f8 acbe
00000070: 8085 acbc 8c66 d4bc 0cd6 1f3d 51a4 e8bc
00000080: f565 edbb 1498 abbc c6b6 f73b b137 66bb
00000090: 61f6 e6bd 4fdd e3bf 4040 583d 90e8 79bb
000000a0: aa38 993c 018d 2abd 3389 153d af84 203d
000000b0: b174 52bd d351 24bd 5c57 adbd 80f3 75bd
000000c0: 72d8 a13e c574 353d ccb5 f43c 015a 673b
000000d0: 1e83 b4bc 47ab 3b3d 75b0 ccbc ad73 60bf
000000e0: 5761 8f3d 1b16 073d 2f07 7cbb 01e8 08bd
000000f0: b370 80bc fba8 a2bd 851d f5bb 2b99 97bc
00000100: 77f1 a5bd 8a11 4c3c 8a34 013e a8aa a2bd
00000110: 27a3 c13c a234 af3e 2dec 2ebd 22de b13c
00000120: 5e53 a83d f1d3 c9bd 76c1 993c 292e 4f3a
00000130: 8ca3 36bd 301e dd3d 0238 74bc 0f8a debb
00000140: afdd 363d f8e4 e53d 2455 8e3d 4172 dd3c
00000150: 9373 15bd 977c 49bb 471f f33b 6f74 8cbb
00000160: 7fb9 103d 497e 78bd 4c8c ba3f af76 9abd
00000170: 46b2 b6bd 903a dc3e d32c 833d 4c5c 8bbd
00000180: 465e 97bd 346e 0e3d d71a 103c 4e8f 013d
00000190: 6be0 bbbc 5c07 24bc 853d 55bd dff5 f7bb
000001a0: e197 24be d2ca fa3c 7ed7 80bc 80c3 0e3c
000001b0: 3ac8 e93d bb77 dfbc 6feb 44bd b44d e9bd
000001c0: d625 f1bf 8810 0c3d 51c8 18bc acd6 58bd
000001d0: 4618 afbd b958 823d 6f85 7abc 23df 00be
000001e0: 87e2 74bc 1f97 8bbd 32d1 34bc 4263 d73d
000001f0: 46ff 97bd 6733 9ebd 6fb3 71bc 0154 d1bd
00000200: 63f1 873c 2f16 133d d17a 78bd 811c 6e3d
00000210: e6be ccbd 6305 a93d 5a92 08be bdfe 3cbd
00000220: 64dd b5bd 15ae 773d 9137 e73c d93e 013d
00000230: 1c2b 72bd 2c64 04bd b435 a9bd 132f 393d
00000240: 88d8 623e 602a 49bd 4ddb 71bb ec42 873d
00000250: abcf 33bb 2914 3bbd d6eb 5d3c 48c3 733d
00000260: 0c10 ad3c 0b50 2c3d 42cd ebbb b3ab ad3d
00000270: 1c59 023c 06f7 7b3b c251 923d 9815 cb3d
00000280: b298 92bc 9122 22bd e83e 823d 271a d839
00000290: 4174 ad3d 237e b63e 360c 1abe 0686 79bc
000002a0: 6da1 d73e 1910 72bc ee7f e7bd 5e1f 2dbd
000002b0: f67a 1f3d c119 ba3c f943 9e3c 9ea7 bbb9
000002c0: c578 553d 15c5 853d fdd2 503d 4c30 9cbd
000002d0: 7762 6f3d 979b aabc 7386 363d c0c7 5b3b
000002e0: c057 47bd 3cb5 4bbd ca43 02be 5688 efbf
000002f0: 1756 443d d64b 06bd ea5b d6ba f31f b0bb
00000300: 98f8 923d e516 8c3d 7241 d2bd 9cf0 eebd
00000310: 5b5d 46bd 415b 183d 524a 24bd 0d98 e83c
00000320: b9a1 633d d2de 13bd 329e a7bd 3bb4 fe3c
00000330: 0ad8 a4bd ae17 32be 5567 8b3d 4f63 03bd
00000340: b92a 49bd 64ad cabd 9ecb 16bd 68b2 b3bd
00000350: 92ed 1a3d 3bff 30bd bf73 61bb 43b6 99bd
00000360: ee92 09bd ec0c b9bd 93bf 70bd 6c69 c2be
00000370: db7e 49bd 369a 4abd 9ec4 293e d6b8 813c
00000380: bc40 09bd 5528 2fbe 759f 78bd 0927 163e
00000390: c5f4 ca3c 6602 223d b33e f23d fc49 a73d
000003a0: a3bb 8f3d edb5 0b3d 40da ba3d beb7 28bc
000003b0: c77e 06be e373 513d be51 1f3d 625a b53d
000003c0: b43f 7d3e ff8d 81bd 45b0 323c f0f8 4a3e
000003d0: 5d07 81bd 46a2 85bd 25b9 e33b f5bc 2cbd
000003e0: 600a 093d b6c8 0bbb fc9d e23d 80d7 753d
000003f0: 44cd d53d f511 84bd fd3a b4bd 68a0 db3c
-0.097030014 -0.03785954 0.109354995 -0.0032017713 0.051724147 0.11237034 0.09101451 0.051387567
0.0169168 -1.1106288 -0.006768459 -0.038435422 0.042467404 0.024809692 0.19680901 -0.5406496
0.010471518 -0.002562949 1.1370431 -0.0029451353 -0.04079267 -0.010668117 -0.028317565 0.083446935
0.030477865 0.07057005 -0.003374043 -0.33783165 -0.021059752 -0.025927804 0.03902249 -0.028398665
-0.0072448202 -0.02094654 0.00755963 -0.003512841 -0.11277462 -1.7801913 0.05279565 -0.0038133003
0.018703777 -0.041638378 0.036507796 0.039189037 -0.051380817 -0.040117096 -0.08463928 -0.060046673
0.31610447 0.044300813 0.029871844 0.003530145 -0.022035178 0.04581764 -0.024986485 -0.8767651
0.07000988 0.032980066 -0.003845643 -0.03342438 -0.01567874 -0.07942387 -0.0074803256 -0.018505653
-0.081026964 0.0124553535 0.12617698 -0.07942706 0.023637367 0.34219843 -0.042705704 0.021712366
0.08219026 -0.09854878 0.018769007 0.0007903302 -0.044589564 0.107967734 -0.014905931 -0.00679136
0.044645008 0.11225313 0.06949833 0.02703202 -0.036487173 -0.0030744427 0.0074195 -0.004286341
0.035333153 -0.06066731 1.4574065 -0.07542168 -0.08920722 0.4301343 0.06405034 -0.068047136
-0.07391028 0.034773067 0.008795462 0.031630807 -0.02293416 -0.01001152 -0.052060623 -0.007567152
-0.16073562 0.03061429 -0.015727755 0.008713603 0.11415143 -0.027278772 -0.04807609 -0.11391774
-1.8839672 0.034195453 -0.009325103 -0.052939102 -0.08549552 0.06364579 -0.015290602 -0.1258512
-0.014946586 -0.068159334 -0.011036204 0.10516979 -0.074217364 -0.07724648 -0.014752253 -0.102211006
0.016594594 0.035909828 -0.060664 0.058132652 -0.099973485 0.082529806 -0.13337079 -0.046141375
-0.088801175 0.060468752 0.028224738 0.031554077 -0.059123144 -0.032322094 -0.08262196 0.04521091
0.22152913 -0.049112678 -0.0036904395 0.06604561 -0.0027437012 -0.045673523 0.013544997 0.059512407
0.021125816 0.042068522 -0.0071960995 0.08480015 0.007955816 0.0038446798 0.071445 0.09916228
-0.017895076 -0.039583746 0.06359655 0.00041218215 0.08469439 0.3564311 -0.1504372 -0.015229708
0.42115346 -0.014774346 -0.113036975 -0.042266242 0.038935624 0.022717359 0.019319521 -0.00035792304
0.052117128 0.06531731 0.050982464 -0.076263994 0.058443513 -0.020826144 0.044561815 0.0033535808
-0.04866767 -0.049733385 -0.12721172 -1.8713481 0.047933664 -0.032787167 -0.0016354297 -0.0053749024
0.07176322 0.06840304 -0.10266389 -0.11666986 -0.048428874 0.0371964 -0.04010994 0.028392816
0.055574153 -0.03610117 -0.0818447 0.0310918 -0.08049019 -0.17391846 0.068068184 -0.03207713
-0.04911301 -0.09896353 -0.03681528 -0.08774263 0.03782422 -0.043212157 -0.0034401265 -0.07505467
-0.03358739 -0.09035668 -0.05877645 -0.37971056 -0.049193244 -0.049463473 0.1657891 0.015835207
-0.033509 -0.17105229 -0.060698945 0.14663328 0.024774918 0.03955307 0.11828365 0.08168408
0.07018211 0.034109045 0.09123659 -0.010297714 -0.13134299 0.05113591 0.038896315 0.0885513
0.24731332 -0.06325912 0.010906284 0.19821525 -0.063002326 -0.06525092 0.006949561 -0.04217239
0.03345716 -0.002132935 0.110652894 0.06001997 0.10439542 -0.064487375 -0.088003136 0.026809886

model/hidden_layers/0/b f4 [75]
00000000: a437 47c0 967a 10c0 8ace 75c0 4606 f3bf
00000010: 2ae1 f43e 8e98 fbbf 5110 86c0 0074 47c0
00000020: 4d08 0cc1 b193 b8c0 1599 84c0 ba55 fcbf
00000030: 2fe6 fcbf 67c5 24c0 7803 5cc0 c82b 73c0
00000040: 3e7d 3140 9b6c 1bc0 25cb b2be 21ef b8bf
00000050: 197c debf f89c de40 7b30 a740 eb06 b0bf
00000060: 7a92 14c0 0eb9 b4bf 2880 44c0 78c5 09c0
00000070: e55e 7ec0 2a9b dbc0 778a cac0 a26f 8240
00000080: 0308 fa3f 9c92 fbbf 5be1 b0c0 6da8 92c0
00000090: 1209 21c0 a8c1 58c0 e15d 5040 583a fcc0
000000a0: 997a 87c0 76f8 08c0 ce1b 48c0 87dc 6cc0
000000b0: 2cc5 fcc0 3922 efbf 1022 c5bf 8d71 08c0
000000c0: e2d2 8941 42e6 38c0 1e65 03c1 e29d 4fc0
000000d0: 7b33 ebc0 4122 9bc0 4a5a 64c0 687f 14c0
000000e0: 91f2 78c0 4dcb 39bf 7160 40c0 34b7 6bc0
000000f0: f48e d83e e2c7 62c0 8673 fdc0 2c94 84c0
00000100: 45c9 a9c0 5e81 42c1 c218 e8c0 5144 4cc0
00000110: 8316 83c0 2de8 26c0 5c9a 8ac0 ef2b edc0
00000120: 872c 1cc0 2480 5ec0 8b74 e0c0
-3.112771 -2.257482 -3.8407311 -1.898629 0.47828037 -1.9655931 -4.1894917 -3.116455
-8.752027 -5.7680287 -4.143687 -1.9713662 -1.9757746 -2.5745485 -3.4377117 -3.7995472
2.7732692 -2.4285038 -0.34920612 -1.4447976 -1.7381622 6.956661 5.224668 -1.3752111
-2.3214402 -1.4118974 -3.070322 -2.1526775 -3.974542 -6.862691 -6.3294024 4.076127
1.9533695 -1.9654117 -5.527509 -4.58306 -2.5161786 -3.3868198 3.25573 -7.882122
-4.2337155 -2.1401649 -3.126697 -3.70096 -7.899069 -1.8682319 -1.540102 -2.1319306
17.22797 -2.8890538 -8.212187 -3.2440114 -7.350034 -4.8479314 -3.5680108 -2.3202763
-3.889805 -0.7257584 -3.0058863 -3.6830568 0.42296565 -3.5434499 -7.920352 -4.1430874
-5.305819 -12.156584 -7.253022 -3.1916697 -4.096498 -2.607921 -4.3313427 -7.411613
-2.4402177 -3.476571 -7.0142264

model/hidden_layers/0/W f4 [75, 20]
00000000: a5e7 a3be 68d4 88bd 965c bcbd 1dfb 45c0
00000010: f6dd 203c 8275 203f a19a a2be 4372 ec3c
00000020: c266 1dc0 53c0 b3bb 463f 783e 86ee 23be
00000030: d4c9 c53c 89fc 3ac0 e8d2 603c 922c 95be
00000040: 5ea1 123e a6c0 cebb 4f14 59c0 c630 f1bb
00000050: ab7a 80bf 0f9a bcbc 5fd7 ddbe ce69 0bc0
00000060: e765 c53d 9012 063f f4c6 4dbf e636 29bc
00000070: e337 1bc0 55a9 78bc 130c 95be ae50 75bf
00000080: 65ae f9bd ff04 45c0 a1ff 0aba a655 6f3f
00000090: ead8 45bf 9e02 a23b 1d3e f9bf 893f 013c
000000a0: 6f16 5e3d 2220 ffbd c6a5 27bd 0597 30c0
000000b0: 079d 03bf 29e6 663e aec5 adbe b770 23be
000000c0: e5b6 04c0 1a90 b7bb 649e 123f b870 0bbf
000000d0: 9385 97bd 65c1 42c0 cd46 97ba 27c3 2a40
000000e0: 1f3d 1ebf f2c6 d13b 32b8 3fc0 0a91 683b
000000f0: 2346 2fbf f90e 9a3e 6fd2 aabd 4237 33c0
00000100: ee68 f73d 638a cabe 6cd9 a8be 085e 65bd
00000110: 7e61 7dc0 a86c 03bc 2955 75bf 40d0 80be
00000120: a7c4 f43d dd5d 4cc0 abe3 4f3b 86f0 0abe
00000130: ff12 cdbe 6a44 333d 064e f8bf 846b ae3b
00000140: 3ecd f5bf d58c bc3e c9f2 eebc 2d81 c4bf
00000150: 782d a7bd 67e4 b0bf d835 26bf 0542 b43d
00000160: 20ee 1dc0 f971 a6bb 9684 76bf 9843 1abf
00000170: b206 933d 4273 1ec0 9441 93bb 42f4 cb3d
00000180: 200a 17bf 14de 9c3b 12a4 c1bf 9f8f 4fba
00000190: 7d17 9dbc 0fb4 d0bd afd9 b4bd b776 953e
000001a0: 6878 77be 9fc2 6dbe 683d dcbe adb3 ac3d
000001b0: 01b4 05c0 9fca 9d3b 98b3 8dbf d019 b3be
000001c0: 92d0 183e 1ead 1dbf bb26 ba39 e898 02bf
000001d0: 2be0 0dbe 3f39 d03d 7a5b 2ac0 b0c3 1bbc
000001e0: b991 7c40 4701 2e3e 5d0c 22bc 426d 83c0
000001f0: 0065 7fbd d54a 2abf 774f 97be 391b 0fbc
00000200: a37f 27c0 78ee 3bbb d992 abbf 4f8c c3be
00000210: 1bd6 853d 5bb9 90bf 1854 05bc 8ecf 713e
00000220: 2948 803e 6c52 b23c 6e5e 98bf ad22 d53b
00000230: f830 8040 ce6d 7d3e ed6a d83b c0de 41c0
00000240: 736f fb3c 95d3 6340 b08a 3fbf 6229 90bc
00000250: f63d 1ec0 4912 95bc 00be 8d40 1a8c 1fbf
00000260: 0545 06be efa7 0fc0 9c71 6d3a 463d 7b40
00000270: b05a 69be 0d39 57bd 6fc0 0cc0 7a41 4bbb
00000280: d962 b4bf 470a f03d c570 9e3c 07f3 e5be
00000290: 222e 723e 6d31 4940 b025 96bf 37b4 733e
000002a0: ef0b 493f 1b7e 80bc 026d 6c40 86c0 9bbf
000002b0: dd2e 703e 056e ab3e d756 d2b9 5d12 5840
000002c0: 723e 89bf 30a8 603e eafd 333f d962 273b
000002d0: 149d 353e 3eb1 2ebe e4fc 62be f716 1ac0
000002e0: f17c f9be 08a5 2bbf 29fe c0be fc9e a63d
000002f0: 2ae4 33c0 3601 09bb 97e6 243f 885f 68be
00000300: 95e6 823d 75c3 efbf fac5 89bb 680b df3f
00000310: 1dc1 f4be 1728 493e 8b2e 1ec0 a33d 323a
00000320: f5bc 5a3f 2c31 85be eb62 9fbd 6960 62c0
00000330: 2706 2dbf 8c01 dc3e 09ed 77be 1add debc
00000340: 3a16 18c0 7c1b 0839 9224 f4be 94da 3fbf
00000350: 5e7c c23c 423b 34c0 3ca5 babb 9c00 b23e
00000360: 1c8c 33bf 90cb 44bd f618 32c0 ce97 553b
00000370: 464b 00bf 1ce5 46be e09b 9c3c e789 89bf
00000380: 6f2a acbe e26d 043f 20a7 0cbf 559f 8f3d
00000390: 9aa9 88bf b854 35bc 819d 463f b5d7 2cbf
000003a0: e457 2e3d 76da a8bf b72a 1ebc f2fb 02bf
000003b0: c40b 5fbf e647 873d 50da 7ac0 12e8 733c
000003c0: 93cc 8dbf 24de 33bc 4838 47bb 531f e3bf
000003d0: 3b9e b4bd e608 193e 7905 7abf 9617 c0bc
000003e0: 5765 21c0 f93c 053c fd2c b33f ba88 b6be
000003f0: 8602 57bd 9f6a 06c0 fdbb 3ebc e2e3 0abf
-0.32012668 -0.06681138 -0.09197347 -3.0934517 0.009818545 0.626793 -0.31758597 0.028863078
-2.4593968 -0.0054855733 0.24242887 -0.16008958 0.02414409 -2.9216635 0.013722159 -0.29135567
0.14319369 -0.0063095866 -3.3918645 -0.0073605506 -1.0037435 -0.02302268 -0.43328378 -2.1783328
0.09638577 0.52372074 -0.80381703 -0.01032803 -2.425286 -0.015177091 -0.29110774 -0.9582623
-0.12191466 -3.07843 -0.0005302374 0.93490064 -0.7728411 0.0049441596 -1.947208 0.007888683
0.054220613 -0.12457301 -0.04092958 -2.7592175 -0.5141148 0.22548737 -0.3393988 -0.15960966
-2.073663 -0.005601895 0.57272935 -0.5446887 -0.07398524 -3.0430539 -0.0011541486 2.6681612
-0.61812013 0.00640189 -2.9956174 0.003548684 -0.68466395 0.30089548 -0.08340918 -2.8002477
0.120805606 -0.39558706 -0.3297838 -0.05599788 -3.9590755 -0.008021511 -0.9583307 -0.25158882
0.11951571 -3.193229 0.0031721394 -0.13568315 -0.40053555 0.043766417 -1.9398811 0.0053228755
-1.920326 0.36826196 -0.029168503 -1.5351921 -0.08162969 -1.3819703 -0.6492591 0.08801655
-2.467659 -0.0050795046 -0.9629606 -0.6025939 0.071790114 -2.4757848 -0.0044939015 0.09958698
-0.58999825 0.004787216 -1.5128195 -0.00079178246 -0.01917624 -0.101905935 -0.08830582 0.29192135
-0.24167025 -0.23218773 -0.430156 0.08432708 -2.0891116 0.004815414 -1.1070433 -0.3498063
0.14923313 -0.6159228 0.0003550554 -0.51014566 -0.13855045 0.10167169 -2.6618333 -0.009507105
3.9463942 0.16992675 -0.009890643 -4.107087 -0.06235218 -0.66520435 -0.29552814 -0.008734518
-2.6171653 -0.0028676074 -1.3404189 -0.38192984 0.06534978 -1.1306566 -0.008137725 0.23614332
0.25055054 0.021767817 -1.1903818 0.006504378 4.0059776 0.24748918 0.0066045434 -3.0292206
0.030692792 3.559789 -0.74820995 -0.017597858 -2.4725318 -0.018197196 4.4294434 -0.62323153
-0.13112266 -2.2446249 0.00090577616 3.9256148 -0.22788501 -0.052544642 -2.1992452 -0.003101437
-1.4092666 0.1172071 0.019340882 -0.44911978 0.23650411 3.1436417 -1.1730251 0.23799215
0.78533834 -0.015685132 3.6941533 -1.2168128 0.23455377 0.33482376 -0.00040119022 3.3761208
-1.0722182 0.21939158 0.7030932 0.0025541096 0.17735702 -0.170598 -0.22166783 -2.4076517
-0.48728135 -0.6704869 -0.3769391 0.081357926 -2.810801 -0.0020905263 0.6441435 -0.22692692
0.06391636 -1.8731524 -0.004204509 1.7425356 -0.47803584 0.196442 -2.4715908 0.0006799346
0.85444576 -0.26014078 -0.07782539 -3.5371344 -0.6758751 0.4296993 -0.24211515 -0.027205039
-2.3763566 0.0001298021 -0.4768415 -0.749429 0.023740944 -2.8161168 -0.005695967 0.3476609
-0.70135665 -0.048045695 -2.7827735 0.0032591703 -0.5011486 -0.19423336 0.019117296 -1.074521
-0.33626124 0.5173017 -0.5494251 0.07012812 -1.0676758 -0.011067562 0.7758408 -0.6751664
0.042564288 -1.3191669 -0.009653739 -0.5116569 -0.8712733 0.066055104 -3.9195747 0.014886873
-1.1078056 -0.010978255 -0.0030398536 -1.7743934 -0.088192426 0.149448 -0.976646 -0.023448747
-2.5218103 0.008132213 1.3998104 -0.3565119 -0.05249264 -2.1002576 -0.0116415 -0.5425397

model/hidden_layers/1/b f4 [75]
00000000: c580 aabc c8ac 13bc 478f 87bf 63cb 033f
00000010: f0f2 eb3f 7d96 9d40 0733 32bf ae5d 1340
00000020: 3168 66c0 4741 953d 8686 1bbf fe19 f7be
00000030: 53a7 8d3f 1500 85be 4686 c4be c8e4 393e
00000040: ab1e 54be 0b40 a13d c96b 58be 7a9b e8c0
00000050: 04b9 b2bf 008a 67bd f21f 15bf 9d11 45bf
00000060: c834 a3be 750b ae40 05e9 f43e abc8 df3c
00000070: 278f a23f e255 6e3e d62c 7cbe 1aa1 d43c
00000080: 6b3a 7b40 8f7a a93d 7d73 c43f 2263 aa3f
00000090: 6b89 7f40 405f 1042 e108 be40 483f 58be
000000a0: c05e 0a3e 05ea fa3c 0cfe 7fbf c52d 0540
000000b0: 3245 313f 33e8 8ebf 0cd4 253e 48fc 1ec0
000000c0: 3127 1e3e 5135 53c0 5eef dfbe 8601 92bf
000000d0: b61d 023f 90f3 d9be e618 00bf 1de9 cbbe
000000e0: 42fa f040 725c 9ebd f340 83bf 2f78 bb3f
000000f0: af13 8841 001d 75bf 2fd3 cf40 f250 8240
00000100: 8f53 13bf c176 1ebe de02 86bf 94ed ca3f
00000110: de78 96c0 1e24 9dbe 3dec a641 c082 453f
00000120: 1c22 ecbd 47e6 7a3f a899 38bf
-0.020813355 -0.009013362 -1.05906 0.5148222 1.8433514 4.92462 -0.6960911 2.3025928
-3.6001093 0.07287841 -0.6075214 -0.48262018 1.1066688 -0.25976625 -0.38383693 0.1815368
-0.20714824 0.07873543 -0.21134867 -7.268979 -1.3962712 -0.05652809 -0.5825187 -0.7698
-0.31876206 5.4388986 0.4783403 0.027317366 1.2699937 0.23274949 -0.24626479 0.025955725
3.9254405 0.08275329 1.5347744 1.3311503 3.9927623 36.093018 5.938584 -0.2111789
0.13512707 0.030629167 -0.9999702 2.0809186 0.6924621 -1.1164612 0.1619417 -2.484148
0.15444638 -3.3001292 -0.4373731 -1.1406715 0.50826585 -0.42568636 -0.5003799 -0.3982629
7.530549 -0.07732476 -1.0254196 1.4646052 17.009611 -0.95747375 6.4945292 4.072381
-0.57549375 -0.15474989 -1.0469625 1.5853753 -4.7022543 -0.30691618 20.86535 0.77152634
-0.11529943 0.98007625 -0.7210946

model/hidden_layers/1/W f4 [75, 75]
00000000: 1d25 0abe f3aa 5ebe f4c2 8bbe e5eb 54be
00000010: dad7 9dbd c7d9 24bd c2ab 22be 86fc 13be
00000020: dd87 4abe 0c13 37be 9358 23bd f09f 0fbe
00000030: 22ab 8a3d 8a03 f73d 62d2 9ebd 62a8 6ebc
00000040: d873 82be fcda c5be 0337 46be 732d 4cbd
00000050: 6d4f 2a3d c200 81be f73e 76bd 5aba e1bc
00000060: a911 0d3d 8cf6 63be 5847 c4be 267c d93c
00000070: d3c2 43be 3fdc c83c 64f5 c73d 3e2f 20be
00000080: 20ee 473c ceeb d6be 2cd9 e2be 5574 5dbe
00000090: 6ce4 34bd ab6e 3fbe e805 11be 0975 50be
000000a0: 1b87 57bd 44a9 313c eacf eebd 6bf3 1abe
000000b0: 85bc c9bd fad6 2cbe 4c78 3bbe 5b28 90bd
000000c0: 5090 72be 137c ddbd 5cd2 96be 6e65 7dbe
000000d0: 3bcf 8ebe 36b8 0cbe 0570 28be f05c b4be
000000e0: f793 72bd 454f ccbd 9dfa 153e 5220 10be
000000f0: f18b bc3c 4b87 d1bd a1f5 cdbd 97b7 96be
00000100: 6f4f 87be 68e0 a5bd 7a1a 09be fe39 e1bc
00000110: 8d9a adbd f90b 92be 29da b8bc ec2e 31be
00000120: 5593 98bc d57e 10be f0b7 6fbe 640d f4bb
00000130: 32b1 71be 907c 713c 8f4c 89bc 67bb 39be
00000140: 6d79 2ebe 02c6 aebd 16d9 84bd cead 1abe
00000150: 7299 b2bc 7367 c1bc f969 afbd 9ba0 943d
00000160: 20ef 3ebe 2ae6 a1bd 7a91 88ba 70b3 80bd
00000170: a3bb 1ebb f097 6d3c 8a3b 68be 0190 363d
00000180: eef2 4abe c775 3cbc 32cf c5bd ce34 e6bd
00000190: 7ff4 b0be c2a1 f4bb eae1 26be aa1f 52bd
000001a0: a228 2abc 8971 8cbc e270 f6bd 1995 97bd
000001b0: 3911 1ebe 429a e4bd 5c32 4cbd a16c 53bb
000001c0: 80bf 45bd feed 43be 78aa 9fbd 5a9f b9bc
000001d0: f45d a9bd 06c1 9fbe fe2e 0cbe b6ee 40be
000001e0: 00bd 31be cfbd bbbd 3bfd 3dbe fd26 a5bd
000001f0: f8d8 babd 6550 afbd d047 79bc bd8e b9bd
00000200: 9aa6 a5bd 70be 2abd 166a 2bbd a648 33be
00000210: 785b 8bbd 672b 153c efcf 98bd 6043 623c
00000220: 8a73 52bd 73a7 49bd 4090 003d 7db2 5abe
00000230: c53a 98bd 0639 40be fb3e 9fbd 0356 b2be
00000240: 2a25 96bd d2b2 2ebb 1a5b 6bbe 091e 80bd
00000250: be0b 01be 378c 5cbe 286b 0ebf 0c71 0bbe
00000260: a5a9 9bbb 53ac 09be aedb eabe 4d82 07bf
00000270: ef1d babd 2dff aabe b0ab 77bd 42e9 3bbe
00000280: 5f6f 53bf dd73 85be ecc9 6bbd 9354 18bf
00000290: 0957 5bbe 0259 3dbf 5ce7 95be 11f1 bdbd
000002a0: e5fe 1cbf 48eb 1bbf 356c 10bf 8110 69be
000002b0: 8d24 50bd de70 82bf e2de 33bf fceb ecbe
000002c0: 4a83 b9be b1b6 00bf 7922 91bf 7e2e 7ebe
000002d0: 84f4 31be 7439 05be d00f a6bc 050b 813b
000002e0: 73a9 c3be dbf8 bdbd 6bd6 013d 710a 1abf
000002f0: 6de8 a9bd 0e33 743d e123 fbbe e896 f4bd
00000300: efcf f4be 1a49 d4bd 93cf 28be 2d68 d73c
00000310: 059b 623e 383f 35bd f9ac 8dbe ba1f 6abe
00000320: c6b7 07be 96f6 ab3d 481a d5be e4f2 33bf
00000330: 318c 43be ec07 67be d898 0abf e628 3ebd
00000340: 99e8 32be cba5 343c c3bb 81be e3e8 06be
00000350: 01e4 a1bd 3b11 493d 8483 2ebe cf70 c3be
00000360: 799f 7ebd 35fa 1fbe 5273 1fbf b594 dfbd
00000370: 5c00 99be 6c63 9cbe 7660 47bf 06a4 c3be
00000380: 7ccf e2be bc9a 90bd d2a9 a0be 1575 abbd
00000390: b415 02be b358 c6be 22ff 2fbe 0586 06be
000003a0: c40b ee3d dbd5 2cbe c43c 50be 852c 5bbe
000003b0: 5a8c 47be 9cce 99be 8767 25bf 6f45 b2bd
000003c0: 99ea 99be 330f 14bd f5e7 fbbd ebe6 11bf
000003d0: e0fb 3dbe e8fc 5abe 9b31 abbd 6d72 cbbe
000003e0: 8f20 a0be c0bc a4be f753 62be a459 a9be
000003f0: 1dbb a7be 4acd 943b a452 f6be 88ac 3fbe
-0.1349072 -0.217449 -0.27297175 -0.20793112 -0.07707186 -0.04024675 -0.15885833 -0.14451799
-0.1977839 -0.1787836 -0.039879393 -0.14025855 0.06770922 0.12061222 -0.07754971 -0.014566513
-0.25479007 -0.38643634 -0.19356923 -0.04984803 0.041579653 -0.2519589 -0.06011864 -0.02755468
0.03444067 -0.22262019 -0.3833568 0.026548456 -0.19117288 0.024519084 0.097636014 -0.15643021
0.0122027695 -0.4197678 -0.44306314 -0.21626408 -0.044163153 -0.1869456 -0.1416241 -0.20357145
-0.05261908 0.010843579 -0.1166075 -0.15131919 -0.0985041 -0.16878882 -0.18307608 -0.07038947
-0.23687863 -0.10814681 -0.29457366 -0.24745724 -0.2789248 -0.13742146 -0.16448982 -0.35227156
-0.05922314 -0.09976057 0.14646383 -0.14074829 0.023015948 -0.10230883 -0.100566156 -0.29436943
-0.2642779 -0.08099443 -0.13389006 -0.027493473 -0.08476744 -0.2852476 -0.022564964 -0.17303056
-0.01862494 -0.14110883 -0.2341001 -0.0074478853 -0.23602751 0.014739171 -0.016760139 -0.18137895
-0.17038508 -0.08533861 -0.06486718 -0.15105364 -0.021801684 -0.023608899 -0.085651346 0.072571956
-0.18645906 -0.079052284 -0.0010419332 -0.06284225 -0.0024220727 0.014501557 -0.22678962 0.044570927
-0.19819233 -0.01150269 -0.0965866 -0.112405404 -0.34561536 -0.007465572 -0.16297117 -0.05129973
-0.010385664 -0.017143982 -0.120332494 -0.07401485 -0.15436257 -0.11162235 -0.049852714 -0.0032260793
-0.04827833 -0.19133756 -0.07796186 -0.022658993 -0.08269873 -0.31201953 -0.13689801 -0.18841061
-0.17357254 -0.091670625 -0.18553631 -0.08064077 -0.09123415 -0.08560256 -0.015214875 -0.09060428
-0.08088417 -0.04168552 -0.04184922 -0.17508182 -0.06804556 0.009104586 -0.07461535 0.013810009
-0.051379718 -0.049231958 0.031387568 -0.2135715 -0.074330844 -0.18771753 -0.077756844 -0.34831247
-0.07331307 -0.0026656878 -0.22983971 -0.06255729 -0.12602136 -0.21537863 -0.5563226 -0.13617343
-0.004750448 -0.13444643 -0.45870727 -0.529332 -0.09087741 -0.3339781 -0.06046647 -0.183507
-0.82591814 -0.2606496 -0.057565615 -0.5950405 -0.2141992 -0.7396394 -0.29278076 -0.092744954
-0.6132644 -0.60905886 -0.5641511 -0.22760202 -0.050816108 -1.0190694 -0.7026197 -0.46273792
-0.36232978 -0.50278765 -1.1338645 -0.24822423 -0.17378432 -0.13010198 -0.020271212 0.003938081
-0.38215217 -0.09275981 0.031698626 -0.6017218 -0.08296285 0.059619002 -0.4905081 -0.119428456
-0.4781489 -0.103655055 -0.16485433 0.026294792 0.22129448 -0.044249743 -0.2767103 -0.22863665
-0.13253698 0.08396642 -0.41621614 -0.70292497 -0.19096448 -0.22561616 -0.5413947 -0.046425723
-0.17471541 0.011025856 -0.25338563 -0.13174777 -0.079048164 0.049088698 -0.17042357 -0.38172004
-0.062163804 -0.1562279 -0.6228534 -0.109170355 -0.29883087 -0.30544603 -0.7788156 -0.38211077
-0.44298923 -0.07060763 -0.31379563 -0.08371941 -0.12703592 -0.38739547 -0.17187169 -0.13137062
0.11623338 -0.16878454 -0.2033568 -0.21403702 -0.19487134 -0.30040443 -0.64611095 -0.0870465
-0.30061796 -0.036147308 -0.12300102 -0.5699298 -0.18553114 -0.21385539 -0.08359071 -0.39735737
-0.3127484 -0.32175255 -0.22102343 -0.33076203 -0.32759944 0.004541074 -0.48109925 -0.18718159
