experiments/rovers/rovers_full_train_set_2-75-4/best/model.npz (npz, 29698 bytes, 6 tensors)

model/output/W f4 [4, 75]
000000 45 62 01 bf aa 79 b1 3c 69 6c 8f bd 68 c2 65 bf
       -0.5054057 0.02166446 -0.070030995 -0.89749765
000010 55 39 fe be 81 e5 20 3e 2e d1 c3 3d 90 f6 69 bd
       -0.49653116 0.15712549 0.09561382 -0.057119906
000020 6e f5 0f bd 7c 6c 51 bf c6 06 66 bf 83 b4 54 3c
       -0.03514617 -0.8180616 -0.89854085 0.0129824905
000030 c7 8d 4c bc 73 eb 03 bf 3b 42 bc be 66 d1 5e bc
       -0.012484974 -0.5153114 -0.3676928 -0.013599729
000040 e2 6c 18 be 14 b8 dc be b4 5c 02 be 36 be 5e bd
       -0.14885285 -0.4310919 -0.12730676 -0.054380618
000050 5a 0f 37 3d de aa 25 bc 9c 4f 7c bc 34 fc 68 bf
       0.044692375 -0.010111539 -0.01539984 -0.9100983
000060 1b 7b 61 bd 17 6d 91 be 27 48 7c bd 3c 19 20 bd
       -0.055049043 -0.2840354 -0.061592247 -0.039086565
000070 12 13 17 bc 36 e6 33 bc e2 eb a2 bd 0d 58 ac 3c
       -0.009220855 -0.0109801795 -0.07955147 0.02103808
000080 82 b5 ea 3c bc 01 04 be 33 be d0 be 5c 17 a4 be
       0.028651003 -0.12891287 -0.4077011 -0.32049072
000090 53 fc c6 bc 84 09 89 be e1 14 5a bd c9 9a 36 3e
       -0.02429024 -0.26765072 -0.053242568 0.17832483
0000a0 a8 a2 81 be fa 6a 99 3d 27 3f 5a bd ea bb d1 bc
       -0.2531941 0.07491107 -0.053282883 -0.0256023
0000b0 f3 9a 1a 3e 5d a2 21 3d 75 27 af 3d 5d 14 2d be
       0.15098171 0.039461482 0.08552448 -0.16902299
0000c0 89 89 fb 3d b3 62 87 be cf 46 48 bf 22 81 2a bf
       0.12282092 -0.2644249 -0.78233045 -0.6660329
0000d0 76 4d e7 be 37 aa 27 3e 26 54 43 bd 7f 31 09 bf
       -0.45176286 0.16373526 -0.047687672 -0.5359115
0000e0 26 80 8d bc bb f7 86 3d de 9d 9a bd a9 6f 50 3d
       -0.01727302 0.065902196 -0.07549642 0.050887737
0000f0 33 f9 b6 be ad b8 9b 3c 33 25 b1 bd 25 8e 4a 3d
       -0.35737 0.019008959 -0.08649673 0.049451966
000100 84 d3 ac be 59 ca ae 3d 92 47 db 3d 12 c9 3c 3d
       -0.33755124 0.085346885 0.1070701 0.046090193
000110 e7 d8 10 bf 26 f5 fb be fe d9 8e bc 08 b7 d5 be
       -0.56580967 -0.4921047 -0.017437931 -0.41741204
000120 16 0c 4d be 1c 09 48 bd 92 41 a5 ba 4a 94 09 bf
       -0.20024142 -0.048836812 -0.0012608042 -0.53741896
000130 07 81 bc bd 4d 4b 9d bd 9a 40 5b bf f0 ef fc be
       -0.092042975 -0.07680378 -0.8564545 -0.49401808
000140 e9 1c 5c 3d e8 08 01 3e 76 4d fa bc ec 22 1a bd
       0.05373851 0.12601054 -0.030554514 -0.03763096
000150 3e 60 6b bf b4 7d 5d bf 08 dd bd 3d 3b 2a ce bd
       -0.9194373 -0.8651993 0.09270674 -0.100666486
000160 95 86 01 bf 54 67 e3 be c7 1b bf bc 2d ac 0f 3e
       -0.5059598 -0.4441477 -0.023328675 0.14030524
000170 fc 96 13 bf 5e 9b ea bd 75 1f 46 3e 33 81 b7 bd
       -0.5765226 -0.11455415 0.19347937 -0.0896019
000180 a4 61 4f 3e ce 2e e3 bb 4e 93 6d bf e0 7e 22 3e
       0.2025209 -0.00693307 -0.92802894 0.15868711
000190 08 19 86 be 4f be 99 3d 9e c9 10 be 7f 93 19 be
       -0.26190972 0.075070016 -0.14139411 -0.14997672
0001a0 09 2c a4 bd 76 e7 b4 3d a0 22 88 3d e9 18 1f bb
       -0.080162115 0.0883321 0.06647229 -0.0024276322
0001b0 06 26 35 3e ec 00 c9 be d8 d5 a0 be e2 6d 7d 3d
       0.17690286 -0.39258516 -0.3141315 0.06187237
0001c0 95 3a 6a bc bb fc 85 3c 0c 37 99 3d 98 fb a6 be
       -0.014296194 0.016355863 0.074812025 -0.32613826
0001d0 eb 25 07 3e 42 19 b0 3d 70 d7 1c be e2 81 6e bc
       0.13198058 0.085985675 -0.15316558 -0.014557334
0001e0 af c3 93 bd 91 c0 f0 3c 22 ea 20 be 3d 55 a7 3d
       -0.07215058 0.029388698 -0.15714315 0.08170555
0001f0 3c ee a8 3d 8e 96 32 bf c5 91 0a bf 41 0f ed be
       0.082485646 -0.6976098 -0.54128677 -0.463007
000200 d6 2b 7d 3c 29 60 a3 3c b1 84 d4 be 77 e2 0c 3e
       0.015452346 0.019943314 -0.41507486 0.13758264
000210 e6 1a 1c 3e c9 c0 1c 3c c6 1f 7f bc 4d 83 cc be
       0.15244636 0.009567448 -0.01557154 -0.39943925
000220 9e 97 a8 3d d2 dc 13 be 55 15 2b be 9b e3 bb be
       0.08232044 -0.14439705 -0.16707356 -0.36697087
000230 c2 36 4b 3c bb 46 eb 3d f3 c9 5c 3d b9 3a 04 bf
       0.012403192 0.114881 0.05390353 -0.51652104
000240 ba 1f fb be 38 50 07 be 00 48 e9 be b3 64 5a be
       -0.49047643 -0.13214195 -0.45562744 -0.21327476
000250 f1 79 d9 bc 99 f3 89 3e 44 d9 c5 be 0e d0 1e be
       -0.026547404 0.26943663 -0.38642323 -0.15509054
000260 3d 6c 25 bd 54 12 75 bf ff 91 13 bf b4 4a 7b 3d
       -0.040386427 -0.9573109 -0.5764465 0.06135054
000270 1c 22 bb bd 6c 82 b0 bd dd a4 33 3e c1 a8 82 bf
       -0.09137365 -0.08618626 0.17543359 -1.020775
000280 75 2e 53 bf 2b e4 4d 3d 5d 17 fb bd 0f e5 ea be
       -0.8249276 0.050266426 -0.122603156 -0.45877883
000290 01 93 d9 be 27 7c 83 bb ca 16 be 3c 8e d6 e1 be
       -0.42494968 -0.004012603 0.023204226 -0.44109005
0002a0 d4 0e 04 be 64 f7 aa 3c 3b 3f a6 be c9 23 9d 3c
       -0.12896281 0.020869918 -0.32470116 0.019182103
0002b0 c2 08 bf bd 32 35 6c bf d2 15 56 be c7 cc 71 be
       -0.09327842 -0.9226867 -0.20906761 -0.23613273
0002c0 f3 bf fc bd 54 12 98 bb f0 5e 1a be 27 cb 29 bd
       -0.12341299 -0.0046408568 -0.15075278 -0.041453507
0002d0 1b 02 32 3e d0 d4 0b 3e a0 9c 58 3c a8 da 95 bc
       0.17383616 0.136554 0.013220936 -0.01829274
0002e0 38 1e de be f2 34 e7 be 56 a4 80 3b e1 6c b7 bd
       -0.4338243 -0.45157582 0.0039258404 -0.08956314
0002f0 96 f4 2b 3d 60 9d c5 3c 59 44 a2 be 24 c1 ee 3c
       0.041981302 0.024122894 -0.3169277 0.029144831
000300 85 f2 8d 3c 10 4f 81 3a a0 2e 04 bd 76 fb ca bd
       0.017327556 0.0009865481 -0.032271028 -0.099112436
000310 a5 2a 48 3e dd 34 b7 bd 00 a7 35 3e 6d 09 2e 3d
       0.19547518 -0.0894563 0.17739487 0.042489458
000320 bc 33 00 bf 59 a8 2f bf ad 7f e4 be 5e 62 ef 3d
       -0.5007894 -0.68616253 -0.4462866 0.11688684
000330 96 eb a9 bd 98 d2 f4 be 64 10 05 bd e4 71 11 be
       -0.082968876 -0.4781692 -0.032486334 -0.14203602
000340 e7 f6 56 bd f6 c9 ee bd 91 af 94 be 9e 97 16 3c
       -0.05248156 -0.11659615 -0.29040197 0.009191422
000350 70 f2 21 3d 12 dd d2 bc 15 05 b6 be 43 0c c7 bd
       0.039537847 -0.02574018 -0.35550752 -0.097191356
000360 53 ab a7 3d a4 10 0c 3e 56 6a f9 be da b7 dd be
       0.081869744 0.13678223 -0.4871394 -0.4330433
000370 c4 60 79 be 58 00 0f bf a5 fd 0e bf ad a2 0a bd
       -0.2435332 -0.558599 -0.5585578 -0.033846546
000380 90 00 b9 bd 3e a6 08 bf fa ac ce 3d 4f e5 0f ba
       -0.090333104 -0.53378665 0.100915864 -0.0005489187
000390 19 74 5c bf 8f e6 c2 be 6e 80 22 be 66 e5 a7 bd
       -0.8611465 -0.38066527 -0.15869305 -0.08198051
0003a0 e4 77 ec 3d e7 39 8e be a8 62 65 bf 73 da 55 bf
       0.11546305 -0.2777855 -0.8960366 -0.8353645
0003b0 2a d6 48 bd 9c 1b 26 bd e0 ca 05 bf 66 d4 df be
       -0.049032368 -0.040553674 -0.5226269 -0.43716735
0003c0 fd 24 80 be 2c 47 13 be 4a 55 01 bf 11 83 24 3e
       -0.2502822 -0.14382619 -0.50520766 0.16065623
0003d0 05 ff e8 bd 91 ad 9a 3d e5 33 8c 3d b4 76 e4 3d
       -0.11376766 0.075526364 0.068458356 0.11155453
0003e0 ad 81 73 bf 0f 0b 04 be a7 a2 a2 be c1 e1 e0 3d
       -0.95119745 -0.12894844 -0.3176472 0.10980559
0003f0 e5 42 c2 bd 05 ac a7 3d 2f 76 81 3d 4c 05 1c 3e
       -0.09485415 0.08187107 0.0632137 0.15236396

model/output/b f4 [4]
000000 f0 3b d1 bf 81 02 d0 bf 22 02 cb bf db 7e cd bf
       -1.6346416 -1.6250764 -1.5860026 -1.6054338

model/hidden_layers/0/W f4 [75, 20]
000000 ec 9f bd 3c cb d4 e4 3d 0c 3d 65 be b9 b5 ac bc
       0.023147546 0.111733995 -0.22386569 -0.021082746
000010 fc 65 dd bd 4e ea a4 be 40 29 0e be e5 44 17 3e
       -0.108104676 -0.3221001 -0.13882923 0.14772375
000020 af 14 af bc 8a 0d 84 be 23 0b 21 3e 3b 53 62 bc
       -0.021372167 -0.2579158 0.15726905 -0.013813789
000030 a1 ab b5 3d 0d 0a 9a bd 60 b7 53 be 22 23 c6 3d
       0.08870626 -0.07521448 -0.20675421 0.0967467
000040 c1 f5 04 be 43 dc ad 3e 7b 24 93 bd 8a 42 81 3d
       -0.12984373 0.3395711 -0.071846925 0.063115194
000050 8e 95 66 be 60 63 11 3b 01 8e 1f 3d c3 e1 27 be
       -0.22517988 0.0022184476 0.038953785 -0.16394715
000060 f7 bf 00 3f c5 d8 a9 3d 1d 22 ad 3e 09 5c 71 be
       0.50292915 0.08293299 0.3381509 -0.23570265
000070 b9 b3 a5 3e 57 38 b5 be 41 33 15 be d9 fa 36 3d
       0.3236368 -0.35394546 -0.14570333 0.04467282
000080 87 28 93 3c a3 e6 9e be e1 24 9d be ab ed 31 3e
       0.01796366 -0.31035337 -0.306922 0.1737582
000090 ab cd c7 3e 88 e0 58 3e 64 75 02 be 08 92 2e 3e
       0.390241 0.21179402 -0.12740093 0.17047894
0000a0 1f c1 6d be 95 8a 8d 3d 30 cd dc bd de 16 a7 bb
       -0.23218201 0.06911198 -0.10781324 -0.0050991615
0000b0 d0 d3 67 bd 72 c4 52 3e 03 d2 8e 3d b7 b2 97 3e
       -0.056598485 0.2058275 0.0697365 0.29628536
0000c0 ad ee 49 bd 8b c0 2f 3e de 11 17 3d dc 16 3c be
       -0.049299885 0.17163293 0.036882274 -0.18368095
0000d0 9f 48 e7 bd 71 d6 fc bb 2a 37 49 be af b6 04 3a
       -0.11293148 -0.007715993 -0.1964995 0.00050626224
0000e0 0a b4 c7 bd 98 0e 47 3b 93 1b cf 3d 34 20 a4 3d
       -0.097511366 0.0030373689 0.10112681 0.08013955
0000f0 5d 8d f4 3e bc d0 2e be a9 ce 2d 3d 36 b1 3a be
       0.47764102 -0.17071813 0.042433415 -0.18231663
000100 d4 23 81 3c 17 60 74 be fa c3 51 3e d0 a2 c5 bd
       0.015764154 -0.2386478 0.20484915 -0.09650195
000110 03 6d e0 3c f3 60 94 3e 02 d8 aa 3d 87 58 c0 bd
       0.02739573 0.28980216 0.083419815 -0.09391885
000120 cc 7a 4b 3e 09 bf 68 bd 29 8c 5f 3d 76 e5 bd bd
       0.19871062 -0.05682281 0.054577027 -0.09272282
000130 b9 87 b3 be e2 6a 5f bc 72 21 3d 3e 9e f4 1b be
       -0.35064486 -0.013636323 0.1846979 -0.15230033
000140 65 05 65 be d7 e2 cd bd 65 89 f5 be 8c b4 1a be
       -0.22365339 -0.10053032 -0.47956386 -0.15107936
000150 f0 41 8f be 1c de fb 3e fa 41 b7 bd 32 30 83 be
       -0.27979994 0.49192894 -0.08948131 -0.25622708
000160 7d dc 42 3d fd cd e8 3b 08 d5 36 3d cf d0 a1 3d
       0.047573555 0.007104634 0.044636756 0.07901155
000170 bd c6 7c 3d 12 3c d7 bd d0 09 8d 3e 0c 94 1b 3e
       0.06171297 -0.105095044 0.2754655 0.15193194
000180 ed a1 97 bd a6 f1 bf bc f1 42 a0 be 4e bb f2 3d
       -0.07403932 -0.023430657 -0.31301072 0.11852132
000190 97 8c ca 3d f1 5d 93 bd a7 1c 62 3e 24 c5 1d bd
       0.09890097 -0.07195652 0.22081243 -0.038518086
0001a0 bd 89 84 3e 0d 8b e6 bd ed 23 c4 bd 58 92 56 3d
       0.25886336 -0.112569906 -0.09577165 0.052385658
0001b0 67 61 83 3c 7a e2 c8 3d 14 e4 7e 3e cd 98 a0 bd
       0.016037656 0.09808822 0.24891692 -0.078416444
0001c0 c5 93 bc be 02 2a 01 be 80 b6 74 be 82 a3 a1 3d
       -0.3683149 -0.12613681 -0.23897743 0.07892515
0001d0 2c ef 08 3e 85 26 be bd c1 f5 09 3e c3 14 b9 3d
       0.13372487 -0.09284691 0.13472654 0.09037163
0001e0 b7 c4 b3 3d 28 56 c6 3e 4f 07 a0 bd fa 9f 02 be
       0.08777755 0.38737607 -0.07813894 -0.12756339
0001f0 a9 5c 2e 3e f6 c7 e4 3d 58 48 1a 3e e5 07 6b 3e
       0.17027535 0.11170952 0.1506666 0.2295223
000200 94 c5 c3 bd 7f ed d1 be c0 bb 67 3e dc 23 bb bd
       -0.095591694 -0.41001508 0.22630215 -0.09137699
000210 35 3b 8a be d8 ac 53 be 51 c2 90 3e 82 23 17 3d
       -0.26998296 -0.20671403 0.28273252 0.036899097
000220 87 b6 8a 3d 48 b7 42 3e 12 31 dd bd bd 31 71 be
       0.067730956 0.19015229 -0.10800375 -0.2355413
000230 a1 f7 f1 bd d6 4d 02 be 31 03 8b 3c 9c a6 ff be
       -0.118148096 -0.12725005 0.016969295 -0.499318
000240 37 ee cb bd d4 c2 0c bd 7b 0d fe 3d 78 76 6c 3e
       -0.09957545 -0.03436549 0.12404915 0.23092067
000250 e1 bf f1 3b ae 2d 9b 3e c0 d8 02 3e 27 86 46 3e
       0.00737761 0.30308288 0.12777996 0.19387113
000260 65 dc 30 bd 70 1a 9d bd 88 33 93 3e 76 ce fe bc
       -0.043178935 -0.07671058 0.28750253 -0.031104308
000270 0f 6d a2 3e 5b 65 51 bb 06 62 b0 be 06 ac f9 bb
       0.3172383 -0.0031951282 -0.34449786 -0.0076193837
000280 e0 8d 0f be 5b 49 0e bd aa 11 73 be a7 42 1f be
       -0.14018965 -0.034737926 -0.23737207 -0.1555277
000290 b7 77 a3 bd fb 8f 4a be 1b 6a 86 3c 1f 99 6b be
       -0.07981818 -0.19781487 0.016408017 -0.2300763
0002a0 80 78 1f 3c 28 3a 81 be 6a 9f 2b be 94 07 f5 bc
       0.009733319 -0.25239682 -0.1676003 -0.02991084
0002b0 9d 45 f9 3e 2e 55 8b 3e 90 39 bb 3e d9 a3 9b bc
       0.48685923 0.27213424 0.36567354 -0.018999027
0002c0 b8 bc a8 3e 89 04 75 bd 7d c0 c1 bd 7e 73 7b be
       0.3295648 -0.05981878 -0.09460542 -0.24555776
0002d0 6e 6c a0 3d 35 fd 2c 3e 26 59 8b bd cf ca d5 bd
       0.07833181 0.16893466 -0.06804113 -0.10439073
0002e0 56 03 03 be 33 e2 d4 3a 2f 5e e0 3a 5b 06 8a be
       -0.12794241 0.0016241729 0.0017117913 -0.26957974
0002f0 3c d1 9d 3e 4b 71 42 be 93 52 8e be bb aa f3 3d
       0.30823696 -0.1898853 -0.27797374 0.11897799
000300 67 da 07 3e 15 2e a8 bd bd e0 0d 3e 18 c8 01 3d
       0.13266908 -0.082119144 0.13855262 0.031684965
000310 c8 9e 85 bc 16 f8 d1 3d f9 e5 1d be d3 b0 86 3c
       -0.016311064 0.10252397 -0.15419759 0.016441738
000320 f1 cf c4 bd a8 39 72 3c 5d 69 81 3e 92 e1 8a 3e
       -0.09609974 0.014784254 0.25275698 0.27125221
000330 fe e5 ba bd d9 be 8a be f2 e0 5e be 55 9a bc 3e
       -0.09125899 -0.2709873 -0.21765497 0.36836496
000340 83 34 37 be 6c e3 36 3e 15 4c af 3e 9c 79 ef bd
       -0.17891125 0.17860192 0.34237733 -0.11693117
000350 53 dc 1d bd f5 45 72 be b6 e0 3e be ac 19 38 3e
       -0.038540196 -0.23659499 -0.18640408 0.17978543
000360 fc ff 8b 3e 6e f8 d3 be a3 2e ff 3d c1 66 a6 3c
       0.27343738 -0.41400474 0.12460067 0.020312669
000370 68 11 2e 3d f3 3d 91 3c 38 f5 8e be a1 3a 0c be
       0.04249707 0.017729735 -0.27921462 -0.1369424
000380 b8 2e 7a be 11 2f db 3e 67 36 cb 3e 2f 64 4b 3d
       -0.24431884 0.42809346 0.39689943 0.04965609
000390 19 6b 8f be 80 fc f5 3d 5c ca 16 bd 6d 6d 91 3e
       -0.28011397 0.12011051 -0.03681408 0.28403798
0003a0 30 32 f1 3e 7e 4f 53 3e a5 51 85 be 52 a3 64 be
       0.47108603 0.20635793 -0.26038852 -0.22327927
0003b0 6f 50 82 be f1 bc 18 3c 6f 2a 9a be b0 30 f2 3d
       -0.2545199 0.009322391 -0.301105 0.11825693
0003c0 bd fd 14 3e b5 0c 69 bc 11 af 82 bd 6b 97 a8 3d
       0.14549918 -0.014224221 -0.063810475 0.08232006
0003d0 4e f0 97 3e c9 b9 d5 be ea 2b 30 3d 84 8e 2f bd
       0.29675525 -0.41743305 0.04301063 -0.042860523
0003e0 e6 fb 13 be dc 00 9b bd 3c 0b 03 3d d2 bb c2 3e
       -0.1445156 -0.07568523 0.031993136 0.3803392
0003f0 9d 37 3a 3d b7 12 e9 bd 81 79 51 be c4 e0 35 3e
       0.045463193 -0.11380523 -0.20456506 0.17761523

model/hidden_layers/0/b f4 [75]
000000 87 69 e4 bd ce d9 a2 be d5 f5 0d 40 81 5b eb 3f
       -0.1115294 -0.31806797 2.2181294 1.83873
000010 8d 02 33 be 0c e6 00 40 97 cc 59 be 26 85 59 bf
       -0.17481442 2.014041 -0.21269451 -0.84968793
000020 d1 25 12 40 2e c8 fb 3f 77 87 f0 3f b6 16 9b be
       2.2835581 1.9670465 1.879134 -0.30290765
000030 ab a4 05 be 14 ae a4 bf 4c 57 ec be 0d 3b b8 be
       -0.13051097 -1.2865624 -0.46160352 -0.35982552
000040 b5 b8 4d bf dd 90 4c bf 96 b5 4d be 20 fd 84 be
       -0.80359966 -0.79908544 -0.20088801 -0.2597437
000050 80 59 67 bd 2b 02 14 be 3d 79 33 be 0f 20 c8 be
       -0.05648184 -0.14453952 -0.17526717 -0.3908696
000060 56 24 8e be 4f b7 cb be f0 a7 36 be e8 ed 92 be
       -0.27762097 -0.3978829 -0.178375 -0.28697133
000070 4e 47 38 be 30 74 6a be 98 61 02 40 39 e7 86 bf
       -0.1799595 -0.22895885 2.0372066 -1.0539314
000080 a9 ca 3e bf 27 66 25 be 5e 36 bd be 95 9d 2e be
       -0.74527985 -0.1615225 -0.3695554 -0.170523
000090 39 23 3d be 6a 05 a2 3f d4 72 74 bf d1 ae 5a bf
       -0.18470468 1.2657902 -0.95487714 -0.85423
0000a0 aa 91 df 3f a9 90 73 be 94 f0 be be f4 17 88 be
       1.7466328 -0.23785652 -0.37292922 -0.26580775
0000b0 de 6c 93 bd ec 0f 02 40 ee 25 85 be 2e a1 97 be
       -0.07198499 2.0322218 -0.260055 -0.29615158
0000c0 ac 47 37 be 89 16 a4 be 49 e5 99 bf 19 70 be be
       -0.17898434 -0.32048443 -1.2023097 -0.371949
0000d0 78 d3 9c 3d ed 8e 77 be 52 d6 98 be 96 e9 4f bf
       0.07657522 -0.24175616 -0.29851013 -0.812158
0000e0 dd 17 c6 bd 01 d4 f9 bd 01 6e 60 be 50 3b 3d be
       -0.0967252 -0.1219864 -0.21916963 -0.18479657
0000f0 df 72 c2 be b0 d8 14 be 5b 56 1d be ed c0 d9 3f
       -0.37978265 -0.14535785 -0.15364973 1.7012001
000100 30 68 f5 be bf c4 22 be af 22 48 be 3d 84 f1 bd
       -0.4793105 -0.15895365 -0.1954448 -0.117928006
000110 17 77 d3 3f 81 89 83 bd 52 7e 62 be 44 60 c2 bd
       1.6520718 -0.06422711 -0.221185 -0.094910175
000120 1d 9a 60 bf f3 b1 6a be f6 e6 05 be
       -0.8773516 -0.22919445 -0.13076386

model/hidden_layers/1/W f4 [75, 75]
000000 13 19 a8 3c d1 ee eb bd b2 7a 12 3f 88 cf e8 3d
       0.020519769 -0.1152016 0.5721847 0.113677084
000010 aa 2d 40 3e 7c d5 58 3e f7 c0 ba 3d 6e d9 42 3e
       0.1876742 0.21175188 0.091188364 0.19028255
000020 9a 46 db 3e 53 2d 3c 3e 42 b5 03 bc 1d 22 94 bd
       0.42827302 0.18376665 -0.008038821 -0.07233069
000030 5e 57 e0 bd 89 c4 33 bd e3 45 fa 3d bd fd 89 3d
       -0.10954164 -0.043888602 0.12220361 0.0673785
000040 02 45 de bd fb ee 48 3b 32 1e cb b9 23 93 ce bd
       -0.10853006 0.0030660022 -0.00038741675 -0.10086658
000050 d8 f9 d2 3d 92 78 b6 bd 23 89 f1 bc b7 4f 5a 3e
       0.1030156 -0.08909716 -0.029484337 0.21319471
000060 ca 29 fd bd e5 58 25 bc 05 67 00 3d 67 94 1f be
       -0.12361486 -0.010091995 0.031348247 -0.15583955
000070 30 1e 94 bd da 86 88 3d 14 a2 b3 3e 5a 2a 8b 3c
       -0.0723232 0.06666346 0.35084593 0.016987968
000080 a3 f6 ab 3d 2e 26 2d bd 87 3a f0 bc 38 a3 31 be
       0.083966516 -0.04227274 -0.029324783 -0.1734742
000090 6f d5 cf bc bd 4b a8 be 02 0d c6 3d c5 0e 77 3d
       -0.025370328 -0.32870284 0.0967045 0.06031682
0000a0 71 b8 97 3d 09 80 d4 bc 4b de 45 be a8 c9 b7 be
       0.07408226 -0.025939958 -0.1932308 -0.3589604
0000b0 fe 10 74 bd b0 93 88 3e c1 15 1f 3d 0e b5 1a be
       -0.059586518 0.26675177 0.038839106 -0.1510813
0000c0 b2 7f d8 3d f9 00 85 3e 2a 97 3d 3c 47 fb e0 bd
       0.10571231 0.25977305 0.011571685 -0.10985427
0000d0 b6 6d b9 bd ab a9 83 3e f1 c5 08 be 30 7f 29 3b
       -0.09054129 0.25715384 -0.13356759 0.0025863163
0000e0 79 50 72 bd 26 3a 95 bd 31 58 5e 3d a5 fb 8f bd
       -0.059158776 -0.072864816 0.054283325 -0.07030419
0000f0 6d 74 08 be e9 b8 53 bd 93 af 0b 3c 03 4d 99 3e
       -0.13325663 -0.051690016 0.008525747 0.29941568
000100 2b 5d 5a 3e 20 74 07 3e 29 3b 81 bd 24 c0 ba 3b
       0.21324603 0.13227892 -0.06310112 0.0056991745
000110 a9 ed 0d 3d c1 7e 05 bc 9a 29 3a be 05 b7 c6 3c
       0.03465048 -0.008147896 -0.18179932 0.024257192
000120 16 bd 57 3d ac fe 77 3e b9 66 4c 3e e2 89 9c bd
       0.05267056 0.24218243 0.1996106 -0.076434866
000130 a0 93 09 3d b9 ca 33 be 5f 6a 8b 3d 71 d9 6f bd
       0.03358805 -0.17557801 0.06807398 -0.058556978
000140 70 0d 51 be 01 a2 81 be f3 a6 a0 3d de ce 43 3d
       -0.20415282 -0.25318912 0.07844343 0.047804706
000150 2e 1c 1f be 0b be 51 3e b5 c9 a6 bd dd 79 4c 3e
       -0.15538093 0.20482652 -0.08143941 0.19968362
000160 a3 65 ae bd 87 7b 64 3d e6 8f 80 be da 2f 73 3e
       -0.085154794 0.055781867 -0.25109786 0.23748723
000170 c5 57 eb 3d 4a 6d b4 3c 92 c6 26 3d 83 7d 54 bc
       0.1149135 0.02202477 0.040716715 -0.012969377
000180 cf 9e 91 3c 22 cd 4c be e5 72 53 3d 09 77 35 3e
       0.017775921 -0.20000127 0.051623244 0.1772119
000190 89 ad 48 3d b1 15 25 be c6 fd 4f be aa 3a e3 bd
       0.04899362 -0.16121556 -0.2031165 -0.11095174
0001a0 0d 35 c0 3d 80 c5 5e 3c fa db 0d be 33 39 20 3e
       0.09385119 0.013596892 -0.13853446 0.1564682
0001b0 2f 2a 4e bd 53 ce 7c 3d 5d ab 0d bd 3b ba 2f be
       -0.0503332 0.061720204 -0.034587253 -0.17160885
0001c0 a3 04 6a bd 03 b7 8a 3c 90 70 63 3c 39 4b 55 bd
       -0.05713333 0.01693297 0.013881817 -0.05207369
0001d0 dd e0 15 be ff b8 62 3d 14 22 23 be 45 fa ff bc
       -0.1463656 0.055352207 -0.15930969 -0.031247267
0001e0 3d 14 45 3d 03 b7 40 3d 62 c8 2a 3d ad 0a 46 3e
       0.048115004 0.047049534 0.041695006 0.1934001
0001f0 0e 73 50 bd 73 65 df bd 10 00 12 be a4 96 0b 3d
       -0.050890975 -0.10908022 -0.14257836 0.03407921
000200 b4 92 30 be 4a aa a6 3d 15 18 21 3e b8 a7 16 be
       -0.17243463 0.08137949 0.15731843 -0.14712417
000210 7a 69 18 3e 43 a7 ec bd bd fa 86 3d 8d 6d 49 bb
       0.14883986 -0.1155534 0.06590793 -0.0030735463
000220 7e 03 2c be ed 18 00 bd 98 b6 aa 3d 13 d2 19 bd
       -0.16798207 -0.03127377 0.08335608 -0.037553858
000230 85 f9 0a be 33 8b 9e 3d 16 1c ce 3d 7c 5f 33 be
       -0.13571747 0.07741394 0.10063951 -0.17516893
000240 c9 b3 22 3c dd 40 30 be e3 84 69 be f7 b2 f7 3d
       0.009930559 -0.17212243 -0.22804599 0.12094682
000250 08 1b 71 3d 09 72 2e 3e b1 33 4c 3d c2 82 95 bd
       0.05886367 0.17035688 0.049853984 -0.07300331
000260 9b c8 56 3d 00 1a 42 be 1c 66 76 bd b9 b0 5e bd
       0.052437406 -0.1895523 -0.060155973 -0.054367755
000270 99 ba 9f bd 07 bb 2e bd 89 e8 0f be f6 88 5c 3d
       -0.077992626 -0.042658832 -0.14053549 0.053841554
000280 a7 42 77 3d ce bd 10 3e 8a 8e 3c 3e ab 62 9a 3d
       0.0603663 0.14134905 0.1841375 0.07538351
000290 6c 52 b0 3d 8a 5d 56 be c7 34 06 39 90 84 3f be
       0.08609471 -0.2093412 0.00012798897 -0.18702912
0002a0 ed 5c 9c 3d ae cb 25 bd 2c d5 08 bd 35 ce b5 bd
       0.07634912 -0.040477447 -0.03340642 -0.088772215
0002b0 4d 67 08 be 58 51 3d bd 2f 80 5f bd 20 99 74 3d
       -0.13320656 -0.046220154 -0.054565605 0.059716344
0002c0 e3 7f 38 be c7 06 a4 bd 0d 8d 01 3e 9d 56 84 be
       -0.18017535 -0.08009105 0.12651463 -0.2584733
0002d0 36 e9 0c be 3e a1 53 be c7 00 fd 3c 1d 0a 37 3d
       -0.13760838 -0.20666978 0.03088416 0.04468738
0002e0 e9 59 55 bd 8c 6d f2 bd db 5e 8a bd 84 3b 45 3d
       -0.052087698 -0.11837301 -0.067563735 0.04815246
0002f0 47 4a eb bd 1b c0 5b bd d0 3f 9d 3d 1d 50 06 be
       -0.11488777 -0.053650003 0.07678187 -0.13116498
000300 1e 02 5d be 70 d1 41 3d dd ab a0 3d 49 da 3d 3c
       -0.21582839 0.047318876 0.0784528 0.011587688
000310 cf a1 82 3e e2 1c f7 bd 80 5f 95 bd 38 93 a3 3c
       0.25514075 -0.12066056 -0.07293606 0.01996766
000320 13 7c 05 bf 67 a5 cb bd 3d 51 28 3e 69 26 09 3e
       -0.5214245 -0.09943657 0.1643724 0.13393559
000330 7b 01 09 be 59 1b 7e 3e 05 c4 19 3d d2 85 eb bb
       -0.13379471 0.2481512 0.037540454 -0.0071875835
000340 88 3c be bd fe da ed 3c 97 f9 21 3e 53 99 e7 bc
       -0.09288889 0.029035088 0.15817867 -0.028271353
000350 52 0d f7 bd eb 15 9a 3c 9b dc 4d 3d 66 82 6f be
       -0.120630875 0.01880928 0.050259214 -0.23389587
000360 77 b7 72 be 84 9f 24 be 1f 84 f0 3c 18 d9 23 be
       -0.23702799 -0.16076475 0.029359875 -0.16000783
000370 cb b2 08 bd fa 9c 8c 3c 29 5d 57 be 85 09 e4 bd
       -0.033373635 0.017164696 -0.21031632 -0.11134628
000380 1e 63 11 be 6d 6f 33 bc 11 50 84 bd 62 5c 78 3f
       -0.14197966 -0.010951859 -0.06460584 0.97015965
000390 1c 71 8e 3e 59 41 df 3c 0b db bd 3e 72 6b ca bd
       0.2782067 0.02725284 0.3708118 -0.09883775
0003a0 9d 03 fe be 9d 65 2d 3f e8 5b ef 3e 2b 57 cc 3e
       -0.49612132 0.67733175 0.46749806 0.39910254
0003b0 37 63 a7 3d de f7 c9 3d b9 94 9c be 05 07 4c bc
       0.081732206 0.0986173 -0.30582216 -0.012452845
0003c0 e5 db bd bc 82 39 53 3d 5a 77 59 bc 1c 17 97 3d
       -0.023176143 0.051568516 -0.013273085 0.07377455
0003d0 0d 24 e4 bc 13 de b6 3c f2 4e b5 3c fe 48 00 be
       -0.027849222 0.02232269 0.02213237 -0.12527844
0003e0 27 ea 71 bd 66 73 aa 3d de ba 8d 3d 5b 12 ed 3c
       -0.059061196 0.08322792 0.06920408 0.028939417
0003f0 d0 cf e7 3d 06 42 9b 38 73 2a 8a 3d 32 98 fe 3e
       0.11318934 7.403274e-05 0.06746378 0.4972549

model/hidden_layers/1/b f4 [75]
000000 0e a6 cf 3f 92 4d d0 3c 5e 40 81 bd 3f b6 09 40
       1.6222551 0.025427613 -0.06311105 2.1517484
000010 20 af c8 3f 5b 68 7c bd f9 97 dc bc 64 9d a8 bc
       1.5678444 -0.06162296 -0.026927935 -0.020582862
000020 2d d7 83 3d 7d dd 0f 40 e5 9a 0b 40 48 e1 4f bd
       0.06437526 2.2478936 2.181329 -0.050751954
000030 28 81 70 bd 0b cc ca 3f a9 41 a1 3f e1 d5 f9 3d
       -0.058716923 1.5843519 1.2598163 0.12198997
000040 ce 48 4e 3c 2a 98 da 3f 1b 4d 82 bc f9 ac e9 bc
       0.0125906 1.7077687 -0.015905907 -0.028524863
000050 58 bb f9 3d a8 00 0a bd 2b eb 57 3c 82 64 15 40
       0.12193936 -0.033692032 0.013178627 2.3342595
000060 ff aa 18 bc b2 ff 8e 3f 12 17 a0 bd 49 2f e4 3b
       -0.009318112 1.1171782 -0.078169 0.0069636446
000070 8d c6 94 3d d9 ed 5a 3d 3f 4a 2c bd 38 fe ca be
       0.07264433 0.053449485 -0.042062994 -0.3964708
000080 27 0b ae bb ce 8b 9b bc 82 18 ad 3f f6 56 b2 3f
       -0.005311388 -0.018987563 1.3523104 1.3932788
000090 41 fd a0 3b 50 a7 ed 3c 19 8e 1e b7 85 69 74 be
       0.0049130027 0.029010445 -9.450619e-06 -0.23868378
0000a0 2c 65 8b 3f 90 c0 a5 bd c0 5e b0 bd d5 85 83 bb
       1.089025 -0.08093369 -0.08611822 -0.0040137568
0000b0 66 f3 42 bc e2 15 cf bb b7 87 bf bd d9 8e 4d 3f
       -0.011898851 -0.0063197473 -0.093520574 0.80296093
0000c0 6b 90 d5 bd dc d0 09 bd 75 85 ea 3f d8 2b e0 3f
       -0.10427936 -0.03364645 1.8321978 1.751338
0000d0 12 b2 bf 3f a2 22 9f bc 82 ae 6f bd dd 2f bc 3f
       1.4976218 -0.019425694 -0.058516033 1.4702107
0000e0 ae e2 63 bc 45 57 56 bd 42 af e6 3d 6c 20 10 ba
       -0.013909025 -0.05232932 0.112638965 -0.00054979953
0000f0 01 fa 9f 3f bc 51 55 bd 29 d1 96 3c 64 15 49 3d
       1.249817 -0.0520799 0.018410282 0.049092665
000100 0d df 93 3f b2 0b 05 be 9f a6 d8 be d7 d1 31 3b
       1.1552445 -0.12992743 -0.42314622 0.002713313
000110 5b ca cd 3f 8b 70 c8 3f bf d2 60 3e 0f 2a c1 3f
       1.6077379 1.5659345 0.21955393 1.509096
000120 ce cc 3e 3f cf 99 0a 3c 98 07 8e bd
       0.7453126 0.008459522 -0.06935042
