experiments/rovers/rovers_full_train_set_2-75-4/best/target_model.npz (npz, 29692 bytes, 6 tensors)

model/output/W f4 [4, 75]
000000 c7 5d 01 bf aa 79 b1 3c 69 6c 8f bd 67 b8 65 bf
       -0.5053372 0.02166446 -0.070030995 -0.897345
000010 27 29 fe be 81 e5 20 3e 2e d1 c3 3d 90 f6 69 bd
       -0.49640772 0.15712549 0.09561382 -0.057119906
000020 6e f5 0f bd e5 60 51 bf 74 fd 65 bf 83 b4 54 3c
       -0.03514617 -0.81788474 -0.89839864 0.0129824905
000030 c7 8d 4c bc 28 e3 03 bf f4 36 bc be 3f cb 5e bc
       -0.012484974 -0.5151849 -0.36760676 -0.013598262
000040 e2 6c 18 be 27 ab dc be b4 5c 02 be 36 be 5e bd
       -0.14885285 -0.4309933 -0.12730676 -0.054380618
000050 1c cc 36 3d de aa 25 bc 9c 4f 7c bc 18 f2 68 bf
       0.044628248 -0.010111539 -0.01539984 -0.90994406
000060 1b 7b 61 bd 4c 8c 91 be 27 48 7c bd 3c 19 20 bd
       -0.055049043 -0.2842735 -0.061592247 -0.039086565
000070 12 13 17 bc 36 e6 33 bc e2 eb a2 bd 0d 58 ac 3c
       -0.009220855 -0.0109801795 -0.07955147 0.02103808
000080 82 b5 ea 3c bc 01 04 be f8 b3 d0 be e6 12 a4 be
       0.028651003 -0.12891287 -0.40762305 -0.32045668
000090 53 fc c6 bc 84 09 89 be e1 14 5a bd c9 9a 36 3e
       -0.02429024 -0.26765072 -0.053242568 0.17832483
0000a0 11 9f 81 be fa 6a 99 3d 27 3f 5a bd ea bb d1 bc
       -0.2531667 0.07491107 -0.053282883 -0.0256023
0000b0 f3 9a 1a 3e 5d a2 21 3d 75 27 af 3d 55 12 2e be
       0.15098171 0.039461482 0.08552448 -0.1699918
0000c0 89 89 fb 3d b3 62 87 be 30 3e 48 bf 32 78 2a bf
       0.12282092 -0.2644249 -0.7821989 -0.66589653
0000d0 f8 3a e7 be 37 aa 27 3e 26 54 43 bd 35 29 09 bf
       -0.45162177 0.16373526 -0.047687672 -0.535785
0000e0 26 80 8d bc bb f7 86 3d de 9d 9a bd a9 6f 50 3d
       -0.01727302 0.065902196 -0.07549642 0.050887737
0000f0 10 ee b6 be ad b8 9b 3c 33 25 b1 bd 25 8e 4a 3d
       -0.35728502 0.019008959 -0.08649673 0.049451966
000100 c2 d2 ac be 59 ca ae 3d 92 47 db 3d 12 c9 3c 3d
       -0.33754545 0.085346885 0.1070701 0.046090193
000110 79 d0 10 bf 8e eb fb be fe d9 8e bc 76 aa d5 be
       -0.56568104 -0.4920315 -0.017437931 -0.41731614
000120 61 55 4d be 1c 09 48 bd 92 41 a5 ba 4e 85 09 bf
       -0.200521 -0.048836812 -0.0012608042 -0.5371903
000130 07 81 bc bd 4d 4b 9d bd 67 33 5b bf 09 d5 fc be
       -0.092042975 -0.07680378 -0.8562531 -0.49381283
000140 e9 1c 5c 3d e8 08 01 3e 76 4d fa bc ec 22 1a bd
       0.05373851 0.12601054 -0.030554514 -0.03763096
000150 58 53 6b bf 9f 70 5d bf 08 dd bd 3d 3b 2a ce bd
       -0.9192405 -0.8649997 0.09270674 -0.100666486
000160 be 78 01 bf 4f 4b e3 be c7 1b bf bc 2d ac 0f 3e
       -0.5057486 -0.44393393 -0.023328675 0.14030524
000170 c2 89 13 bf 5e 9b ea bd 75 1f 46 3e fb 8b b7 bd
       -0.57632077 -0.11455415 0.19347937 -0.08962246
000180 a4 61 4f 3e ce 2e e3 bb 1b 86 6d bf e0 7e 22 3e
       0.2025209 -0.00693307 -0.92782754 0.15868711
000190 05 fd 85 be 4f be 99 3d 9e c9 10 be 7f 93 19 be
       -0.261696 0.075070016 -0.14139411 -0.14997672
0001a0 09 2c a4 bd 76 e7 b4 3d a0 22 88 3d e9 18 1f bb
       -0.080162115 0.0883321 0.06647229 -0.0024276322
0001b0 06 26 35 3e 17 e9 c8 be 19 b6 a0 be e2 6d 7d 3d
       0.17690286 -0.39240333 -0.3138893 0.06187237
0001c0 95 3a 6a bc bb fc 85 3c 0c 37 99 3d eb dd a6 be
       -0.014296194 0.016355863 0.074812025 -0.32591185
0001d0 eb 25 07 3e 42 19 b0 3d 70 d7 1c be e2 81 6e bc
       0.13198058 0.085985675 -0.15316558 -0.014557334
0001e0 af c3 93 bd 91 c0 f0 3c e0 85 20 be 3d 55 a7 3d
       -0.07215058 0.029388698 -0.1567607 0.08170555
0001f0 3c ee a8 3d 25 89 32 bf 64 83 0a bf b6 f1 ec be
       0.082485646 -0.69740516 -0.54106736 -0.4627816
000200 d6 2b 7d 3c 29 60 a3 3c e0 6b d4 be 77 e2 0c 3e
       0.015452346 0.019943314 -0.41488552 0.13758264
000210 e6 1a 1c 3e c9 c0 1c 3c c6 1f 7f bc 98 6e cc be
       0.15244636 0.009567448 -0.01557154 -0.39928126
000220 9e 97 a8 3d d2 dc 13 be 55 15 2b be 21 ca bb be
       0.08232044 -0.14439705 -0.16707356 -0.3667765
000230 c2 36 4b 3c bb 46 eb 3d f3 c9 5c 3d 9c 2c 04 bf
       0.012403192 0.114881 0.05390353 -0.5163057
000240 a8 05 fb be 38 50 07 be d3 2f e9 be dc 85 59 be
       -0.49027753 -0.13214195 -0.455443 -0.2124247
000250 f1 79 d9 bc 99 f3 89 3e 14 e2 c5 be 0e d0 1e be
       -0.026547404 0.26943663 -0.38649046 -0.15509054
000260 3d 6c 25 bd 38 15 75 bf 45 95 13 bf b4 4a 7b 3d
       -0.040386427 -0.957355 -0.5764964 0.06135054
000270 1c 22 bb bd 6c 82 b0 bd dd a4 33 3e 6d a8 82 bf
       -0.09137365 -0.08618626 0.17543359 -1.020765
000280 19 2f 53 bf 2b e4 4d 3d 5d 17 fb bd 95 e9 ea be
       -0.8249374 0.050266426 -0.122603156 -0.45881334
000290 ca 9f d9 be db 7b 83 bb ca 16 be 3c e4 de e1 be
       -0.42504722 -0.0040125675 0.023204226 -0.44115365
0002a0 d4 0e 04 be 67 f7 aa 3c 7b 42 a6 be c9 23 9d 3c
       -0.12896281 0.020869924 -0.32472596 0.019182103
0002b0 c2 08 bf bd 30 37 6c bf d2 15 56 be b1 25 72 be
       -0.09327842 -0.9227171 -0.20906761 -0.2364719
0002c0 f3 bf fc bd 54 12 98 bb f0 5e 1a be 27 cb 29 bd
       -0.12341299 -0.0046408568 -0.15075278 -0.041453507
0002d0 1b 02 32 3e d0 d4 0b 3e a0 9c 58 3c a8 da 95 bc
       0.17383616 0.136554 0.013220936 -0.01829274
0002e0 77 1d de be 8f 47 e7 be 56 a4 80 3b e1 6c b7 bd
       -0.43381855 -0.45171782 0.0039258404 -0.08956314
0002f0 96 f4 2b 3d 53 9d c5 3c 62 45 a2 be 24 c1 ee 3c
       0.041981302 0.02412287 -0.3169356 0.029144831
000300 85 f2 8d 3c 10 4f 81 3a a0 2e 04 bd 76 fb ca bd
       0.017327556 0.0009865481 -0.032271028 -0.099112436
000310 a5 2a 48 3e 20 9c b7 bd 00 a7 35 3e 6d 09 2e 3d
       0.19547518 -0.08965325 0.17739487 0.042489458
000320 7a 34 00 bf aa ac 2f bf fe 88 e4 be 5e 62 ef 3d
       -0.5008007 -0.6862284 -0.44635767 0.11688684
000330 96 eb a9 bd b7 d3 f4 be 64 10 05 bd e4 71 11 be
       -0.082968876 -0.47817776 -0.032486334 -0.14203602
000340 e7 f6 56 bd 03 ca ee bd dd a1 94 be 9e 97 16 3c
       -0.05248156 -0.116596244 -0.29029742 0.009191422
000350 cb f1 21 3d 12 dd d2 bc 29 20 b6 be 43 0c c7 bd
       0.039537232 -0.02574018 -0.3557141 -0.097191356
000360 53 ab a7 3d a4 10 0c 3e d5 6e f9 be 18 c7 dd be
       0.081869744 0.13678223 -0.4871737 -0.4331596
000370 1e 61 79 be 96 04 0f bf ec 5b 0f bf ad a2 0a bd
       -0.24353454 -0.5586637 -0.55999637 -0.033846546
000380 90 00 b9 bd 4a bd 08 bf fa ac ce 3d 4f e5 0f ba
       -0.090333104 -0.5341383 0.100915864 -0.0005489187
000390 7f 8c 5c bf 70 16 c3 be 6e 80 22 be 66 e5 a7 bd
       -0.8615188 -0.38103056 -0.15869305 -0.08198051
0003a0 e4 77 ec 3d e7 39 8e be 95 7e 65 bf 57 f5 55 bf
       0.11546305 -0.2777855 -0.89646274 -0.83577484
0003b0 2a d6 48 bd 9c 1b 26 bd 26 e3 05 bf 1b fc df be
       -0.049032368 -0.040553674 -0.52299726 -0.4374703
0003c0 fd 24 80 be 2c 47 13 be 58 6c 01 bf 11 83 24 3e
       -0.2502822 -0.14382619 -0.50555944 0.16065623
0003d0 05 ff e8 bd ac cd 9a 3d e5 33 8c 3d b4 76 e4 3d
       -0.11376766 0.0755876 0.068458356 0.11155453
0003e0 f6 9a 73 bf 0f 0b 04 be 33 a5 a2 be c1 e1 e0 3d
       -0.95158327 -0.12894844 -0.31766662 0.10980559
0003f0 e5 42 c2 bd 05 ac a7 3d 2f 76 81 3d 4c 05 1c 3e
       -0.09485415 0.08187107 0.0632137 0.15236396

model/output/b f4 [4]
000000 e9 37 d1 bf 6e fc cf bf 96 02 cb bf 94 88 cd bf
       -1.6345187 -1.624891 -1.5860164 -1.6057305

model/hidden_layers/0/W f4 [75, 20]
000000 ec 9f bd 3c cb d4 e4 3d 0c 3d 65 be b9 b5 ac bc
       0.023147546 0.111733995 -0.22386569 -0.021082746
000010 fc 65 dd bd 4e ea a4 be 40 29 0e be e5 44 17 3e
       -0.108104676 -0.3221001 -0.13882923 0.14772375
000020 af 14 af bc 8a 0d 84 be 1f 0b 21 3e 3b 53 62 bc
       -0.021372167 -0.2579158 0.15726899 -0.013813789
000030 a1 ab b5 3d 67 07 9a bd 0b b7 53 be 22 23 c6 3d
       0.08870626 -0.07520943 -0.20675294 0.0967467
000040 c1 f5 04 be 43 dc ad 3e 7b 24 93 bd 8a 42 81 3d
       -0.12984373 0.3395711 -0.071846925 0.063115194
000050 8e 95 66 be 60 63 11 3b 01 8e 1f 3d c3 e1 27 be
       -0.22517988 0.0022184476 0.038953785 -0.16394715
000060 f7 bf 00 3f c5 d8 a9 3d 1d 22 ad 3e 09 5c 71 be
       0.50292915 0.08293299 0.3381509 -0.23570265
000070 b9 b3 a5 3e 57 38 b5 be af 33 15 be d9 fa 36 3d
       0.3236368 -0.35394546 -0.14570497 0.04467282
000080 87 28 93 3c 3c d8 9e be d2 23 9d be ab ed 31 3e
       0.01796366 -0.3102435 -0.3069139 0.1737582
000090 ab cd c7 3e 88 e0 58 3e 64 75 02 be 08 92 2e 3e
       0.390241 0.21179402 -0.12740093 0.17047894
0000a0 94 a1 6d be 8d 8a 8d 3d f1 e1 e1 bd 30 1e a5 bb
       -0.23206168 0.06911192 -0.11029423 -0.005038999
0000b0 8d 53 62 bd 69 7e 53 3e da cc 8e 3d 0c 74 97 3e
       -0.05525546 0.2065369 0.06972666 0.29580724
0000c0 ce cc 49 bd 7c 8d 2f 3e dc fe 19 3d 74 1e 3c be
       -0.049267583 0.17143816 0.03759657 -0.18370992
0000d0 a3 bc e7 bd 92 b9 fa bb ad 59 49 be 4a f3 9a 3a
       -0.113152765 -0.0076515162 -0.19663115 0.0011821773
0000e0 3e c3 c7 bd 46 8e 38 3b 2f 5f cf 3d 11 d0 a3 3d
       -0.09754036 0.0028160973 0.10125577 0.0799867
0000f0 e9 97 f4 3e bc d0 2e be 69 71 25 3d 58 9f 3a be
       0.47772148 -0.17071813 0.04039136 -0.18224847
000100 3d 3f 8a 3c c1 ce 73 be a3 c1 51 3e f6 7e c6 bd
       0.016875857 -0.23809339 0.20484023 -0.096921846
000110 e2 be e0 3c eb 47 94 3e 35 fd ab 3d 75 66 c0 bd
       0.02743477 0.2896112 0.08397905 -0.09394542
000120 8a 47 4b 3e fd 76 68 bd ae fe 5e 3d d7 d0 bc bd
       0.19851509 -0.0567541 0.0544421 -0.092195205
000130 32 8b b3 be e4 9e 62 bc 92 45 3d 3e 09 1d 1c be
       -0.35067135 -0.013831828 0.1848357 -0.15245451
000140 65 05 65 be d7 e2 cd bd 65 89 f5 be 34 b4 1a be
       -0.22365339 -0.10053032 -0.47956386 -0.15107805
000150 e8 41 8f be 1c de fb 3e fa 41 b7 bd 32 30 83 be
       -0.2797997 0.49192894 -0.08948131 -0.25622708
000160 7d dc 42 3d fd cd e8 3b 08 d5 36 3d cf d0 a1 3d
       0.047573555 0.007104634 0.044636756 0.07901155
000170 bd c6 7c 3d 12 3c d7 bd d0 09 8d 3e b8 99 1b 3e
       0.06171297 -0.105095044 0.2754655 0.15195358
000180 ed a1 97 bd a6 f1 bf bc a6 b3 a0 be 0e 9b f2 3d
       -0.07403932 -0.023430657 -0.3138706 0.118459806
000190 46 c9 ca 3d f8 5d 93 bd 16 ba 5f 3e 4f 8f 1d bd
       0.09901671 -0.071956575 0.2184833 -0.038466748
0001a0 64 30 85 3e 7a 23 e5 bd f3 28 c4 bd 14 cc 54 3d
       0.26013482 -0.11188407 -0.09578123 0.051952437
0001b0 9b 93 83 3c 70 77 c8 3d 2d 99 7f 3e 9e a7 a0 bd
       0.016061595 0.09788406 0.24960776 -0.078444704
0001c0 b2 ac bc be 07 1b 01 be c4 db 74 be 0c fb a2 3d
       -0.36850506 -0.12607966 -0.23911959 0.0795804
0001d0 c3 e7 08 3e 4d 8a be bd 14 15 0a 3e cf be b8 3d
       0.1336966 -0.093037225 0.13484603 0.09020769
0001e0 b7 c4 b3 3d 28 56 c6 3e 4f 07 a0 bd fa 9f 02 be
       0.08777755 0.38737607 -0.07813894 -0.12756339
0001f0 a9 5c 2e 3e f6 c7 e4 3d 58 48 1a 3e e5 07 6b 3e
       0.17027535 0.11170952 0.1506666 0.2295223
000200 94 c5 c3 bd 7f ed d1 be c0 bb 67 3e dc 23 bb bd
       -0.095591694 -0.41001508 0.22630215 -0.09137699
000210 35 3b 8a be d6 ac 53 be 51 c2 90 3e 82 23 17 3d
       -0.26998296 -0.206714 0.28273252 0.036899097
000220 87 b6 8a 3d 48 b7 42 3e 12 31 dd bd bd 31 71 be
       0.067730956 0.19015229 -0.10800375 -0.2355413
000230 a1 f7 f1 bd d6 4d 02 be 31 03 8b 3c 9c a6 ff be
       -0.118148096 -0.12725005 0.016969295 -0.499318
000240 37 ee cb bd d4 c2 0c bd 7b 0d fe 3d 78 76 6c 3e
       -0.09957545 -0.03436549 0.12404915 0.23092067
000250 e1 bf f1 3b ae 2d 9b 3e c0 d8 02 3e 27 86 46 3e
       0.00737761 0.30308288 0.12777996 0.19387113
000260 65 dc 30 bd 70 1a 9d bd 88 33 93 3e 76 ce fe bc
       -0.043178935 -0.07671058 0.28750253 -0.031104308
000270 0f 6d a2 3e 5b 65 51 bb 06 62 b0 be 06 ac f9 bb
       0.3172383 -0.0031951282 -0.34449786 -0.0076193837
000280 05 6e 0f be 6f 49 0e bd a7 9b 75 be db 32 1f be
       -0.14006813 -0.034738 -0.23985158 -0.15546744
000290 a0 b9 a0 bd 4e d5 49 be aa 55 86 3c e9 15 6c be
       -0.07847905 -0.19710276 0.01639827 -0.23055233
0002a0 09 ff 1f 3c e1 53 81 be 58 e3 2a be d7 43 f5 bc
       0.009765395 -0.25259307 -0.16688287 -0.029939575
0002b0 e9 28 f9 3e 95 5d 8b 3e 01 28 bb 3e ef 13 96 bc
       0.48664024 0.27219835 0.36553958 -0.018320052
0002c0 f3 b8 a8 3e 2a ea 75 bd b9 7c c1 bd 23 9c 7b be
       0.32953605 -0.06003777 -0.09447617 -0.2457128
0002d0 33 a0 a0 3d 34 fd 2c 3e 2f 00 90 bd b9 a8 d5 bd
       0.078430556 0.16893464 -0.07031285 -0.10432572
0002e0 be bd 01 be 8b ca 13 3b 59 29 df 3a 30 43 8a be
       -0.12670037 0.0022551145 0.0017025872 -0.27004385
0002f0 e7 d5 9d 3e 3e a1 42 be 5f ff 8d be 81 9c f3 3d
       0.30827257 -0.19006822 -0.27733895 0.11895085
000300 90 a1 07 3e 00 0b a8 bd 8f c0 0d 3e a1 3c 04 3d
       0.13245225 -0.08205223 0.13842987 0.032284383
000310 b3 d7 85 bc 66 86 d1 3d c1 c2 1d be 0a 86 85 3c
       -0.016338205 0.102307126 -0.15406324 0.016299266
000320 ef a9 c4 bd 6c 39 72 3c 2c 60 80 3e 47 ea 8a 3e
       -0.09602725 0.014784198 0.25073373 0.27131864
000330 e6 95 b8 bd 65 79 8a be 3e e3 5e be 9c 5d bc 3e
       -0.09012966 -0.27045742 -0.21766374 0.36790168
000340 08 2b 37 be ea b7 36 3e 94 91 af 3e 28 87 ef bd
       -0.17887509 0.17843595 0.34290755 -0.11695701
000350 57 d6 1e bd 67 34 72 be 9e fb 3e be 26 9c 38 3e
       -0.03877863 -0.23652802 -0.18650672 0.18028316
000360 97 fc 8b 3e af 17 d4 be c8 76 ff 3d f6 67 a5 3c
       0.27341148 -0.4142432 0.124738276 0.020191174
000370 68 11 2e 3d f3 3d 91 3c 38 f5 8e be a1 3a 0c be
       0.04249707 0.017729735 -0.27921462 -0.1369424
000380 b8 2e 7a be 11 2f db 3e 67 36 cb 3e 2f 64 4b 3d
       -0.24431884 0.42809346 0.39689943 0.04965609
000390 19 6b 8f be 80 fc f5 3d 5c ca 16 bd 6d 6d 91 3e
       -0.28011397 0.12011051 -0.03681408 0.28403798
0003a0 30 32 f1 3e 7e 4f 53 3e a5 51 85 be 52 a3 64 be
       0.47108603 0.20635793 -0.26038852 -0.22327927
0003b0 6f 50 82 be f1 bc 18 3c 72 2a 9a be b0 30 f2 3d
       -0.2545199 0.009322391 -0.30110508 0.11825693
0003c0 bd fd 14 3e b5 0c 69 bc 11 af 82 bd 6b 97 a8 3d
       0.14549918 -0.014224221 -0.063810475 0.08232006
0003d0 4e f0 97 3e bc b9 d5 be ea 2b 30 3d 84 8e 2f bd
       0.29675525 -0.41743267 0.04301063 -0.042860523
0003e0 9a 06 14 be d0 01 9b bd f9 0a 03 3d d2 bb c2 3e
       -0.14455643 -0.07568705 0.031992886 0.3803392
0003f0 9d 37 3a 3d 8b 08 e9 bd d9 78 51 be c4 e0 35 3e
       0.045463193 -0.113785826 -0.20456256 0.17761523

model/hidden_layers/0/b f4 [75]
000000 2d 6c e4 bd 35 e8 a2 be 67 f6 0d 40 ef 5c eb 3f
       -0.111534454 -0.31817785 2.2181642 1.8387736
000010 ea 1f 32 be aa e6 00 40 99 cc 59 be 26 85 59 bf
       -0.17394987 2.0140786 -0.21269454 -0.84968793
000020 5f 26 12 40 55 c9 fb 3f c5 88 f0 3f b3 16 9b be
       2.283592 1.9670817 1.8791739 -0.30290756
000030 e2 9e 05 be 14 ae a4 bf c8 2b ec be 92 4f b8 be
       -0.1304889 -1.2865624 -0.46127152 -0.35998207
000040 b5 b8 4d bf dd 90 4c bf 96 b5 4d be b8 fa 84 be
       -0.80359966 -0.79908544 -0.20088801 -0.25972533
000050 b2 75 68 bd 2b 02 14 be 7e 35 33 be 0f 20 c8 be
       -0.056752868 -0.14453952 -0.17500874 -0.3908696
000060 5b 24 8e be a5 b7 cb be 9d d4 36 be e8 ed 92 be
       -0.27762112 -0.39788547 -0.17854543 -0.28697133
000070 4e 47 38 be 43 74 6a be 2e 62 02 40 39 e7 86 bf
       -0.1799595 -0.22895913 2.0372424 -1.0539314
000080 a9 ca 3e bf 79 6a 25 be 43 1a bd be 95 9d 2e be
       -0.74527985 -0.16153897 -0.369341 -0.170523
000090 81 40 3d be 9b 08 a2 3f d4 72 74 bf d1 ae 5a bf
       -0.18481638 1.2658876 -0.95487714 -0.85423
0000a0 35 93 df 3f a9 90 73 be 5e f0 be be 29 dc 86 be
       1.7466799 -0.23785652 -0.3729276 -0.26339844
0000b0 3b 90 93 bd 85 10 02 40 f8 24 85 be 30 af 97 be
       -0.07205244 2.0322583 -0.26004767 -0.29625845
0000c0 ac 47 37 be 4e fc a3 be 49 e5 99 bf 61 78 be be
       -0.17898434 -0.3202843 -1.2023097 -0.37201217
0000d0 be b0 9c 3d 6c 1c 78 be 52 d6 98 be 96 e9 4f bf
       0.076508984 -0.24229592 -0.29851013 -0.812158
0000e0 c4 15 c6 bd fd d3 f9 bd 12 64 60 be a4 4a 3d be
       -0.0967212 -0.12198637 -0.21913174 -0.18485504
0000f0 ae 6f c2 be b2 d1 14 be 65 01 1e be 51 c2 d9 3f
       -0.3797583 -0.14533117 -0.1543022 1.7012426
000100 05 72 f5 be bf 6c 22 be 43 29 48 be 3d 84 f1 bd
       -0.47938552 -0.15861796 -0.1954699 -0.117928006
000110 85 79 d3 3f c6 7c 83 bd 52 7e 62 be 14 bd c1 bd
       1.652146 -0.06420283 -0.221185 -0.09459892
000120 1d 9a 60 bf 74 08 6b be 57 63 05 be
       -0.8773516 -0.22952443 -0.13026176

model/hidden_layers/1/W f4 [75, 75]
000000 12 19 a8 3c 08 f4 eb bd 7b 7f 12 3f da 00 e9 3d
       0.020519767 -0.11521155 0.5722577 0.113771155
000010 19 f5 3f 3e 09 ed 58 3e f7 c0 ba 3d 6e d9 42 3e
       0.18745841 0.21184172 0.091188364 0.19028255
000020 de 4f db 3e 9f 29 3c 3e a1 28 03 bc 1d 22 94 bd
       0.4283437 0.18375252 -0.008005292 -0.07233069
000030 95 4f e0 bd 89 c4 33 bd b9 5e fa 3d 54 61 8a 3d
       -0.10952679 -0.043888602 0.12225098 0.06756845
000040 02 45 de bd fb ee 48 3b 32 1e cb b9 ad 47 ce bd
       -0.10853006 0.0030660022 -0.00038741675 -0.10072265
000050 c3 8d d2 3d 92 78 b6 bd 81 85 f2 bc b7 4f 5a 3e
       0.10280945 -0.08909716 -0.029604675 0.21319471
000060 ca 29 fd bd a8 60 25 bc d5 0c 00 3d 67 94 1f be
       -0.12361486 -0.010093845 0.031262238 -0.15583955
000070 30 1e 94 bd da 86 88 3d a2 b0 b3 3e 5a 2a 8b 3c
       -0.0723232 0.06666346 0.35095698 0.016987968
000080 a3 f6 ab 3d 00 0d 2d bd 74 05 f0 bc 38 a3 31 be
       0.083966516 -0.042248726 -0.029299475 -0.1734742
000090 66 e9 d1 bc f5 3a a8 be 02 0d c6 3d c5 0e 77 3d
       -0.025623988 -0.3285748 0.0967045 0.06031682
0000a0 4b ef 97 3d 09 80 d4 bc 4b de 45 be 9d 26 b8 be
       0.074186884 -0.025939958 -0.1932308 -0.3596696
0000b0 62 ca 73 bd 54 91 88 3e dc 15 1f 3d 60 94 1a be
       -0.05951918 0.26673377 0.038839206 -0.15095663
0000c0 b2 7f d8 3d 94 18 85 3e 2a 97 3d 3c 4a be e0 bd
       0.10571231 0.25995314 0.011571685 -0.10973795
0000d0 e5 06 ba bd d3 96 83 3e f1 c5 08 be 30 7f 29 3b
       -0.09083346 0.25701007 -0.13356759 0.0025863163
0000e0 13 29 72 bd 26 3a 95 bd 73 63 5e 3d 1c ff 8f bd
       -0.059121203 -0.072864816 0.05429406 -0.0703108
0000f0 6d 74 08 be d5 b8 53 bd f4 1e 09 3c f0 4e 99 3e
       -0.13325663 -0.05168994 0.008369196 0.29943037
000100 f1 5c 5a 3e 9a 86 07 3e 26 3b 81 bd 24 c0 ba 3b
       0.21324517 0.1323494 -0.0631011 0.0056991745
000110 10 c4 0d 3d 61 02 05 bc 9a 29 3a be 0c 5e c3 3c
       0.034610808 -0.008118243 -0.18179932 0.023848556
000120 16 bd 57 3d 0a e6 77 3e 6b b8 4c 3e e2 89 9c bd
       0.05267056 0.24208847 0.19992225 -0.076434866
000130 a0 93 09 3d b9 ca 33 be 5f 6a 8b 3d 71 d9 6f bd
       0.03358805 -0.17557801 0.06807398 -0.058556978
000140 70 0d 51 be 01 a2 81 be f3 a6 a0 3d de ce 43 3d
       -0.20415282 -0.25318912 0.07844343 0.047804706
000150 2e 1c 1f be 0b be 51 3e b5 c9 a6 bd dd 79 4c 3e
       -0.15538093 0.20482652 -0.08143941 0.19968362
000160 a3 65 ae bd 87 7b 64 3d e6 8f 80 be da 2f 73 3e
       -0.085154794 0.055781867 -0.25109786 0.23748723
000170 c5 57 eb 3d 4a 6d b4 3c 92 c6 26 3d 83 7d 54 bc
       0.1149135 0.02202477 0.040716715 -0.012969377
000180 cf 9e 91 3c 22 cd 4c be e5 72 53 3d 09 77 35 3e
       0.017775921 -0.20000127 0.051623244 0.1772119
000190 89 ad 48 3d b1 15 25 be c6 fd 4f be aa 3a e3 bd
       0.04899362 -0.16121556 -0.2031165 -0.11095174
0001a0 0d 35 c0 3d 80 c5 5e 3c fa db 0d be 33 39 20 3e
       0.09385119 0.013596892 -0.13853446 0.1564682
0001b0 2f 2a 4e bd 53 ce 7c 3d 5d ab 0d bd 3b ba 2f be
       -0.0503332 0.061720204 -0.034587253 -0.17160885
0001c0 a3 04 6a bd 03 b7 8a 3c 90 70 63 3c 39 4b 55 bd
       -0.05713333 0.01693297 0.013881817 -0.05207369
0001d0 dd e0 15 be ff b8 62 3d 14 22 23 be 45 fa ff bc
       -0.1463656 0.055352207 -0.15930969 -0.031247267
0001e0 3d 14 45 3d 03 b7 40 3d 62 c8 2a 3d ad 0a 46 3e
       0.048115004 0.047049534 0.041695006 0.1934001
0001f0 0e 73 50 bd 73 65 df bd 10 00 12 be a4 96 0b 3d
       -0.050890975 -0.10908022 -0.14257836 0.03407921
000200 b4 92 30 be 4a aa a6 3d 15 18 21 3e b8 a7 16 be
       -0.17243463 0.08137949 0.15731843 -0.14712417
000210 7a 69 18 3e 43 a7 ec bd bd fa 86 3d 8d 6d 49 bb
       0.14883986 -0.1155534 0.06590793 -0.0030735463
000220 7e 03 2c be ed 18 00 bd 98 b6 aa 3d 13 d2 19 bd
       -0.16798207 -0.03127377 0.08335608 -0.037553858
000230 85 f9 0a be 33 8b 9e 3d 16 1c ce 3d 7c 5f 33 be
       -0.13571747 0.07741394 0.10063951 -0.17516893
000240 c9 b3 22 3c dd 40 30 be e3 84 69 be f7 b2 f7 3d
       0.009930559 -0.17212243 -0.22804599 0.12094682
000250 08 1b 71 3d 09 72 2e 3e b1 33 4c 3d c2 82 95 bd
       0.05886367 0.17035688 0.049853984 -0.07300331
000260 9b c8 56 3d 00 1a 42 be 1c 66 76 bd b9 b0 5e bd
       0.052437406 -0.1895523 -0.060155973 -0.054367755
000270 99 ba 9f bd 07 bb 2e bd 89 e8 0f be f6 88 5c 3d
       -0.077992626 -0.042658832 -0.14053549 0.053841554
000280 a7 42 77 3d ce bd 10 3e 8a 8e 3c 3e ab 62 9a 3d
       0.0603663 0.14134905 0.1841375 0.07538351
000290 6c 52 b0 3d 8a 5d 56 be c7 34 06 39 90 84 3f be
       0.08609471 -0.2093412 0.00012798897 -0.18702912
0002a0 ed 5c 9c 3d ae cb 25 bd 2c d5 08 bd 35 ce b5 bd
       0.07634912 -0.040477447 -0.03340642 -0.088772215
0002b0 4d 67 08 be 58 51 3d bd 2f 80 5f bd 20 99 74 3d
       -0.13320656 -0.046220154 -0.054565605 0.059716344
0002c0 e3 7f 38 be c7 06 a4 bd 0d 8d 01 3e 9d 56 84 be
       -0.18017535 -0.08009105 0.12651463 -0.2584733
0002d0 36 e9 0c be 3e a1 53 be c7 00 fd 3c 1d 0a 37 3d
       -0.13760838 -0.20666978 0.03088416 0.04468738
0002e0 e9 59 55 bd 8c 6d f2 bd db 5e 8a bd 84 3b 45 3d
       -0.052087698 -0.11837301 -0.067563735 0.04815246
0002f0 47 4a eb bd 1b c0 5b bd d0 3f 9d 3d 1d 50 06 be
       -0.11488777 -0.053650003 0.07678187 -0.13116498
000300 1e 02 5d be 70 d1 41 3d dd ab a0 3d 49 da 3d 3c
       -0.21582839 0.047318876 0.0784528 0.011587688
000310 cf a1 82 3e e2 1c f7 bd 80 5f 95 bd 38 93 a3 3c
       0.25514075 -0.12066056 -0.07293606 0.01996766
000320 13 7c 05 bf 67 a5 cb bd 3d 51 28 3e 69 26 09 3e
       -0.5214245 -0.09943657 0.1643724 0.13393559
000330 7b 01 09 be 59 1b 7e 3e 05 c4 19 3d d2 85 eb bb
       -0.13379471 0.2481512 0.037540454 -0.0071875835
000340 88 3c be bd fe da ed 3c 97 f9 21 3e 53 99 e7 bc
       -0.09288889 0.029035088 0.15817867 -0.028271353
000350 52 0d f7 bd eb 15 9a 3c 9b dc 4d 3d 66 82 6f be
       -0.120630875 0.01880928 0.050259214 -0.23389587
000360 77 b7 72 be 84 9f 24 be 1f 84 f0 3c 18 d9 23 be
       -0.23702799 -0.16076475 0.029359875 -0.16000783
000370 cb b2 08 bd fa 9c 8c 3c 29 5d 57 be 85 09 e4 bd
       -0.033373635 0.017164696 -0.21031632 -0.11134628
000380 1e 63 11 be ac 71 33 bc 3c 5c 84 bd 39 62 78 3f
       -0.14197966 -0.010952394 -0.06462905 0.97024876
000390 90 7b 8e 3e db d8 dc 3c 92 e7 bd 3e 72 6b ca bd
       0.27828646 0.026958873 0.37090737 -0.09883775
0003a0 9d 03 fe be 7a 68 2d 3f 23 55 ef 3e a1 5f cc 3e
       -0.49612132 0.67737544 0.46744642 0.3991671
0003b0 37 63 a7 3d fe 06 ca 3d b9 94 9c be e6 90 4a bc
       0.081732206 0.09864615 -0.30582216 -0.012363648
0003c0 4d f4 ba bc 82 39 53 3d 5a 77 59 bc 1c 17 97 3d
       -0.02282157 0.051568516 -0.013273085 0.07377455
0003d0 95 1e e3 bc d4 67 b4 3c f2 4e b5 3c 41 78 00 be
       -0.027724544 0.022022165 0.02213237 -0.12545873
0003e0 27 ea 71 bd 66 73 aa 3d 2a b9 8d 3d e9 2f ec 3c
       -0.059061196 0.08322792 0.06920083 0.02883144
0003f0 d0 cf e7 3d 06 42 9b 38 73 2a 8a 3d 5c a5 fe 3e
       0.11318934 7.403274e-05 0.06746378 0.49735534

model/hidden_layers/1/b f4 [75]
000000 0b a7 cf 3f 92 4d d0 3c 5e 40 81 bd 9f b6 09 40
       1.6222852 0.025427613 -0.06311105 2.1517713
000010 44 af c8 3f 5b 68 7c bd f9 97 dc bc 64 9d a8 bc
       1.5678487 -0.06162296 -0.026927935 -0.020582862
000020 2d d7 83 3d ee dd 0f 40 33 9b 0b 40 48 e1 4f bd
       0.06437526 2.2479205 2.1813476 -0.050751954
000030 28 81 70 bd 0f cd ca 3f d1 42 a1 3f b5 d5 f9 3d
       -0.058716923 1.5843829 1.2598516 0.121989645
000040 ce 48 4e 3c 04 99 da 3f 1b 4d 82 bc f9 ac e9 bc
       0.0125906 1.7077947 -0.015905907 -0.028524863
000050 d5 e4 f9 3d a8 00 0a bd 2b eb 57 3c f8 64 15 40
       0.12201849 -0.033692032 0.013178627 2.3342876
000060 ff aa 18 bc 2e 01 8f 3f 12 17 a0 bd 49 2f e4 3b
       -0.009318112 1.1172235 -0.078169 0.0069636446
000070 8d c6 94 3d d9 ed 5a 3d 3f 4a 2c bd 38 fe ca be
       0.07264433 0.053449485 -0.042062994 -0.3964708
000080 27 0b ae bb ce 8b 9b bc 49 1a ad 3f d3 58 b2 3f
       -0.005311388 -0.018987563 1.3523647 1.3933357
000090 41 fd a0 3b 50 a7 ed 3c 19 8e 1e b7 85 69 74 be
       0.0049130027 0.029010445 -9.450619e-06 -0.23868378
0000a0 97 66 8b 3f 90 c0 a5 bd c0 5e b0 bd d5 85 83 bb
       1.0890683 -0.08093369 -0.08611822 -0.0040137568
0000b0 66 f3 42 bc e2 15 cf bb b7 87 bf bd fe 89 4d 3f
       -0.011898851 -0.0063197473 -0.093520574 0.80288684
0000c0 6b 90 d5 bd dc d0 09 bd 22 86 ea 3f b5 2c e0 3f
       -0.10427936 -0.03364645 1.8322184 1.7513644
0000d0 cd b2 bf 3f a2 22 9f bc 82 ae 6f bd 0f 30 bc 3f
       1.4976441 -0.019425694 -0.058516033 1.4702166
0000e0 ae e2 63 bc 45 57 56 bd 42 af e6 3d ac f2 0f ba
       -0.013909025 -0.05232932 0.112638965 -0.0005491178
0000f0 bf fb 9f 3f bc 51 55 bd 9c d0 96 3c 64 15 49 3d
       1.2498702 -0.0520799 0.01841002 0.049092665
000100 74 df 93 3f b2 0b 05 be 9f a6 d8 be d7 d1 31 3b
       1.1552567 -0.12992743 -0.42314622 0.002713313
000110 8a cb cd 3f 89 71 c8 3f 1d d3 60 3e 18 2b c1 3f
       1.607774 1.5659648 0.21955533 1.5091276
000120 76 e2 3e 3f cf 99 0a 3c f6 07 8e bd
       0.745643 0.008459522 -0.06935112
