experiments/rovers/rovers_full_train_set_2-75-2/best/target_model.npz (npz, 29698 bytes, 6 tensors)

model/hidden_layers/0/b f4 [75]
00000000: 6ba9 2abe 5c7d 93be 3b37 11bb 289d afbf
00000010: 5888 2440 d718 713e 05b3 b4bd c9d8 fdbe
00000020: 2c27 e53f 2a83 38be 8b0e b53d 60b0 e6be
00000030: 1730 b3bd e300 45be 03a2 48be 6d62 63be
00000040: fe06 9cbe 253f 08bf b72e 36be bb99 21bf
00000050: 5f5b 7abe 089a 36bf c613 b5be b63e 1040
00000060: 7371 cdbe 609e 4fbe 9b3c 99bf 62f1 39be
00000070: c1d9 a3be 16b7 5abe 0db7 60be 1fa0 80bf
00000080: 0b98 69bf 03aa 15be dc59 d5be d45a 8ebe
00000090: eb4d 21be c265 78be 59c0 97be ec9d b0be
000000a0: 01e0 ab3e 92d5 243e d069 83be 5a90 73bf
000000b0: cd92 93bf 284a 6fbe 3dae 04bd 1a93 4abe
000000c0: b980 3dbe ad4a 2540 51bf d3be e460 0abe
000000d0: e14f 05be 1506 80be cf3e 4fbe e2ae afbe
000000e0: b087 d3be 9357 1bbe 2912 1e40 d4aa a4be
000000f0: 3f1f 95be 980b a83e d2fd 11bf dd6c 1abe
00000100: 91de 6ebe 9d0a 84be d884 15be 7944 c7be
00000110: 7707 d4bf fb69 42bf c8c6 78be 57f7 51bf
00000120: b6b9 c8bd 412e 3140 1e60 c7be
-0.1666619 -0.2880658 -0.0022158164 -1.3719835 2.5708218 0.23544632 -0.08823208 -0.49579456
1.7902579 -0.18018785 0.088406645 -0.45056438 -0.08749407 -0.1923862 -0.19593053 -0.22205515
-0.30474085 -0.5322135 -0.17791258 -0.631252 -0.24448918 -0.71328783 -0.35366648 2.2538276
-0.40125617 -0.20275259 -1.197162 -0.18158486 -0.3200207 -0.21358904 -0.21944828 -1.0048865
-0.91247624 -0.14615636 -0.4167012 -0.2780367 -0.1575238 -0.24257568 -0.29638937 -0.34495485
0.3356934 0.16097096 -0.25666666 -0.9514214 -1.1529175 -0.23368132 -0.03239273 -0.19782677
-0.18506135 2.5826828 -0.413569 -0.13513523 -0.13018753 -0.2500464 -0.20238803 -0.34313112
-0.4131446 -0.15170126 2.4698584 -0.32161582 -0.291254 0.32821345 -0.57027924 -0.1508059
-0.2332709 -0.25789347 -0.14601457 -0.38919428 -1.6564778 -0.75942963 -0.24294579 -0.82018036
-0.098010466 2.768448 -0.3894052

model/hidden_layers/0/W f4 [75, 20]
00000000: db34 76bc 8db8 10be 4544 a5be 1bf3 003f
00000010: e87e 9d3d 1be9 a7bd f953 febd 1037 c83c
00000020: 8dab 83be 7153 f1bd 8571 443e 044d 683e
00000030: 51dd 3e3d 24b2 70be e411 753d dab8 07bd
00000040: ca77 94be cc84 9f3e ed0a 1ebe 2b6f 593b
00000050: 8dbe 52be 8353 a2bd 80f3 b13d a636 1bbe
00000060: 79d9 8fbd 0d97 46bd 43d3 6abe b3ef 0cbe
00000070: 2024 92be a9f3 13be 1797 7dbd 7555 cd3e
00000080: cac1 d3be 1d37 00be a2bc e5bc b036 973e
00000090: c27a 6a3c 3c45 6dbd ba7f 4dbe 4b49 f13d
000000a0: 5833 c53b 26b4 5a3e 33c5 a6be a54c 7f3e
000000b0: 4006 2b3e 5729 3abe 7ac9 8f3d 3f2b c3bc
000000c0: a8d9 4dbe 4b17 193d e566 283e 09d0 a5bd
000000d0: ff0d 3dbc e555 2abe 34fe f33d e9ae 1c3e
000000e0: 08f8 0cbe e81d 633e 52a0 603d c06c 24be
000000f0: d07c 29be 65d4 a9bd a7ff 9ebc e68e d6bd
00000100: 1bc9 8bbe 1265 ccbb 0543 0dbd e707 58be
00000110: 915d 243c 549f bf3e b291 62be f647 913e
00000120: 700a f2bd 26b3 17be c65a 79bb b86b b53e
00000130: b1a2 ffbe 6569 5abd b008 013c 8985 b5be
00000140: ddcb 483d fc93 de3c 4f41 c43d 3950 9b3d
00000150: 6f24 e0b9 7cf8 acbe 220c 153e 6ab4 313d
00000160: 01ba b3be e4c3 923e 55d9 1d3e de78 a63d
00000170: 3904 0abd 926c 383e 81e3 65be b8bb 0e3e
00000180: eec5 223d b3bf 59bd 6dc4 393d 2451 a9bd
00000190: e4c8 603e 6ab5 5b3d e844 19be de9e c23d
000001a0: 42cb 6f3d c3ba f13e 99ae 453e 47bd 093e
000001b0: c045 85be 130e b03c 7aa6 ffbd 3e84 55be
000001c0: 1c78 88bd 5068 9dbe 182a 3e3d 705d 71be
000001d0: a631 75be bf1a f6bc f5dd cd3e fb16 60bd
000001e0: 8483 63be 9bed c43d c0a8 64bd 05c4 a8bd
000001f0: 8e51 1c3e b6ad 973e 76e2 2c3e 1a85 48be
00000200: 4c37 95bb 9b9a d2be 29b0 46bc 59ba e2bd
00000210: 9fee 4cbe 0c18 5ebd b5e6 69bd eacc 753e
00000220: cc5e a9be 3e70 6a3e f702 86bd 188f af3c
00000230: 947d 86be 27e9 f3bd bed4 13be 9a17 f9be
00000240: 21bb 1b3f afdc 983e 4cf6 813e 96e8 4b3b
00000250: c1d8 1f3e 48c1 35bd 76d5 313e 5c72 22be
00000260: 85b3 183c 0b5c 35be 370a e13d f700 4a3e
00000270: 165c b93d dcaf 7cba 065e b63e cf11 b3be
00000280: 24df 3dbe 54f9 933e ef48 f6bd d51d 00bf
00000290: cd9d d4bc 23e1 223d e15e 063d 1ec6 833c
000002a0: 4dcf 233f bb90 143d c91e a43e a487 c4be
000002b0: 0ead ef3d b837 b43c 70df 97be 8d07 abbe
000002c0: 806f 183e a8ae e33c 4b4e bbbe 777a 7b3e
000002d0: e938 863e 34a5 e13d cf40 a23d 9b45 363c
000002e0: 82d3 cd3d 7b40 86bd cf9d bebe f94d 09bd
000002f0: 6132 9e3b 2444 2b3d cd08 fc3c ccde 3d3e
00000300: 133b d5bd 774f b8be 5c08 80be 818d 283e
00000310: c620 663d cc9f 953e 3f0b 433e 0f5c 8d3d
00000320: e445 91bd 05a6 dc3c b3fb 1f3d e01c a33e
00000330: 418d 283e 9b40 e3bd 0eab cf3d 9072 453e
00000340: 5fef 86be e73b 92bc 1b4d 73be 8831 d83d
00000350: 3588 a7bc 1f5a 95be 0b92 acbd 8928 203e
00000360: cc5e bcbd bf41 1f3e e991 803e 5369 a83d
00000370: a01c 7cbd 1943 ee3e 8f6f 233d 16b2 a7bc
00000380: 1bb9 0bbc f8f6 88be 944a 623e 1067 d53d
00000390: 61e3 953e 32c2 e83d d72e dd3d cc49 3e3e
000003a0: 7489 b43d 80a6 943d 1439 8cbe fa0d ffbd
000003b0: abb0 17bf cfd7 e73e 32ce e4be b33a 5c3e
000003c0: ce11 96be cb8b e8be 2745 0abc 0774 8cbd
000003d0: aa65 8b3b f398 003e fa4a 16be d93d af3d
000003e0: bc62 0c3d 9e82 19bd d2f6 35bd 8f48 d03d
000003f0: fad6 dabc 43b8 d5bd d138 0dbf 2d36 823c
-0.01502725 -0.141329 -0.32278648 0.5037095 0.07690221 -0.08198758 -0.1241836 0.024440318
-0.2571682 -0.11783493 0.1918393 0.22685629 0.046597783 -0.23505455 0.059831515 -0.033135273
-0.28997642 0.31156003 -0.15433855 0.0033177834 -0.20580502 -0.07926085 0.08689022 -0.15157565
-0.070239015 -0.048483897 -0.22932152 -0.13763313 -0.28543186 -0.14448418 -0.06191167 0.4010426
-0.41358787 -0.12521024 -0.028044049 0.2953391 0.014311494 -0.057927355 -0.20068255 0.11781558
0.0060180835 0.21357784 -0.32572326 0.24931581 0.16701603 -0.18179832 0.070208505 -0.023824332
-0.2010256 0.03737573 0.16445501 -0.0809632 -0.011538981 -0.16634329 0.1191372 0.15301098
-0.13766491 0.22179377 0.054840393 -0.1605711 -0.16551518 -0.08292464 -0.019409014 -0.104764745
-0.2730187 -0.0062376345 -0.034487743 -0.21096765 0.010032074 0.37426245 -0.22125891 0.28375214
-0.11818397 -0.14814433 -0.003804849 0.35433745 -0.4992881 -0.05332317 0.007875606 -0.35453442
0.049022544 0.027170174 0.09582769 0.07583661 -0.00042751755 -0.3378333 0.1455541 0.043384947
-0.35102847 0.28665078 0.15414937 0.08128522 -0.033695433 0.18010166 -0.22450067 0.13938797
0.03973954 -0.053161334 0.04535334 -0.082674295 0.21951634 0.053639807 -0.14967692 0.09502958
0.05854345 0.472128 0.19304885 0.1345111 -0.26029778 0.021491086 -0.12482925 -0.20851228
-0.06663534 -0.30743647 0.046426862 -0.235708 -0.2394472 -0.03004205 0.40208402 -0.054709416
-0.22218138 0.09615632 -0.055824995 -0.08240513 0.15265486 0.29624718 0.16883263 -0.19582024
-0.004553711 -0.4113358 -0.012126961 -0.11070699 -0.20012902 -0.05422215 -0.057104785 0.2400395
-0.33080137 0.2289438 -0.06543534 0.021430537 -0.26267684 -0.11909705 -0.14436623 -0.4865082
0.6083241 0.29855868 0.25383222 0.0031113974 0.15610029 -0.04437378 0.17366585 -0.15863937
0.009320145 -0.17710893 0.109882765 0.1972693 0.09050767 -0.0009639242 0.3561861 -0.34974524
-0.18542153 0.2890116 -0.1202563 -0.5004552 -0.025954152 0.03976549 0.032805327 0.01608568
0.6398819 0.03627084 0.32054737 -0.38384736 0.117029294 0.021999225 -0.29662657 -0.33404198
0.14886284 0.027793244 -0.3658317 0.24558435 0.26215294 0.11017838 0.079225175 0.011124994
0.100501075 -0.065552674 -0.37229773 -0.033521626 0.004827783 0.04181303 0.030765915 0.18542022
-0.10411658 -0.35998127 -0.25006378 0.1646023 0.0561836 0.29223478 0.19047259 0.069023244
-0.07093409 0.026934633 0.0390584 0.31857967 0.16460134 -0.11096307 0.10140048 0.19281983
-0.263545 -0.01785083 -0.23759882 0.10556322 -0.02045069 -0.2917032 -0.08426293 0.15640463
-0.091977686 0.15552424 0.2511132 0.08223214 -0.061550736 0.46535566 0.039901312 -0.02047066
-0.008528019 -0.26750922 0.22098762 0.10420048 0.2927504 0.11365165 0.107999496 0.18582839
0.088152796 0.0725832 -0.27387297 -0.12453838 -0.5925395 0.45281836 -0.44688565 0.21506767
-0.2931046 -0.45419154 -0.008439339 -0.06858068 0.0042540627 0.12558345 -0.14677039 0.085567184
0.034273848 -0.037478082 -0.04442484 0.101700895 -0.026713837 -0.10435536 -0.5516482 0.015894974

model/hidden_layers/1/b f4 [75]
00000000: 1365 fcb8 37b1 0840 72b7 3440 76dc 2140
00000010: 41ce 0cbe 928a 0c40 2d9c 59be 4234 d6bd
00000020: 11bd b43e 221d 0d3d f160 ed3c 82c9 1ebd
00000030: c2b2 4540 da48 31be 0f84 b7bd 3341 babe
00000040: 914c 37bd f246 1240 5103 1040 29ac 9e3e
00000050: 773c 2c3e 0df7 0a40 215c e8bc 9068 84bc
00000060: cf04 00be 9cbe 5fbc dc33 8b3c bc25 39bd
00000070: 722f 83bd a007 2440 ce31 12bd 4d7e f8bc
00000080: 9643 0040 a759 afbd 9dfd cb3f e693 fa3f
00000090: f635 d5ba 2589 f73f 7dc5 83bc ef03 2140
000000a0: 3fcb 2440 855a c73d 6bc5 3fbd d28d 2140
000000b0: 2ea5 72bd fc0e 053e 726c c73c 0cf8 1f40
000000c0: 0dda e33f 4a24 2140 ee9e ea3f 5a38 0340
000000d0: a655 39bc a030 2fbc 821e 2fba 9658 103d
000000e0: a247 45bd c2fa 1dbe a78c 1b40 d804 1d40
000000f0: 508e 3040 6b97 c8bd 724e 34bd e9d4 c1bb
00000100: cc11 53bc 0615 05bf f246 96bd 3d8c 42bb
00000110: 4b46 4340 93a4 2240 1e6d 3240 273a 3b40
00000120: 94e5 eb3f 4375 243e 28ce d9be
-0.00012035123 2.1358163 2.8236966 2.5290809 -0.13750555 2.1959577 -0.21250983 -0.10459186
0.35300496 0.03445161 0.02897689 -0.03876639 3.0890355 -0.17312947 -0.08960735 -0.36377868
-0.044750754 2.2855802 2.2502024 0.30990723 0.1681994 2.1713288 -0.028364243 -0.01616314
-0.12501834 -0.013656285 0.016992502 -0.045202002 -0.06405534 2.5629654 -0.03569203 -0.030333662
2.004125 -0.08562022 1.5936772 1.9576385 -0.0016266692 1.9338728 -0.01608538 2.515865
2.5749052 0.09734062 -0.04681913 2.524281 -0.05923956 0.12993997 0.024343703 2.4995146
1.7800919 2.51784 1.8329751 2.0503144 -0.011311924 -0.010692745 -0.0006680266 0.035240732
-0.048164017 -0.15427688 2.4304597 2.4534206 2.758686 -0.09794506 -0.044020124 -0.0059152734
-0.012882661 -0.51985204 -0.073377505 -0.002968564 3.0511653 2.5412948 2.78791 2.9254243
1.8429437 0.16060357 -0.42540097

model/hidden_layers/1/W f4 [75, 75]
00000000: 8553 733d 9f95 b9ba e5a4 a33d de69 e53d
00000010: 97bc f1bd f705 adbd 91d1 f4bd 38dc a63d
00000020: 8aa5 e8bc a818 7dbd 6a29 24be 037c e03c
00000030: 0edf 85bc 666f b3ba 96ad 62bd 76aa 38be
00000040: a2c1 093e 5930 0dbc ff68 793c dd0f cbbd
00000050: 3576 0f3e c12c dfbd 99df 8abd 3c0d eebd
00000060: 4095 10be 3901 993d d24b 89bd 1717 08be
00000070: 31f5 03bd 39a3 42bd 0d0a 25bc ab14 a5bd
00000080: 94d1 593c 2b2e 51be 752f f3bd 6216 8b3d
00000090: 8a43 a93d a8c9 5fbe fa27 ee3c 7737 95bc
000000a0: 70fa f13d 2319 05be 16ff fa3c 63a7 ab3d
000000b0: 9173 2ebe 435d b6bd 941b c23d f2a4 1fbd
000000c0: 2614 b83d 6720 b2b9 b0c7 2ebe 0e9e 7fb9
000000d0: 11ed 043d 91d8 9bbd 48e2 d83d ef1d 27be
000000e0: d1d1 93bc f6ac 47bd fb86 d8bd 4147 37be
000000f0: 59c3 7abe daf9 1cbe 32e7 03bd a7c6 9fbd
00000100: 70fe eebc 2003 1bbd 78f8 84bd 44d7 613c
00000110: 54f9 a83d 0ebe 3bbe 7994 8e3c cbfd 4cbe
00000120: c04d 763e 6ee5 f2bd ace8 64bd 9bbd 3abc
00000130: 8a07 f13c 7044 dabc 9085 4a3e 78af 94bd
00000140: 5b0b 963d 2bd6 c2bd b1c7 d8bd ed40 81bd
00000150: 6e7c d2be 3cf1 7bbe f090 7bbc 42f2 4c3d
00000160: 8248 a5bd f5ec 923d 57ee 09be 847a f33d
00000170: 4039 283e ffe8 75bd 2854 4a3b c809 9ebd
00000180: 4894 edbc 1d2b 81bd 5979 613c 87ed 433d
00000190: 064c fe3c 3329 0dbe b088 73bc 2e62 f63d
000001a0: 3dfa e43c a1b6 f0bd 0e55 edbb aeeb eb3d
000001b0: 625c 21bd f73a 93be c790 fcbd d429 523c
000001c0: dd10 2fbe a0b8 c4bb fa1a 983c 4276 cb3d
000001d0: fd9d 763c a344 a13d 33c8 29be e839 c63d
000001e0: 3d87 4ebe 6aef 56be 23a5 1d3e dc2c 46bd
000001f0: 2668 543d 931d 563c 9470 bf3d f1a7 b3bc
00000200: b8c1 61bd ebf1 283e 4950 a73d ded9 9c3d
00000210: 05af fbbc bfc6 bc3d 7f26 57bd 0f57 723c
00000220: 8fce 24be 2e63 42be 7662 82be 94d2 35be
00000230: 233f 843e 3c95 f03d a6b3 b4bc a584 7bbc
00000240: 9fee 93bd 4aef 20bd 2d84 e23d b694 07be
00000250: 389b f6bc 0088 33be 3557 0fbd b759 353e
00000260: ab4e db3d 249a 5c3d c318 453e a55e d7bd
00000270: 0632 a03d 25f0 34bd 00ce 863d 2a1c 913d
00000280: c442 1f3d 7334 333d f470 a03d 4715 24be
00000290: 5659 813d 90dc ca3c e065 343c 8259 ca3d
000002a0: 1e6b a3bd 2546 263e a585 e63d fc01 9b3d
000002b0: b4de 313e d29b 3c3e e74a 48bd 32d0 0a3e
000002c0: 8176 3a3d 9fe5 153d 8088 243e 730d e53d
000002d0: da0c 213d b275 81be 9005 513e 90bc 983d
000002e0: 7a41 513e 8dc1 623d 77bb 3d3d 547d 983d
000002f0: c817 5abe f83e cf3d f257 2f3e b2ec 213e
00000300: 48fe 493b 74b5 e8bd dfd0 73bc dde0 073d
00000310: 01b9 0c3c 0bd9 953e e26f 4f3e cc51 0e3e
00000320: 77bf d33d 88ce 86bd 36fc b23d 037d 26bd
00000330: c59b 373e bbf6 d0bc 55e6 903d 6079 abbd
00000340: 4e9b d53e b118 c5bd 60ae a0bc 6c72 643e
00000350: 635a bfbd b835 463e dc55 243d 2887 0e3e
00000360: 365e 53bc b77a 1e3d eafb daba 0c13 2d3e
00000370: 1f6a 09bd 9758 083d eb84 0fbd 2f18 ff3e
00000380: d2c1 393e 9853 8c3c daf5 76be 8349 74be
00000390: c06f 273e bd2f 86bd aaea 193d 1b5b c73d
000003a0: 5908 743d 5a87 773e cd26 6d3d 0803 dcbc
000003b0: 24c0 e8bd 1488 10be 8ca4 11bc 93a9 143e
000003c0: 3893 483e b104 aabd 07ca 983d 2e4c 2aba
000003d0: 1c99 a33d c2fe 23be 4457 f23c 8cda 723d
000003e0: 36f9 c1bd e020 f8bd 138a 9abd 4d2e c03d
000003f0: 9342 4c3e 08bc 3b3e 91bb 5a3e da6a e83d
0.059405822 -0.001415897 0.079904355 0.11201833 -0.11803549 -0.08448403 -0.11954034 0.08147472
-0.028399248 -0.061791092 -0.16031423 0.027402883 -0.016341712 -0.0013689816 -0.055341326 -0.18033776
0.13452771 -0.008617484 0.015222787 -0.09915135 0.14009936 -0.10897208 -0.06780929 -0.11623618
-0.14119434 0.07470936 -0.06703915 -0.13290058 -0.032216255 -0.047518943 -0.010073197 -0.08060583
0.013294596 -0.20427768 -0.11874286 0.067913786 0.08264835 -0.2185427 0.029071797 -0.018214924
0.11815345 -0.1299787 0.030639213 0.08381536 -0.17036273 -0.08904507 0.09477916 -0.038975663
0.08988218 -0.00033974947 -0.17068362 -0.00024377575 0.032452647 -0.07609666 0.10590035 -0.16320013
-0.018044384 -0.048748933 -0.105726205 -0.17898275 -0.24488582 -0.15329686 -0.032202907 -0.07801562
-0.02917406 -0.037844777 -0.06492704 0.0137842335 0.082506806 -0.18334219 0.017404782 -0.2001869
0.24053097 -0.118601665 -0.055885956 -0.0113977445 0.02942254 -0.026643962 0.19777513 -0.072600305
0.07326385 -0.095135055 -0.10584963 -0.06311212 -0.41110557 -0.24603742 -0.01535438 0.050035723
-0.080704704 0.07174102 -0.13469826 0.118886024 0.16428089 -0.060036656 0.0030872915 -0.077167094
-0.02900137 -0.06307051 0.013761842 0.047833946 0.03104211 -0.13785248 -0.014864132 0.12030445
0.027951354 -0.11753584 -0.0072428053 0.11519562 -0.039394744 -0.28755924 -0.123323016 0.012827355
-0.17096277 -0.0060034543 0.01856755 0.09934665 0.015052316 0.078744195 -0.16580276 0.096790135
-0.20168777 -0.20989767 0.15395026 -0.048382625 0.051857136 0.0130685745 0.093476444 -0.021930667
-0.055116385 0.16498534 0.0816961 0.07658742 -0.030723104 0.09217595 -0.052526947 0.014791264
-0.16094421 -0.18983147 -0.25465745 -0.1775611 0.2582942 0.11747214 -0.02205832 -0.015351449
-0.07223248 -0.039290704 0.11060367 -0.13240322 -0.030103311 -0.17532349 -0.034995276 0.17710005
0.10708364 0.053857937 0.19247727 -0.10516099 0.07822041 -0.044174332 0.0658226 0.0708545
0.038882032 0.04375119 0.07834044 -0.16023742 0.063158676 0.024763376 0.011010617 0.098803535
-0.07979415 0.16237696 0.112559594 0.07568738 0.17370111 0.18418816 -0.048899557 0.13555983
0.04552317 0.036595937 0.16067696 0.11184206 0.039318897 -0.25285107 0.20412278 0.074578404
0.20435134 0.055360366 0.04632136 0.074457794 -0.21298134 0.10119432 0.17123392 0.15812948
0.003082173 -0.113627344 -0.014881342 0.03317343 0.00858903 0.29267153 0.20257524 0.1389839
0.103392534 -0.065823615 0.08739512 -0.040646564 0.17930515 -0.025508275 0.07075182 -0.0837276
0.4172005 -0.0962385 -0.019614398 0.22309273 -0.09343412 0.1935643 0.040120944 0.13918746
-0.01290088 0.03869125 -0.0016707156 0.16901797 -0.03354847 0.03328761 -0.03503887 0.49823138
0.18140343 0.017129704 -0.24117222 -0.23856167 0.16351223 -0.06552074 0.03757731 0.09734174
0.059578273 0.24172726 0.05789833 -0.026856914 -0.11364773 -0.1411441 -0.008889329 0.14517812
0.1958741 -0.08301676 0.07460409 -0.0006496337 0.07988188 -0.16015151 0.029582627 0.059290454
-0.09471361 -0.121156454 -0.07545867 0.09383831 0.19947271 0.18333447 0.21360613 0.11348505

model/output/b f4 [4]
00000000: 72ea 0dc0 a9fe 08c0 332d 18c0 3574 08c0
-2.2174344 -2.1405432 -2.3777587 -2.1320927

model/output/W f4 [4, 75]
00000000: a76e e53c 3fdd 10bf cdc7 6abf 2465 42bf
00000010: cf7d 063d 6eca 19bf ef23 903d cb75 f1bc
00000020: 62a8 e2bd 177b e3bd 3834 02bd 26fb d13c
00000030: bc57 93bf 8ef8 773d 5e8e 1bbd c4e9 a73d
00000040: 94da a73d 4ce5 2dbf 2979 2dbf 7d9e 73be
00000050: f983 19be bbd4 a0bf f5eb 10be dab6 483e
00000060: 2c26 683d 9e25 25bc 3d69 aebd 60c1 093d
00000070: 5a98 b33c 458b 45bf 19e3 e53d 6a87 6ebc
00000080: 562c 18bf d017 b53d 99c4 bdbe f340 04bf
00000090: 7dec 8abb bd17 12bf 6aec 66bc 5611 44bf
000000a0: 185b 37bf c252 bcba 594b 0ebe a7b3 40bf
000000b0: 6841 be3d 1b97 3fbe 87dd ad3d 2332 3dbf
000000c0: 31e6 10bf b88b 2cbf 6e78 63bf 80db 29bf
000000d0: 918e 6e3d b442 70bc 32f8 b2bd e262 c9bd
000000e0: 98e1 163e a2ce ccbd c933 31bf 0c97 3ebf
000000f0: 07c2 5abf ca35 a23d 8057 053d 6a41 cd3a
00000100: 12bb 863d 9567 e03c ee77 ec3c 3af5 f9bd
00000110: 38a0 85bf af21 4fbf d866 57bf 08a2 71bf
00000120: 53c6 02bf f922 c13c 23d8 313e 6424 57bd
00000130: 3830 0dbf 3754 72bf d76c 1abf a58c 243d
00000140: 937a 1bbf 8c8e f83d 493a b6bd 5e21 acbd
00000150: 47a5 5b3d c649 3fbd 61e8 553e 5d2f 91bf
00000160: a2f7 3e3e be94 f63d 40b2 333c 5f6f 5cbe
00000170: aae3 0fbf 4cd3 20bf dacb 5bbd 95e9 2abe
00000180: c0c9 aabf f122 03be ce74 0abd f78e 333e
00000190: 7965 e33d b4f1 eebd cf91 133e d50d 0d3d
000001a0: 4625 45bf 4736 2d3d 37c4 00bb b757 14bf
000001b0: 99db a33d 7a4b afbe 4582 1fbf 334b 863d
000001c0: 14fd 10bf 233d 45bd 267d 25bf 7289 32bf
000001d0: 7445 b5bd 918d 07be 7e7b 28bf 398c 80bd
000001e0: 47d7 4fbe 14f6 803d 5694 21bf 9fbb 00bf
000001f0: a268 35bf bcc6 6ebf aa11 0ebf 2fae 56be
00000200: d3e5 7abe 6125 393e af01 ca3c 6c3a 493d
00000210: 00e7 02be b193 42bf bb42 33bf af58 75bf
00000220: e3c1 523e bcd3 0abe 1634 7b3d ac6d 5abd
00000230: a5e8 6c3d 8d86 d2bd b7a2 473e e1d3 8bbf
00000240: 289c 6ebf 64d8 85bf e510 63bf 0d00 11bf
00000250: 49ea cabc 0c95 9ebd 6f08 3a3d ec22 0dbf
00000260: d777 43bf 07de 57bf 094f a33e 687e 27bf
00000270: 32a5 2b3d de02 813b 6f2d 99bd 8fde 9fbc
00000280: 064c 02be 7029 46be 67dd 83bf 6af3 d53d
00000290: 7757 bf3e ee22 b13c ae5e 1c3e 973a 2ebf
000002a0: ad0a 49bf 83c3 773d a3e3 42be 401d bebf
000002b0: ccb6 cd3d 698f 173d ade7 eb3d e2b4 013c
000002c0: 54e4 1abd 8e49 8a3e b64f ac3d f342 35bf
000002d0: b0cc 693d 691a a43c 12f4 0abf cd44 283d
000002e0: 4d5e e0be 135b 03bf 4e54 06be a55d 14bf
000002f0: b9e1 e43d bf5d 42bf 40ed 3ebf 467c 88bd
00000300: 5636 923e 214a 3fbf a324 04be 5ae9 80be
00000310: 6d07 0cbe 97ee 43bf 9a2b cdbe b732 54bf
00000320: cde6 18bf 96c2 0abf 14af 153e f001 273e
00000330: e6a2 64be 91f3 8dbe ff5f 7cbe 9565 7b3e
00000340: 47b6 2abf 4a11 42bf 798c 5fbf 9bff f13d
00000350: 210c 1abd 0d7e 993c 7c03 513e 7aa3 263d
00000360: 6dc7 df3b f4ed 7cbe ec98 7cbf b4be 55bf
00000370: 011e 70bf cc39 86bf 1412 17bf 449e fbbd
00000380: 3eb3 493e d22f 86bd ec67 1bbf f201 52bf
00000390: 6a20 2dbf 2946 9b3d f728 14bf d979 703c
000003a0: c2b7 843c a1ed 85bd 9923 55be 6c31 e5bd
000003b0: df2a 9cbd d112 91bf 3e42 b33c 1b57 04be
000003c0: d20f 9d3d 57fb d33c cf6f 06bf 0648 1fbf
000003d0: 0948 84be e2e8 a8bd 6fb4 acbf 68dc 42bd
000003e0: 9d2c a4bd 28e8 acbd f6e6 a83c 1e5b 42be
000003f0: 4782 8abd f4b1 a83c 7b81 44bf d859 e2bc
0.028006865 -0.56587595 -0.9171112 -0.7593558 0.032834824 -0.6007451 0.07038104 -0.029475113
-0.11067273 -0.11107462 -0.03178808 0.025632452 -1.151115 0.060539775 -0.03797757 0.08198884
0.08195987 -0.67928004 -0.67763 -0.23790927 -0.1499175 -1.256492 -0.1415251 0.19601002
0.05667703 -0.010079769 -0.08516166 0.033631682 0.021923233 -0.77165633 0.11224956 -0.014558652
-0.5944265 0.088424325 -0.37064055 -0.51661605 -0.0042396174 -0.5706747 -0.014094451 -0.7658895
-0.71623373 -0.0014367925 -0.1389593 -0.7527413 0.09289819 -0.18709986 0.084895186 -0.7390463
-0.56601244 -0.67400694 -0.88855636 -0.66350555 0.05824143 -0.014664341 -0.08738746 -0.098333135
0.14734495 -0.100003496 -0.6921964 -0.7444923 -0.8545231 0.07920416 0.03255415 0.0015659754
0.065786496 0.027393142 0.02886578 -0.122049764 -1.043952 -0.8091077 -0.841413 -0.94387865
-0.5108387 0.023576247 0.17367606 -0.05252494 -0.551517 -0.9465975 -0.60322326 0.04017319
-0.6073391 0.12136564 -0.08897836 -0.08404802 0.053624418 -0.046701215 0.20889427 -1.1342579
0.18649152 0.12040089 0.010967791 -0.2152686 -0.5620676 -0.62822413 -0.053661205 -0.16690667
-1.3342819 -0.12806298 -0.0338028 0.17535006 0.11103339 -0.11667195 0.1441109 0.03443702
-0.7701 0.04228809 -0.0019648203 -0.5794634 0.08000869 -0.34237272 -0.6230815 0.06557312
-0.56636167 -0.048154008 -0.64644086 -0.69740975 -0.08851138 -0.13237597 -0.65813434 -0.06276745
-0.20296966 0.06296936 -0.6311697 -0.5028629 -0.7086278 -0.93271995 -0.55495703 -0.20964883
-0.24501733 0.18080665 0.024659006 0.04912798 -0.12783432 -0.7600661 -0.700237 -0.95838445
0.20581774 -0.13557333 0.06132897 -0.053327248 0.057839055 -0.1027957 0.19495665 -1.0924035
-0.93207026 -1.0456662 -0.88697654 -0.566407 -0.024769919 -0.07743272 0.0454182 -0.5513141
-0.76354736 -0.8432316 0.31896237 -0.65427256 0.04190559 0.0039371094 -0.07479369 -0.019515304
-0.12724313 -0.19351745 -1.0301942 0.10446818 0.37371418 0.021623101 0.15270492 -0.6805815
-0.78531915 0.06048919 -0.19032149 -1.4852676 0.10044631 0.037002 0.11518798 0.007916661
-0.037815407 0.27009243 0.08413641 -0.7080528 0.05707997 0.020032125 -0.5427867 0.04108124
-0.43821946 -0.51310843 -0.13118097 -0.5795539 0.11175866 -0.75924295 -0.74580765 -0.06664328
0.2855708 -0.74722487 -0.12904601 -0.25178033 -0.13674708 -0.76535934 -0.40072328 -0.82889885
-0.59727174 -0.54203165 0.14617568 0.16309333 -0.22327766 -0.2772489 -0.24645995 0.24550469
-0.66684383 -0.7580763 -0.8732372 0.11816331 -0.037609223 0.018736864 0.20411485 0.040683247
0.0068291933 -0.24700147 -0.9867084 -0.83494115 -0.9379578 -1.0486388 -0.5901196 -0.12286046
0.19697282 -0.0655209 -0.6070545 -0.8203422 -0.67627585 0.07581741 -0.5787501 0.014677488
0.016200904 -0.06539465 -0.2081436 -0.11191067 -0.076253645 -1.1333867 0.021882173 -0.12923853
0.07669033 0.025876684 -0.52514356 -0.62219274 -0.25836208 -0.08247544 -1.3492564 -0.047573477
-0.08016322 -0.08442718 0.020617943 -0.18980071 -0.0676313 0.020592667 -0.7676007 -0.027630731
