experiments/blocksworld/blocksworld_full_train_set_2-75-5/best/model.npz (npz, 29680 bytes, 6 tensors)

model/hidden_layers/0/W f4 [75, 20]
000000 0d b5 ef 3d 6e 4b a0 bd 44 a5 f2 3e 0b 25 f2 bf
       0.117044546 -0.07826887 0.47391713 -1.8917555
000010 63 70 1f ba 2e 31 0d 3f 52 e7 8b be a3 b5 70 be
       -0.00060821156 0.5515317 -0.2732492 -0.23506789
000020 ed b3 e5 bf fd ce 34 bf d4 91 c2 3c 0f c1 e1 be
       -1.7945534 -0.7062834 0.023751177 -0.44092605
000030 79 78 04 3e 5d 42 80 bf 9f 1e 83 3b 83 48 d5 3e
       0.12936582 -1.0020252 0.004001453 0.41656885
000040 ec 85 dd bd 4a 67 88 3d 37 ac d6 bf cf ec ba 3b
       -0.10816559 0.06660326 -1.6771306 0.0057044993
000050 d7 f8 4b be d6 3a 43 be 71 e8 1e be 91 af 2a c0
       -0.19919144 -0.19065413 -0.15518357 -2.6669657
000060 d5 82 6a 3e 8d c1 d8 3e 32 03 65 bc b2 d7 85 be
       0.22901471 0.42335168 -0.013977813 -0.26141125
000070 32 7f 35 c0 c3 5a 84 bf 2a 69 0d 3f bd f4 e7 be
       -2.8358884 -1.0340198 0.5523859 -0.45303908
000080 77 e0 f8 3d e3 0f b2 bf 42 da 84 3c 31 5a 51 be
       0.12152188 -1.3911098 0.016217355 -0.20444562
000090 d1 58 89 be 89 1d 87 3e ba 79 f9 bf ab ad a7 bb
       -0.26825574 0.2638972 -1.9490273 -0.0051171384
0000a0 33 68 7c bc a1 da fb bd ca 52 89 3d 41 18 5b c0
       -0.015405702 -0.122975595 0.06705244 -3.4233553
0000b0 48 0b d9 3c 3d 83 77 3f ac 8e a7 3e f8 65 5b bf
       0.026494637 0.9668463 0.32726038 -0.85702467
0000c0 da 30 29 c0 ea 3a 5f bf 73 ef f1 3e f2 84 d7 be
       -2.6436067 -0.8719927 0.47252998 -0.42093617
0000d0 1f 32 e9 3c 34 be e9 bf aa 5c 30 3d 23 dd 3f 3f
       0.028466282 -1.826117 0.04305712 0.749468
0000e0 14 6e 2b bf da 4d 12 ba e3 57 22 c0 4d ba 44 3d
       -0.6696484 -0.0005581059 -2.5366142 0.048029233
0000f0 12 b6 a0 bd 86 26 5e 3e 5a 98 ad bd bb 20 fb bf
       -0.07847227 0.21694383 -0.084763244 -1.9619364
000100 74 58 04 3e 79 74 3a 3d bf f7 78 3e ce 47 cc 3d
       0.12924367 0.045521233 0.24313258 0.09974633
000110 d2 94 05 c0 b3 63 f0 bd b4 93 4e 3c 44 af 4b 3e
       -2.0872083 -0.11737766 0.012608457 0.19891077
000120 a4 65 c3 3d 20 e1 9c bf 7b 95 99 bc ec 8d af 3d
       0.09540871 -1.2256203 -0.018748036 0.08571991
000130 d2 e3 89 bd 4c 58 14 3e 56 e7 86 bf a6 ad 12 bc
       -0.067329064 0.14486808 -1.0539348 -0.008952534
000140 79 9a 06 3f c8 85 5b 3d 2c 66 22 3e 2c d1 ea bf
       0.52579457 0.05359438 0.15859288 -1.8345084
000150 36 96 3a 3e 23 bd e2 3e a2 50 5f be 9b e9 4e be
       0.18221363 0.44284925 -0.21808103 -0.20206301
000160 65 7f c9 bf 29 1e ba bf 47 5d ca 3e e8 ac a8 be
       -1.5742003 -1.4540454 0.3952429 -0.32944417
000170 0b 28 3a 3d e7 0d c8 bf 11 2e 97 3c ed 7a 26 3f
       0.045448344 -1.5629243 0.018454583 0.6503132
000180 5c ec c0 be 9a 87 b3 3d 10 79 a9 bf 55 fe cd 3c
       -0.37680328 0.08766098 -1.324007 0.025145689
000190 85 dd 4b 3e bd 5e 05 3d e5 5b ac be 10 31 14 c0
       0.19908722 0.032561053 -0.3366386 -2.3154945
0001a0 f5 0c b2 3d 43 cd c9 3e 8a a0 5a be ed 74 f2 3d
       0.086938776 0.39414415 -0.21350303 0.11838708
0001b0 2f 56 0a c0 5f ce 0d bf 58 b5 c6 3e 45 46 6b be
       -2.1615102 -0.5539302 0.3881023 -0.22976024
0001c0 b4 27 a9 3d 46 9a e5 bf d0 9a 29 38 64 92 8c 3d
       0.08259526 -1.7937706 4.043692e-05 0.06863859
0001d0 30 38 82 3d 97 96 bb 3d 90 a0 f4 bf bc f7 d6 ba
       0.06358373 0.09159582 -1.91115 -0.0016400735
0001e0 74 22 b8 3e 01 ee f6 3d 2d d4 28 bc ab 89 0a c0
       0.35963786 0.120571144 -0.010304493 -2.1646526
0001f0 de b9 e0 be 2b 33 b8 bd 51 05 43 be 55 60 36 be
       -0.43891805 -0.089941345 -0.19044997 -0.17810185
000200 9d d4 ef bf 43 dc 13 bf 08 8e 71 3e ca bd 38 bf
       -1.873676 -0.5775797 0.23589337 -0.72164595
000210 99 64 03 3d 0c 12 93 bf 5c 78 43 3c 91 e0 44 3f
       0.03207836 -1.1489882 0.011930551 0.7690516
000220 96 47 ab bd 1d 43 e9 3d 48 2d 4e bf ca 26 96 3a
       -0.08363263 0.11389754 -0.80537844 0.0011455652
000230 cb 25 fc 3e bb 07 a0 3e 1a 7c 37 3e 25 30 11 c0
       0.49247584 0.31255898 0.17918435 -2.2685635
000240 ad b7 f3 be 58 80 e3 3e 52 50 05 be 91 cc cc be
       -0.4760107 0.44433856 -0.13018921 -0.39999822
000250 58 1f da bf bb 56 3b bf 31 35 47 3f f3 82 44 bf
       -1.7040815 -0.73179215 0.7781554 -0.7676231
000260 70 d4 02 bd f2 1e a8 bf e2 2b 25 3c 55 b1 8c 3e
       -0.031940877 -1.3134444 0.010081263 0.27479044
000270 62 65 cc be 45 55 a3 bc db 14 bb bf 09 9e de 3a
       -0.399211 -0.01993812 -1.461574 0.0016984354
000280 c4 25 31 bc 22 23 b8 3d 31 f0 9c 3e b4 6f f5 bf
       -0.010812227 0.08991076 0.30652002 -1.9174714
000290 c4 ef 15 be b0 d5 08 3f ca 0c 01 bf e4 e9 28 bf
       -0.14642245 0.5345106 -0.5041014 -0.6598189
0002a0 ee 76 21 bf fe 2a fd bf f9 dd b3 3f 94 a8 ff be
       -0.630721 -1.9778745 1.4052116 -0.49933302
0002b0 1a d4 c2 3c 94 f0 18 bf 76 93 c7 3c 2e a1 cf 3f
       0.023782779 -0.59742093 0.024362307 1.6221063
0002c0 31 a9 24 bf 0b c6 03 3e 6f 5d 2e bf 67 75 3e 3d
       -0.64320666 0.12868516 -0.6811132 0.046498682
0002d0 c7 93 7b 3e 65 4a 1c be ab 59 80 3a ca da a0 bf
       0.24568091 -0.15262754 0.0009792348 -1.2566769
0002e0 2c 0b 97 be 2a e8 19 bd 54 c7 c7 bc fd 42 22 bd
       -0.2950071 -0.037574925 -0.02438704 -0.039614666
0002f0 6d 05 86 bf ea 3e 6b bf 74 46 bf bd a8 c7 f3 bd
       -1.0470406 -0.91892874 -0.0933961 -0.11903316
000300 cc 84 eb 3c ea 64 64 bf d0 a9 ba 3c 8c 05 b7 3e
       0.028749846 -0.8921648 0.022786051 0.3574642
000310 1a 94 c4 be d4 bc 02 3e d7 13 34 bf 74 c9 59 3c
       -0.38394243 0.12767345 -0.70342773 0.013292659
000320 00 6d 55 3e c8 65 85 be 46 71 69 bd e5 15 29 c0
       0.20842361 -0.26054215 -0.05699279 -2.6419613
000330 cd ec 7d bd f9 db 60 3d 31 83 26 3e 1d 6e f6 3d
       -0.06199341 0.054897282 0.16260983 0.12032721
000340 20 7c 3b c0 86 ef 2c bd bd 7a b4 3d 24 80 00 bf
       -2.929451 -0.042220615 0.08812473 -0.5019553
000350 90 28 d0 3d 1e 18 a3 bf 56 a6 fd bb d9 11 bf 3e
       0.10163987 -1.2741735 -0.007740776 0.37318304
000360 bd 21 b2 be 16 b9 4b 3e f4 43 9e bf e7 ce 1c 3c
       -0.34791365 0.19894823 -1.2364488 0.009570814
000370 28 6a d8 3c 5b 49 49 be a0 40 1d be 42 8e cc bf
       0.026417807 -0.19656889 -0.15356684 -1.5980914
000380 fb 24 89 bd 5a 08 39 3e d2 08 10 be a8 ec 96 3c
       -0.066965066 0.18069592 -0.14065865 0.018423393
000390 b4 5b c0 bf 1f 30 a4 be 5b 31 a2 3e 53 64 c8 be
       -1.5027986 -0.32067963 0.3167828 -0.3913904
0003a0 a7 2f 3f bc dd ca 87 bf db 48 0c 3c 99 67 f4 3e
       -0.011669076 -1.0608784 0.008562292 0.4773529
0003b0 49 60 ef be 9d 1b a0 bc 3e 91 cd bf 55 32 21 3d
       -0.46753147 -0.019544417 -1.6059949 0.03935464
0003c0 ad 91 b8 bd f8 46 87 3b c2 ef 96 bd 06 eb e6 bf
       -0.090121605 0.004128333 -0.07369949 -1.8040473
0003d0 c1 10 2c bd 42 9b 0a be 8d 2e e1 be b5 ca 3d be
       -0.042008165 -0.13535789 -0.43980828 -0.18534358
0003e0 07 55 d0 bf 8c 60 6e be 36 2b 0d 3e 60 eb 60 be
       -1.6275948 -0.23279017 0.13786015 -0.21964788
0003f0 95 6a 75 3d 31 03 42 bf 2d 45 85 3b cb 07 a4 3e
       0.059916098 -0.7578612 0.0040670843 0.32037196

model/hidden_layers/0/b f4 [75]
000000 43 c8 35 c0 ae 60 8d c0 68 b9 98 c0 9e 05 2b c0
       -2.840348 -4.4180517 -4.7726326 -2.6722178
000010 d2 e5 33 c0 08 3a 5a c0 6f 99 40 c0 27 db 4b c0
       -2.810902 -3.409792 -3.0093648 -3.185251
000020 92 13 44 c0 b4 aa d7 bf 7b 65 7d c0 1e 6c 0d c0
       -3.0636945 -1.684897 -3.9593189 -2.209724
000030 36 95 0c c0 68 02 00 c1 b5 1a 66 c0 1e 0a 5b c0
       -2.196607 -8.000587 -3.59538 -3.4224925
000040 9f f3 34 c0 ab d8 67 bf d7 7c 49 c0 cb b0 c2 bf
       -2.8273695 -0.90564984 -3.1482446 -1.5210203
000050 98 c5 38 c0 13 83 0d 41 aa 81 d5 40 67 66 44 c0
       -2.8870602 8.844501 6.672078 -3.0687501
000060 26 53 0c c0 ba 41 66 c0 71 4b 17 c0 c2 a2 82 c0
       -2.192575 -3.5977616 -2.3639796 -4.082368
000070 d2 7a 2c c0 b0 df b8 c0 c3 bb 37 c0 23 4b 4e c0
       -2.6949964 -5.7773056 -2.870835 -3.223336
000080 71 d2 b4 bf b4 d6 58 c0 28 94 08 c0 2d e6 56 c0
       -1.4126722 -3.3881044 -2.1340427 -3.3577988
000090 0b 4c 3e bf cb 51 8b c0 00 5c 20 3b 1b 2e 45 c0
       -0.7433478 -4.3537345 0.0024468899 -3.080939
0000a0 df b2 54 c0 94 10 35 c0 e8 fc 98 c0 37 36 70 c0
       -3.3234174 -2.8291368 -4.7808723 -3.753309
0000b0 a6 38 92 c0 ee db 23 c0 58 24 0f 41 3a 7c fd 3e
       -4.569415 -2.5602984 8.946373 0.4950884
0000c0 42 38 e0 3f 7c 17 9f c0 5e fb 54 c0 7c 35 84 c0
       1.7517169 -4.9716167 -3.3278422 -4.131529
0000d0 98 82 79 c0 e4 00 7b c0 03 fd 0d c0 5a 36 3b c0
       -3.8985958 -3.9219294 -2.2185676 -2.9251924
0000e0 c9 62 a2 40 91 41 92 bf b6 0f 4f c0 09 c5 1d c0
       5.0745587 -1.1426259 -3.235334 -2.465151
0000f0 6b 9f 41 c0 2e 44 8c c0 0f 97 67 c0 8d da 1e c0
       -3.025355 -4.3833227 -3.618595 -2.4820893
000100 e0 57 e9 bf 1f 16 f9 bf de 80 a5 c0 dd 79 4c c0
       -1.8229942 -1.9459876 -5.171981 -3.194938
000110 06 16 29 c0 28 d0 2a c0 02 05 49 c0 2a 25 0b c0
       -2.6419692 -2.6689548 -3.1409307 -2.1741433
000120 bc 31 50 c0 d7 fc 01 c0 d5 bf 6f c0
       -3.2530355 -2.0310571 -3.7460835

model/hidden_layers/1/W f4 [75, 75]
000000 1f 6d 0f be f1 f4 fc bd 47 ec 88 be 79 25 45 be
       -0.1400647 -0.12351406 -0.26742765 -0.19252576
000010 48 c5 e6 3d 33 a2 a2 bd 1d 86 02 be 4b e7 f1 bc
       0.11268097 -0.07941093 -0.12746473 -0.029529234
000020 10 13 4a bd cd 0d 28 be 79 08 47 be 19 7d 95 bb
       -0.049334586 -0.16411515 -0.19436826 -0.004562032
000030 09 e1 fc bd 17 72 02 3c d9 49 f7 bd fc 8f 55 bd
       -0.123476095 0.007961771 -0.12074632 -0.052139267
000040 c9 cf 60 be c4 c4 36 be 98 fc 9f bd 74 6f 87 3d
       -0.21954264 -0.17848498 -0.0781185 0.06613055
000050 a4 eb aa bd 18 30 a5 be 33 75 93 be be 9a ad 3c
       -0.08345726 -0.32263255 -0.28800353 0.02119195
000060 aa e5 dc 3d 2a 81 a4 bd 8b d0 b2 be ea ba 9f bd
       0.107859924 -0.080324486 -0.3492473 -0.07799323
000070 e9 33 cd 3d 5e 34 a2 3e 42 ef cb 3d 0b 66 83 bd
       0.10019667 0.31680578 0.09957744 -0.064159475
000080 58 4f ae bd aa 94 9c be 9c 2f 18 be 86 e5 99 be
       -0.08511227 -0.30582172 -0.14861912 -0.30057925
000090 97 31 4a be bb e9 1e be 83 85 0a 3d 47 b1 91 be
       -0.1974548 -0.15518849 0.033818733 -0.28455564
0000a0 c6 43 bd bc 1f 42 93 be 86 af 20 3e 77 a7 38 be
       -0.023103606 -0.28761384 0.15691957 -0.18032633
0000b0 c9 6a c1 3d 4d 7b d6 bd 22 c7 ac be 54 2d 73 be
       0.09444196 -0.104727365 -0.33745676 -0.2374776
0000c0 5b 20 7d bb c3 46 e2 be ab 8c 57 be f8 0e 91 be
       -0.0038624022 -0.44194612 -0.21049754 -0.28331733
0000d0 3a ab e5 be 5e 4a ee bc 41 a8 2f be a7 c2 50 be
       -0.44857198 -0.029088195 -0.17154028 -0.20386754
0000e0 09 93 a9 bd 0d 9d 3a be 9c d6 0f 3e 31 61 40 bd
       -0.08279998 -0.18223973 0.1404671 -0.04696769
0000f0 a4 ab e4 3d 74 8f bb 3d 1e a7 7e 3e 35 2d 46 be
       0.1116555 0.09158221 0.24868438 -0.19353183
000100 00 9c 8b 3c 52 53 1f be 90 f8 46 be 56 1a 81 bd
       0.01704216 -0.15559128 -0.19430757 -0.06303851
000110 ad 5b 9d bd d2 82 b6 bd 2d 15 3d be df 89 92 bd
       -0.076835014 -0.08911671 -0.18465109 -0.07155203
000120 5e 97 e7 3e f6 b2 a7 3d 3a df ed bd 0d 10 c5 3c
       0.45232671 0.08188431 -0.11614843 0.024055505
000130 2e 7e 7c be a4 b6 47 3c 36 d1 4d be d1 6d af bd
       -0.24657509 0.012189541 -0.20099339 -0.08565868
000140 46 5f 5b be 19 de 2e bd 27 38 25 bd da 07 e7 be
       -0.21423063 -0.042692278 -0.040336754 -0.45123178
000150 03 e1 09 be 27 31 57 bd de aa 50 bd cb 18 0a 3d
       -0.13464741 -0.05253711 -0.0509442 0.03371505
000160 4f 11 27 be 5d 42 3c be 81 a9 22 bd 7c 69 33 bd
       -0.16315196 -0.1838469 -0.039712433 -0.04380177
000170 fc 12 3b be fb b0 0e 3d 9b 6e 97 be 0c 30 56 3d
       -0.1826896 0.03483675 -0.29576573 0.052291915
000180 3c 49 bd be 10 de c0 bb 19 97 cb bd 16 af aa bc
       -0.36969936 -0.005885847 -0.09940929 -0.02083544
000190 dd e9 93 be 86 c2 2a be ec f4 87 be 0f 38 a3 bd
       -0.2888936 -0.16675767 -0.26554048 -0.07969677
0001a0 16 83 78 3b 86 62 80 bc 09 7f 35 be 7e ec c6 be
       0.003791993 -0.01567198 -0.17724241 -0.38852304
0001b0 44 2e 91 bd 22 d4 0a bd b0 e9 2e bd 97 f9 89 bd
       -0.070889026 -0.033893712 -0.04270333 -0.067370586
0001c0 86 c0 11 be f5 37 59 be 7e 8e 81 3d 4c 7b e5 bd
       -0.14233598 -0.21212752 0.06326006 -0.11205158
0001d0 bd cb b4 3d c0 df 9f be 94 c1 4a be f1 bf a7 bd
       0.088279225 -0.31225395 -0.19800407 -0.08190907
0001e0 40 bd 3b be 13 15 7c be cc c8 76 be 52 66 e6 be
       -0.18333912 -0.24617414 -0.24100035 -0.4499994
0001f0 1b 8c e1 bd 69 0d 73 bd 0f 2d d0 bd be 7a a3 bc
       -0.11013051 -0.05933896 -0.10164844 -0.019955989
000200 c9 93 b9 3c 25 7e c6 3d 95 30 15 3e d2 ed 8b bd
       0.022653477 0.09692029 0.14569314 -0.0683247
000210 7e 47 b9 bd cc cd 9c 3c d6 b0 2b be fb 67 e5 bd
       -0.09046839 0.0191411 -0.16766676 -0.11201473
000220 fc 92 c2 bc ec 4f ad 3b b7 bf 75 3e f4 cf 82 be
       -0.023751728 0.0052890684 0.23998915 -0.2554928
000230 93 19 27 bd fe e0 82 bd 5c 00 0a be 89 a6 d0 be
       -0.040795874 -0.0639057 -0.134767 -0.40752056
000240 3c 25 ed bc a1 23 35 3e 78 58 62 be 77 6a 37 bd
       -0.028948419 0.17689373 -0.2210406 -0.044779267
000250 bb 84 53 bd 44 61 91 3d 1e 73 24 be e6 cd 2b bd
       -0.051640254 0.0709863 -0.16059539 -0.041944407
000260 ad 29 da 3c d6 39 91 be 86 7f 63 3e 76 0b f7 be
       0.0266312 -0.28364438 0.22216615 -0.48250932
000270 14 81 b0 bd 0e ee b7 bc 47 20 66 bd e1 14 91 3e
       -0.0861837 -0.02245238 -0.056183126 0.28336242
000280 ef c7 3b bd 80 d4 33 3d 18 39 f3 3c f3 0e 77 be
       -0.04584497 0.043903828 0.02969031 -0.24126796
000290 66 00 90 bd 2b 4e ae be b6 bf b9 bb 1b 76 27 bf
       -0.07031326 -0.34044012 -0.0056686057 -0.6541459
0002a0 75 c4 cb 3c e1 27 22 bf ef 62 b1 3e 56 56 20 be
       0.024873951 -0.633421 0.34645793 -0.15657935
0002b0 52 c3 38 bd ae 51 48 be 63 3b 22 3e d3 19 14 3e
       -0.045108147 -0.19562408 0.15842967 0.14462976
0002c0 5d aa 48 bf 66 c7 04 bf f5 63 69 be c9 f5 a2 be
       -0.78384954 -0.5186676 -0.22792037 -0.31828144
0002d0 30 c5 92 bd ab d5 e5 bc 00 9a e9 bc fc 1c 84 bd
       -0.07166517 -0.028055986 -0.028515816 -0.06450841
0002e0 68 91 84 bd 6a 8e d1 bd 41 fa 07 be 3d d1 b2 bd
       -0.064730465 -0.102322415 -0.13279058 -0.08731315
0002f0 26 b2 22 be 4f f8 3e 3d 77 31 a8 be 6b b3 1b bd
       -0.1588827 0.046623524 -0.3285024 -0.038012903
000300 fa 8b bd bc 64 6c 35 be bb 54 0e bf 83 2f a6 be
       -0.023138035 -0.17717129 -0.5559804 -0.32458124
000310 ad 48 43 bd 29 ce 96 3e 5c 9d 75 bf 31 b9 83 be
       -0.04767673 0.29454163 -0.95943236 -0.25727227
000320 43 4d a6 be 02 53 71 3e cc da ac 3d b4 74 4a be
       -0.3248082 0.23566821 0.0844017 -0.19771081
000330 3a 2f ec bd 3d 16 39 be 31 9b 62 be e8 29 7d 3d
       -0.11532445 -0.1807489 -0.22129513 0.061807543
000340 1f 9d 97 3d 37 da 76 be 8e ec 09 3d e1 06 a6 be
       0.07403015 -0.2410668 0.03367286 -0.32427123
000350 82 1e 8a be dc 3c 57 bd 1a 19 70 bf 1d c2 1c be
       -0.269764 -0.052548274 -0.937883 -0.15308423
000360 64 d3 b3 be 8b 50 15 3e bd f9 27 be 42 8b 91 be
       -0.35122216 0.14581506 -0.16403861 -0.28426558
000370 c0 89 0c bf a1 f1 21 bd ed 54 39 bd 2f 28 8a 3e
       -0.5489769 -0.039537076 -0.045247007 0.26983783
000380 cd 07 08 bf ea 3e ba 3c 62 c5 32 3c 0a a2 3c bd
       -0.53136903 0.022735078 0.010911318 -0.04605297
000390 f9 63 ed 3c 7b 3d e2 3c c4 d7 d6 bd 7b 41 30 3d
       0.028978335 0.027617207 -0.10490373 0.043031197
0003a0 8c 77 94 3d 19 cc a3 3d ab 1a e9 3c 9a 82 bc bd
       0.07249364 0.07997913 0.0284551 -0.09204598
0003b0 73 7b 87 bd cc 06 b4 3c 16 35 37 bd 30 33 e6 bc
       -0.06615343 0.021975897 -0.04472836 -0.02810058
0003c0 27 28 f3 bd 6a 94 bf bd e5 45 8c bc 08 89 d9 3b
       -0.11872893 -0.093544796 -0.017123172 0.00663865
0003d0 9f 5f 1f bc 63 71 89 ba 5e 42 7b 3c d4 9d 04 bb
       -0.009727388 -0.0010486062 0.015335647 -0.0020235674
0003e0 52 d9 b2 bd 33 ab 3d 3d 2f 0c 19 3d dd 4b f4 bd
       -0.08732857 0.046305846 0.037365135 -0.11928532
0003f0 a3 d7 ac 3d c9 20 7b bd 20 96 cb bd f2 34 6b 3d
       0.08439567 -0.061310563 -0.099407434 0.05742354

model/hidden_layers/1/b f4 [75]
000000 f1 16 c3 ba 93 74 6a 3f e0 0b e2 be 01 c4 bd 40
       -0.0014884156 0.9158413 -0.44149685 5.9301763
000010 a6 5f 02 41 7c d4 8d 3f 3d bf 4d 3c b6 3f 00 41
       8.148352 1.108047 0.012557802 8.015554
000020 40 fd 2e be f6 ba e4 bc 14 6f c7 3e a9 bb b0 bd
       -0.17088795 -0.027921181 0.38951933 -0.08629543
000030 ef 5e 2d be af 0d 97 be a0 e7 cd bc c6 5e 90 bd
       -0.16930746 -0.29502627 -0.025134861 -0.070493266
000040 b7 16 1a c0 86 9e 21 41 15 7b 30 bd c9 6a 20 bf
       -2.4076364 10.101202 -0.04308613 -0.6266294
000050 88 98 2e bb da a4 9c 3d 39 7a e7 bd a3 40 83 be
       -0.0026641209 0.076486304 -0.11302609 -0.2563525
000060 ea c6 82 3e 35 55 c1 40 ac 40 8b 3f 45 46 76 bf
       0.25542384 6.0416512 1.0879111 -0.9620097
000070 36 34 e4 40 17 90 9d 3e 6b 6b c6 be 6a 8c 5d be
       7.1313734 0.30773994 -0.38753828 -0.21635595
000080 a2 2e d7 40 c5 cd 09 41 05 58 a6 3f ad 8f b0 40
       6.7244425 8.612737 1.2995611 5.5175385
000090 65 5c 13 41 08 8f 5c be 43 63 0e 41 f9 8a 95 be
       9.210057 -0.21538937 8.899234 -0.2920759
0000a0 c3 ab 9a bb 82 72 2a 3e 2f c6 09 c0 5d 81 c8 40
       -0.0047201826 0.16645244 -2.1527212 6.2657914
0000b0 2c 49 c0 be 4b f8 01 bf b0 95 cf 40 02 4e 7a be
       -0.37555826 -0.5076949 6.4870224 -0.2444382
0000c0 60 f7 18 41 0d c1 64 3f ff 68 98 bd 00 3c 11 bf
       9.560394 0.8935707 -0.074419014 -0.5673218
0000d0 7b 06 a8 40 87 12 64 bd c0 cd 31 be f4 ff 83 be
       5.250791 -0.05568173 -0.17363644 -0.25781214
0000e0 4d 62 03 3c cb e0 45 3e 35 bc 31 bf 65 d8 36 3c
       0.008019042 0.19324033 -0.69427806 0.011159991
0000f0 e7 3b b5 40 0a f4 a6 3e bb 20 35 3f 84 c0 1a 3e
       5.6635623 0.32608062 0.7075307 0.15112501
000100 ab b2 6b bf 2d c4 27 c0 1c d6 f2 be 0a e7 ac 3d
       -0.920695 -2.6213486 -0.47428977 0.08442505
000110 ff a0 da bd b8 2a 8b 3e 10 c6 c0 40 00 e6 74 ba
       -0.10675239 0.2718103 6.0241776 -0.0009342134
000120 03 a1 31 bf a5 13 fa 3e bf 05 02 bc
       -0.6938631 0.48843113 -0.00793594

model/output/W f4 [4, 75]
000000 94 5c 54 be 8d 63 eb 3d e0 76 83 be c4 71 bd be
       -0.20738441 0.11493597 -0.25676632 -0.3700086
000010 47 bc 18 bf af 63 57 be 49 2b f1 bd 17 b2 0d bf
       -0.5966229 -0.2103412 -0.11775834 -0.5534987
000020 2c 19 ea 3d 60 c4 21 be fe 82 c1 bd 1a 86 3b 3b
       0.114305824 -0.15797567 -0.09448813 0.0028613866
000030 49 23 5e be 56 5e 70 3d 92 37 bb bd e8 8f 90 3e
       -0.21693148 0.058683716 -0.091414586 0.28234792
000040 e7 59 e1 3e 38 69 91 bf 1e 6f 4b be 35 8e 09 be
       0.44013903 -1.1360235 -0.19866607 -0.13433154
000050 b3 81 a7 bc ff 81 c3 3c b7 e4 e1 bd 30 67 9b bd
       -0.020447588 0.023865698 -0.11029952 -0.07588041
000060 18 4f ce 3d c3 fb 09 bf 01 f0 1d be 9c f6 c7 3d
       0.1007368 -0.5389978 -0.15423585 0.09763834
000070 64 15 2d bf ce 55 27 bd 3f 0c 0d be 18 02 04 bd
       -0.67610765 -0.040853314 -0.13774203 -0.03222856
000080 c6 7f c4 be 79 98 1d bf dc 1d 7d be 4f 2c 0d c0
       -0.38378733 -0.6156078 -0.24718422 -2.2058294
000090 c3 63 2d bf 49 82 09 3c 92 83 54 bf ee a9 ca 3d
       -0.6773035 0.008392879 -0.8301326 0.09895693
0000a0 6a 48 49 3d 1d 05 6a 3d 01 6a f0 3d 35 39 19 bf
       0.049141325 0.057133783 0.11738969 -0.59852916
0000b0 9f 7a 38 bc a5 9b bb bd da 59 05 bf d4 36 c5 3d
       -0.011259704 -0.09160546 -0.5209023 0.09629598
0000c0 02 7b 44 bf 46 8b ea be 2f b6 62 3c ed b5 ee 3c
       -0.76750195 -0.45809382 0.013837381 0.029139483
0000d0 5d 48 4a bf 71 2e b8 3c 13 e8 d3 3c 84 c0 b5 3d
       -0.7901667 0.022483082 0.025867498 0.0887461
0000e0 78 a0 eb 3d 38 11 80 bd a8 fb 23 3b 37 94 8b bd
       0.11505216 -0.06253284 0.0025021825 -0.06815379
0000f0 d3 ff 47 bf 6b d1 15 3d 0f f7 a1 bd bd c4 37 be
       -0.7812473 0.03657667 -0.07908451 -0.17946143
000100 3f d8 76 be 00 b8 e5 3d b3 ff 04 3d ae e8 bd 3d
       -0.24105929 0.11216736 0.032470416 0.09272896
000110 10 34 6a bc d2 34 e2 bd 61 4d 00 bf 17 a5 21 3d
       -0.014294639 -0.11045231 -0.5011807 0.039464083
000120 d3 a9 0f be 0f 3b cd bc 7f c6 22 be 4e 05 78 be
       -0.14029627 -0.025052575 -0.15896033 -0.24220774
000130 2a ca ae 3c 35 1b a2 3e 19 33 f4 be 87 f0 19 bf
       0.021336634 0.31661382 -0.47695234 -0.6013264
000140 06 94 7d be 68 1b b9 bd 6b a6 25 bf aa e4 92 3d
       -0.24763498 -0.090384305 -0.6470706 0.071725205
000150 31 42 ea bd 75 db d5 bc ee ce cf 3d b0 79 84 3e
       -0.11438406 -0.026105622 0.101468906 0.2587409
000160 d2 36 89 bd 24 90 4b bd 43 23 14 3e a8 ea d3 3e
       -0.06699909 -0.04969801 0.14466576 0.41389966
000170 45 18 90 bf 2f 27 4a bd a4 87 96 bc 4c 92 5e be
       -1.1257406 -0.049353775 -0.018375225 -0.21735495
000180 11 79 eb bd b5 cb 07 3c 45 d3 6e 3d aa 93 00 3e
       -0.11497701 0.008288314 0.05830695 0.1255633
000190 2b f7 13 bf 8d 36 ef bd 54 33 ca 3d 41 80 17 bf
       -0.57799023 -0.116803266 0.09873071 -0.59180075
0001a0 e3 69 53 be 14 22 51 be 1a 82 1d bd 04 83 d6 be
       -0.20645861 -0.20423156 -0.038454153 -0.41896832
0001b0 26 4e 55 bf 7d e4 94 bd da b1 09 c0 ee 97 1e bf
       -0.8332237 -0.07270143 -2.1514802 -0.61950576
0001c0 6c 7e 82 3e d7 34 3b bf 03 59 2b 3e 0a 0e 57 3c
       0.25487077 -0.731275 0.16733174 0.013125906
0001d0 17 5e c7 3d 66 25 6c 3e 22 d2 bc be 3d c9 cb bc
       0.09734743 0.23061141 -0.3687907 -0.024876231
0001e0 d3 31 8c 3e b0 41 f8 be 36 b7 a8 bd 7c 3c 45 bf
       0.27381763 -0.48487616 -0.0823807 -0.77045417
0001f0 46 e3 24 be 9a 43 d6 3c d7 7b 85 3c 15 6b 2d bf
       -0.16102323 0.026155282 0.016294403 -0.6774152
000200 31 de 07 be 09 cb 91 3d 34 f3 96 bd e0 ba 09 be
       -0.13268353 0.07118804 -0.07370606 -0.13450193
000210 e3 66 29 be 87 44 b4 bc 16 c1 34 ba 4e 61 0c bf
       -0.16543154 -0.022005333 -0.0006895227 -0.54835975
000220 ea b9 11 3d cb b8 af 3b 95 7a 2e be 85 00 38 3c
       0.035577692 0.005362605 -0.17038949 0.011230593
000230 47 e7 2d 3e 86 97 b1 3d fa f9 15 3d ca 05 de bd
       0.16982757 0.08671479 0.03661535 -0.10840948
000240 95 a5 14 be 12 48 36 bf 9b 04 9b 3a b7 ac 92 bd
       -0.1451629 -0.7120372 0.0011826934 -0.07161849
000250 da 2f a2 be 1e 11 8e bd e7 81 af bd 89 ce 78 be
       -0.31677133 -0.069368586 -0.08569699 -0.24297537
000260 84 c7 9c 3e 62 99 d5 be c2 9e df be d2 67 16 be
       0.30620968 -0.41718584 -0.4367581 -0.14688042
000270 98 1d 2c bd b9 f4 13 bf da 3c 93 bd e5 6a 15 be
       -0.04202041 -0.5779529 -0.07189341 -0.14591558
000280 4e 8f 7a bd e2 8d 0d be 5f 65 5e 3e a9 e1 b7 3d
       -0.061171822 -0.13823655 0.21718358 0.08978588
000290 bc 1e 1b bd 31 ae c6 3d 44 0e d3 3e 20 33 8c bf
       -0.037871107 0.09701193 0.4122182 -1.0953102
0002a0 3a 24 1c be ec 1c 16 bd fc 73 bb bd 40 73 c4 bd
       -0.15248194 -0.036648676 -0.09152982 -0.09592295
0002b0 74 30 8d 3e 6f 93 e5 3d 3d 99 a1 ba fb eb 10 bf
       0.2757603 0.11209761 -0.0012328994 -0.5661008
0002c0 ca 5c 1f 3d fa 60 a2 3d 49 d8 1e bf ef b4 9c be
       0.03890685 0.07928653 -0.62048775 -0.3060679
0002d0 02 fe 87 3c de 94 38 3c 2c 7d ec be 33 a2 12 bf
       0.016600613 0.011265961 -0.4618925 -0.57278746
0002e0 81 eb e5 bd b0 3e 15 c0 0d 1e 27 bf 3c 8a 88 be
       -0.112265594 -2.3319511 -0.6528023 -0.26667964
0002f0 28 4f 6b bf 6b b8 77 3d a7 8b 28 3d bd 60 9f bc
       -0.9191766 0.06047861 0.041148808 -0.019455308
000300 c7 51 3a 3e a7 1e f2 be 5a 82 ac bc b5 39 68 3e
       0.18195258 -0.4728901 -0.02105825 0.22678263
000310 47 4d 2b bf dc 0e ee bd c9 23 2c bf 32 8f 59 be
       -0.6691479 -0.11623928 -0.67242104 -0.21246031
000320 71 5f ac bd f2 ab 10 be 0f ce 4d bf e6 2b 90 bd
       -0.084166415 -0.14128092 -0.80392545 -0.07039623
000330 ca ed 2b 3d 10 9e b8 3c 6b f2 fa bd 03 f6 96 be
       0.04197482 0.022536308 -0.12253269 -0.29484567
000340 d6 ba 36 bd b0 6e 21 bd d5 06 2e bf 4c 2b 6c 3d
       -0.044611774 -0.0394122 -0.67979175 0.05765848
000350 c7 72 3d 3e aa 1c 7d be d2 bf 20 3e 3a 80 41 3e
       0.18500815 -0.24717966 0.15698174 0.18896571
000360 93 53 19 3e ee 6b 3d be 1d ea 30 be 74 8e 7d 3c
       0.14973287 -0.18498203 -0.17276807 0.015475858
000370 0f ce 26 bf eb d1 1a be 52 89 8a 3e 4f 22 46 bd
       -0.6515817 -0.1511914 0.27057892 -0.048372563
000380 4e e6 f8 bd 69 c6 91 be 83 75 d3 bd 87 4d 1f 3e
       -0.12153302 -0.28471687 -0.10325148 0.15556918
000390 16 9c 1b bf 8b b6 0a bf a5 6c 26 be 72 1c ed 3c
       -0.60785043 -0.5418479 -0.16252382 0.028944228
0003a0 dd 30 d9 be fe f5 00 be a2 25 f6 3d e2 af 54 3d
       -0.42420092 -0.12593839 0.12018897 0.051925547
0003b0 17 99 27 bd 47 8d c8 3d 92 1d 8c 3d 9d a1 4d bb
       -0.040917482 0.097925715 0.068415776 -0.0031376847
0003c0 6a 31 ef bd cf 37 be 3e 9a de 8a bf 0f 37 a1 3b
       -0.11679347 0.37151954 -1.0849183 0.0049198936
0003d0 3a 6b e8 3d 83 36 ac bd 22 46 32 bc 94 ea 00 bd
       0.11348577 -0.08408835 -0.010880979 -0.03147371
0003e0 1d 49 94 3b 81 c7 37 be 0a 45 14 bf f8 a0 c2 3d
       0.0045253173 -0.17947198 -0.57917845 0.095033586
0003f0 1c 88 09 3e 29 9d 18 bf 10 69 68 bc 0d d6 20 bc
       0.13430828 -0.5961481 -0.014185205 -0.009816659

model/output/b f4 [4]
000000 e3 1d ea c0 1e 60 01 c1 be 57 ef c0 a8 46 fa c0
       -7.3161483 -8.085966 -7.4794607 -7.821125
