experiments/barman/barman_full_train_set_2-75-5/best/model.npz (npz, 29783 bytes, 6 tensors)

model/output/b f4 [4]
000000 f3 e6 38 c0 2e 58 37 c0 4e 20 4d c0 78 24 44 c0
       -2.889096 -2.864757 -3.2050967 -3.0647259

model/output/W f4 [4, 75]
000000 d1 92 de 3d 98 a7 7f bf fd e8 a0 3e c8 1b 01 3d
       0.10867847 -0.998651 0.31427756 0.031520635
000010 89 f1 56 bf da 41 5f bf 98 1a aa 3d b8 ac 45 bf
       -0.83962303 -0.87209857 0.083058536 -0.7721667
000020 94 4f 4e 3e 9c 18 63 bf 52 07 a7 ba a7 1f dd bc
       0.20147544 -0.88709426 -0.001274327 -0.026992632
000030 c3 aa 6a be 51 e6 75 3e 8d 59 8a 3d 1d ea fb 3d
       -0.22916703 0.2401364 0.06755362 0.12300513
000040 ea f3 64 be 9d af 50 bf f0 c4 46 3e 03 85 2b 40
       -0.22358671 -0.81517965 0.19411063 2.6799934
000050 1e b0 61 be 6b c0 66 be a4 32 b8 3b c9 ef 91 3e
       -0.2203984 -0.22534339 0.005621271 0.28503254
000060 58 e4 59 bf af ca 4a bf b6 e2 6d bf 0e 6a b4 3d
       -0.8511405 -0.7921552 -0.9292406 0.08809291
000070 69 64 42 bf 2a 58 70 bf 0b ac 26 3d e1 60 69 3e
       -0.75934464 -0.9388453 0.040691417 0.22790863
000080 f4 e3 4d bf 62 fd 4b bf 9c c3 96 bf fb 21 58 bf
       -0.80425954 -0.79683506 -1.1778445 -0.8442685
000090 42 83 67 bf 6e f8 07 3e a0 50 76 bf a0 72 42 3e
       -0.9043466 0.13278362 -0.96216774 0.18989038
0000a0 82 fe 1a 3d bc fd d6 3c 76 63 bd bd ed e3 57 bf
       0.037840374 0.026244037 -0.09247486 -0.8433216
0000b0 38 b7 08 3d 1a af 4d 3f 9e 86 23 bf df 50 aa bd
       0.033377856 0.8034531 -0.63877285 -0.08316206
0000c0 d5 10 67 bf c5 ba 40 3d 32 f2 d0 3d 91 6e 48 3f
       -0.9026006 0.047053117 0.10202445 0.7829371
0000d0 97 0b 47 bf f4 b7 36 3d ae 13 f1 3c 42 82 6c 3e
       -0.7775206 0.044609025 0.02942833 0.23096564
0000e0 e8 c2 58 bf 20 f2 b1 3d 7a 0b cc 3e 66 16 58 3e
       -0.84672403 0.0868876 0.39852506 0.21102294
0000f0 61 99 4a bf 27 ed 72 bf b8 ea 0a 3e 09 d7 5d bf
       -0.7914029 -0.94893116 0.135661 -0.8665624
000100 2c a1 f7 3c 98 ea 38 3e 73 71 9b 3f 03 11 12 c0
       0.03022822 0.1805824 1.2143997 -2.2822883
000110 0e 97 c4 3d 2e e2 80 3e 5a 34 56 bf 9d 8f 18 3e
       0.09599124 0.2517256 -0.8367363 0.14898534
000120 3b 58 6f 3d 50 02 9c bf d6 51 4a 3d 09 d2 76 bd
       0.058433753 -1.2188206 0.04939445 -0.0602589
000130 99 02 86 bf d1 b9 d6 3e bd ee 0d be 9d 6c 4a bf
       -1.0469543 0.41938642 -0.13860603 -0.7907198
000140 f5 8a 4a bf 2e eb 67 3d a2 76 3f bf f3 90 8c 3e
       -0.7911828 0.05662077 -0.74790394 0.27454337
000150 d8 ea 60 bf cc c8 85 3d fd 57 1b 3d e0 25 81 3d
       -0.87858343 0.065324396 0.03792571 0.06306052
000160 dd bf 00 3e 90 12 7f 3d 41 fe 00 3e 7f 65 37 3e
       0.1257319 0.062273562 0.1259699 0.17909811
000170 f8 9b 60 bf 11 c9 c4 3c 0f a5 2e 40 b9 ef a7 be
       -0.8773799 0.024021657 2.7288244 -0.3280008
000180 42 72 06 bd 9c f3 e5 bc 85 13 21 be 8a d7 69 bf
       -0.03282381 -0.028070264 -0.15730102 -0.9134451
000190 ac e8 58 bf 5f b4 58 bf 08 c6 af 3e 6d 34 43 bf
       -0.8473003 -0.84650224 0.34330773 -0.7625187
0001a0 9a 4e 81 bf 1a a1 1f 3e d7 34 dc 3d fc 45 40 bf
       -1.0102112 0.15588799 0.10752266 -0.7510679
0001b0 35 78 60 bf 39 85 98 bf 4e 45 4e bf 2b e1 50 bf
       -0.8768342 -1.1915656 -0.805745 -0.8159358
0001c0 57 63 cc 3c e1 0c 80 bf 4e e1 19 3e de 52 fc 3c
       0.024949713 -1.000393 0.15027353 0.030801233
0001d0 9e 7c b1 bd 21 cb 3c 3e 6c b1 4e bf b1 3d 4c 3e
       -0.08666347 0.18436863 -0.80739474 0.19945408
0001e0 7f 20 43 3f 59 ae 1b bf be 34 31 bd 9e 34 74 bf
       0.7622146 -0.6081291 -0.04326319 -0.9539279
0001f0 3e 58 6a bb fc 91 e1 3d 22 c4 48 3f c0 95 4e bf
       -0.0035758163 0.110141724 0.78424275 -0.8069725
000200 ac b6 be bd 7b 54 5f 3e 19 94 43 3e 76 e0 68 bf
       -0.09312186 0.2180957 0.19099464 -0.909675
000210 7e b3 d2 bc d5 0e c8 3e 00 f5 00 3e 98 22 59 bf
       -0.025720354 0.39073816 0.1259346 -0.8481841
000220 ca cc 6c bf 9f 71 b3 3d e6 18 58 bf ba 6f 06 3e
       -0.92499983 0.08761906 -0.8441299 0.13128558
000230 9c 48 1f 3d c2 1f 8b 3f a9 55 13 c0 e7 0d 4c 3e
       0.038887605 1.0869067 -2.3021033 0.19927178
000240 83 80 59 3e 98 b1 5d bf 98 38 0f bd ea a4 19 3d
       0.2124043 -0.8659911 -0.03496608 0.03751079
000250 97 d8 8d bf c3 7e ba 3d 59 60 7f bd 8f 4e 8b bf
       -1.1081723 0.09106209 -0.062347744 -1.0883349
000260 2b 23 c7 3e 5e aa 3a bd e0 68 46 bf 15 3d 66 bf
       0.3889402 -0.04557263 -0.77503777 -0.89936954
000270 a7 47 a0 3d c8 2b 4a bf 67 e1 7b 3e 66 b5 60 bf
       0.078261666 -0.78973055 0.24597703 -0.8777679
000280 ef 17 a3 3d 12 ea a2 3d e0 77 b6 3d 52 99 b9 3e
       0.07963549 0.079548016 0.08909583 0.36249787
000290 ad f2 47 3d 91 1c 14 bc 69 d1 83 3d d6 4e 60 bf
       0.048815418 -0.009040014 0.06436426 -0.87620294
0002a0 b8 29 01 3b 49 a7 2f 40 ff 38 80 be 8d fb a0 bd
       0.0019708704 2.7445853 -0.25043485 -0.078604795
0002b0 8f f2 e2 3d fe fa b3 3d 74 df 63 bf 99 dc 3a bf
       0.11081421 0.08788107 -0.8901284 -0.72992855
0002c0 b7 27 4f bf e1 c5 25 bd d8 3b 49 bf c5 b9 7c bf
       -0.80919975 -0.040471915 -0.7860694 -0.9872096
0002d0 fe 6c 1e 3e e7 30 bc bc c6 a8 51 bf 25 eb 4f bf
       0.15471265 -0.022972537 -0.8189815 -0.8121818
0002e0 77 18 93 bf aa 47 4a bf ea b4 57 bf ca f8 f8 3d
       -1.1491841 -0.790156 -0.8426043 0.12156828
0002f0 a4 bb 83 bf 3a 7e 1e 3e 7c b1 e2 ba 25 6d 27 bd
       -1.0291638 0.15477839 -0.0017295326 -0.040875573
000300 28 01 e6 3d 35 6b 48 bf d8 6f 2a 3b c2 c4 39 3f
       0.11230689 -0.78288585 0.0026006605 0.72565854
000310 c6 52 20 bf bf 80 ec 3a a7 66 6b bf 2d ba b3 3b
       -0.626263 0.001804374 -0.9195351 0.0054848404
000320 09 e5 43 be b9 00 50 3f 97 2e 3b bf 05 d2 82 3c
       -0.19130339 0.812511 -0.73117965 0.015969286
000330 4e e4 74 3e 28 95 9e 3e 1f 7d 58 bf 39 ea d3 3d
       0.23915216 0.30973172 -0.8456592 0.10347409
000340 29 e1 99 3e ed d7 53 3e c9 08 53 bf 0a 1b 76 bf
       0.30054596 0.20687838 -0.8243528 -0.9613501
000350 05 37 5f be 44 aa 46 bf 80 61 87 3e 39 03 40 3c
       -0.21798332 -0.77603555 0.26441574 0.011719518
000360 6d a5 8d 3f af 35 15 c0 5d 15 75 3d cc 07 10 3d
       1.1066109 -2.3314016 0.059834827 0.035163686
000370 36 c1 66 bf 0e 39 ae bd 44 10 0d 3d 68 df 94 bf
       -0.90138566 -0.08506976 0.03443934 -1.1630678
000380 f8 ae 84 bc f6 5d 57 bd 13 18 84 bf f3 1c ed 3e
       -0.016196713 -0.052579843 -1.0319847 0.4631115
000390 07 bd 66 3d 0e 1f 4a bf e7 94 64 bf 37 d2 bb 3c
       0.056332614 -0.78953636 -0.89289707 0.022927387
0003a0 2e 79 46 bf fa 80 64 3e b0 0d 5f bf 5c 69 da 3c
       -0.77528656 0.22314826 -0.8713026 0.026661567
0003b0 c9 55 63 3e b8 20 09 3e e3 44 2c 3e c8 6d c8 3d
       0.22200693 0.13391387 0.16823153 0.09786564
0003c0 92 c1 82 bd a0 dc 34 3e f0 d5 52 bf 0d 00 76 3d
       -0.06384577 0.17662287 -0.8235769 0.060058642
0003d0 25 3e 2f 40 1a 95 74 be bc b3 a9 bd 83 73 bf 3d
       2.738168 -0.23885003 -0.08286235 0.09348204
0003e0 31 05 3e be ba 3e 63 bf c1 c7 40 bf 04 36 62 bf
       -0.18556668 -0.8876759 -0.753048 -0.8836367
0003f0 81 72 48 be 95 0d 41 bf de c3 74 bf 77 cb 64 3c
       -0.1957493 -0.7541135 -0.9561137 0.013964525

model/hidden_layers/0/b f4 [75]
000000 b9 80 39 bf 11 50 0c bf 9c 64 15 bf 5d 1e 86 bf
       -0.7246204 -0.5480967 -0.5835664 -1.0478016
000010 ac 0f ef 3f 51 c5 6b bf e0 ec 0d bf 24 4a 5d bf
       1.8676658 -0.92097956 -0.5543957 -0.86441255
000020 f4 50 16 bf d2 aa 2b bf 4d c2 31 bf 07 5c c1 be
       -0.58717275 -0.67057526 -0.69437104 -0.37765524
000030 82 7a 0c bf ae af c1 bf 4f 9b 85 bf 38 7c 69 bf
       -0.5487443 -1.5131738 -1.0438021 -0.9120517
000040 75 89 53 be 6c 84 08 bf 67 bf 10 bf 09 f1 2a be
       -0.20657904 -0.5332706 -0.56542057 -0.1669351
000050 99 85 0a bf d8 98 47 be d4 fc 26 3e 70 35 54 bf
       -0.54110104 -0.19491899 0.16307384 -0.8289404
000060 43 ab c8 be 7e 35 1b bf 7c cc a0 bf 2c ba 2e bf
       -0.39193162 -0.606285 -1.2562404 -0.68252826
000070 ff 45 d0 be e1 25 76 bf b2 2e 38 bf e6 31 d4 be
       -0.40678403 -0.9615155 -0.7194625 -0.4144432
000080 29 5c e1 be 2e e7 d3 bf cd 56 d8 be 4c a7 de bf
       -0.44015625 -1.6554925 -0.42253724 -1.7394805
000090 39 7f 9c be 2f bd 18 bf 9f 2c ab be b7 74 b3 bf
       -0.30565813 -0.5966367 -0.3343248 -1.4019994
0000a0 db 02 4a bf ad 07 eb be f7 1d 11 bf 29 7f c9 bf
       -0.7891061 -0.45904294 -0.5668635 -1.5741931
0000b0 45 30 82 bf 48 df b3 be 51 af c8 3f 6b 55 02 3f
       -1.0170981 -0.35131288 1.5678502 0.5091159
0000c0 36 d3 85 bf 9d 26 95 bf b1 08 b1 bf 2f 5e bc bf
       -1.0455081 -1.1652409 -1.3830777 -1.4716243
0000d0 9d 97 90 bf cd d3 bc bf 35 af e7 be ee ed 0f bf
       -1.1296269 -1.4752136 -0.4525086 -0.56222427
0000e0 82 1e c5 3f d5 b7 d7 be 8b 57 35 bf a3 85 01 bf
       1.5399935 -0.4213244 -0.70836705 -0.5059454
0000f0 98 95 d8 be 3f 5e 35 bf bf 9c 47 bf ce f0 61 bf
       -0.4230163 -0.70846933 -0.7797355 -0.88258064
000100 04 e5 9a be de 0a cc bf 36 ba fe bf 3f aa a2 bf
       -0.3025285 -1.5940816 -1.9900577 -1.2708205
000110 19 9d 33 bf 8d 6a 0a bf 58 ac ba be db de 23 bf
       -0.70161587 -0.54068834 -0.36459613 -0.64011925
000120 96 69 ac bf 3f 19 1c bf 44 8b 82 bf
       -1.3469722 -0.6097602 -1.019875

model/hidden_layers/0/W f4 [75, 20]
000000 3f b8 e2 3d 84 fa 93 bd 0a 19 c9 3e 62 2b cb be
       0.110702984 -0.072255164 0.39276916 -0.39681536
000010 4b 80 9b 3b f1 69 d1 3e 20 d4 2d be 15 e4 27 bd
       0.0047455183 0.4090114 -0.1697545 -0.040989
000020 18 f5 9f be b1 3d 37 bd f5 61 9a be 01 5b 31 be
       -0.3124168 -0.044736568 -0.3015286 -0.17319871
000030 fa 5b 86 3c 8a d3 61 bd 8d 6d fd bb bf f6 0e be
       0.01640128 -0.05513338 -0.0077340067 -0.13961314
000040 e7 31 05 3e 02 2d 66 bc ce 0f 10 bf 17 ec a4 3a
       0.13007317 -0.014048817 -0.56274116 0.0012582567
000050 94 29 69 be 38 2a 4c be 31 7e 2c be af cc f5 be
       -0.22769767 -0.1993798 -0.16845013 -0.48007724
000060 e0 17 6a 3e ad 11 0b 3e b8 95 35 bd e0 3d 83 bd
       0.2286067 0.13580962 -0.044332236 -0.06408286
000070 fc b1 a3 be e3 f6 12 bc 09 3f 4b 3e 4a bf 4b be
       -0.3197173 -0.008969995 0.19848265 -0.1989719
000080 f4 18 ae bc 64 10 2b be 46 94 21 bb 0f 96 ba 3d
       -0.021252133 -0.16705471 -0.0024655028 0.09110653
000090 57 01 5e bc 9c 44 eb 3b 5d e4 99 be c5 ed 44 3b
       -0.013550124 0.0071798097 -0.3005704 0.0030048948
0000a0 71 64 8c bd 65 15 1a be 96 6e 51 bb 6f d6 b7 be
       -0.06855095 -0.15047224 -0.0031956783 -0.35905787
0000b0 f9 d9 65 3d 52 df b9 3e 23 c7 e5 3d cd 65 2e 3c
       0.056116078 0.36303192 0.11219623 0.010644388
0000c0 f9 f8 b4 be 51 4f 68 bd 0d 8c c0 3e 5c 96 4b bc
       -0.353462 -0.056716267 0.3760685 -0.012425985
0000d0 9b 0a 8e 3b e0 00 d8 be 7b 56 5d bd c4 8e a0 3e
       0.0043347604 -0.42188168 -0.054037552 0.31358922
0000e0 9d d8 af bd f7 c9 d6 bb ac ec 62 be 10 54 34 3d
       -0.085862376 -0.006554838 -0.22160596 0.04402548
0000f0 b5 5c 73 bd 53 6a 64 3e 87 ec 00 be cd c3 3c bf
       -0.059414584 0.22306184 -0.12590228 -0.7373627
000100 ec f2 88 3d 85 40 a4 3d 52 c2 92 3e a6 0e c8 bd
       0.06686959 0.080201186 0.2866388 -0.09768419
000110 7c 92 49 bf 6e ff 8b bd be 48 0e bf cb f2 26 bd
       -0.7873914 -0.06835829 -0.55579746 -0.04075889
000120 cd 40 58 3d a7 88 07 bf 74 bb 8b bb e5 09 de be
       0.052796174 -0.5294289 -0.0042642895 -0.43366924
000130 2e 41 42 be 4d f5 5b 3d c2 c0 09 bf f2 21 14 bd
       -0.18970177 0.053700734 -0.5380975 -0.036165185
000140 4b 23 d7 3d b2 b3 5c 3e 12 73 30 bd 71 8b 80 3d
       0.105047785 0.21552923 -0.04307849 0.06276596
000150 ba 55 96 3e 97 f6 45 bd 1c 29 81 3d 08 27 83 3a
       0.2936228 -0.04833087 0.06306669 0.0010006139
000160 8e 9a 13 bd 40 54 0d 3c af 61 d4 3d e6 c5 5b bd
       -0.036036067 0.008626044 0.10370194 -0.053655528
000170 0e f0 b0 bb b6 3f 13 3c 48 e5 41 3b 3f 7a 02 bd
       -0.0053997105 0.008987358 0.0029586125 -0.031854864
000180 58 2f 28 bd 62 cc 01 bc 0e d4 98 3c 73 b0 7a bc
       -0.041060776 -0.007922264 0.018655803 -0.015300858
000190 a9 b3 32 3e 40 bb 29 3d 75 d4 b7 be f7 7a a8 be
       0.17451347 0.04143834 -0.3590428 -0.32906315
0001a0 37 bd ec 3d ac 31 58 3e ce 38 4e be 47 81 92 3c
       0.11559527 0.21112698 -0.20138857 0.01788391
0001b0 0d 4a f4 be 95 c4 98 3b 35 90 7d 3c a3 f6 16 be
       -0.47712746 0.0046621063 0.015476276 -0.14742522
0001c0 62 6c 6f bd d3 a3 69 be 98 3e f5 bb 42 07 52 be
       -0.05845297 -0.228164 -0.0074842684 -0.20510581
0001d0 1d bd 82 3d f4 27 74 bb a5 bb 2d bf 92 2a a9 3b
       0.06383727 -0.003725526 -0.6786445 0.0051625455
0001e0 7a 6f bb 3e f0 86 0a 3e eb 9e 03 be 57 6f 0b bf
       0.36608487 0.13528037 -0.12853591 -0.54466766
0001f0 5e e3 e7 be 49 39 09 be 90 64 a8 bd 2a f7 67 bd
       -0.45290655 -0.13400759 -0.08222306 -0.0566322
000200 b7 c9 c3 be c8 08 ec bc 71 34 3f 3d 40 1e be be
       -0.38239834 -0.028812781 0.04668087 -0.37132454
000210 89 15 92 bc c7 0a e2 be 6f d2 c7 3a 03 52 e9 3e
       -0.017832534 -0.44148847 0.0015245209 0.45570382
000220 02 b3 85 3e 0f b1 00 3b 53 30 1f be 15 0b 00 3b
       0.26113135 0.0019636785 -0.15545778 0.0019537855
000230 7d 7d 09 3f 79 be aa 3e eb 5b 6f bc 35 7d 33 bf
       0.53707105 0.33348444 -0.014609317 -0.70112926
000240 88 26 0b bf 1b e1 16 3e b1 e9 22 bd ce 89 f0 bd
       -0.5435567 0.14734308 -0.039773647 -0.11745034
000250 f4 69 cf be 6c 80 86 bd 90 64 aa 3e 50 a2 50 be
       -0.40510523 -0.06567463 0.33279848 -0.20374417
000260 e9 71 1c bd 7d 83 a8 be bb 8a 8e ba 5e 68 40 3e
       -0.03819457 -0.32912818 -0.0010875085 0.18789813
000270 9c 3d 44 3e 37 fc 41 3c ea 9b 05 bf 1b 24 cb 3b
       0.19164127 0.011839918 -0.5219103 0.0061993725
000280 d4 b2 2e be 2d bd e9 3d a1 18 e0 3b 56 89 ef be
       -0.17060405 0.114130355 0.0068388735 -0.46784467
000290 fd 64 ef bd 3f 8f fd 3d 20 24 1b be 68 05 65 bd
       -0.11689184 0.12380838 -0.151505 -0.05591336
0002a0 dd b3 a3 be 27 25 e6 bb 51 f1 8c 3e ce c3 5e be
       -0.31973162 -0.007023472 0.2752786 -0.21754381
0002b0 d1 cb bd ba 01 f5 b7 be 62 c8 91 bc 78 e8 02 3e
       -0.0014480298 -0.3592911 -0.017795745 0.12783992
0002c0 3f 5b 95 bd c3 31 ce bc 5c f3 67 be 81 39 95 bc
       -0.072927944 -0.025170213 -0.22651428 -0.018215897
0002d0 eb 9d 59 3e 2d 7f 15 be 5f 8c ac bc 78 26 f8 be
       0.21251647 -0.14599295 -0.021063028 -0.4846685
0002e0 0a 77 71 be 0d 59 d4 bc 44 ba 9f 3d 2b c5 a8 bc
       -0.23580566 -0.025921369 0.07799199 -0.02060183
0002f0 c7 0a e4 be 5e 9b ee bc 8e 2b c5 3d c1 b7 6b 3d
       -0.44539472 -0.02912682 0.09627448 0.05754829
000300 de 41 30 3c c2 0f c3 bd fd d4 16 3a dc 96 87 3e
       0.010757891 -0.0952449 0.00057537836 0.26482284
000310 c0 34 46 be 79 f6 bc 3b e9 f6 6e be 9c 0e 52 3b
       -0.1935606 0.0057666865 -0.23336376 0.0032052165
000320 a8 cc 14 3e ac 15 83 be 05 cf 70 bd 46 e9 26 bf
       0.14531195 -0.25602472 -0.05879118 -0.65199697
000330 11 99 e7 3b 75 e0 87 3d 55 92 46 3e c6 18 72 3c
       0.0070678075 0.06634609 0.19391759 0.014776414
000340 4e d0 e2 be ea 57 99 3d 4c 9d 22 be b0 99 a2 be
       -0.4429955 0.074874714 -0.15880316 -0.3175788
000350 83 08 c8 bc b6 8e 8e be 54 ec ef bb 9b da b1 bc
       -0.024418121 -0.27843255 -0.0073218737 -0.021710685
000360 8e fc 89 be 0f e5 d7 bc 19 56 aa be f8 f7 97 ba
       -0.26950496 -0.02635434 -0.33268812 -0.0011594286
000370 13 89 ca bd cf 08 62 bd 77 a1 9d bd 7d 7f 82 be
       -0.09889426 -0.05518418 -0.076968126 -0.2548789
000380 2c 3b a7 bd 12 25 41 3e 55 cf fb bd df 83 a2 bc
       -0.08165583 0.18861797 -0.12295405 -0.019838272
000390 a1 1d 96 be c3 04 fa 3b 8a 02 ba 3c b7 a6 eb be
       -0.2931948 0.007629962 0.022706289 -0.4602563
0003a0 e6 f3 6d bc 41 01 4c be db 8a fd 3a b5 80 49 bd
       -0.014523482 -0.19922353 0.001934375 -0.04919501
0003b0 7e 07 28 bf 44 82 e9 bb a7 65 8c be f9 6b be ba
       -0.6563643 -0.0071261246 -0.27421305 -0.0014528028
0003c0 cf c7 f3 bd 02 51 06 3c 5f d9 35 3d cd 62 f9 be
       -0.11903345 0.008198025 0.044396754 -0.48708192
0003d0 f4 b5 2b bd bb 36 d3 bd 23 2e e1 be db c2 18 bd
       -0.04192157 -0.103131734 -0.43980512 -0.037295204
0003e0 a3 1b 04 bf 1e f8 af bb f9 b5 30 3e c3 f3 bd 3c
       -0.5160467 -0.005370154 0.17256917 0.023187524
0003f0 b8 5a 6b 3b e8 a3 36 be 29 aa 50 bb 9e 3f 99 3e
       0.0035912227 -0.17835963 -0.0031839705 0.2993135

model/hidden_layers/1/b f4 [75]
000000 02 bd 6a ba 37 53 3e 40 02 63 92 bf e3 c5 e0 bb
       -0.0008954556 2.973829 -1.1436465 -0.0068595274
000010 ba 6c 6b 40 87 c5 7a 40 5e e8 34 be a9 b0 4c 40
       3.6785111 3.918306 -0.17666766 3.1982825
000020 dc 75 fd be e5 82 06 40 64 ea 0d be c4 3d e2 bd
       -0.49503982 2.1017392 -0.13858944 -0.11046937
000030 27 86 01 be 49 b5 f8 be 6b 1b 47 be 9f d5 0f be
       -0.12648831 -0.4857581 -0.19444053 -0.14046334
000040 30 af 48 be 06 60 62 40 01 ff d7 bc f5 5d 37 c0
       -0.19598079 3.5371108 -0.026366713 -2.8651097
000050 46 3d 37 3f b0 af 90 3e 10 65 32 be 3e 74 41 be
       0.7157787 0.2825904 -0.17421365 -0.18891999
000060 4d 4d 2b 40 60 1c 69 40 8a 7f 74 40 8b c1 ca be
       2.676593 3.6423569 3.8202844 -0.39600787
000070 d1 da 5b 40 a2 1c 2f 40 95 98 9e be e1 0d 81 be
       3.4352305 2.7361226 -0.30975786 -0.252059
000080 72 ed 66 40 61 9b 69 40 c3 fe 4e 40 76 ba 25 40
       3.6082425 3.6501086 3.2342994 2.5895057
000090 ef c9 70 40 24 fd 90 be e4 60 84 40 70 cb f5 be
       3.762325 -0.2831813 4.1368275 -0.48006773
0000a0 63 65 cc bb 26 f5 c6 3c 9b e9 7d be 36 57 66 40
       -0.006237672 0.024286818 -0.24796145 3.599073
0000b0 66 48 4b bd 36 cc bd bf 68 dc df 3f 15 9d dc bd
       -0.04962959 -1.4827945 1.7489138 -0.107721485
0000c0 a4 81 33 40 c1 a3 19 bd 19 a6 25 be ca de f9 bf
       2.8047876 -0.037509684 -0.16176642 -1.9521115
0000d0 27 bf 5c 40 6a ab f1 bd ec d4 d7 be 32 6c 19 bf
       3.449167 -0.11800273 -0.42154634 -0.5993072
0000e0 ec de 76 40 7e f7 c5 bd e7 3c b3 bf 64 c4 c6 be
       3.857356 -0.09666346 -1.4002961 -0.3882171
0000f0 ff 76 6d 40 f2 58 3f 40 58 13 d7 3d f7 0a 12 40
       3.710388 2.9898038 0.105017364 2.2819192
000100 9e e2 34 be c1 56 a3 be 5d b3 03 c0 24 91 48 40
       -0.17664573 -0.31902125 -2.0578225 3.1338587
000110 48 2d f9 be dc c6 da be 92 65 71 40 9f 11 52 3d
       -0.4866736 -0.42729843 3.7718244 0.051286336
000120 50 c2 a5 be 21 1e 3c 40 3d df 2e bd
       -0.3237481 2.939339 -0.042693365

model/hidden_layers/1/W f4 [75, 75]
000000 80 9f 9d bd 78 f0 99 bd 2d ad 80 be 22 b4 79 bd
       -0.07696438 -0.07516569 -0.25132123 -0.060962804
000010 17 f3 2b bd 61 e6 24 3d 7a 3d a3 bd 51 45 4d bd
       -0.041979875 0.04025877 -0.0797071 -0.050114933
000020 7c f0 41 bd 02 bf 7f bd 21 62 12 bd c5 8e ae bd
       -0.047348484 -0.06243802 -0.035738114 -0.08523325
000030 24 d3 f7 3d 23 4e 11 bc 5a 99 57 3d 46 18 fc 3c
       0.12100819 -0.008868727 0.05263648 0.030773293
000040 76 d2 fd bd 00 46 70 be b2 6f 0c be 25 aa 05 bd
       -0.12393658 -0.23464203 -0.13714483 -0.032632966
000050 e4 a9 b5 bb d6 f2 29 be d5 b2 c1 3c 84 84 80 bd
       -0.005543934 -0.16596541 0.023644844 -0.06275275
000060 cd 1d d4 3d 9c bc e9 bd 0f 5e a7 be 59 eb 60 3d
       0.103572465 -0.114129275 -0.3268895 0.054911945
000070 2d 82 ff 3c 74 15 81 3e df 0e 1e 3d 06 73 e0 3c
       0.031190002 0.2521168 0.0385884 0.027398597
000080 16 e6 51 3e c1 8d aa be 62 23 33 be 93 90 6b be
       0.20497927 -0.33311275 -0.17493966 -0.2300437
000090 4b 25 14 3d a2 24 1f bd 23 9b 48 3d 67 95 46 be
       0.036168378 -0.038853295 0.048976075 -0.1939293
0000a0 74 88 c6 bd c2 03 b8 bc e8 71 14 bd dd b9 9f bd
       -0.09693995 -0.02246273 -0.036241442 -0.077991225
0000b0 35 c8 f8 3d 1d e1 cc bd 15 13 a3 bd e0 35 a1 bd
       0.121475615 -0.100038745 -0.07962624 -0.07871604
0000c0 db 6e 68 3d 52 25 08 be a2 22 14 be 67 dc 05 be
       0.056746345 -0.13295487 -0.14466336 -0.13072358
0000d0 db 03 46 be f6 9d de bc 26 1b c3 bd 4e 53 85 be
       -0.19337408 -0.027174931 -0.095266625 -0.2604012
0000e0 c9 40 9b bd 52 26 a0 bc b5 15 44 3e 14 eb 0d bd
       -0.07580716 -0.019549523 0.19148906 -0.034648016
0000f0 de 3e 17 3e e2 ef 8c ba 9f 28 10 3e 33 6f 2f be
       0.14770076 -0.0010752643 0.14077996 -0.17132263
000100 01 a1 34 be 95 56 3f bd 69 8d 08 bd c3 84 54 bc
       -0.17639543 -0.04671343 -0.033337984 -0.012971106
000110 fc c4 1b 3d 6f f6 21 be 0b 7d a4 3a 66 0b b0 bd
       0.038029656 -0.15816663 0.0012549473 -0.08595924
000120 84 b8 35 3e 4d 91 20 bd 9e 73 96 bd 96 3f 21 3e
       0.17746168 -0.03920107 -0.07346271 0.15746912
000130 00 b6 81 bd 4a 60 f3 3d 7b bd ec 3d 03 8f 56 ba
       -0.06333542 0.118836 0.11559578 -0.00081847626
000140 34 00 88 bd dd b2 4d 3c 1b ca 46 3d 9d c9 86 bd
       -0.06640664 0.012554851 0.048532587 -0.065814234
000150 23 bf ca 3c f9 56 81 3a 0c a2 78 bd 90 8a e7 3d
       0.024749344 0.0009867839 -0.060701415 0.113057256
000160 8f c8 be bd 3a 39 5d bd 9a a8 1d 3d 7f 52 94 3d
       -0.09315597 -0.054009654 0.03849087 0.072422974
000170 ed 8d 0f 3e f7 71 04 3e 55 42 e6 bd 0b 22 0f 3e
       0.14018984 0.12934099 -0.112431206 0.1397783
000180 8d d8 18 bd 7f af 12 3d 35 78 4f 3d 75 28 30 3d
       -0.037315894 0.035811897 0.050651748 0.043007333
000190 f8 74 60 be a9 c9 6d bc f1 70 8e bc 65 35 d2 3d
       -0.2191962 -0.014513412 -0.017387839 0.102640904
0001a0 9f 6e 40 3e 8c 28 d6 3d f1 32 01 3d 0a 5a b8 bc
       0.18792199 0.104569525 0.031542722 -0.022503871
0001b0 fc 6e ec bc 96 99 bd 3d 91 65 d0 3d 8d f3 fa 3c
       -0.028861515 0.0925781 0.10175622 0.030633712
0001c0 f9 40 cd 3d 14 e1 9d 3c bb e9 63 be e7 62 da 3c
       0.10022158 0.019272365 -0.2225713 0.026658488
0001d0 ea e0 18 bd 5c 0c e1 bd 47 d8 c1 3c cd 27 81 be
       -0.03732387 -0.109886855 0.0236627 -0.25225678
0001e0 18 1b b8 bd bd 4c cb 3c 27 c8 bf 3d 20 e6 93 bd
       -0.08989543 0.024816865 0.09364348 -0.07221627
0001f0 bc 02 b0 bd c6 3e 4f 3c b4 7b 23 bd 9a 55 31 3e
       -0.085942715 0.012649244 -0.039912894 0.1731781
000200 89 a1 71 3d 14 a1 77 3c f9 83 81 3d 93 9c ed 3c
       0.058991943 0.015114088 0.06324 0.029005324
000210 2c ec 69 bd 7f 49 4b 3d c2 90 75 3c 67 bd 34 3e
       -0.057109997 0.04963064 0.014988126 0.17650376
000220 32 98 c4 3b ad 52 15 3d dc 88 d9 3d 5c 6f 16 be
       0.0059995884 0.0364558 0.10621807 -0.14690918
000230 d6 9e 8d 3d 3a ec 9f ba 2d c5 37 3d 95 a4 be bd
       0.06915061 -0.0012201138 0.044865776 -0.09308735
000240 f5 08 b4 3d 00 64 cd 3d 98 b6 0c be 29 f2 b6 3d
       0.08790771 0.10028839 -0.13741529 0.08932907
000250 d9 e6 e9 3c ff 1c 49 bd 62 15 2e be c5 1b 0c 3e
       0.02855246 -0.04909992 -0.17000344 0.13682468
000260 fe c5 fe bd 1d af 83 bd 93 f3 04 3c ab e2 43 be
       -0.12440108 -0.064298846 0.008114713 -0.19129436
000270 63 bb 2f 3e 2e 96 33 3e 9d 5a 42 3e 88 be 9a 3d
       0.17161326 0.17537758 0.18979879 0.07555872
000280 8f 93 91 bc 6d 78 31 3e 1d b8 15 3e 13 5f 8f 3d
       -0.017770557 0.17331095 0.14621015 0.07000556
000290 50 e6 3f be c5 ad d4 bd fe 59 80 3d a4 08 bc be
       -0.18740201 -0.103847064 0.06267165 -0.36725342
0002a0 46 29 bb 3d 22 9e 31 bf da 34 9d 3d 42 5e 48 3e
       0.09138732 -0.69381917 0.07676096 0.19567207
0002b0 93 1a a7 bd f9 55 d3 bd 86 5d 62 3e b3 31 c9 bd
       -0.081593655 -0.10319132 0.22105989 -0.098239325
0002c0 9d 13 cb be 2f 0d ab be 76 ac 9d bd 0d 11 43 3d
       -0.396634 -0.33408496 -0.0769891 0.047623683
0002d0 61 54 85 bd 38 76 c7 3d 11 32 95 be e0 53 a4 3e
       -0.065102346 0.09739345 -0.2913976 0.32095242
0002e0 54 f7 34 be bf 67 29 be 72 c4 a2 bc d2 b6 41 3c
       -0.17672473 -0.16543482 -0.019869063 0.011823373
0002f0 a3 01 13 3d 86 11 4d 3e 26 54 26 be 5c 58 a4 bd
       0.035890233 0.20026216 -0.16243038 -0.08024666
000300 c1 d6 cf bc 39 57 60 bd ad 8a b6 bd 18 40 09 be
       -0.025370957 -0.054770682 -0.08913169 -0.13403356
000310 ad 7c e0 bd a8 37 48 bd 7c d1 2f be 2b b6 04 bd
       -0.1096128 -0.048881203 -0.17169756 -0.03240029
000320 9a 83 6e be 5a 72 42 3e 04 3a cd bc 18 81 41 3e
       -0.2329239 0.18988934 -0.025052078 0.18896902
000330 87 22 67 bd 6d 91 78 bd 03 f8 0c bc 32 cb 67 b9
       -0.056429412 -0.060685564 -0.0086040525 -0.00022105573
000340 e0 d6 35 3e 8b 50 cf bd dc 1f 57 3e 67 f3 0a be
       0.1775775 -0.10122784 0.21008247 -0.13569413
000350 61 e6 27 bd 18 4b e2 bd 50 00 f6 be be 07 b3 be
       -0.04099119 -0.11049479 -0.48047113 -0.34966844
000360 0c 6e 9b be db c6 72 bc 40 67 d3 bc 38 2a 02 bd
       -0.30357397 -0.014817919 -0.02580607 -0.031778544
000370 32 71 7e be 1b 60 04 3f a0 c6 c7 be 1c 12 48 3e
       -0.24847868 0.51709145 -0.39018726 0.19538158
000380 34 38 17 be a7 56 e7 3d 67 77 43 be 7c 6d bf bd
       -0.14767534 0.112958245 -0.19088517 -0.09347054
000390 1a fc 31 bd 7e a1 16 be a2 a1 8c 3d 74 20 37 bc
       -0.043453313 -0.14710042 0.068667665 -0.011177171
0003a0 00 16 45 3e e0 c0 f7 3d 14 cf ae bc c7 9c 0d be
       0.19246674 0.12097335 -0.021338977 -0.13829337
0003b0 26 02 f2 bd fe a3 bd 3d 11 f4 47 be f9 96 b9 3d
       -0.11816816 0.09259795 -0.19526698 0.09061999
0003c0 ee 0c 56 be 73 23 d8 3b 7f ab 81 bc 37 b5 05 be
       -0.2090337 0.0065960228 -0.015828846 -0.13057409
0003d0 9a f9 78 be 62 30 9e bc e6 b1 32 bc 69 2d 38 be
       -0.24313965 -0.01931018 -0.010906672 -0.17986073
0003e0 65 a9 24 3d 69 1d ab ba 97 77 e3 bd 7d 72 7d be
       0.04020061 -0.001305503 -0.11106794 -0.24750705
0003f0 7b 47 66 3c 24 27 19 be ea da 46 be 44 1f f9 bd
       0.014055128 -0.14956337 -0.19419447 -0.121641666
