experiments/barman/barman_full_train_set_2-75-5/best/target_model.npz (npz, 29769 bytes, 6 tensors)

model/output/b f4 [4]
-2.8882067 -2.8637204 -3.2042103 -3.0628545
00000000: 61d8 38c0 3247 37c0 c811 4dc0 cf05 44c0

model/output/W f4 [4, 75]
0.10867847 -0.9974759 0.31427756 0.031520635 -0.838792 -0.87135476 0.083058536 -0.77109975
0.20147544 -0.886045 -0.0013949387 -0.026992632 -0.22916703 0.2401364 0.06755362 0.12193548
-0.22358671 -0.81405735 0.19411063 2.6764703 -0.22039074 -0.22570975 0.005621271 0.28503254
-0.8500893 -0.7912906 -0.92839104 0.08809291 -0.75829583 -0.9377203 0.040691417 0.22790863
-0.8032889 -0.7958111 -1.1766984 -0.84316665 -0.9034655 0.13278362 -0.9614518 0.18989038
0.037563365 0.026244037 -0.09247486 -0.8422913 0.033377856 0.80109334 -0.63776207 -0.08421436
-0.9014991 0.047053117 0.10202445 0.7802848 -0.77652586 0.044609025 0.02942833 0.23096564
-0.8457699 0.0868876 0.39852506 0.21102294 -0.7904135 -0.94777286 0.135661 -0.86547697
0.03022822 0.1805824 1.2115738 -2.2811513 0.09599124 0.2517256 -0.8358395 0.14898534
0.058203656 -1.2176728 0.04939445 -0.0602589 -1.0457935 0.41938642 -0.13860603 -0.7893607
-0.7897491 0.05662077 -0.7461919 0.27454337 -0.8769064 0.065324396 0.03792571 0.06306052
0.1257319 0.0621949 0.12602213 0.17909811 -0.8764602 0.024021657 2.7262762 -0.32925868
-0.032651324 -0.028070264 -0.15730102 -0.91335523 -0.8455173 -0.8455452 0.34330773 -0.76114506
-1.0097152 0.15586612 0.10752266 -0.7493838 -0.87552404 -1.1912948 -0.80475146 -0.8144035
0.024949713 -0.99891436 0.15027353 0.030801233 -0.08666347 0.18436863 -0.80589473 0.19945408
0.76094204 -0.6073775 -0.043159246 -0.9523963 -0.0035758163 0.11007579 0.7815954 -0.8058407
-0.09312186 0.2180957 0.19099464 -0.90774024 -0.025720354 0.39073816 0.1259346 -0.84668183
-0.9241325 0.08761906 -0.8438465 0.13128558 0.038887605 1.0866071 -2.3022146 0.19927178
0.2124043 -0.86489195 -0.03507733 0.03751079 -1.1076001 0.09106209 -0.062347744 -1.0870643
0.3889402 -0.04557263 -0.7740314 -0.8982893 0.078261666 -0.7885744 0.24597703 -0.8766998
0.07963549 0.079548016 0.08909583 0.36249787 0.048815418 -0.009465237 0.06436426 -0.8750019
0.0019708704 2.743373 -0.25047338 -0.07880502 0.11081421 0.08788107 -0.8891216 -0.7288507
-0.8081732 -0.040471915 -0.7848816 -0.9860799 0.15471265 -0.022972537 -0.81791335 -0.8110001
-1.1478848 -0.78892857 -0.84155464 0.12156828 -1.0281842 0.15477839 -0.0017853064 -0.040875573
0.11230689 -0.7816452 0.0026006605 0.7247989 -0.6251915 0.0013333596 -0.91852564 0.0054848404
-0.19130339 0.8113401 -0.72986543 0.015969286 0.23915216 0.30973172 -0.8446323 0.10347409
0.30054596 0.20687838 -0.8231663 -0.96014714 -0.21798332 -0.7747829 0.26441574 0.011719518
1.1052828 -2.33009 0.059834827 0.035163686 -0.9001529 -0.08506976 0.03443934 -1.161821
-0.016196713 -0.052579843 -1.0296096 0.4631115 0.056332614 -0.78875375 -0.8926312 0.022927387
-0.7744491 0.22314826 -0.86920756 0.026661567 0.22200693 0.13391387 0.16823153 0.09786564
-0.06340171 0.17662287 -0.8214342 0.060058642 2.7295537 -0.2388589 -0.08236926 0.09348204
-0.18556668 -0.8849101 -0.7527112 -0.88275737 -0.1957493 -0.75207365 -0.9536894 0.013964525
00000000: d192 de3d 955a 7fbf fde8 a03e c81b 013d
00000010: 13bb 56bf 1b11 5fbf 981a aa3d cb66 45bf
00000020: 944f 4e3e d8d3 62bf 60d6 b6ba a71f ddbc
00000030: c3aa 6abe 51e6 753e 8d59 8a3d 4fb9 f93d
00000040: eaf3 64be 1066 50bf f0c4 463e 4a4b 2b40
00000050: 1cae 61be 7520 67be a432 b83b c9ef 913e
00000060: 749f 59bf 0592 4abf 09ab 6dbf 0e6a b43d
00000070: ad1f 42bf 700e 70bf 0bac 263d e160 693e
00000080: 57a4 4dbf 47ba 4bbf 0e9e 96bf c5d9 57bf
00000090: 8449 67bf 6ef8 073e b521 76bf a072 423e
000000a0: 0bdc 193d bcfd d63c 7663 bdbd 67a0 57bf
000000b0: 38b7 083d 7414 4d3f 6044 23bf 9478 acbd
000000c0: a5c8 66bf c5ba 403d 32f2 d03d bfc0 473f
000000d0: 66ca 46bf f4b7 363d ae13 f13c 4282 6c3e
000000e0: 6084 58bf 20f2 b13d 7a0b cc3e 6616 583e
000000f0: 8a58 4abf 3ea1 72bf b8ea 0a3e e68f 5dbf
00000100: 2ca1 f73c 98ea 383e da14 9b3f 62fe 11c0
00000110: 0e97 c43d 2ee2 803e 94f9 55bf 9d8f 183e
00000120: f566 6e3d b4dc 9bbf d651 4a3d 09d2 76bd
00000130: 90dc 85bf d1b9 d63e bdee 0dbe 8b13 4abf
00000140: ff2c 4abf 2eeb 673d 6f06 3fbf f390 8c3e
00000150: f07c 60bf ccc8 853d fd57 1b3d e025 813d
00000160: ddbf 003e 14c0 7e3d f20b 013e 7f65 373e
00000170: b25f 60bf 11c9 c43c 4f7b 2e40 9894 a8be
00000180: 65bd 05bd 9cf3 e5bc 8513 21be a6d1 69bf
00000190: d273 58bf a675 58bf 08c6 af3e 67da 42bf
000001a0: 593e 81bf 5e9b 1f3e d734 dc3d 9ed7 3fbf
000001b0: 5822 60bf 597c 98bf 3104 4ebf bf7c 50bf
000001c0: 5763 cc3c dab8 7fbf 4ee1 193e de52 fc3c
000001d0: 9e7c b1bd 21cb 3c3e 1e4f 4ebf b13d 4c3e
000001e0: 19cd 423f 187d 1bbf c0c7 30bd 3ed0 73bf
000001f0: 3e58 6abb 6a6f e13d a316 483f 934b 4ebf
00000200: acb6 bebd 7b54 5f3e 1994 433e aa61 68bf
00000210: 7eb3 d2bc d50e c83e 00f5 003e 24c0 58bf
00000220: f393 6cbf 9f71 b33d 5306 58bf ba6f 063e
00000230: 9c48 1f3d f115 8b3f 7c57 13c0 e70d 4c3e
00000240: 8380 593e 8f69 5dbf 3fad 0fbd eaa4 193d
00000250: d7c5 8dbf c37e ba3d 5960 7fbd ec24 8bbf
00000260: 2b23 c73e 5eaa 3abd ec26 46bf 4af6 65bf
00000270: a747 a03d 03e0 49bf 67e1 7b3e 666f 60bf
00000280: ef17 a33d 12ea a23d e077 b63d 5299 b93e
00000290: adf2 473d 1514 1bbc 69d1 833d 2000 60bf
000002a0: b829 013b 6c93 2f40 0c3e 80be 8764 a1bd
000002b0: 8ff2 e23d fefa b33d 799d 63bf f695 3abf
000002c0: 70e4 4ebf e1c5 25bd 00ee 48bf bb6f 7cbf
000002d0: fe6c 1e3e e730 bcbc c562 51bf b49d 4fbf
000002e0: e4ed 92bf 39f7 49bf 2070 57bf caf8 f83d
000002f0: 8a9b 83bf 3a7e 1e3e f100 eaba 256d 27bd
00000300: 2801 e63d e619 48bf d86f 2a3b 6c8c 393f
00000310: 8d0c 20bf 20c4 ae3a 7f24 6bbf 2dba b33b
00000320: 09e5 43be fcb3 4f3f 76d8 3abf 05d2 823c
00000330: 4ee4 743e 2895 9e3e d339 58bf 39ea d33d
00000340: 29e1 993e edd7 533e 07bb 52bf 34cc 75bf
00000350: 0537 5fbe 2c58 46bf 8061 873e 3903 403c
00000360: e879 8d3f 3220 15c0 5d15 753d cc07 103d
00000370: 6c70 66bf 0e39 aebd 4410 0d3d 8db6 94bf
00000380: f8ae 84bc f65d 57bd 3fca 83bf f31c ed3e
00000390: 07bd 663d c4eb 49bf 7a83 64bf 37d2 bb3c
000003a0: 4c42 46bf fa80 643e 6384 5ebf 5c69 da3c
000003b0: c955 633e b820 093e e344 2c3e c86d c83d
000003c0: c1d8 81bd a0dc 343e 8349 52bf 0d00 763d
000003d0: 02b1 2e40 6d97 74be 37b1 a8bd 8373 bf3d
000003e0: 3105 3ebe 7889 62bf aeb1 40bf 63fc 61bf
000003f0: 8172 48be e687 40bf fd24 74bf 77cb 643c

model/hidden_layers/0/b f4 [75]
-0.7246287 -0.5480967 -0.5831212 -1.0478473 1.8683226 -0.92097956 -0.554323 -0.86441255
-0.5856397 -0.67057526 -0.69437104 -0.37765524 -0.5487443 -1.5131738 -1.0438021 -0.9120517
-0.20643687 -0.5332706 -0.56542057 -0.16691911 -0.54110104 -0.19526361 0.16363676 -0.8289404
-0.3920969 -0.60627973 -1.2562404 -0.68252826 -0.4067715 -0.9615155 -0.7194602 -0.414486
-0.44017175 -1.655392 -0.42253724 -1.7394805 -0.3056635 -0.5966835 -0.3342838 -1.4019994
-0.7891061 -0.4590306 -0.5666485 -1.5741931 -1.0170981 -0.35157698 1.5680938 0.5090023
-1.0455081 -1.1652409 -1.3830777 -1.4716243 -1.1296269 -1.4752136 -0.4525165 -0.56221825
1.5409544 -0.4213017 -0.70836705 -0.5059454 -0.42404386 -0.70846933 -0.77974 -0.88258064
-0.302382 -1.5940816 -1.9900577 -1.2708205 -0.70185775 -0.54082006 -0.36459613 -0.64011925
-1.3469722 -0.60962963 -1.019875
00000000: 4481 39bf 1150 0cbf 6e47 15bf dc1f 86bf
00000010: 3225 ef3f 51c5 6bbf 1de8 0dbf 244a 5dbf
00000020: 7cec 15bf d2aa 2bbf 4dc2 31bf 075c c1be
00000030: 827a 0cbf aeaf c1bf 4f9b 85bf 387c 69bf
00000040: 3064 53be 6c84 08bf 67bf 10bf d8ec 2abe
00000050: 9985 0abf 2ff3 47be 6590 273e 7035 54bf
00000060: edc0 c8be 2635 1bbf 7ccc a0bf 2cba 2ebf
00000070: 5b44 d0be e125 76bf 8b2e 38bf 8237 d4be
00000080: 315e e1be e3e3 d3bf cd56 d8be 4ca7 debf
00000090: ed7f 9cbe 40c0 18bf 3f27 abbe b774 b3bf
000000a0: db02 4abf 0f06 ebbe e00f 11bf 297f c9bf
000000b0: 4530 82bf e601 b4be 4cb7 c83f fa4d 023f
000000c0: 36d3 85bf 9d26 95bf b108 b1bf 2f5e bcbf
000000d0: 9d97 90bf cdd3 bcbf 3eb0 e7be 89ed 0fbf
000000e0: fe3d c53f dbb4 d7be 8b57 35bf a385 01bf
000000f0: 471c d9be 3f5e 35bf 0a9d 47bf cef0 61bf
00000100: d0d1 9abe de0a ccbf 36ba febf 3faa a2bf
00000110: f3ac 33bf 2f73 0abf 58ac babe dbde 23bf
00000120: 9669 acbf b010 1cbf 448b 82bf

model/hidden_layers/0/W f4 [75, 20]
0.110702984 -0.072255164 0.39276126 -0.39680743 0.0047452585 0.4090114 -0.1697545 -0.040989
-0.3124168 -0.04473654 -0.3015286 -0.17319871 0.01640128 -0.05513338 -0.0077340067 -0.13961314
0.13007317 -0.014048817 -0.56274116 0.0012582567 -0.22769767 -0.1993798 -0.16845013 -0.48007724
0.2286067 0.13580962 -0.044332236 -0.06408286 -0.3197173 -0.008969995 0.19848265 -0.1989719
-0.021252133 -0.16705471 -0.0024655028 0.09110653 -0.013550124 0.0071798097 -0.3005704 0.0030048948
-0.06855095 -0.15047224 -0.0031956783 -0.35905787 0.056116078 0.36303788 0.11219623 0.010603081
-0.35347974 -0.056856833 0.37617305 -0.012425985 0.0042759487 -0.4223099 -0.056768734 0.31358922
-0.085862376 -0.006554838 -0.22160596 0.04402548 -0.059414584 0.22306184 -0.12590228 -0.7373627
0.06686959 0.080189 0.2866388 -0.09768419 -0.78734726 -0.068131655 -0.5557972 -0.04075889
0.054485794 -0.529546 -0.004336169 -0.43375552 -0.18970177 0.05540735 -0.537979 -0.0304942
0.10513352 0.21653734 -0.043250855 0.066232845 0.2940942 -0.047974974 0.065990016 0.0011014503
-0.032628786 0.010735925 0.105927 -0.051706985 -0.0094997855 0.0123817725 0.0041106776 -0.029739361
-0.039112233 -0.01108216 0.022177225 -0.013953253 0.17451347 0.04143834 -0.3590428 -0.32906315
0.11559527 0.21112698 -0.20138857 0.01788391 -0.47712746 0.0046621063 0.015476276 -0.14742522
-0.05845297 -0.228164 -0.0074842684 -0.20510581 0.06383727 -0.003725526 -0.6786445 0.0051625455
0.3660873 0.13528037 -0.12853591 -0.5447403 -0.45291007 -0.13400759 -0.08222306 -0.0566322
-0.38239834 -0.028812781 0.04668087 -0.37132454 -0.017832534 -0.44148847 0.0015245209 0.45570382
0.26113135 0.0019636785 -0.15545778 0.0019537855 0.53707105 0.33348444 -0.014609317 -0.70112926
-0.5435567 0.14734308 -0.039773647 -0.11745034 -0.40510523 -0.06567473 0.33279848 -0.20374417
-0.03819457 -0.32912818 -0.0010875085 0.18789813 0.19164127 0.011839918 -0.5219103 0.0061993725
-0.17060405 0.114130355 0.0068388735 -0.46547216 -0.11689184 0.1221824 -0.151505 -0.05591336
-0.31680068 -0.002857923 0.2764563 -0.21754381 -0.0016734978 -0.35684744 -0.03850928 0.12840828
-0.072927944 -0.024955643 -0.22394355 -0.03908042 0.21251647 -0.14599295 -0.021063028 -0.4846685
-0.23580566 -0.025921369 0.07799199 -0.02060183 -0.44539472 -0.02912682 0.09627448 0.05754829
0.010757891 -0.0952449 0.00057537836 0.26482284 -0.1935606 0.0057666865 -0.23336376 0.0032052165
0.14531195 -0.25602472 -0.05879118 -0.65199697 0.0070678075 0.06634609 0.19391759 0.014776414
-0.4429955 0.074874714 -0.15880316 -0.3175788 -0.024418121 -0.27843255 -0.0073218737 -0.021710685
-0.26950496 -0.02635434 -0.33268812 -0.0011594286 -0.09889426 -0.05518418 -0.076968126 -0.2548789
-0.08165583 0.18861797 -0.12295405 -0.019838272 -0.2931948 0.007629962 0.022706289 -0.4602563
-0.014523482 -0.19922353 0.001934375 -0.04919501 -0.6563643 -0.0071261246 -0.27421305 -0.0014528028
-0.11903345 0.008198025 0.044397116 -0.487082 -0.04192157 -0.103131734 -0.43980512 -0.037295204
-0.5160467 -0.005370154 0.17256917 0.023187524 0.0035912227 -0.17835963 -0.0031839705 0.2993135
00000000: 3fb8 e23d 84fa 93bd 0118 c93e 582a cbbe
00000010: 1d7e 9b3b f169 d13e 20d4 2dbe 15e4 27bd
00000020: 18f5 9fbe aa3d 37bd f561 9abe 015b 31be
00000030: fa5b 863c 8ad3 61bd 8d6d fdbb bff6 0ebe
00000040: e731 053e 022d 66bc ce0f 10bf 17ec a43a
00000050: 9429 69be 382a 4cbe 317e 2cbe afcc f5be
00000060: e017 6a3e ad11 0b3e b895 35bd e03d 83bd
00000070: fcb1 a3be e3f6 12bc 093f 4b3e 4abf 4bbe
00000080: f418 aebc 6410 2bbe 4694 21bb 0f96 ba3d
00000090: 5701 5ebc 9c44 eb3b 5de4 99be c5ed 443b
000000a0: 7164 8cbd 6515 1abe 966e 51bb 6fd6 b7be
000000b0: f9d9 653d 1ae0 b93e 23c7 e53d 8cb8 2d3c
000000c0: 4cfb b4be b6e2 68bd c199 c03e 5c96 4bbc
000000d0: 421d 8c3b 0139 d8be 5586 68bd c48e a03e
000000e0: 9dd8 afbd f7c9 d6bb acec 62be 1054 343d
000000f0: b55c 73bd 536a 643e 87ec 00be cdc3 3cbf
00000100: ecf2 883d 213a a43d 52c2 923e a60e c8bd
00000110: 978f 49bf 9c88 8bbd ba48 0ebf cbf2 26bd
00000120: 7f2c 5f3d 5490 07bf 6c16 8ebb 3415 debe
00000130: 2e41 42be d1f2 623d feb8 09bf f9ce f9bc
00000140: 3e50 d73d f7bb 5d3e cf27 31bd 16a5 873d
00000150: 8493 963e 6881 44bd c625 873d 8a5e 903a
00000160: c3a5 05bd bce5 2f3c 41f0 d83d b4ca 53bd
00000170: fda4 1bbc ebdc 4a3c ddb2 863b f69f f3bc
00000180: 2634 20bd f391 35bc 03ad b53c 2f9c 64bc
00000190: a9b3 323e 40bb 293d 75d4 b7be f77a a8be
000001a0: 37bd ec3d ac31 583e ce38 4ebe 4781 923c
000001b0: 0d4a f4be 95c4 983b 3590 7d3c a3f6 16be
000001c0: 626c 6fbd d3a3 69be 983e f5bb 4207 52be
000001d0: 1dbd 823d f427 74bb a5bb 2dbf 922a a93b
000001e0: cb6f bb3e f086 0a3e eb9e 03be 1a74 0bbf
000001f0: d4e3 e7be 4939 09be 9064 a8bd 2af7 67bd
00000200: b7c9 c3be c808 ecbc 7134 3f3d 401e bebe
00000210: 8915 92bc c70a e2be 6fd2 c73a 0352 e93e
00000220: 02b3 853e 0fb1 003b 5330 1fbe 150b 003b
00000230: 7d7d 093f 79be aa3e eb5b 6fbc 357d 33bf
00000240: 8826 0bbf 1be1 163e b1e9 22bd ce89 f0bd
00000250: f469 cfbe 7980 86bd 9064 aa3e 50a2 50be
00000260: e971 1cbd 7d83 a8be bb8a 8eba 5e68 403e
00000270: 9c3d 443e 37fc 413c ea9b 05bf 1b24 cb3b
00000280: d4b2 2ebe 2dbd e93d a118 e03b 5e52 eebe
00000290: fd64 efbd c43a fa3d 2024 1bbe 6805 65bd
000002a0: b333 a2be fe4b 3bbb ae8b 8d3e cec3 5ebe
000002b0: 4559 dbba b5b4 b6be e8bb 1dbd 767d 033e
000002c0: 3f5b 95bd c76f ccbc 7551 65be ca12 20bd
000002d0: eb9d 593e 2d7f 15be 5f8c acbc 7826 f8be
000002e0: 0a77 71be 0d59 d4bc 44ba 9f3d 2bc5 a8bc
000002f0: c70a e4be 5e9b eebc 8e2b c53d c1b7 6b3d
00000300: de41 303c c20f c3bd fdd4 163a dc96 873e
00000310: c034 46be 79f6 bc3b e9f6 6ebe 9c0e 523b
00000320: a8cc 143e ac15 83be 05cf 70bd 46e9 26bf
00000330: 1199 e73b 75e0 873d 5592 463e c618 723c
00000340: 4ed0 e2be ea57 993d 4c9d 22be b099 a2be
00000350: 8308 c8bc b68e 8ebe 54ec efbb 9bda b1bc
00000360: 8efc 89be 0fe5 d7bc 1956 aabe f8f7 97ba
00000370: 1389 cabd cf08 62bd 77a1 9dbd 7d7f 82be
00000380: 2c3b a7bd 1225 413e 55cf fbbd df83 a2bc
00000390: a11d 96be c304 fa3b 8a02 ba3c b7a6 ebbe
000003a0: e6f3 6dbc 4101 4cbe db8a fd3a b580 49bd
000003b0: 7e07 28bf 4482 e9bb a765 8cbe f96b beba
000003c0: cfc7 f3bd 0251 063c c0d9 353d d062 f9be
000003d0: f4b5 2bbd bb36 d3bd 232e e1be dbc2 18bd
000003e0: a31b 04bf 1ef8 afbb f9b5 303e c3f3 bd3c
000003f0: b85a 6b3b e8a3 36be 29aa 50bb 9e3f 993e

model/hidden_layers/1/b f4 [75]
-0.0008954556 2.9719841 -1.1436465 -0.0068595274 3.676754 3.916506 -0.17666766 3.1965315
-0.49503982 2.0999472 -0.13858853 -0.11046937 -0.12648831 -0.4857581 -0.19446197 -0.14043443
-0.19598079 3.5353365 -0.026366713 -2.8630528 0.71739095 0.28215328 -0.17421365 -0.18891999
2.674792 3.6406124 3.8184881 -0.39600787 3.433492 2.7342994 -0.30981174 -0.252059
3.6064935 3.6483126 3.232405 2.5877316 3.7605538 -0.2831813 4.134988 -0.48006773
-0.0064429794 0.024286818 -0.24796145 3.597284 -0.04962959 -1.4810582 1.7472411 -0.10766516
2.8029656 -0.037509684 -0.16210674 -1.9504389 3.4474385 -0.11800273 -0.42154634 -0.5993072
3.8555622 -0.09666346 -1.4002961 -0.3882171 3.708613 2.987998 0.105017364 2.2801528
-0.17664573 -0.31902125 -2.0559442 3.1318336 -0.4866736 -0.42729843 3.7700276 0.051298484
-0.32377484 2.9374623 -0.042693365
00000000: 02bd 6aba fd34 3e40 0263 92bf e3c5 e0bb
00000010: f04f 6b40 09a8 7a40 5ee8 34be f993 4c40
00000020: dc75 fdbe 8965 0640 27ea 0dbe c43d e2bd
00000030: 2786 01be 49b5 f8be 0a21 47be 0bce 0fbe
00000040: 30af 48be f442 6240 01ff d7bc 423c 37c0
00000050: efa6 373f 6576 903e 1065 32be 3e74 41be
00000060: cb2f 2b40 cbff 6840 1c62 7440 8bc1 cabe
00000070: 55be 5b40 c3fe 2e40 a59f 9ebe e10d 81be
00000080: cad0 6640 f47d 6940 b9df 4e40 659d 2540
00000090: eaac 7040 24fd 90be d251 8440 70cb f5be
000000a0: a11f d3bb 26f5 c63c 9be9 7dbe e739 6640
000000b0: 6648 4bbd 5193 bdbf 99a5 df3f 8d7f dcbd
000000c0: ca63 3340 c1a3 19bd 4fff 25be fba7 f9bf
000000d0: d5a2 5c40 6aab f1bd ecd4 d7be 326c 19bf
000000e0: 88c1 7640 7ef7 c5bd e73c b3bf 64c4 c6be
000000f0: ea59 6d40 5c3b 3f40 5813 d73d 06ee 1140
00000100: 9ee2 34be c156 a3be 9794 03c0 f66f 4840
00000110: 482d f9be dcc6 dabe 2248 7140 5c1e 523d
00000120: d1c5 a5be 62ff 3b40 3ddf 2ebd

model/hidden_layers/1/W f4 [75, 75]
-0.07696438 -0.07516569 -0.25132123 -0.060962804 -0.041979875 0.04025877 -0.0797071 -0.050114933
-0.047348484 -0.06243802 -0.035738114 -0.08523325 0.12100819 -0.008868727 0.05263648 0.030773293
-0.12393658 -0.23464203 -0.13714483 -0.032632966 -0.005543934 -0.16596541 0.023644844 -0.06275275
0.103572465 -0.114129275 -0.3268895 0.054911945 0.031190002 0.2521168 0.0385884 0.027398597
0.20497927 -0.33311275 -0.17493966 -0.2300437 0.036168378 -0.038853295 0.048976075 -0.1939293
-0.09693995 -0.02246273 -0.036241442 -0.077991225 0.121475615 -0.100038745 -0.07962624 -0.07871604
0.056746345 -0.13295487 -0.14466336 -0.13072358 -0.19337408 -0.027174931 -0.095266625 -0.2604012
-0.07580716 -0.019549523 0.19148906 -0.034648016 0.14770076 -0.0010752643 0.14077996 -0.17132263
-0.17639543 -0.04671343 -0.033337984 -0.012971106 0.038029656 -0.15816663 0.0012549473 -0.08595924
0.17746168 -0.03920107 -0.07346271 0.15747097 -0.06333542 0.11617474 0.11580416 0.00010005939
-0.06640664 0.012534393 0.048532587 -0.05410975 0.024749344 0.0009867839 -0.060701415 0.113057256
-0.09315597 -0.054009654 0.03849087 0.07087226 0.14018984 0.12934099 -0.11305637 0.1397783
-0.03769159 0.036739744 0.050651684 0.042929243 -0.21919057 -0.014513412 -0.017387839 0.1026275
0.18792199 0.104568526 0.031517033 -0.022500418 -0.030074274 0.0925781 0.10175622 0.030639254
0.10012016 0.01926664 -0.2225713 0.026658377 -0.037320238 -0.11010229 0.0236627 -0.25225678
-0.08992247 0.02656444 0.09641388 -0.07221627 -0.085942715 0.012649244 -0.039912894 0.1731781
0.058991943 0.015084002 0.06324135 0.028680597 -0.0571196 0.04963064 0.014988126 0.17572987
0.0059995884 0.036432203 0.10621807 -0.14704676 0.06915061 -0.0012201138 0.044865776 -0.09341952
0.08771399 0.10028839 -0.13741529 0.08932907 0.027254093 -0.04909992 -0.17000344 0.13682468
-0.12440108 -0.064298846 0.008114713 -0.19129436 0.17161326 0.17537758 0.18979879 0.07555872
-0.017770557 0.17331095 0.14621015 0.07000556 -0.18740201 -0.103847064 0.06267165 -0.36725342
0.09138732 -0.69381917 0.07676096 0.19567207 -0.081593655 -0.10319132 0.22105989 -0.098239325
-0.396634 -0.33408496 -0.0769891 0.047623683 -0.065102346 0.09739345 -0.2913976 0.32095242
-0.17672473 -0.16543482 -0.019869063 0.011823373 0.035890233 0.20026216 -0.16243038 -0.08024666
-0.025370957 -0.054770682 -0.08913169 -0.13403356 -0.1096128 -0.048881203 -0.17169756 -0.03240029
-0.2329239 0.18988934 -0.025052078 0.18896902 -0.056429412 -0.060685564 -0.0086040525 -0.00022105573
0.1775775 -0.10122784 0.21008247 -0.13569413 -0.04099119 -0.11049479 -0.48047113 -0.34966844
-0.30357397 -0.014817919 -0.02580607 -0.031778544 -0.24847868 0.51709145 -0.39018726 0.19538158
-0.14767534 0.112958245 -0.19088517 -0.09347054 -0.043453313 -0.14710042 0.068667665 -0.011177171
0.19246674 0.12097335 -0.021338977 -0.13829337 -0.11816816 0.09259795 -0.19526698 0.09061999
-0.2090337 0.0065960228 -0.015828846 -0.13057409 -0.24313965 -0.01931018 -0.010906672 -0.17986073
0.04020061 -0.001305503 -0.11106794 -0.24750705 0.014055128 -0.14956337 -0.19419447 -0.121641666
00000000: 809f 9dbd 78f0 99bd 2dad 80be 22b4 79bd
00000010: 17f3 2bbd 61e6 243d 7a3d a3bd 5145 4dbd
00000020: 7cf0 41bd 02bf 7fbd 2162 12bd c58e aebd
00000030: 24d3 f73d 234e 11bc 5a99 573d 4618 fc3c
00000040: 76d2 fdbd 0046 70be b26f 0cbe 25aa 05bd
00000050: e4a9 b5bb d6f2 29be d5b2 c13c 8484 80bd
00000060: cd1d d43d 9cbc e9bd 0f5e a7be 59eb 603d
00000070: 2d82 ff3c 7415 813e df0e 1e3d 0673 e03c
00000080: 16e6 513e c18d aabe 6223 33be 9390 6bbe
00000090: 4b25 143d a224 1fbd 239b 483d 6795 46be
000000a0: 7488 c6bd c203 b8bc e871 14bd ddb9 9fbd
000000b0: 35c8 f83d 1de1 ccbd 1513 a3bd e035 a1bd
000000c0: db6e 683d 5225 08be a222 14be 67dc 05be
000000d0: db03 46be f69d debc 261b c3bd 4e53 85be
000000e0: c940 9bbd 5226 a0bc b515 443e 14eb 0dbd
000000f0: de3e 173e e2ef 8cba 9f28 103e 336f 2fbe
00000100: 01a1 34be 9556 3fbd 698d 08bd c384 54bc
00000110: fcc4 1b3d 6ff6 21be 0b7d a43a 660b b0bd
00000120: 84b8 353e 4d91 20bd 9e73 96bd 1240 213e
00000130: 00b6 81bd 06ed ed3d bb2a ed3d fad6 d138
00000140: 3400 88bd 0e5d 4d3c 1bca 463d 2fa2 5dbd
00000150: 23bf ca3c f956 813a 0ca2 78bd 908a e73d
00000160: 8fc8 bebd 3a39 5dbd 9aa8 1d3d 7a25 913d
00000170: ed8d 0f3e f771 043e 198a e7bd 0b22 0f3e
00000180: 7f62 1abd 6a7c 163d 2478 4f3d 93d6 2f3d
00000190: 7e73 60be a9c9 6dbc f170 8ebc 5e2e d23d
000001a0: 9f6e 403e 0628 d63d 0118 013d cc52 b8bc
000001b0: 535e f6bc 9699 bd3d 9165 d03d 2cff fa3c
000001c0: cc0b cd3d 13d5 9d3c bbe9 63be ab62 da3c
000001d0: 1bdd 18bd 4f7d e1bd 47d8 c13c cd27 81be
000001e0: 4629 b8bd ab9d d93c a474 c53d 20e6 93bd
000001f0: bc02 b0bd c63e 4f3c b47b 23bd 9a55 313e
00000200: 89a1 713d e422 773c ae84 813d 92f3 ea3c
00000210: 3ef6 69bd 7f49 4b3d c290 753c 88f2 333e
00000220: 3298 c43b ef39 153d dc88 d93d 6d93 16be
00000230: d69e 8d3d 3aec 9fba 2dc5 373d bc52 bfbd
00000240: 64a3 b33d 0064 cd3d 98b6 0cbe 29f2 b63d
00000250: fa43 df3c ff1c 49bd 6215 2ebe c51b 0c3e
00000260: fec5 febd 1daf 83bd 93f3 043c abe2 43be
00000270: 63bb 2f3e 2e96 333e 9d5a 423e 88be 9a3d
00000280: 8f93 91bc 6d78 313e 1db8 153e 135f 8f3d
00000290: 50e6 3fbe c5ad d4bd fe59 803d a408 bcbe
000002a0: 4629 bb3d 229e 31bf da34 9d3d 425e 483e
000002b0: 931a a7bd f955 d3bd 865d 623e b331 c9bd
000002c0: 9d13 cbbe 2f0d abbe 76ac 9dbd 0d11 433d
000002d0: 6154 85bd 3876 c73d 1132 95be e053 a43e
000002e0: 54f7 34be bf67 29be 72c4 a2bc d2b6 413c
000002f0: a301 133d 8611 4d3e 2654 26be 5c58 a4bd
00000300: c1d6 cfbc 3957 60bd ad8a b6bd 1840 09be
00000310: ad7c e0bd a837 48bd 7cd1 2fbe 2bb6 04bd
00000320: 9a83 6ebe 5a72 423e 043a cdbc 1881 413e
00000330: 8722 67bd 6d91 78bd 03f8 0cbc 32cb 67b9
00000340: e0d6 353e 8b50 cfbd dc1f 573e 67f3 0abe
00000350: 61e6 27bd 184b e2bd 5000 f6be be07 b3be
00000360: 0c6e 9bbe dbc6 72bc 4067 d3bc 382a 02bd
00000370: 3271 7ebe 1b60 043f a0c6 c7be 1c12 483e
00000380: 3438 17be a756 e73d 6777 43be 7c6d bfbd
00000390: 1afc 31bd 7ea1 16be a2a1 8c3d 7420 37bc
000003a0: 0016 453e e0c0 f73d 14cf aebc c79c 0dbe
000003b0: 2602 f2bd fea3 bd3d 11f4 47be f996 b93d
000003c0: ee0c 56be 7323 d83b 7fab 81bc 37b5 05be
000003d0: 9af9 78be 6230 9ebc e6b1 32bc 692d 38be
000003e0: 65a9 243d 691d abba 9777 e3bd 7d72 7dbe
000003f0: 7b47 663c 2427 19be eada 46be 441f f9bd
