experiments/sokoban/sokoban_full_train_set_2-75-5/best/model.npz (npz, 29703 bytes, 6 tensors)

model/hidden_layers/0/W f4 [75, 20]
0.10060675 -0.036844846 0.5429457 -0.054660983 0.041426852 0.35276046 -0.20383245 -0.11052573
0.08769827 -0.07079464 -0.20614871 0.0051893033 -0.083893895 0.21646968 -0.089008525 -0.18166801
0.12647164 0.32183984 -0.28829136 -0.017109957 -0.20763104 -0.1083372 -0.21968813 -0.26337442
0.21148758 0.1617858 0.0056576324 -0.09484479 -0.24044648 -0.0343329 0.14660114 -0.19530739
0.06399876 -0.10529202 0.020330794 -0.00096647505 0.18127145 0.31400976 -0.18845321 -0.0019309003
-0.025217451 -0.027499992 -0.016043425 0.06682128 0.09055264 0.24520761 0.2154837 0.19953461
0.054497864 0.07142278 0.2845271 -0.0050135283 -0.016375847 -0.48335 -0.039774586 0.14657685
0.004797257 0.34120375 0.14383079 -0.041950993 -0.08207728 0.11812535 -0.012680307 -0.27890217
0.1547952 -0.026489746 0.25536224 -0.06616129 -0.7496499 0.09001243 -0.3890844 0.22334561
0.1814584 -0.06457891 -0.0770081 -0.26306966 -0.097239785 -0.047361605 -0.24362037 -0.0030727012
0.38280863 0.07718528 0.055812992 0.1852726 0.18826228 0.21038784 -0.07063684 -0.091756396
-0.19775681 -0.14086673 0.15436703 -0.040070314 -0.083466515 -0.14822178 0.0024619529 0.22827555
0.023625951 -0.018663127 0.17807628 0.00021393535 0.1789028 0.011034697 -0.41071063 0.18616392
0.11928321 0.22489099 -0.19157462 0.52889335 -0.2052074 0.13519713 0.025522582 -0.08609922
0.12175075 0.12745155 -0.20647664 -0.23926735 -0.005204222 0.44560182 -0.31911692 -0.0053106244
0.3234841 0.13206805 -0.1575204 -0.35278976 -0.4229996 -0.16405627 -0.08640739 -0.45824033
-0.37338394 0.06145884 -0.04983125 -0.182904 0.00025273737 -0.26667 -0.059225265 0.31574294
0.08446114 0.15588227 0.08336913 -0.030532684 0.3779995 0.2727974 0.20908327 -0.15389273
-0.34382257 0.18706858 -0.03481813 -0.020770762 -0.2500867 -0.26302126 0.22599646 -0.014121796
-0.24206197 0.061610308 0.077800415 0.07702635 0.19868468 -0.022966275 -0.2440855 -0.037951283
-0.21048643 0.068946205 -0.009359847 0.004535642 -0.16042155 0.049507573 -0.05731485 0.027710823
-0.17608468 -0.20186664 -0.10627359 -0.06975283 0.053545326 0.07091667 0.01562823 0.024335193
0.015696771 -0.26279205 0.18085198 0.011914581 0.21082218 -0.04832636 -0.15461685 -0.16593018
-0.15993957 -0.04923243 0.15604684 0.00736568 -0.27811792 -0.061731804 -0.0139144845 0.050325632
0.051436294 -0.045639995 -0.12910815 0.107879326 0.08081133 0.08102389 0.01646486 -0.047785375
0.10074755 -0.24888502 -0.1562565 -0.3414983 0.02914777 -0.011808876 0.21723235 -0.033315264
-0.20052417 0.52461666 -0.32077712 -0.38313782 -0.20693846 0.074052475 -0.04160939 -0.10231305
-0.25072753 0.3199386 -0.21382883 -0.0139184 -0.049197998 -0.051372655 -0.025481986 0.2581526
-0.067773744 -0.075542726 -0.15483569 -0.006253276 0.066115655 0.17106685 -0.13240576 -0.050520733
0.02494042 0.1275323 0.04100875 -0.15462112 -0.013186275 0.04917503 -0.42185107 -0.013595115
-0.08645303 0.0072742645 0.0063413237 -0.28013873 -0.036878914 -0.1289824 -0.413102 -0.018793277
-0.23918936 0.13702586 -0.20732614 -0.017981661 0.12696753 0.014353976 0.087066345 0.07854005
00000000: e90a ce3d 9fea 16bd 7dfe 0a3f 32e4 5fbd
00000010: 34af 293d 059d b43e 74b9 50be 505b e2bd
00000020: 279b b33d c8fc 90bd a618 53be 080b aa3b
00000030: 90d0 abbd 3aaa 5d3e 1a4a b6bd 2e07 3abe
00000040: c881 013e 31c8 a43e ed9a 93be 2e2a 8cbc
00000050: 3b9d 54be e5df ddbd edf5 60be 03d9 86be
00000060: 3390 583e 2dab 253e a963 b93b fc3d c2bd
00000070: 9a37 76be a8a0 0cbd 9c1e 163e a9fe 47be
00000080: c811 833d 58a3 d7bd c48c a63c 0b5b 7dba
00000090: 399f 393e e3c5 a03e e1f9 40be 4316 fdba
000000a0: d494 cebc aa47 e1bc 806d 83bc 98d9 883d
000000b0: aa73 b93d b417 7b3e c2a7 5c3e cd52 4c3e
000000c0: 2739 5f3d 1b46 923d 89ad 913e 8648 a4bb
000000d0: a426 86bc a779 f7be adea 22bd 3e18 163e
000000e0: 4f32 9d3b 42b2 ae3e 6148 133e ced4 2bbd
000000f0: 2218 a8bd b4eb f13d 10c1 4fbc 44cc 8ebe
00000100: a282 1e3e 0601 d9bc d7be 823e 927f 87bd
00000110: 0ee9 3fbf 7058 b83d 1236 c7be b6b4 643e
00000120: 3bd0 393e f341 84bd 6cb6 9dbd 11b1 86be
00000130: a725 c7bd 3efe 41bd 9e77 79be 5f5f 49bb
00000140: 7eff c33e 5113 9e3d 2a9c 643d 1ab8 3d3e
00000150: d4c7 403e e96f 573e 0caa 90bd c7ea bbbd
00000160: c380 4abe 5e3f 10be 6412 1e3e c520 24bd
00000170: 7ef0 aabd 73c7 17be b758 213b 11c1 693e
00000180: 368b c13c 6ae3 98bc a159 363e d553 6039
00000190: 4c32 373e e0ca 343c aa48 d2be c1a1 3e3e
000001a0: c14a f43d d349 663e 232c 44be 8e65 073f
000001b0: e321 52be 1e71 0a3e bc14 d13c ca54 b0bd
000001c0: 7558 f93d a982 023e 9d6e 53be 8002 75be
000001d0: 2e88 aabb ec25 e43e 4b63 a3be bf04 aebb
000001e0: b59f a53e d93c 073e 074d 21be dca0 b4be
000001f0: 6793 d8be 5efe 27be 5cf6 b0bd 7a9e eabe
00000200: 2e2c bfbe 44bc 7b3d da1b 4cbd 304b 3bbe
00000210: d681 8439 f888 88be 3196 72bd 0fa9 a13e
00000220: f6f9 ac3d 9a9f 1f3e 6fbd aa3d ae1f fabc
00000230: 2789 c13e 1aac 8b3e ed19 563e 0e96 1dbe
00000240: 8309 b0be e88e 3f3e 759d 0ebd 7227 aabc
00000250: 5d0b 80be b9aa 86be 9e6b 673e 1b5f 67bc
00000260: 18df 77be 175b 7c3d d355 9f3d febf 9d3d
00000270: ff73 4b3e c523 bcbc 8df1 79be ce72 1bbd
00000280: c189 57be ab33 8d3d 0b5a 19bc b99f 943b
00000290: 8c45 24be 74c8 4a3d fac2 6abd cf01 e33c
000002a0: 8b4f 34be 21b6 4ebe f8a5 d9bd 92da 8ebd
000002b0: 5852 5b3d c23c 913d c606 803c 995a c73c
000002c0: 8496 803c ae8c 86be 4331 393e 6035 433c
000002d0: c5e1 573e dcf1 45bd e153 1ebe 9ae9 29be
000002e0: 33c7 23be f2a7 49bd beca 1f3e cd5b f13b
000002f0: 7965 8ebe 7dda 7cbd 94f9 63bc 4022 4e3d
00000300: ddae 523d 01f1 3abd ed34 04be d6ef dc3d
00000310: 6980 a53d daef a53d 50e1 863c 99ba 43bd
00000320: bb54 ce3d b7db 7ebe b401 20be ddd8 aebe
00000330: 4ec7 ee3c 047a 41bc 2872 5e3e 9675 08bd
00000340: 3556 4dbe 474d 063f e63c a4be a42a c4be
00000350: ade7 53be d3a8 973d 9c6e 2abd 8189 d1bd
00000360: 5c5f 80be fece a33e f2f5 5abe 000a 64bc
00000370: d783 49bd 226c 52bd 99bf d0bc 942c 843e
00000380: f6cc 8abd 25b6 9abd 3f8d 1ebe 48e8 ccbb
00000390: a567 873d 262c 2f3e 6095 07be d4ee 4ebd
000003a0: da4f cc3c d497 023e cbf8 273d 0055 1ebe
000003b0: 3f0b 58bc c26b 493d ddfc d7be 0cbe 5ebc
000003c0: 490e b1bd f45c ee3b e1ca cf3b 586e 8fbe
000003d0: 580e 17bd f613 04be 1b82 d3be 5cf4 99bc
000003e0: 0eee 74be 8250 0c3e 4e4d 54be 474e 93bc
000003f0: c703 023e f02c 6b3c d74f b23d 9bd9 a03d

model/hidden_layers/0/b f4 [75]
-0.14215524 -0.6037566 -0.543827 0.2629946 1.2580054 -0.1614154 -0.30911478 -0.22064012
1.1738417 0.53324944 -0.39484027 1.1428559 -0.3417291 -0.8823905 0.26387408 0.41889617
0.63600653 0.39261317 -0.10479125 0.6444108 0.72165334 1.2273018 1.3005859 -0.21135433
1.2071358 0.10966475 0.7593038 -0.31594646 1.1508061 -0.3315673 -0.09321975 1.1766597
0.33732313 -0.7969656 0.6189012 -0.9508882 1.1354847 -0.21319081 -0.64251286 0.077826984
-0.122442804 -0.43421373 -1.2269106 0.40071842 -0.5486939 0.33367702 1.2328424 1.1662227
0.5022678 -0.8594603 -1.2342848 -1.0700557 -0.8078444 -0.66707313 0.1496911 0.66931254
0.46154156 0.08176346 0.22660035 0.027961986 0.30177823 -0.3110367 0.8113457 1.0181465
1.1049975 0.86813074 -0.9550997 -0.31079614 -0.15467334 0.36558157 1.0584487 0.9956432
-1.0647539 0.9916962 -1.009333
00000000: 2591 11be cb8f 1abf 3f38 0bbf 3aa7 863e
00000010: 5206 a13f 144a 25be 4b44 9ebe 7cef 61be
00000020: 7240 963f 0983 083f 8128 cabe 1a49 923f
00000030: 1ef7 aebe 58e4 61bf 811a 873e 8f79 d63e
00000040: 53d1 223f 9804 c93e cb9c d6bd 1bf8 243f
00000050: 46be 383f 3a18 9d3f 9979 a63f 456d 58be
00000060: 6d83 9a3f ea97 e03d bc61 423f bcc3 a1be
00000070: 9d4d 933f 30c3 a9be ffe9 bebd c99c 963f
00000080: 9eb5 ac3e f005 4cbf 4f70 1e3f 696d 73bf
00000090: 9057 913f b14e 5abe b97b 24bf c163 9f3d
000000a0: 4bc3 fabd 4351 debe 680b 9dbf f72a cd3e
000000b0: 3477 0cbf b7d7 aa3e c8cd 9d3f c946 953f
000000c0: 9f94 003f 9705 5cbf 0bfd 9dbf 96f7 88bf
000000d0: e4ce 4ebf 4ec5 2abf a048 193e 1158 2b3f
000000e0: 2d4f ec3e 9a73 a73d ec09 683e 8910 e53c
000000f0: ad82 9a3e 3440 9fbe 5ab4 4f3f a052 823f
00000100: 8f70 8d3f d13d 5e3f 6a81 74bf ac20 9fbe
00000110: b062 1ebe 822d bb3e 3f7b 873f 79e2 7e3f
00000120: db49 88bf cddf 7d3f d331 81bf

model/hidden_layers/1/W f4 [75, 75]
-0.07645013 -0.07512497 -0.25196478 -0.028264238 -0.044263236 0.054287698 -0.07960526 -0.049720082
-0.04664903 -0.06213589 -0.03646876 -0.069370605 0.13313931 -0.020560006 0.04216934 0.0381511
-0.12317129 -0.2339875 -0.13696992 -0.046106316 -0.005453187 -0.16360518 0.0672719 -0.045152582
0.086719885 -0.11399737 -0.33725372 0.05547113 0.04510224 0.25188398 0.002333919 0.027713982
0.19292268 -0.32558227 -0.1751689 -0.2329566 0.0300946 -0.038934104 0.050483305 -0.19315045
-0.09683095 -0.01753623 -0.035745848 -0.048741177 0.10483587 -0.09986243 -0.07250552 -0.07551166
0.05448713 -0.13674678 -0.13825835 -0.13036504 -0.2092352 -0.045569617 -0.096337184 -0.260372
-0.086740054 -0.0184317 0.15799439 -0.03554546 0.13298167 -0.0008730536 0.12962142 -0.16301984
-0.18086709 -0.049404573 -0.05948374 -0.019118141 0.029372692 -0.15718126 0.0020824436 -0.08660549
0.20484169 -0.042915028 -0.07348026 0.18712474 -0.14410533 0.16015519 0.015568442 0.30852965
-0.081368044 0.01721989 0.03004816 0.18068993 0.026827544 0.19721982 0.2385195 0.15279248
-0.0409875 0.024217485 0.09732776 0.088239595 0.15690878 0.09406833 -0.07806455 0.2413476
0.26862267 0.5103706 -0.036081843 0.37521708 -0.23040175 0.18477155 0.0707616 0.43833998
0.24140479 0.255116 0.22362581 -0.02348976 -0.049438275 0.029283253 0.055547256 0.34811318
0.23702395 -0.08459332 0.07164999 0.057978593 0.07255379 -0.20751004 -0.06526898 -0.08217706
-0.13847783 0.40165564 0.26059738 -0.033536915 0.09087499 0.07826238 0.11667053 0.17478782
0.10776803 -0.0017168197 0.13120836 0.046771873 0.09065322 0.112621374 0.019694692 0.11104569
0.17854992 0.18585181 0.4124197 0.078168556 0.20237981 -0.0060562086 -0.0567504 -0.27658033
0.11708198 0.3487503 0.046814803 0.18973055 0.11050489 -0.030469714 -0.14044689 0.035855472
-0.0603148 -0.04228907 -0.009515913 -0.14675435 0.03578588 -0.05648216 0.12637463 -0.037370153
0.02146537 0.0071982658 0.11658099 0.12324117 -0.014992818 -0.1355549 -0.046213433 -0.08328148
0.024959449 -0.06557475 0.0056926417 -0.004880765 0.0011100145 -0.14480788 0.0894622 -0.08008939
-0.21792662 -0.11900317 -0.07454204 -0.079191 0.012952505 -0.10066851 -0.006373928 0.026906827
-0.12800598 -0.12350798 0.15021467 0.028732695 0.07895151 -0.0701309 -0.016160259 -0.04727999
-0.10937448 0.1036997 -0.15100217 -0.09776064 -0.15299371 0.19230118 -0.121520385 0.106416
-0.1755874 0.21737583 0.26951545 -0.035679914 0.1517441 -0.15954727 -0.064367846 0.14203794
0.00021815462 -0.06785752 -0.007037509 -0.08942324 -0.09067056 0.0815101 -0.23233134 -0.07909045
-0.013143151 0.09032756 -0.00078933244 -0.064475045 -0.27650383 0.314861 -0.091761336 0.062353786
-0.1427106 0.11691229 -0.17310745 -0.10004892 -0.039018303 -0.1612592 0.059376936 -0.0078440895
0.114941046 0.07857827 -0.080767944 -0.11474522 0.011124781 0.113747194 -0.18833743 0.084260315
-0.16145371 0.07213654 0.025298828 -0.10603503 -0.20593323 -0.0331545 0.07471833 -0.101337984
0.043943048 0.015062512 -0.18608017 -0.26620814 0.0022875383 -0.0526545 -0.17162295 -0.117860414
00000000: e391 9cbd 1fdb 99bd 8701 81be 678a e7bc
00000010: 5e4d 35bd c75c 5e3d 1508 a3bd 49a7 4bbd
00000020: 0e13 3fbd 3482 7ebd 4460 15bd 2d12 8ebd
00000030: ac55 083e 756d a8bc c2b9 2c3d 5444 1c3d
00000040: 3b41 fcbd 6b9a 6fbe d841 0cbe fad9 3cbd
00000050: a6b0 b2bb 1e88 27be dac5 893d eaf1 38bd
00000060: 329a b13d 7477 e9bd 85ac acbe b235 633d
00000070: 20bd 383d f0f6 803e aaf4 183b 6f08 e33c
00000080: 868d 453e b8b2 a6be 7a5f 33be 2d8c 6ebe
00000090: f388 f63c 5e79 1fbd 95c7 4e3d 3bc9 45be
000000a0: 4e4f c6bd 24a8 8fbc 3d6a 12bd d4a4 47bd
000000b0: 30b4 d63d ac84 ccbd c67d 94bd dba5 9abd
000000c0: e62d 5f3d 5907 0cbe 9993 0dbe 6a7e 05be
000000d0: c141 56be 35a7 3abd 6e4c c5bd 7b4f 85be
000000e0: c5a4 b1bd 14fe 96bc 48c9 213e 1e98 11bd
000000f0: 592c 083e a3dd 64ba 7abb 043e acee 26be
00000100: 3935 39be 735c 4abd 39a5 73bd a69d 9cbc
00000110: 009f f03c 20f4 20be 9b79 083b 385e b1bd
00000120: 05c2 513e abc7 2fbd d27c 96bd a19d 3f3e
00000130: 5990 13be b9ff 233e c712 7f3c 99f7 9d3e
00000140: 4aa4 a6bd ba10 8d3c 8f27 f63c c806 393e
00000150: 70c5 db3c fef3 493e 753e 743e a275 1c3e
00000160: 82e2 27bd bf63 c63c c753 c73d f6b6 b43d
00000170: b2ac 203e e6a6 c03d 4fe0 9fbd d323 773e
00000180: e988 893e a6a7 023f 8eca 13bd 741c c03e
00000190: 70ee 6bbe c134 3d3e 75eb 903d 196e e03e
000001a0: d132 773e 909e 823e 2afe 643e 996d c0bc
000001b0: ca7f 4abd 6fe3 ef3c 8585 633d e43b b23e
000001c0: 68b6 723e 433f adbd 3bbd 923d f67a 6d3d
000001d0: 1597 943d 837d 54be beab 85bd 724c a8bd
000001e0: 22cd 0dbe cfa5 cd3e 056d 853e 015e 09bd
000001f0: ab1c ba3d 0748 a03d f5f0 ee3d 94fb 323e
00000200: 7cb5 dc3d e906 e1ba 7c5b 063e dd93 3f3d
00000210: 65a8 b93d 09a6 e63d c356 a13c ec6b e33d
00000220: cad5 363e f04f 3e3e ad28 d33e d616 a03d
00000230: a73c 4f3e 2973 c6bb 1c73 68bd f09b 8dbe
00000240: adc8 ef3d 668f b23e e1c0 3f3d ba48 423e
00000250: 6350 e23d 9f9b f9bc 4fd1 0fbe 30dd 123d
00000260: a70c 77bd 4e37 2dbd a2e8 1bbc c646 16be
00000270: 3794 123d d659 67bd 5a68 013e 7211 19bd
00000280: 25d8 af3c 6edf eb3b 04c2 ee3d de65 fc3d
00000290: 70a4 75bc e7ce 0abe 4c4a 3dbd 7b8f aabd
000002a0: c277 cc3c 0e4c 86bd 5789 ba3b d3ee 9fbb
000002b0: e87d 913a 8448 14be f537 b73d e805 a4bd
000002c0: 2828 5fbe efb7 f3bd 7fa9 98bd e42e a2bd
000002d0: be36 543c 4b2b cebd 62dc d0bb b56b dc3c
000002e0: 0014 03be c0f1 fcbd e0d1 193e d460 eb3c
000002f0: 54b1 a13d caa0 8fbd 8562 84bc aaa8 41bd
00000300: baff dfbd 8260 d43d 50a0 1abe bb36 c8bd
00000310: 62aa 1cbe 9aea 443e aedf f8bd a2f0 d93d
00000320: 2fcd 33be c597 5e3e eefd 893e 1a25 12bd
00000330: ce62 1b3e 5c60 23be 4ad3 83bd 6572 113e
00000340: 6fc0 6439 e2f8 8abd e89a e6bb 8823 b7bd
00000350: 7db1 b9bd c4ee a63d 44e8 6dbe 2dfa a1bd
00000360: 5f56 57bc a8fd b83d 34eb 4eba 7e0b 84bd
00000370: e991 8dbe 7635 a13e 5eed bbbd af66 7f3d
00000380: ba22 12be b66f ef3d 1443 31be 73e6 ccbd
00000390: a8d1 1fbd 2221 25be 3b35 733d 7f84 00bc
000003a0: 3666 eb3d a5ed a03d aa69 a5bd 8bff eabd
000003b0: b744 363c 4af4 e83d 87db 40be ac90 ac3d
000003c0: 1f54 25be 53bc 933d 7d3f cf3c e528 d9bd
000003d0: 29e0 52be 03cd 07bd ec05 993d 4a8a cfbd
000003e0: a0fd 333d c1c8 763c cd8b 3ebe 6f4c 88be
000003f0: 86ea 153b 3fac 57bd edbd 2fbe cd60 f1bd

model/hidden_layers/1/b f4 [75]
0.0018799485 1.0684884 -0.00028874452 0.08923771 1.1607618 0.18770611 -0.055786278 0.9227476
-0.32340273 0.26897097 -0.007983447 -0.04464894 -0.0031219325 -0.004881969 0.123139575 0.7651416
-0.032095082 0.9028671 -0.011909737 0.13923164 -0.0077965143 0.7248589 -0.1053268 -0.028625825
1.0286356 1.214301 1.0490682 -0.25864354 1.0160732 1.0568337 0.583286 -0.18094952
1.1403618 1.158658 0.7839708 1.0358131 0.98031473 0.4117426 1.1586177 0.8131717
-0.004298594 0.06446377 -0.41771746 1.1608343 -0.089348845 -0.0045380373 0.31990832 0.16146268
0.8650168 -0.0013113659 0.70377356 -0.42264834 1.0399275 -0.10269009 -0.026177399 -0.30575156
0.22023422 0.017532248 -0.29313195 0.76484054 1.1000339 0.98518085 0.1692665 0.17230396
0.067503184 -0.21705516 -0.43414053 0.85942465 -0.11164429 -0.020904271 1.0507385 0.70930064
-0.2381432 0.904846 -0.026954846
00000000: 9b68 f63a 3ac4 883f a262 97b9 43c2 b63d
00000010: d893 943f 0836 403e 2780 64bd 3039 6c3f
00000020: 0b95 a5be 90b6 893e 01cd 02bc cfe1 36bd
00000030: 5699 4cbb edf8 9fbb 9a30 fc3d 52e0 433f
00000040: 2276 03bd 4c22 673f 0f21 43bc bd92 0e3e
00000050: e779 ffbb 5a90 393f 94b5 d7bd b580 eabc
00000060: 55aa 833f 376e 9b3f de47 863f ed6c 84be
00000070: b00e 823f 5446 873f 3b52 153f d54a 39be
00000080: 60f7 913f e84e 943f 4fb2 483f 8695 843f
00000090: e8f5 7a3f edcf d23e 964d 943f 052c 503f
000000a0: 38db 8cbb 9505 843d 10df d5be 3896 943f
000000b0: 87fc b6bd d1b3 94bb 06cb a33e 7956 253e
000000c0: be71 5d3f 23e2 abba 812a 343f 5d65 d8be
000000d0: 581c 853f 2f4f d2bd fc71 d6bc 788b 9cbe
000000e0: 1485 613e ca9f 8f3c 6415 96be 97cc 433f
000000f0: e9cd 8c3f d034 7c3f 3354 2d3e 7370 303e
00000100: 1c3f 8a3d b543 5ebe ab47 debe 4103 5c3f
00000110: c3a5 e4bd 6f3f abbc 997e 863f ba94 353f
00000120: d0db 73be fda3 673f 69d0 dcbc

model/output/W f4 [4, 75]
0.078890346 -0.4057257 -0.049778968 -0.074834876 -0.53178316 -0.024537334 0.11436208 -0.32935977
0.098949194 -0.08655052 -0.02648229 0.10204427 -0.21199289 0.10757338 -0.007940173 -0.25506276
-0.09195252 -0.30935955 0.20788921 -0.043000575 -0.0010294698 -0.21010165 -0.063273855 -0.08223478
-0.36769882 -0.6954592 -0.5693588 0.06884188 -0.4778353 -0.4384607 -0.16037098 0.15328631
-0.643769 -0.5753765 -0.21576801 -0.44043264 -0.5165193 -0.093139164 -0.5215192 -0.45671043
0.023929091 0.041047644 0.14749976 -0.59093887 0.09727208 -0.076323 -0.16781215 0.0148949865
-0.31564826 0.10490477 -0.21673755 0.1696702 -0.5009478 0.021918258 -0.012741409 0.10179756
-0.09686422 0.028989928 0.12023374 -0.300828 -0.4151894 -0.49228224 -0.04184283 -0.09317443
0.1806614 0.28545472 0.10581737 -0.38010374 -0.006710123 -0.027570445 -0.47792065 -0.18161808
0.13539748 -0.46538413 -0.054393694 -0.054520503 -0.48800036 0.06743712 -0.11058276 -0.5387222
0.019382175 -0.024619812 -0.5198626 0.0643248 -0.09877536 -0.0105255535 0.13202657 0.09483846
-0.080414414 -0.008002483 -0.13581024 0.062882915 -0.5973094 -0.005396214 0.02592066 -0.043224838
-0.25886485 -0.04124263 -0.047243632 -0.40850028 -0.64983046 -0.43252367 0.094459504 -0.45202243
-0.4814147 -0.13378324 0.021507727 -0.5029292 -0.6869252 -0.23702219 -0.44353402 -0.4275766
-0.11643926 -0.5410437 -0.35996538 -0.08115333 -0.0026645912 0.15641862 -0.5396853 0.1641329
-0.048544064 -0.17620154 0.025458923 -0.3141186 0.08384849 -0.118017755 0.056383833 -0.55067384
-0.1017438 0.045490444 0.09270158 -0.05820164 -0.14147176 0.15113348 -0.2568035 -0.55018145
-0.45145074 0.02664411 -0.12884787 -0.13639182 -0.0027959107 0.20737115 -0.32061523 -0.0032595193
-0.12553898 -0.3829897 -0.2536647 -0.022734638 -0.35437778 -0.022728434 -0.021789076 -0.40587604
0.02196446 -0.05773892 -0.46270818 -0.03554921 -0.06594031 -0.41337115 0.08707498 -0.09208773
0.059502162 -0.06650688 0.14348884 -0.0045387475 -0.06300971 -0.29180282 0.058466863 -0.46493724
-0.10951778 0.012058313 -0.1987408 -0.21122809 0.19394901 -0.008159209 -0.522926 -0.5069526
-0.49374685 -0.018268108 -0.44600573 -0.47515556 -0.2468742 -0.013579274 -0.67439276 -0.5246935
-0.30439988 -0.3653268 -0.36974597 -0.092493035 -0.6114767 -0.30344608 -0.03354899 -0.072996445
0.13661452 -0.45941997 0.16828054 -0.09063409 -0.21704243 -0.066067174 -0.4333898 0.14426221
-0.2534913 -0.058022752 -0.53718567 -0.027050275 0.06700329 0.04195062 -0.094294526 -0.06550516
0.13479973 -0.19364488 -0.53723854 -0.40733156 -0.14810435 -0.19270189 -0.060369316 -0.14295298
0.20364103 -0.45761645 0.082688525 0.059354417 -0.5441815 -0.35855982 0.011267393 -0.46583813
0.04286058 -0.07816147 -0.45126083 0.1562389 -0.07217046 -0.59889144 -0.036946025 0.0024241123
-0.35321695 0.096044265 -0.042223983 -0.08265288 0.10402692 -0.070632495 -0.05830987 -0.0023782197
-0.2131774 0.042432114 -0.3392214 0.066395685 -0.05394195 -0.06835324 -0.283934 0.17718013
0.10809853 -0.5323978 -0.5762131 -0.4963027 0.13145891 -0.44924337 -0.42398247 -0.1731569
00000000: 4391 a13d 47bb cfbe 08e5 4bbd 0743 99bd
00000010: f122 08bf 8502 c9bc ab36 ea3d d8a1 a8be
00000020: e0a5 ca3d 6641 b1bd 63f1 d8bc 96fc d03d
00000030: aa14 59be 6f4f dc3d 8017 02bc 9697 82be
00000040: 9a51 bcbd 6064 9ebe e9e0 543e 5f21 30bd
00000050: 46ef 86ba e324 57be b995 81bd b56a a8bd
00000060: 0543 bcbe 9d09 32bf 80c1 11bf f9fc 8c3d
00000070: d4a6 f4be ec7d e0be 4a38 24be 16f7 1c3e
00000080: 0cce 24bf e04b 13bf 4af2 5cbe 6380 e1be
00000090: 9c3a 04bf bfbf bebd 4882 05bf f3d5 e9be
000000a0: f106 c43c 9321 283d 2d0a 173e c547 17bf
000000b0: 9636 c73d 3c4f 9cbd f3d6 2bbe 1a0a 743c
000000c0: a69c a1be 50d8 d63d 73f0 5dbe 06be 2d3e
000000d0: 1d3e 00bf eb8d b33c 58c1 50bc 3d7b d03d
000000e0: c060 c6bd 497c ed3c 1b3d f63d 2106 9abe
000000f0: b493 d4be 6b0c fcbe 6363 2bbd 3cd2 bebd
00000100: 4dff 383e 1f27 923e c7b6 d83d f59c c2be
00000110: 97e0 dbbb 6adb e1bc 04b2 f4be 17fa 39be
00000120: a3a5 0a3e d446 eebe eccb 5ebd e450 5fbd
00000130: 2fdb f9be 791c 8a3d 3779 e2bd b3e9 09bf
00000140: 5ec7 9e3c 7daf c9bc b715 05bf b9bc 833d
00000150: bc4a cabd 5f73 2cbc f931 073e ab3a c23d
00000160: 50b0 a4bd d91c 03bc d711 0bbe c2c8 803d
00000170: 45e9 18bf b9d2 b0bb 9057 d43c 870c 31bd
00000180: ef89 84be 08ee 28bd 8a82 41bd f326 d1be
00000190: 4a5b 26bf be73 ddbe fc73 c13d 7c6f e7be
000001a0: fd7b f6be 79fe 08be f930 b03c f8bf 00bf
000001b0: 54da 2fbf f2b5 72be e416 e3be 52eb dabe
000001c0: b577 eebd d781 0abf 624d b8be b833 a6bd
000001d0: 6ca0 2ebb 342c 203e d128 0abf 7412 283e
000001e0: 24d6 46bd 2d6e 34be 3b8f d03c 27d4 a0be
000001f0: c2b8 ab3d 4bb3 f1bd bcf2 663d f6f8 0cbf
00000200: 0e5f d0bd 3054 3a3d 53da bd3d d864 6ebd
00000210: f9dd 10be bcc2 1a3e c07b 83be b1d8 0cbf
00000220: 8d24 e7be c044 da3c b2f0 03be 4caa 0bbe
00000230: 993b 37bb 1a59 543e ae27 a4be a99d 55bb
00000240: 4a8d 00be 3a17 c4be 57e0 81be fe3d babc
00000250: 0171 b5be fb30 babc 017f b2bc fcce cfbe
00000260: d0ee b33c a57f 6cbd 16e8 ecbe 0c9c 11bd
00000270: b70b 87bd 62a5 d3be 5e54 b23d 7e98 bcbd
00000280: 8ab8 733d c234 88bd bdee 123e c6b9 94bb
00000290: 3c0b 81bd 2e67 95be f37a 6f3d 410c eebe
000002a0: dc4a e0bd 3b90 453c b582 4bbe 2d4c 58be
000002b0: 929a 463e 34ae 05bc 7ade 05bf a5c7 01bf
000002c0: 63cc fcbe 00a7 95bc dd5a e4be 9747 f3be
000002d0: 97cc 7cbe 9a7b 5ebc 01a5 2cbf 5052 06bf
000002e0: 4dda 9bbe 1d0c bbbe 584f bdbe fd6c bdbd
000002f0: bd89 1cbf 495d 9bbe aa6a 09bd 297f 95bd
00000300: ade4 0b3e 1839 ebbe bc51 2c3e 5e9e b9bd
00000310: 5f40 5ebe 3a4e 87bd 45e5 ddbe 79b9 133e
00000320: 9dc9 81be 44a9 6dbd 0085 09bf 8a98 ddbc
00000330: 0539 893d 6ad4 2b3d 7d1d c1bd 9227 86bd
00000340: f108 0a3e d84a 46be 7788 09bf c38d d0be
00000350: aba8 17be a553 45be d145 77bd 4462 12be
00000360: 4687 503e b44c eabe 9a58 a93d 9e1d 733d
00000370: 7b4f 0bbf 2795 b7be df9a 383c 5682 eebe
00000380: 938e 2f3d 1f13 a0bd a90b e7be 17fd 1f3e
00000390: 1bce 93bd f350 19bf b754 17bd dbdd 1e3b
000003a0: dad8 b4be dbb2 c43d 0ef3 2cbd ea45 a9bd
000003b0: 110c d53d c5a7 90bd 55d6 6ebd e8db 1bbb
000003c0: 2d4b 5abe 4ccd 2d3d 6dae adbe 76fa 873d
000003d0: 3cf2 5cbd c9fc 8bbd cc5f 91be b56e 353e
000003e0: c362 dd3d 394b 08bf b482 13bf 631b febe
000003f0: 2a9d 063e 3a03 e6be 3b14 d9be 0b50 31be

model/output/b f4 [4]
-0.93953055 -0.88237464 -0.96686316 -1.003864
00000000: 1385 70bf 4ee3 61bf 5884 77bf 9e7e 80bf
