experiments/sokoban/sokoban_full_train_set_2-75-5/best/target_model.npz (npz, 29702 bytes, 6 tensors)

model/hidden_layers/0/W f4 [75, 20]
0.10060571 -0.036844846 0.5429546 -0.054612216 0.04151527 0.35278478 -0.20383245 -0.11031714
0.08810532 -0.070738345 -0.20622201 0.0051893033 -0.0839596 0.21685992 -0.08940114 -0.18169051
0.12669662 0.3221411 -0.2881177 -0.014987102 -0.20767345 -0.1083372 -0.22153704 -0.26184946
0.21166793 0.1616709 0.0056576324 -0.09580323 -0.23888807 -0.033902448 0.14658494 -0.19530739
0.06385162 -0.10408144 0.020161448 0.0020138584 0.18689416 0.31232187 -0.18564916 0.023560392
-0.025314678 -0.02773445 -0.015942445 0.06772426 0.09056785 0.24512368 0.21535343 0.19981085
0.056329112 0.0714169 0.2845421 -0.0050135283 -0.016120184 -0.48329505 -0.039951418 0.14651799
0.0048425784 0.34104142 0.14569402 -0.045912776 -0.08194775 0.11812535 -0.01077542 -0.2791961
0.15210558 -0.026629495 0.25536224 -0.06262362 -0.7494724 0.09224718 -0.3889669 0.21777599
0.1869503 -0.064600214 -0.08397691 -0.26362658 -0.097239785 -0.040545154 -0.24381973 -0.007389053
0.37882492 0.073915966 0.053630594 0.18677355 0.18502605 0.20876707 -0.07083179 -0.09072528
-0.19758423 -0.14198852 0.16047844 -0.02916233 -0.08438386 -0.14853178 -0.00020322512 0.23675998
0.010428383 -0.020986458 0.17788099 0.006137518 0.17899024 0.011034697 -0.41073906 0.18545039
0.11923071 0.22488351 -0.19157462 0.5296191 -0.20579214 0.13558099 0.02565495 -0.08609922
0.12281678 0.12516724 -0.20676306 -0.23964423 -0.005204222 0.44796997 -0.31919384 -0.006955446
0.3234639 0.13206805 -0.15760508 -0.35430583 -0.4230044 -0.16409127 -0.08640739 -0.4582847
-0.37307665 0.061459836 -0.049936205 -0.182904 0.00058764603 -0.26575 -0.0581004 0.31580997
0.085198425 0.1556297 0.083446465 -0.029898478 0.37798586 0.2728119 0.20880827 -0.1534957
-0.34376165 0.18712908 -0.034715652 -0.020638933 -0.24942043 -0.26307744 0.22578122 -0.01294449
-0.24353512 0.062267024 0.08072111 0.07679681 0.20048559 -0.02446053 -0.24367367 -0.030944413
-0.21394888 0.065705016 -0.011658178 0.0058991765 -0.16368566 0.04815303 -0.05751748 0.028727718
-0.17597462 -0.20311882 -0.08906193 -0.054393284 0.051647432 0.07062035 0.012686203 0.032569
0.0026323323 -0.26710352 0.18085748 0.018047638 0.21168898 -0.04832636 -0.15439901 -0.16919236
-0.16226098 -0.049326144 0.15604684 0.013366328 -0.27682936 -0.06111497 -0.013537837 0.041284915
0.05276873 -0.046889026 -0.13831055 0.107769035 0.06932462 0.08527224 0.019364618 -0.067267045
0.100747555 -0.24888502 -0.15623441 -0.3414983 0.02914683 -0.01180831 0.21723235 -0.033293072
-0.20054634 0.5246096 -0.32077682 -0.38313782 -0.20691322 0.07403036 -0.041613754 -0.10233775
-0.25072753 0.3172048 -0.2120028 -0.013761764 -0.052109916 -0.055807207 -0.02755774 0.25850984
-0.07159376 -0.07620883 -0.15500271 -0.005291922 0.065150015 0.16929452 -0.115445465 -0.03488366
0.023155497 0.1271311 0.038438935 -0.15132943 -0.026901286 0.04681968 -0.42343786 -0.016860507
-0.08643428 0.0072742645 0.0063413237 -0.2799661 -0.037077703 -0.12892848 -0.413102 -0.018793277
-0.24028438 0.13682978 -0.20679832 -0.017981661 0.12659436 0.014319861 0.08645935 0.07801846
00000000: 5e0a ce3d 9fea 16bd 13ff 0a3f 0fb1 5fbd
00000010: ea0b 2a3d 35a0 b43e 74b9 50be f4ed e1bd
00000020: 9070 b43d 44df 90bd dd2b 53be 080b aa3b
00000030: 03f3 abbd 8710 5e3e f217 b7bd 140d 3abe
00000040: c2bc 013e aeef a43e 2a84 93be 768c 75bc
00000050: 59a8 54be e5df ddbd 9bda 62be 2211 86be
00000060: 7abf 583e 0e8d 253e a963 b93b 7c34 c4bd
00000070: 139f 74be 4bdd 0abd 5d1a 163e a9fe 47be
00000080: a3c4 823d a628 d5bd 9f29 a53c f0fa 033b
00000090: 2f61 3f3e a7e8 9f3e d01a 3ebe b901 c13c
000000a0: ba60 cfbc 5b33 e3bc bb99 82bc 04b3 8a3d
000000b0: a37b b93d b401 7b3e 9c85 5c3e 379b 4c3e
000000c0: 5bb9 663d 0643 923d 81af 913e 8648 a4bb
000000d0: 7a0e 84bc 7372 f7be 19a4 23bd d008 163e
000000e0: 7eae 9e3b fb9c ae3e d030 153e 090f 3cbd
000000f0: 39d4 a7bd b4eb f13d 638b 30bc cbf2 8ebe
00000100: 91c1 1b3e 1926 dabc d7be 823e d040 80bd
00000110: 6cdd 3fbf 17ec bc3d ab26 c7be ab00 5f3e
00000120: e66f 3f3e 1e4d 84bd 16fc abbd 10fa 86be
00000130: a725 c7bd ad12 26bd e1ab 79be de1f f2bb
00000140: 57f5 c13e 4161 973d c1ab 5b3d 9141 3f3e
00000150: 7877 3d3e 09c7 553e 4210 91bd 2dce b9bd
00000160: 8553 4abe 7065 11be 7654 243e d7e5 eebc
00000170: 72d1 acbd b718 18be d418 55b9 3571 723e
00000180: cfdb 2a3c cbeb abbc 6f26 363e 3c1d c93b
00000190: 3849 373e e0ca 343c 644c d2be b5e6 3d3e
000001a0: 3b2f f43d dd47 663e 232c 44be 1e95 073f
000001b0: 2dbb 52be bed5 0a3e 542a d23c ca54 b0bd
000001c0: 5d87 fb3d d72b 003e b2b9 53be 4c65 75be
000001d0: 2e88 aabb 525c e53e 606d a3be 83ea e3bb
000001e0: 0f9d a53e d93c 073e 3a63 21be 9367 b5be
000001f0: 0894 d8be 8b07 28be 5cf6 b0bd 4ba4 eabe
00000200: e703 bfbe 4fbd 7b3d e889 4cbd 304b 3bbe
00000210: 420c 1a3a 6210 88be affa 6dbd d8b1 a13e
00000220: 837c ae3d 645d 1f3e fbe5 aa3d a7ed f4bc
00000230: 5d87 c13e 00ae 8b3e d6d1 553e fa2d 1dbe
00000240: 8701 b0be c49e 3f3e 0032 0ebd fb12 a9bc
00000250: 1268 7fbe 16b2 86be 3133 673e 2015 54bc
00000260: 4561 79be b50b 7f3d 1c51 a53d a547 9d3d
00000270: 184c 4d3e 7361 c8bc 9785 79be 237f fdbc
00000280: 6a15 5bbe 5a90 863d f101 3fbc e14d c13b
00000290: 379d 27be 1d3c 453d 7397 6bbd 6456 eb3c
000002a0: b132 34be 61fe 4fbe 1a66 b6bd 7ecb 5ebd
000002b0: 428c 533d 67a1 903d cbd9 4f3c 1267 053d
000002c0: 3583 2c3b cbc1 88be b432 393e a4d8 933c
000002d0: ffc4 583e dcf1 45bd c61a 1ebe c340 2dbe
000002e0: be27 26be 360a 4abd beca 1f3e 71fe 5a3c
000002f0: 94bc 8dbe b153 7abd cecd 5dbc 5f1a 293d
00000300: 0624 583d b50e 40bd 48a1 0dbe 03b6 dc3d
00000310: 11fa 8d3d 36a3 ae3d 8ca2 9e3c 4ec3 89bd
00000320: bc54 ce3d b7db 7ebe eafb 1fbe ddd8 aebe
00000330: 55c5 ee3c a477 41bc 2872 5e3e 515e 08bd
00000340: 055c 4dbe d14c 063f dc3c a4be a42a c4be
00000350: 0fe1 53be 3b9d 973d 2f73 2abd 7496 d1bd
00000360: 5c5f 80be ab68 a23e 4317 59be 0679 61bc
00000370: 3571 55bd 1996 64bd c5c0 e1bc 675b 843e
00000380: c09f 92bd 6013 9cbd 08b9 1ebe dc67 adbb
00000390: 5f6d 853d 8b5b 2d3e ac6e ecbd 2be2 0ebd
000003a0: 99b0 bd3c a82e 023e 2572 1d3d 1af6 1abe
000003b0: 1660 dcbc fec5 3f3d d9cc d8be 0c1f 8abc
000003c0: 7504 b1bd f45c ee3b e1ca cf3b b757 8fbe
000003d0: cade 17bd d405 04be 1b82 d3be 5cf4 99bc
000003e0: 1c0d 76be 1b1d 0c3e f0c2 53be 474e 93bc
000003f0: f4a1 013e da9d 6a3c 9a11 b13d 24c8 9f3d

model/hidden_layers/0/b f4 [75]
-0.14183183 -0.6026157 -0.54323125 0.26303124 1.2571317 -0.16087484 -0.30859655 -0.22039923
1.1728699 0.5325045 -0.3967113 1.1415938 -0.34311426 -0.88334674 0.26273587 0.41914606
0.6353492 0.39222288 -0.102143146 0.6440503 0.7206179 1.2264261 1.2996969 -0.21120241
1.206251 0.11088807 0.75876814 -0.31244466 1.1499659 -0.33191985 -0.092805624 1.17579
0.3376049 -0.7979141 0.61807793 -0.9517161 1.134617 -0.2099194 -0.64131784 0.07796743
-0.11753627 -0.43453488 -1.2269709 0.40119544 -0.5491731 0.33516818 1.2319683 1.1653668
0.5024857 -0.8614133 -1.2342848 -1.0672048 -0.8040636 -0.6643978 0.15025477 0.6687469
0.46278837 0.082588695 0.22740874 0.029277457 0.3017462 -0.31138808 0.81042254 1.0172902
1.103804 0.8676472 -0.9576857 -0.31182414 -0.15454817 0.36670938 1.0576286 0.99521565
-1.0660553 0.9910957 -1.0067123
00000000: 5d3c 11be 0645 1abf 3411 0bbf 08ac 863e
00000010: b1e9 a03f 60bc 24be 5e00 9ebe 56b0 61be
00000020: 9a20 963f 3752 083f be1d cbbe bf1f 923f
00000030: acac afbe 0323 62bf 5185 863e 509a d63e
00000040: 3fa6 223f 70d1 c83e 6d30 d1bd 7be0 243f
00000050: 6a7a 383f 88fb 9c3f 785c a63f 7245 58be
00000060: 6f66 9a3f 4919 e33d a13e 423f bff8 9fbe
00000070: 1532 933f 66f1 a9be e010 bebd 4980 963f
00000080: 8dda ac3e 1944 4cbf 5b3a 1e3f aba3 73bf
00000090: 213b 913f 1cf5 56be 682d 24bf 63ad 9f3d
000000a0: dbb6 f0bd 5b7b debe 620d 9dbf 7d69 cd3e
000000b0: 9c96 0cbf 2a9b ab3e 23b1 9d3f bd2a 953f
000000c0: e7a2 003f 9585 5cbf 0bfd 9dbf 2b9a 88bf
000000d0: 1dd7 4dbf f915 2abf 63dc 193e ff32 2b3f
000000e0: 99f2 ec3e 4324 a93d d6dd 683e 47d7 ef3c
000000f0: 7a7e 9a3e 426e 9fbe da77 4f3f 9136 823f
00000100: 7349 8d3f 201e 5e3f e42a 75bf 6aa7 9fbe
00000110: e041 1ebe 55c1 bb3e 6060 873f 74c6 7e3f
00000120: 8074 88bf 73b8 7d3f f3db 80bf

model/hidden_layers/1/W f4 [75, 75]
-0.07645013 -0.07512497 -0.25196478 -0.028264238 -0.044263236 0.054287698 -0.07960526 -0.049720082
-0.04664903 -0.06213589 -0.03646876 -0.069370605 0.13313931 -0.020560006 0.04216934 0.0381511
-0.12317129 -0.2339875 -0.13696992 -0.046106316 -0.005453187 -0.16360518 0.0672719 -0.045152582
0.086719885 -0.11399737 -0.33725372 0.05547113 0.04510224 0.25188398 0.002333919 0.027713982
0.19292268 -0.32558227 -0.1751689 -0.2329566 0.0300946 -0.038934104 0.050483305 -0.19315045
-0.09683095 -0.01753623 -0.035745848 -0.048741177 0.10483587 -0.09986243 -0.07250552 -0.07551166
0.05448713 -0.13674678 -0.13825835 -0.13036504 -0.2092352 -0.045569617 -0.096337184 -0.260372
-0.086740054 -0.0184317 0.15799439 -0.03554546 0.13298167 -0.0008730536 0.12962142 -0.16301984
-0.18086709 -0.049404573 -0.05948374 -0.019118141 0.029372692 -0.15718126 0.0020824436 -0.08660549
0.20484169 -0.042915028 -0.07348026 0.18899511 -0.14815047 0.16213834 0.015444024 0.3086027
-0.07724791 0.017522866 0.03005505 0.18047607 0.02800885 0.19773585 0.23792988 0.1547989
-0.03990069 0.022873694 0.09810227 0.088647 0.1593798 0.09647775 -0.078342244 0.24079528
0.26930833 0.5100544 -0.032436483 0.37527567 -0.22784984 0.18450482 0.07098812 0.43777877
0.2415882 0.25508282 0.2237163 -0.023608577 -0.047215663 0.030638486 0.055700127 0.3477677
0.23807961 -0.085839644 0.06951436 0.062092014 0.07349596 -0.20877887 -0.064546764 -0.082465485
-0.13712701 0.40170312 0.26048297 -0.035459038 0.09018254 0.07826238 0.117015004 0.17689975
0.11118793 0.0006284405 0.13088062 0.04742477 0.08933988 0.11471002 0.019826915 0.11105156
0.17963701 0.18595697 0.41140744 0.07831005 0.20232776 -0.006309687 -0.055568438 -0.27413005
0.11828838 0.34924033 0.047048837 0.1901744 0.110404186 -0.0243892 -0.14044689 0.035855472
-0.0603148 -0.04228907 -0.009515913 -0.14675435 0.03578588 -0.05648216 0.12637463 -0.037370153
0.02146537 0.0071982658 0.11658099 0.12324117 -0.014992818 -0.1355549 -0.046213433 -0.08328148
0.024959449 -0.06557475 0.0056926417 -0.004880765 0.0011100145 -0.14480788 0.0894622 -0.08008939
-0.21792662 -0.11900317 -0.07454204 -0.079191 0.012952505 -0.10066851 -0.006373928 0.026906827
-0.12800598 -0.12350798 0.15021467 0.028732695 0.07895151 -0.0701309 -0.016160259 -0.04727999
-0.10937448 0.1036997 -0.15100217 -0.09776064 -0.15299371 0.19230118 -0.121520385 0.106416
-0.1755874 0.21737583 0.26951545 -0.035679914 0.1517441 -0.15954727 -0.064367846 0.14203794
0.00021815462 -0.06785752 -0.007037509 -0.08942324 -0.09067056 0.0815101 -0.23233134 -0.07909045
-0.013143151 0.09032756 -0.00078933244 -0.064475045 -0.27650383 0.314861 -0.091761336 0.062353786
-0.1427106 0.11696285 -0.17311925 -0.10008573 -0.039177198 -0.16273227 0.059646115 -0.007836463
0.11500154 0.07705533 -0.080859385 -0.11468354 0.009429773 0.114019416 -0.18829893 0.08435608
-0.1619451 0.07174237 0.025452869 -0.10587562 -0.206374 -0.03317445 0.07267108 -0.103080936
0.044214126 0.013327656 -0.1860023 -0.26659697 0.0022714124 -0.0541727 -0.17162378 -0.117728725
00000000: e391 9cbd 1fdb 99bd 8701 81be 678a e7bc
00000010: 5e4d 35bd c75c 5e3d 1508 a3bd 49a7 4bbd
00000020: 0e13 3fbd 3482 7ebd 4460 15bd 2d12 8ebd
00000030: ac55 083e 756d a8bc c2b9 2c3d 5444 1c3d
00000040: 3b41 fcbd 6b9a 6fbe d841 0cbe fad9 3cbd
00000050: a6b0 b2bb 1e88 27be dac5 893d eaf1 38bd
00000060: 329a b13d 7477 e9bd 85ac acbe b235 633d
00000070: 20bd 383d f0f6 803e aaf4 183b 6f08 e33c
00000080: 868d 453e b8b2 a6be 7a5f 33be 2d8c 6ebe
00000090: f388 f63c 5e79 1fbd 95c7 4e3d 3bc9 45be
000000a0: 4e4f c6bd 24a8 8fbc 3d6a 12bd d4a4 47bd
000000b0: 30b4 d63d ac84 ccbd c67d 94bd dba5 9abd
000000c0: e62d 5f3d 5907 0cbe 9993 0dbe 6a7e 05be
000000d0: c141 56be 35a7 3abd 6e4c c5bd 7b4f 85be
000000e0: c5a4 b1bd 14fe 96bc 48c9 213e 1e98 11bd
000000f0: 592c 083e a3dd 64ba 7abb 043e acee 26be
00000100: 3935 39be 735c 4abd 39a5 73bd a69d 9cbc
00000110: 009f f03c 20f4 20be 9b79 083b 385e b1bd
00000120: 05c2 513e abc7 2fbd d27c 96bd ef87 413e
00000130: c2b4 17be 9807 263e ee08 7d3c 2c01 9e3e
00000140: 2734 9ebd 1d8c 8f3c 0236 f63c b8ce 383e
00000150: d172 e53c 447b 4a3e e4a3 733e 9a83 1e3e
00000160: e86e 23bd 9d61 bb3c d8e9 c83d 8f8c b53d
00000170: 7534 233e 2096 c53d e671 a0bd 0a93 763e
00000180: c8e2 893e ed92 023f 1edc 04bd 2224 c03e
00000190: 7851 69be d5ee 3c3e 3862 913d 8a24 e03e
000001a0: e662 773e 379a 823e e315 653e c666 c1bc
000001b0: 3665 41bd 90fd fa3c d125 643d 9c0e b23e
000001c0: 24cb 733e b2cc afbd 8b5d 8e3d 3254 7e3d
000001d0: 0d85 963d 21ca 55be 1831 84bd aae3 a8bd
000001e0: 066b 0cbe 08ac cd3e 065e 853e 7f3d 11bd
000001f0: a0b1 b83d 0748 a03d 90a5 ef3d 3525 353e
00000200: 7fb6 e33d eebd 243a 9205 063e 7a40 423d
00000210: d4f7 b63d 16ed ea3d 0e6c a23c 006f e33d
00000220: c4f2 373e 816b 3e3e ffa3 d23e 0561 a03d
00000230: 022f 4f3e 7ec1 cebb bb9b 63bd c65a 8cbe
00000240: 2e41 f23d a1cf b23e 48b6 403d 14bd 423e
00000250: 971b e23d dccb c7bc 4fd1 0fbe 30dd 123d
00000260: a70c 77bd 4e37 2dbd a2e8 1bbc c646 16be
00000270: 3794 123d d659 67bd 5a68 013e 7211 19bd
00000280: 25d8 af3c 6edf eb3b 04c2 ee3d de65 fc3d
00000290: 70a4 75bc e7ce 0abe 4c4a 3dbd 7b8f aabd
000002a0: c277 cc3c 0e4c 86bd 5789 ba3b d3ee 9fbb
000002b0: e87d 913a 8448 14be f537 b73d e805 a4bd
000002c0: 2828 5fbe efb7 f3bd 7fa9 98bd e42e a2bd
000002d0: be36 543c 4b2b cebd 62dc d0bb b56b dc3c
000002e0: 0014 03be c0f1 fcbd e0d1 193e d460 eb3c
000002f0: 54b1 a13d caa0 8fbd 8562 84bc aaa8 41bd
00000300: baff dfbd 8260 d43d 50a0 1abe bb36 c8bd
00000310: 62aa 1cbe 9aea 443e aedf f8bd a2f0 d93d
00000320: 2fcd 33be c597 5e3e eefd 893e 1a25 12bd
00000330: ce62 1b3e 5c60 23be 4ad3 83bd 6572 113e
00000340: 6fc0 6439 e2f8 8abd e89a e6bb 8823 b7bd
00000350: 7db1 b9bd c4ee a63d 44e8 6dbe 2dfa a1bd
00000360: 5f56 57bc a8fd b83d 34eb 4eba 7e0b 84bd
00000370: e991 8dbe 7635 a13e 5eed bbbd af66 7f3d
00000380: ba22 12be 388a ef3d 2c46 31be bff9 ccbd
00000390: 4578 20bd 4aa3 26be 7c4f 743d 8264 00bc
000003a0: ed85 eb3d 2fcf 9d3d 9b99 a5bd 34df eabd
000003b0: 567f 1a3c 0383 e93d 6fd1 40be e1c2 ac3d
000003c0: f0d4 25be aaed 923d 8982 d03c 51d5 d8bd
000003d0: b553 53be efe1 07bd 93d4 943d 191c d3bd
000003e0: df19 353d 3e5c 5a3c 6377 3ebe 667f 88be
000003f0: fadb 143b 31e4 5dbd 25be 2fbe c21b f1bd

model/hidden_layers/1/b f4 [75]
0.0018799485 1.0676916 -0.00028874452 0.08788414 1.1599468 0.18815166 -0.055786278 0.92194325
-0.32159257 0.26871353 -0.007530199 -0.044506565 -0.003032731 -0.003631621 0.12133858 0.76446056
-0.031633466 0.9020437 -0.011909737 0.13906844 -0.0077965143 0.72419894 -0.105324514 -0.02880477
1.0278194 1.2134631 1.0482495 -0.25829124 1.0152663 1.0560156 0.5824517 -0.18076564
1.1394958 1.1578202 0.7832562 1.0351881 0.97953176 0.41143438 1.1577779 0.8124195
-0.004298594 0.06446377 -0.41715714 1.1600207 -0.089348845 -0.005351561 0.3200771 0.16119207
0.86423194 -0.0010058015 0.70292985 -0.42244014 1.0390851 -0.10269009 -0.02560842 -0.305743
0.22008704 0.017795464 -0.29353625 0.7641795 1.0991967 0.98438627 0.1673001 0.17316927
0.06978706 -0.21657604 -0.43414053 0.8586295 -0.11124897 -0.020968264 1.0499096 0.70856684
-0.2381432 0.90403575 -0.026956495
00000000: 9b68 f63a 1eaa 883f a262 97b9 9afc b33d
00000010: 2379 943f d4aa 403e 2780 64bd 7904 6c3f
00000020: c8a7 a4be d294 893e e3bf f6bb 844c 36bd
00000030: c8c0 46bb 7d00 6ebb 5d80 f83d b0b3 433f
00000040: 1892 01bd 56ec 663f 0f21 43bc f567 0e3e
00000050: e779 ffbb 1a65 393f 61b4 d7bd fbf7 ebbc
00000060: 968f 833f c252 9b3f 0a2d 863f c03e 84be
00000070: 3ff4 813f 852b 873f 8e1b 153f a11a 39be
00000080: 00db 913f 7433 943f 7a83 483f 0b81 843f
00000090: 98c2 7a3f 87a7 d23e 1132 943f b9fa 4f3f
000000a0: 38db 8cbb 9505 843d 9f95 d5be 8f7b 943f
000000b0: 87fc b6bd 265c afbb 25e1 a33e 890f 253e
000000c0: 4e3e 5d3f 19d5 83ba 36f3 333f 134a d8be
000000d0: be00 853f 2f4f d2bd c0c8 d1bc 598a 9cbe
000000e0: 7f5e 613e cbc7 913c 624a 96be 45a1 433f
000000f0: 7ab2 8c3f bd00 7c3f b850 2b3e 4953 313e
00000100: 85ec 8e3d 1cc6 5dbe ab47 debe 25cf 5b3f
00000110: 80d6 e3bd a3c5 abbc 7063 863f a364 353f
00000120: d0db 73be e36e 673f ded3 dcbc

model/output/W f4 [4, 75]
0.078890346 -0.40554497 -0.049778968 -0.07156391 -0.53154856 -0.0242026 0.11436208 -0.3292497
0.09748956 -0.091284566 -0.026477754 0.10203682 -0.21226136 0.10939458 -0.011105909 -0.2546757
-0.092247255 -0.30878565 0.20788921 -0.039281663 -0.0010294698 -0.21012722 -0.063034005 -0.08223478
-0.36826396 -0.6950446 -0.56910783 0.069009535 -0.4780926 -0.4386319 -0.15865247 0.15311208
-0.64367276 -0.5752768 -0.21545157 -0.44031754 -0.5165211 -0.08872875 -0.52126133 -0.4565209
0.023929091 0.041047644 0.14483811 -0.59076005 0.09727208 -0.07858239 -0.1675206 0.013618149
-0.31627694 0.10490477 -0.21681462 0.16990584 -0.501033 0.021918258 -0.012814584 0.102139056
-0.09749396 0.0293797 0.12023374 -0.30088374 -0.41455358 -0.4915768 -0.040564448 -0.09188653
0.1795366 0.28760654 0.10581737 -0.37979463 -0.006564137 -0.027310401 -0.4776061 -0.18117899
0.13539748 -0.46547532 -0.05459991 -0.054520503 -0.4882773 0.06743712 -0.109332494 -0.53893083
0.02039055 -0.024619812 -0.5210964 0.062509485 -0.09446805 -0.01045189 0.13202657 0.09604824
-0.08389571 -0.014434024 -0.13636729 0.06403343 -0.5972018 -0.005396214 0.024488669 -0.043224838
-0.25938946 -0.04124263 -0.047243632 -0.4072417 -0.6498872 -0.4326785 0.09459606 -0.4508516
-0.4809014 -0.13296622 0.02104718 -0.50253 -0.6862031 -0.24033862 -0.44309095 -0.4284893
-0.119937375 -0.5406117 -0.36050794 -0.08115333 -0.0026645912 0.15692995 -0.5394388 0.1641329
-0.045013275 -0.17126568 0.028163742 -0.3132716 0.08371397 -0.118221134 0.055322483 -0.55016166
-0.1017438 0.04523512 0.09235411 -0.057649992 -0.14190368 0.15113348 -0.25701693 -0.55017006
-0.45150837 0.027592292 -0.12916176 -0.1391346 -0.0037153524 0.20737115 -0.32101023 -0.0043309983
-0.12553898 -0.3826746 -0.25586042 -0.022734638 -0.35373712 -0.024248635 -0.021789076 -0.40621448
0.02196446 -0.059483893 -0.46269476 -0.03659147 -0.06594031 -0.41343093 0.085083954 -0.08887953
0.059640348 -0.06662317 0.14092797 -0.0069807987 -0.056798454 -0.29272482 0.059497386 -0.46427774
-0.10951778 0.008775595 -0.1987408 -0.21131755 0.19394901 -0.008159209 -0.522335 -0.50711435
-0.49386472 -0.017835228 -0.44533652 -0.47511655 -0.245733 -0.015986342 -0.67434967 -0.5243282
-0.3043006 -0.36450383 -0.36916456 -0.09528491 -0.61122006 -0.30344218 -0.03354899 -0.072996445
0.13881283 -0.4592931 0.16828054 -0.08756241 -0.21912439 -0.06680221 -0.4328427 0.14476112
-0.25253013 -0.06273887 -0.5367106 -0.027050275 0.067179516 0.04217675 -0.09201369 -0.0650062
0.13277042 -0.19231275 -0.5378199 -0.4074106 -0.14796571 -0.1933908 -0.061090477 -0.14671688
0.20364103 -0.45732644 0.082893565 0.05934179 -0.54349005 -0.35878098 0.011267393 -0.46546385
0.041593246 -0.07816147 -0.45042947 0.1562389 -0.07086163 -0.59863305 -0.04088773 0.0024241123
-0.3519304 0.100932315 -0.045519307 -0.08285153 0.10402692 -0.071132876 -0.05847859 0.005688962
-0.21209694 0.043032214 -0.33962357 0.066395685 -0.055138852 -0.06835324 -0.28263736 0.17718013
0.107661836 -0.5331652 -0.5761789 -0.49601814 0.13405816 -0.44990298 -0.4232397 -0.17394881
00000000: 4391 a13d 97a3 cfbe 08e5 4bbd 1990 92bd
00000010: 9113 08bf 8844 c6bc ab36 ea3d 6b93 a8be
00000020: 9ba8 c73d 67f3 babd e0e7 d8bc aef8 d03d
00000030: 0b5b 59be 440a e03d 8ff5 35bc da64 82be
00000040: 21ec bcbd 2719 9ebe e9e0 543e cfe5 20bd
00000050: 46ef 86ba 972b 57be f917 81bd b56a a8bd
00000060: 188d bcbe 71ee 31bf 0db1 11bf df54 8d3d
00000070: 8ec8 f4be 5c94 e0be cb75 22be 6ac9 1c3e
00000080: bdc7 24bf 5745 13bf 569f 5cbe 4d71 e1be
00000090: ba3a 04bf 6bb7 b5bd 6271 05bf 1bbd e9be
000000a0: f106 c43c 9321 283d 7150 143e 0d3c 17bf
000000b0: 9636 c73d ceef a0bd 858a 2bbe a81e 5f3c
000000c0: 0def a1be 50d8 d63d a704 5ebe ccfb 2d3e
000000d0: b343 00bf eb8d b33c 43f4 51bc 482e d13d
000000e0: eaaa c7bd b2ad f03c 1b3d f63d 6f0d 9abe
000000f0: 5e40 d4be f4af fbbe e826 26bd 012f bcbd
00000100: 71d8 373e 2a41 933e c7b6 d83d 7174 c2be
00000110: f917 d7bb 10ba dfbc c988 f4be fc86 39be
00000120: a3a5 0a3e c852 eebe 28a4 5fbd e450 5fbd
00000130: 7bff f9be 791c 8a3d b7e9 dfbd 5ff7 09bf
00000140: 150a a73c 7daf c9bc 9366 05bf f904 803d
00000150: 7778 c1bd 673e 2bbc f931 073e f1b4 c43d
00000160: 84d1 abbd af7c 6cbc dea3 0bbe f523 833d
00000170: 38e2 18bf b9d2 b0bb 769c c83c 870c 31bd
00000180: b2ce 84be 08ee 28bd 8a82 41bd fc81 d0be
00000190: 025f 26bf 0988 ddbe 94bb c13d 05d6 e6be
000001a0: b538 f6be 4c28 08be 236b ac3c cea5 00bf
000001b0: 02ab 2fbf 541b 76be d1dc e2be f362 dbbe
000001c0: baa1 f5bd 8765 0abf 7f94 b8be b833 a6bd
000001d0: 6ca0 2ebb 3fb2 203e a918 0abf 7412 283e
000001e0: d75f 38bd 4560 2fbe a6b7 e63c 2365 a0be
000001f0: 3b72 ab3d ec1d f2bd d499 623d 65d7 0cbf
00000200: 0e5f d0bd 7648 393d 2724 bd3d 6622 6cbd
00000210: 334f 11be bcc2 1a3e b997 83be f2d7 0cbf
00000220: 1b2c e7be 3b09 e23c fb42 04be 4d79 0ebe
00000230: 457d 73bb 1a59 543e 745b a4be 0ceb 8dbb
00000240: 4a8d 00be eded c3be 2300 83be fe3d babc
00000250: 081d b5be 13a5 c6bc 017f b2bc 58fb cfbe
00000260: d0ee b33c 62a5 73bd 54e6 ecbe f0e0 15bd
00000270: b70b 87bd 38ad d3be 7f40 ae3d 7906 b6bd
00000280: 7049 743d bb71 88bd 6c4f 103e 2fbf e4bb
00000290: 7fa5 68bd 07e0 95be 88b3 733d d0b5 edbe
000002a0: dc4a e0bd 83c7 0f3c b582 4bbe a163 58be
000002b0: 929a 463e 34ae 05bc bfb7 05bf 3fd2 01bf
000002c0: d6db fcbe 2f1b 92bc 2603 e4be 7a42 f3be
000002d0: 6ea1 7bbe caf5 82bc 2ea2 2cbf 5f3a 06bf
000002e0: 4acd 9bbe 3fa0 babe 2303 bdbe bc24 c3bd
000002f0: eb78 1cbf c65c 9bbe aa6a 09bd 297f 95bd
00000300: f324 0e3e 7728 ebbe bc51 2c3e ec53 b3bd
00000310: 2562 60be 99cf 88bd 8f9d ddbe 423c 143e
00000320: a14b 81be 3d7d 80bd de65 09bf 8a98 ddbc
00000330: 6a95 893d 87c1 2c3d ac71 bcbd f821 85bd
00000340: f8f4 073e a2ed 44be 91ae 09bf 1f98 d0be
00000350: 5384 17be 3d08 46be 023a 7abd f33c 16be
00000360: 4687 503e b126 eabe 1ac4 a93d 6010 733d
00000370: 2a22 0bbf 24b2 b7be df9a 383c 4751 eebe
00000380: ae5d 2a3d 1f13 a0bd b19e e6be 17fd 1f3e
00000390: e71f 91bd 0440 19bf e479 27bd dbdd 1e3b
000003a0: 3930 b4be 9ab5 ce3d 7472 3abd 10ae a9bd
000003b0: 110c d53d 1dae 91bd 3f87 6fbd 796a ba3b
000003c0: f12f 59be 8c42 303d 24e3 adbe 76fa 873d
000003d0: 47d9 61bd c9fc 8bbd d8b5 90be b56e 353e
000003e0: cf7d dc3d 847d 08bf 7680 13bf 17f6 fdbe
000003f0: 8b46 093e af59 e6be e0b2 d8be a31f 32be

model/output/b f4 [4]
-0.9389319 -0.88167137 -0.9659021 -1.0033895
00000000: d75d 70bf 37b5 61bf 5c45 77bf 116f 80bf
