experiments/visitall/visitall_full_train_set_2-75-2/best/target_model.npz (npz, 29572 bytes, 6 tensors)

model/output/b f4 [4]
00000000: 807e bdc1 e62b bfc1 12d2 c7c1 6d68 c8c1
-23.686768 -23.896435 -24.977573 -25.05099

model/output/W f4 [4, 75]
00000000: 3e67 da3d 9553 3e3d 529d 803d 2451 893d
00000010: fd06 463c c5fc 5d3d 0605 573b eaef 8f3c
00000020: 8c82 86bc b35e 01bb a6f5 633d 3520 793d
00000030: d9bb 3a3d bed1 83bc 9e60 273c d43e 07bb
00000040: 5880 b6bd 0357 1fbb 30ce 01bd b3b2 563d
00000050: b38b c63d b599 3b3e d5bc 663d 5c6c 523c
00000060: 41b5 a63c 5dbb 3bbd 5dae 273d c35d 75bc
00000070: 8aab 32bd f6eb f7bb 8743 0c3d b9b3 09bc
00000080: 874b da3a 471d 02ba 3f38 79bc 583d 8cbd
00000090: 638c bc3d d01f 213c 8a76 9a3c b5fc 9a3b
000000a0: 36e7 ecbf 0c7b 55bc 1913 7c3d ecfb 2abc
000000b0: 228a a23c e622 71bc 24ed 9f3c 9cb9 a23c
000000c0: 305b 10bc 37d4 6a3a c10a 553d 6d3d ccbc
000000d0: c5b5 acbc 5ce9 0dbd ad72 a4bd 099e 883b
000000e0: 7f13 7fbd 73d7 f4bc 532e 43bc d5f8 44bd
000000f0: 8efa 453a e304 973b 2d4e fdba 6641 903c
00000100: 679a f43c 68f5 ab3c 25f1 193d d3ca 44bd
00000110: 4891 debe b310 11bd 4c2c ca3c 781b 1b3d
00000120: 320f 8fbd 560a bd3c 692d 0d3c f2cb 853c
00000130: a13c 7139 013f 33bc 1545 443d f4d6 a9bd
00000140: a551 203d 1d38 553d 528f 8fbd d347 af3c
00000150: 0990 513b 8b8c 58bd d957 fa3c 0a42 803d
00000160: 72a0 07be 0e0c e8bd 389f 1cbb befa e13c
00000170: 2641 923c 2499 813c 11da 1fbd a790 023c
00000180: 9728 81bd 6e47 30bd 891b 993b 20bc 8c3c
00000190: bb62 a3bd 564a 8a3d c0ec 153d a8d4 03bd
000001a0: 67d2 2c3d 40b4 093d 9686 593d d05b f0bb
000001b0: d40c 1a3c 7ac1 043c ab23 803b 00f5 c2bc
000001c0: 0a8b 77bd 6be4 91bd a468 94bc 7c65 edbf
000001d0: c352 21bd 5bcd 273d 234f 78bd c0ab 77bd
000001e0: b680 54bc 4f00 b63b 53d7 fcbc 5c6a 49bc
000001f0: 8d70 28bd 7940 e83c b78b 2b3d 2bf9 f9bb
00000200: 1785 573c 4436 3dbd bdca ecbc a96f 4cbd
00000210: f069 99bc 442a 533c 2893 3d3d 79d2 71bd
00000220: ee59 103d e551 1d3d 70f2 74bd c6a0 b53d
00000230: 725b 5cbd 63df 9e3c 73db 14bd 4e01 e2be
00000240: 5eed 8f3c 4140 c2bc e233 aa3d 44ee a7bc
00000250: b2f5 a23c 0ca8 3cbc 4370 3cbc 9c62 20bd
00000260: 84f9 1ebc a09b b53c 58ae 543d a958 86bc
00000270: b1ae d23c 063a 443c b20d b4bc 2d21 833b
00000280: 24d9 1a3d 70e9 8dbc 059b 983d 53bc 9ebd
00000290: 889c 6ebd f3d7 9b3d 1c62 d3bc 536d c03d
000002a0: 112a 94bd 7cb4 813d de7a 143d e8b1 61bd
000002b0: 9b31 5dbc 2672 223c 6aa1 47bc e66f 95bd
000002c0: 07c5 a43c c753 2dbd e059 823b 1fbc af3d
000002d0: 6ca3 0dbd da7e 1e3c 9d13 5c3d 0743 543c
000002e0: be7f 5fbd 8528 07bd 58ae 0d3d c00a 1b3d
000002f0: 24f1 5fbd d866 de3c 8350 ebbf 6691 04bd
00000300: f08c 9d3c 7622 adbc b34f 483d 5c20 2a3d
00000310: e0a6 c53c b636 eebd 3bbb eb3b 84c7 10be
00000320: 83c6 34bd 008d 7f3c 5c3f 6dbd 59cb 5f3c
00000330: f659 14be fc58 083d 5513 373d 319f cebc
00000340: 6821 d4bd be27 133d 7467 38bd adaa 3fbb
00000350: 40bd 683d 2fb5 693d 3ba0 333e 73ec 82bd
00000360: 3d7e 2a3c 7ed5 a9bd 03dd d4be 08de 0f3e
00000370: a0f4 d6bc 59e8 843d 9112 00bd 36ba 443d
00000380: 0213 e6bb df20 d3bc d642 86bd c7c7 87bd
00000390: e8f6 1abc 3129 30bd d57b 443d d1a2 c73d
000003a0: 862d 443c 0081 933d d4f1 d93c 2b0d 21bc
000003b0: 2460 49bd 492c 353d 60b9 3f3d 33d6 0d3d
000003c0: 82f7 5fbc debd a43c 1a0f 3e3d fc93 9e3c
000003d0: ed53 103b be40 483d 89f6 50bd 26f7 f33b
000003e0: 5748 5fbd dfa7 0f3c 5d2c a13c ac87 a63c
000003f0: 49e7 34bd 52d1 07ba 6002 163c a9d4 8bbc
0.10664223 0.04646643 0.062800065 0.067049295 0.012086627 0.054196138 0.003280939 0.017570455
-0.016419671 -0.0019740283 0.05565419 0.06082173 0.0455893 -0.016091224 0.010215906 -0.0020636814
-0.089111984 -0.0024313338 -0.031690776 0.052416515 0.09694614 0.18320353 0.056332428 0.012843218
0.0203501 -0.04583298 0.04093777 -0.014975968 -0.043620624 -0.0075659705 0.034244087 -0.008404666
0.0016654589 -0.0004963469 -0.015211164 -0.06847638 0.09206464 0.009834245 0.018855352 0.004729832
-1.850806 -0.013029825 0.06154165 -0.010436039 0.019841257 -0.014717793 0.019522257 0.019863896
-0.008810803 0.0008958014 0.05201221 -0.024931634 -0.021082768 -0.034646377 -0.08029685 0.00416923
-0.062274452 -0.02988789 -0.0119129 -0.048088867 0.0007552289 0.004608737 -0.0019325666 0.01760931
0.029858781 0.020991042 0.03758349 -0.04804499 -0.43470216 -0.035416316 0.024679326 0.037867993
-0.0698532 0.023076218 0.008616784 0.0163326 0.00023006137 -0.010940314 0.047917444 -0.08292952
0.039140362 0.052055467 -0.07009758 0.021396553 0.003197672 -0.052868407 0.030559467 0.06262596
-0.13244799 -0.11330424 -0.0023898613 0.027585384 0.01785333 0.015820093 -0.039026324 0.007969058
-0.0630657 -0.04303687 0.004672472 0.017179549 -0.07977816 0.0675246 0.036602736 -0.032185227
0.042192843 0.033619165 0.053106867 -0.0073351637 0.0094024725 0.008102769 0.003910502 -0.023798466
-0.060435332 -0.071236454 -0.018116303 -1.8546596 -0.03938557 0.040967327 -0.060622346 -0.060466528
-0.01297014 0.005554236 -0.030864393 -0.012293424 -0.04112296 0.028351055 0.04188129 -0.00762858
0.01315429 -0.04619433 -0.028905267 -0.049911175 -0.018727273 0.012888495 0.046282917 -0.059038613
0.035242014 0.03840818 -0.05980152 0.08868556 -0.053798147 0.019393628 -0.036342096 -0.4414162
0.01756924 -0.02371228 0.08310677 -0.020499356 0.019892547 -0.011514675 -0.011501375 -0.03915654
-0.009703044 0.022168934 0.05192408 -0.016399698 0.025718065 0.0119767245 -0.021979187 0.0040017576
0.037804738 -0.017323226 0.07451443 -0.07750764 -0.05825475 0.076095484 -0.025803618 0.09395852
-0.07234586 0.06333253 0.036249988 -0.055101305 -0.013500596 0.00991491 -0.01218448 -0.072967336
0.020113481 -0.042316224 0.003977999 0.08580803 -0.03457968 0.009673798 0.053729642 0.012955434
-0.054565184 -0.032997627 0.034590095 0.03785205 -0.05467333 0.02714865 -1.8383945 -0.032365225
0.019232243 -0.021134596 0.048904132 0.041534767 0.024127424 -0.11631529 0.0071939505 -0.14138609
-0.044134628 0.015597582 -0.057921752 0.013659322 -0.14487442 0.033287987 0.04469617 -0.025222393
-0.10357934 0.035926573 -0.045020536 -0.0029246018 0.056821108 0.057057556 0.17541592 -0.06392755
0.010406074 -0.082926735 -0.4157487 0.14049542 -0.026239693 0.06489629 -0.031267706 0.048029147
-0.007021309 -0.02577251 -0.06555717 -0.066299014 -0.009458281 -0.043008033 0.047969658 0.09747852
0.011973744 0.07202339 0.02660457 -0.0098298 -0.049163952 0.044231687 0.046807647 0.034628104
-0.01366985 0.020110067 0.04640112 0.019357674 0.002202268 0.048889868 -0.051016364 0.007445234
-0.054512348 0.008768051 0.019674474 0.020328365 -0.044165883 -0.00051810325 0.00915584 -0.017069178

model/hidden_layers/0/b f4 [75]
00000000: 7996 81c0 4089 84bf 197e 55c0 76ab c3c0
00000010: 1305 b5bf c7ef 2dc0 81be f2c0 fb10 d0bf
00000020: 8b05 dec0 23a7 37c0 6ccf 573d ec44 7c40
00000030: df4d 89c0 b8ba a6c0 fe73 20c0 7a5d 3bc0
00000040: 4c82 a3bf a1b8 30c1 a2b3 bebf 1b2d 38c0
00000050: f147 dabf 4f02 cfc0 ea79 dfc0 8ee0 2fbf
00000060: f4d4 71c0 166f 1ac0 a02f b0c0 50fd 7abf
00000070: 3833 48c0 e75f b5c0 0196 d33e 9a68 cec0
00000080: 6632 bcc0 1bd3 99c0 2679 6ac0 ff79 9ec0
00000090: 71af b3c0 8c68 3bc0 a08b 2ac0 8be2 95be
000000a0: 8484 cfc0 2554 4ac0 7d00 31c0 85a0 c1c0
000000b0: d8cd 40c0 4f16 edbf 4186 74c0 7ea9 87c0
000000c0: cb3c 4bc0 89e4 b241 9141 98c0 9039 88c0
000000d0: 04e8 99c0 ebd6 6ec0 8ab4 17c0 70de d0c0
000000e0: 6d11 cec0 18b1 a9c0 2cee bec0 d609 2441
000000f0: fe45 97c0 b954 a6c0 057f 95c0 c296 e13f
00000100: 6713 abbf b53a a1c0 6d3a 66c0 e9e4 25c0
00000110: a779 e6c0 9f77 39c0 970f 0e40 02e4 07c1
00000120: 2ab1 ec3e 3970 19c0 1f25 91c0
-4.0496182 -1.0354385 -3.3358214 -6.1146803 -1.4142174 -2.7177598 -7.585755 -1.6255182
-6.9381766 -2.8695762 0.052688047 3.9417067 -4.2907557 -5.210293 -2.5070796 -2.9275804
-1.2774138 -11.045075 -1.489857 -2.877753 -1.7053205 -6.469032 -6.983632 -0.6870202
-3.7786226 -2.4130301 -5.5058136 -0.98042774 -3.1281261 -5.667957 0.4132538 -6.4502687
-5.881152 -4.8070197 -3.6636443 -4.952392 -5.615166 -2.928256 -2.664772 -0.292744
-6.484926 -3.1613858 -2.7656548 -6.0508447 -3.0125637 -1.8522433 -3.8206942 -4.23944
-3.1755855 22.36159 -4.7580037 -4.2570267 -4.809572 -3.7318676 -2.3703942 -6.527153
-6.439627 -5.302868 -5.9665737 10.252401 -4.727294 -5.197842 -4.6717553 1.7624133
-1.3365296 -5.0384164 -3.597316 -2.5920966 -7.20235 -2.897926 2.2197015 -8.493166
0.46228915 -2.3974745 -4.5357814

model/hidden_layers/0/W f4 [75, 20]
00000000: 39b6 0b3f e832 02bd e724 c9be 8bdf 4fc0
00000010: 109f a6bf 7a7e f63e 712e 40be 3a43 3ebe
00000020: 32f9 59c0 70a6 5fbc 6d66 bf3f f188 593e
00000030: 7e02 39be b49b 73c0 d8a7 0abc 61f2 ad3e
00000040: 80d9 9bbe 8af0 0dbd ef8a 56c0 231b 883b
00000050: f6ee 92bf e0e5 48bd 625c cbbb f541 84c0
00000060: dc0d 1c3b 20d6 42be 861a 9dbe 929e 1ebd
00000070: 64ea a1c0 a1b0 923c 7371 663d 425b ab3e
00000080: 473a b6bd e4d6 9dc0 8aed d73a c398 73be
00000090: aa2c 55bd 5961 d4bd edaa 9cc0 d11d 80bc
000000a0: 9f3d a5bd a7c8 e43d d402 2cbe c924 2ac0
000000b0: 2fd0 913e 752d 013f ebe0 bbbe edc9 6dbe
000000c0: efcf 4ec0 409a eabc df37 663f 9fbf 16bf
000000d0: 4fb5 cd3c 2d18 51c0 38a1 0a3d dd09 853c
000000e0: bf43 25bf 0f42 c7bd 0a41 3dc0 7424 6cbc
000000f0: 246d 323e f601 92bc 3611 9abe d6d0 8fbf
00000100: 3e9f c2bf a539 2abf 3d42 4abf f756 2a3e
00000110: 579a ffbf 5917 fdbb 9457 3cbf 8d7c e6be
00000120: b118 303e b555 1ec0 6332 53bb 80fc 123f
00000130: 2ed9 9dbf 243d 693d def4 4cc0 4cca 0f3c
00000140: caaf f83e ad1a 06bd 48b8 67bd 5ec1 3ac0
00000150: 8d8c 05be dc03 4b3f 7e41 04bf 928b 813d
00000160: c2db e2bf 3615 68bb 2d87 ab3f 981a 32bf
00000170: adb6 923d a579 ccbf 50dd 91b9 f680 a83f
00000180: 54bd 3cbf 93e7 9d3d ba80 d1bf 9eab 3abb
00000190: b0c5 4140 7902 043e 6e8c b6bc e7a9 32c0
000001a0: 8c1f 8f3d 64a7 8540 4eef d3be 84ec 35bd
000001b0: 612c 15c0 5602 a4b9 0615 3d40 2f18 73bf
000001c0: 47db 27bd 3f3f ecbf c385 85bc 3ec2 9ebf
000001d0: b103 7bbf 45e4 7d3c 03d6 d1bf 13f1 7fb9
000001e0: b46f 32bf ebd5 033e b930 9dbd a7e2 39c0
000001f0: 4a63 cabd 18d1 133f d4f9 2dbe feb9 5f3e
00000200: f8f2 54be 8f07 0fbc 9e43 d3bc 8d1c e6be
00000210: 8a4e 8d3e 7b61 e5bd 663d d8bb 6571 d03e
00000220: 7866 2bbf 65cb 903e b66f 8e3e 45c9 10bc
00000230: e7f6 c03e 30b4 2ebd 8431 f4bb 7c60 63c0
00000240: 1a3d 293f f699 0b40 d1ad f83d 3e8f 70bc
00000250: 9c6e 10c0 93e0 c7bc 93e8 0e40 d4a3 8ebe
00000260: c6f9 a53d da74 25c0 73d3 1f3c 40c9 dd3f
00000270: 952d f1bc e5ff 573d 6610 efbf acde 453b
00000280: 70ea 8cbf 04c7 953e 2564 563d 1a8f 9ebf
00000290: 447a c1bd 0199 b33f e034 08bf f513 223e
000002a0: 94ba 2140 b5dd 063b 3c14 d23f bad9 83bf
000002b0: 03fd 343e 6a8e 1740 d532 473a a8b8 803f
000002c0: 46a8 febe 17ad 2b3e 7a34 0840 4cd6 35ba
000002d0: a2bd ba3e f87d 153e cc34 56bd 5b19 8a3f
000002e0: 8fbc 31bc 713c b43f 92b3 4dbf 0e53 22bd
000002f0: 425d 80bf c4c4 99bc fe26 e13f f933 9ebe
00000300: 4a2c 043d 705f 83bf 5d58 383d a81d 0840
00000310: 565e e0be e3c5 153d 379c 31bf dac3 f6bc
00000320: 2094 84bf c027 46be a29f 00bd 4ba6 e4bf
00000330: 4471 d93d 312a 11be 927c 02bf 94c7 2bbe
00000340: fd14 88c0 6996 013c 3f04 0dbf 2e97 15bf
00000350: 81ac c2bd 8858 8bc0 e337 453b 7279 83be
00000360: 0829 48bf 9951 cebd 68c3 7ac0 130a 37bc
00000370: 0f7d 3bbe aa06 4b3e 6ca0 45bd e32a 203f
00000380: e489 b8bd 95ad 943e ad12 12bf 2ef0 663b
00000390: 9399 efbf ce93 3bbc d1f6 b53e bb12 1bbf
000003a0: f572 c33b e799 dfbf 14e8 96bb 531d a33e
000003b0: 172a b1bf 69f2 3c3d 49de 20c0 d21a b5bb
000003c0: e6a4 abbe 0024 f1be 6bb8 30bd 9368 86bf
000003d0: ea1c 223d 6855 46be 6b91 2cbf 14cc e53d
000003e0: b937 10c0 c283 dcbb 15eb 11bf c1b2 d4be
000003f0: 4a01 5d3d 5c32 f3bf 45eb 383c cd22 d4be
0.54574925 -0.03178683 -0.39285967 -3.248019 -1.3017292 0.4814337 -0.18767716 -0.18580332
-3.4058347 -0.013650522 1.4953133 0.21243645 -0.18067357 -3.8063784 -0.008462869 0.33973983
-0.30439377 -0.034653224 -3.3522298 0.0041536256 -1.1479175 -0.04904735 -0.0062060812 -4.1330514
0.0023811972 -0.19026995 -0.30684298 -0.038725443 -5.059862 0.017906489 0.056260537 0.33468062
-0.08897834 -4.932482 0.001647399 -0.23788743 -0.052044548 -0.1037013 -4.895865 -0.015639218
-0.08068394 0.11171084 -0.16797954 -2.6584952 0.28479144 0.50459987 -0.36695036 -0.2322156
-3.2314413 -0.028638005 0.89929 -0.5888614 0.025110869 -3.2671006 0.033845156 0.016240055
-0.645565 -0.097293966 -2.9570947 -0.014412988 0.17424446 -0.0178232 -0.30091256 -1.1235607
-1.5204847 -0.6649421 -0.7900732 0.16634737 -1.9968976 -0.0077237305 -0.73571134 -0.450169
0.17196919 -2.4739811 -0.0032226078 0.57416534 -1.2331903 0.056943074 -3.2024455 0.008776259
0.48571616 -0.032740284 -0.05657223 -2.9180522 -0.13041897 0.79302764 -0.51662433 0.06325449
-1.7723315 -0.0035413033 1.3400627 -0.6957183 0.07163749 -1.5974623 -0.00027821446 1.3164356
-0.7372639 0.07710185 -1.6367409 -0.002848364 3.027691 0.12891568 -0.022283759 -2.79162
0.06988439 4.1766834 -0.41393512 -0.044415012 -2.3308337 -0.00031282258 2.9544082 -0.94958776
-0.040980604 -1.8456801 -0.016299134 -1.2403028 -0.9805251 0.015496318 -1.6393436 -0.00024408502
-0.69701695 0.12874572 -0.07675309 -2.9044588 -0.09882219 0.57740927 -0.16989833 0.21848294
-0.2079581 -0.008729829 -0.025789078 -0.44943658 0.27598983 -0.112002335 -0.006599116 0.40711513
-0.6695323 0.28280178 0.27819604 -0.008837049 0.37688372 -0.04265231 -0.007452192 -3.552764
0.6610886 2.181272 0.12142528 -0.014682589 -2.256751 -0.024399078 2.2329452 -0.27859366
0.08104281 -2.585257 0.009755003 1.7327042 -0.02944068 0.052734274 -1.867688 0.0030192537
-1.1009045 0.292534 0.0523416 -1.2387421 -0.094471484 1.4031068 -0.5320568 0.15827926
2.5270128 0.0020578925 1.6412425 -1.030082 0.17674641 2.3680673 0.0007598822 1.0056353
-0.49737757 0.16765247 2.128203 -0.0006936535 0.36472803 0.14598835 -0.052296445 1.0788988
-0.0108481785 1.4080945 -0.8035213 -0.03962999 -1.002846 -0.018770583 1.7590024 -0.30899027
0.0322688 -1.02635 0.045006145 2.12681 -0.43821973 0.036565673 -0.6937899 -0.030122686
-1.0357704 -0.19351101 -0.031402238 -1.7863249 0.10617307 -0.14176251 -0.5097133 -0.16775352
-4.252562 0.007909396 -0.55084604 -0.58433807 -0.09505559 -4.354557 0.0030093126 -0.25678593
-0.7818761 -0.10074157 -3.9181767 -0.0111718355 -0.18309425 0.19826761 -0.048248693 0.6256544
-0.090106755 0.29038683 -0.57059747 0.0035238373 -1.8718742 -0.011448814 0.35539868 -0.60575455
0.0059646317 -1.7468842 -0.0046053026 0.3185831 -1.384097 0.046129618 -2.5135672 -0.005526879
-0.33524245 -0.47097778 -0.043144625 -1.0500664 0.039578356 -0.19368517 -0.6740939 0.112205654
-2.253401 -0.006729574 -0.5699933 -0.41542628 0.053956307 -1.8999743 0.011286561 -0.414328

model/hidden_layers/1/b f4 [75]
00000000: d6b1 37c0 8ccc 063f b9ce e13f 7d1c 44be
00000010: c65b 21bf d258 4940 2ea5 80bf febc cabf
00000020: a4be 803f 6d40 da3c 836d f13d ed82 773d
00000030: 2105 833f 71df 83be a000 99bf 1ec2 eebf
00000040: 4433 87be 4ec1 743f 15dc 28c0 0771 0441
00000050: a002 8340 1837 bbbd 263d c63e 2e1e a73c
00000060: 43c4 0bc0 a970 db3c 5e77 1d40 9291 863b
00000070: b00c aabe de40 bf3f 74af 22be e012 07c0
00000080: 759a 6f3f 9869 48be 2fa6 2ebe 1610 943f
00000090: 1c7f c23d 0a1b d6bd fd1c 6040 5d80 2540
000000a0: 6bbe 0342 e24a a23c 1903 e4be 0d51 963e
000000b0: aa5d 1dbd d40e 5b3f f539 913e 909b ea3f
000000c0: 85a6 633f 3794 d83e 453e 8d3f 3daa 4940
000000d0: 3973 04bd b9a9 bd3d 4c44 193e 06f2 ca3f
000000e0: 2e4a c3bc e196 1ec0 2d26 da3e c94a 1141
000000f0: d7b0 4941 6590 14bf c41d 7fbf 20e9 25be
00000100: 6f78 c9be e4ec 27bf b287 27c1 e5d6 b6bf
00000110: 7cde f341 a998 4cbe 6c37 973f 21b3 b840
00000120: 6396 8741 53e6 4dbd dd8e 31bf
-2.8702292 0.52655864 1.7641212 -0.19151492 -0.6303066 3.1460462 -1.0050409 -1.5838926
1.0058179 0.026642049 0.11788466 0.060427595 1.023594 -0.2575641 -1.1953316 -1.865299
-0.264063 0.9560746 -2.6384327 8.277595 4.0940704 -0.09141368 0.38718528 0.020400133
-2.1838539 0.026787119 2.4604106 0.004106709 -0.33212805 1.4941671 -0.15887243 -2.110527
0.9359506 -0.19571531 -0.17055582 1.1567409 0.094969004 -0.10454376 3.5017693 2.5859597
32.935955 0.019811098 -0.44533613 0.29358712 -0.038419403 0.855695 0.2836453 1.8328724
0.88925964 0.4230058 1.1034628 3.1510155 -0.032336447 0.09260888 0.1496746 1.585511
-0.023839083 -2.477959 0.4260725 9.080758 12.605674 -0.5803283 -0.99654794 -0.16202211
-0.39349696 -0.6559584 -10.470629 -1.4284331 30.483635 -0.1998011 1.1813788 5.7718663
16.948431 -0.050268482 -0.6935862

model/hidden_layers/1/W f4 [75, 75]
00000000: 6801 82be 7c14 0fbf 8f57 463c e23e 09be
00000010: b995 d7bd 1797 c1bc b90c f63c e4d9 3ebe
00000020: 1c97 9cbe 5b60 5ebe e702 81be 036f b7be
00000030: 8e3d 53be 4545 07be a9e8 cdbd 9e1a e3be
00000040: 1b41 25be 4ad8 acbe 53af 40be 8a53 1dbe
00000050: 8dbd 74bd d1a0 b1be e431 b3bd 6633 b0be
00000060: af1f 2c3d 1b3a 93be be71 2dbe 44ac 37bc
00000070: 855a 05bd 332d debd de78 a3be 2d47 8fbe
00000080: ee39 84be 71b6 e5bd d5e8 89be 540c 88bd
00000090: 966b 643c ab23 e9bd 3d39 b6bd 91db d6be
000000a0: 9d02 e9bd af30 45be dee7 56be 9bd8 4c3d
000000b0: abbd 2cbe 19bf c1be aba4 16be 86ea 3bbe
000000c0: 1c20 72bd 42da 1a3d d9ed 84be 4417 b1bd
000000d0: befa 03ba 5834 a7bd 7073 76be ca10 9f3d
000000e0: df62 2f3e 0001 c0be 81f3 15bf f85b 06bf
000000f0: 33f2 3cbf bb4b d3bd 9f1c a0bd d9e1 16bf
00000100: 7758 80bd 416d 65be d2ae 0dbf 5f2a 6dbe
00000110: e73b 19bd 894d 21be 8929 16bf 8711 12be
00000120: 3c2e 8bbd 643e 56be ca1c 7ebe b4e2 55bd
00000130: 0981 8f3b 26e0 48be cd8c e73d 25b4 82be
00000140: 09d4 babd 495e 92ba b8c0 24be 3286 5cbe
00000150: 23c0 9abe 0937 c0bc dd35 c6be 4ab6 70be
00000160: 858c 07bf 3820 c63c 1996 89be 2ff3 88bc
00000170: 2925 f8bd 8e9f 6fbe 8a98 98bd f8ca 2abd
00000180: d434 4ebe 932a dfbd e295 c33b 77cb 04bd
00000190: 4f95 babd dd62 8ebe 06f1 6bbd 7f8f 04be
000001a0: 5432 6fbd 1c84 23be 1dea 3dbe 2ace e4bd
000001b0: c600 38be cc9f f1be c3bd ebbd b022 83bd
000001c0: 2a64 2dbe 21a8 59be 971b a5bb 4aee a23c
000001d0: 7d63 75be d411 93bc 5510 ffbe 4013 113d
000001e0: cbef 10be cb85 86be 55a4 08bf 40d9 153d
000001f0: b9d3 69bd 694d 97bd 0066 e6bd 66c4 f5bc
00000200: b04b 30bf 61b2 8dbc 48fe 15be 526c 15be
00000210: acaf bbbd 8460 85bd 4a15 0cbf 2878 063e
00000220: f44a 96bd e569 7dbe ab24 00bf 684d d9bd
00000230: 472d 88be fd77 debc da2d 44be 8fa8 10be
00000240: b54f 36be 57c0 863c 0caf 393c 8ace f1be
00000250: 8ba9 e3be 6e4d 46be e2c5 8ebd 674d 573d
00000260: 7f46 19be 68b5 32be 165f 69bd d2e3 84be
00000270: bd8a 9dbe a9de 29be d059 13bf 0f5c bc3b
00000280: 51a2 cbbd 41ed 2fbe 482e 163d 0c3a 8dbf
00000290: d6ec 07be 433b a9bd 418c 62be d2b6 30be
000002a0: 4ee1 ca3d 9136 81bc b451 cabd 0308 26bf
000002b0: 7ddc 1fbe 8a7c 97be f571 10be b9df 44be
000002c0: 1bbd 38be 2837 dabb f030 94bd a43b 543d
000002d0: e3f3 fcbe b39b 01bd aa0d babd 6c4a 4f3c
000002e0: 5502 aeba 4280 1ebe d29b d6bd 72ea 10be
000002f0: 0218 46bc bf6b a6be 178f 23bf 98ee 17bd
00000300: 5f49 88be c307 72be 8148 bfbd 37b6 50be
00000310: 80f3 5cbe d029 fb3d 4a64 09bd b7e9 efbd
00000320: a443 083d 8065 b4bd b983 083d b606 1a3d
00000330: 36d8 17be c6db bcbe 5bf7 c1be 0e7f 7ebe
00000340: 1987 74bd 2700 4cbd c284 63be dfb0 e23d
00000350: 69f8 fabd 20bc 83be 4a39 3ebe 074d b1be
00000360: 50b3 d63b f0fe a9bd 1a9a 52bd 3211 1ebe
00000370: dc28 33be 0760 4fbe 73e5 cdbe c9e1 623d
00000380: 3e8e f13b 499c 95be 8007 b3be 7fe1 eebe
00000390: cd7d da3d d1ed 3dbe f36e e1bb 748a 75be
000003a0: 0555 debe 6bc2 12be 8032 1abf 988b 83be
000003b0: 2597 633e 6516 04be 0380 f9be c7f4 6bbc
000003c0: 93c4 92bd 8637 49bf 49f6 bfbe c292 813d
000003d0: 4f57 5bbe 0e53 e0be 784d 92be 000b efbe
000003e0: 39df 09bf 650f 2abb 2fa5 9abc 9dc8 7bbe
000003f0: 1a1e 0fbf fae9 9abd b6ff 5dbe aa66 d73e
-0.25391698 -0.5589063 0.0121058365 -0.13402894 -0.10526604 -0.023631616 0.030035364 -0.18637806
-0.30584037 -0.21716444 -0.25197527 -0.35826883 -0.2062895 -0.13210018 -0.10054142 -0.44356245
-0.16138117 -0.33758765 -0.18816881 -0.15363899 -0.059751082 -0.34693006 -0.0874975 -0.34414214
0.042022403 -0.28755268 -0.1693792 -0.011210505 -0.03255703 -0.10848465 -0.31928152 -0.2798399
-0.25825447 -0.112164386 -0.2693545 -0.066429764 0.013941666 -0.11383756 -0.08897636 -0.4196439
-0.113774516 -0.19256853 -0.20986888 0.05001126 -0.16869228 -0.37841108 -0.14711253 -0.18351182
-0.059112653 0.037805803 -0.25962713 -0.08647016 -0.0005034617 -0.08164281 -0.24067473 0.07766874
0.1712756 -0.37500763 -0.5857468 -0.52484083 -0.73807067 -0.10317179 -0.07817959 -0.58938366
-0.06266873 -0.22404958 -0.5534488 -0.23160695 -0.037410643 -0.15752234 -0.5865713 -0.14264499
-0.06795928 -0.20922238 -0.2481567 -0.052218154 0.004379396 -0.19616756 0.113061525 -0.25528064
-0.09122474 -0.0011167015 -0.16089141 -0.21535566 -0.30224714 -0.023463743 -0.3871297 -0.23507038
-0.5294879 0.024185285 -0.26872328 -0.016717521 -0.12116463 -0.23400709 -0.074509695 -0.041697472
-0.2013734 -0.10896792 0.005968795 -0.0324206 -0.091105096 -0.27809802 -0.057602905 -0.12945364
-0.058397606 -0.15968364 -0.18546338 -0.11172135 -0.17969045 -0.47192228 -0.115108036 -0.064031005
-0.16932741 -0.21255542 -0.0050386894 0.019889016 -0.23963733 -0.017952837 -0.49817148 0.03541875
-0.14153974 -0.2627395 -0.5337575 0.03658414 -0.05708668 -0.07387812 -0.11249924 -0.030000877
-0.6886549 -0.017296972 -0.14647782 -0.14592102 -0.09164366 -0.065125495 -0.54719985 0.13131773
-0.07338515 -0.24747427 -0.5005595 -0.10610467 -0.26597044 -0.027156824 -0.19158116 -0.141268
-0.17803843 0.016449137 0.011333238 -0.4722789 -0.4446529 -0.19365475 -0.06971337 0.05256405
-0.14968298 -0.17452013 -0.056975447 -0.25955063 -0.3076991 -0.16588844 -0.5755892 0.005748279
-0.09943069 -0.17180349 0.03666523 -1.103334 -0.1327394 -0.082632564 -0.22123815 -0.1725724
0.09906255 -0.01577309 -0.09878865 -0.64855975 -0.15611453 -0.29587203 -0.14105971 -0.19225968
-0.18040888 -0.006659407 -0.072358966 0.05181469 -0.4940482 -0.031642627 -0.090846375 0.012652021
-0.0013275841 -0.15478614 -0.10478939 -0.14151934 -0.012090685 -0.3250408 -0.6389021 -0.037092775
-0.26618478 -0.23635773 -0.09340001 -0.2038201 -0.21577263 0.122638345 -0.03354291 -0.117144994
0.033267632 -0.08808422 0.033328746 0.037604056 -0.14828572 -0.36886424 -0.3788403 -0.24853155
-0.05969915 -0.049804833 -0.22218612 0.11068892 -0.12254412 -0.25729465 -0.18576542 -0.3462908
0.0065521374 -0.083005786 -0.051416494 -0.15436247 -0.17496055 -0.20251475 -0.40214118 0.055391107
0.007371693 -0.292208 -0.3496666 -0.46656415 0.10668526 -0.18547751 -0.0068796813 -0.23978597
-0.4342424 -0.14331977 -0.60233307 -0.2569244 0.22225626 -0.12899168 -0.48730478 -0.014401621
-0.071664 -0.7860035 -0.37492588 0.0632682 -0.21420024 -0.43813366 -0.2857473 -0.4668808
-0.53856236 -0.0025949117 -0.018877594 -0.24588247 -0.55905306 -0.07564159 -0.21679577 0.42070514
