experiments/rovers/rovers_full_train_set_2-75-1/best/target_model.npz (npz, 29645 bytes, 6 tensors)

model/output/b f4 [4]
000000 1f e8 18 c0 10 8b 11 c0 ac ae 1a c0 8e ed 1c c0
       -2.3891675 -2.2741127 -2.4169111 -2.4519992

model/output/W f4 [4, 75]
000000 a3 e3 19 be 63 e7 49 bf 6f ae 9c 3d 4e c8 23 bf
       -0.15028243 -0.78868693 0.07650458 -0.63977516
000010 a9 d9 12 bf 26 57 19 bf fa 2a bf 3c 06 c5 10 bf
       -0.57363373 -0.598986 0.023335923 -0.56550634
000020 40 16 0c 3d db 23 a9 3d 84 9a 3c bf 26 eb 93 3d
       0.034200907 0.08258792 -0.7367327 0.072225854
000030 da c2 f6 bd 2a 40 9f 3e be bd 6a bf e7 f3 8a 3d
       -0.12048884 0.3110364 -0.91695774 0.06784802
000040 47 04 10 bf 3b 76 c0 3d ac 0c 38 bf 0d af 94 bf
       -0.56256527 0.09397551 -0.71894336 -1.1615921
000050 36 a3 18 bf 47 1b 10 bf 84 29 43 3e e8 94 5c bd
       -0.5962404 -0.5629162 0.19058806 -0.053852946
000060 43 3e 77 bf 6c 0e b1 be 33 25 95 bd 4f 88 12 bc
       -0.9657938 -0.34581316 -0.07282486 -0.008943631
000070 88 9a 18 bf 0d da 89 bb f7 ab d6 3d 0d 6f 0b bf
       -0.59610796 -0.004206902 0.104820184 -0.54466325
000080 92 34 5e bf bf 7e 06 be d8 4d 37 bf 5f 2f 34 bf
       -0.86798966 -0.13134287 -0.71603155 -0.7038478
000090 d5 a0 b4 bf d4 93 28 be 8d db 62 bf d8 ef 76 ba
       -1.4111582 -0.16462642 -0.8861626 -0.0009419895
0000a0 f0 b7 23 bf 13 0b 94 3d 94 52 80 bf c1 74 22 bf
       -0.6395254 0.07228675 -1.0025201 -0.634594
0000b0 01 32 19 bf 24 0f 37 be 2c ec 33 bf 7a 29 3e 3e
       -0.59841925 -0.1787687 -0.70282245 0.1857051
0000c0 56 d0 2b be 81 27 67 bf 08 51 cd b9 df 1b 84 3c
       -0.16778693 -0.90294653 -0.0003916102 0.016126571
0000d0 cc 50 35 bf cd 44 39 bf 35 5b 36 bd 93 dd 10 be
       -0.7082641 -0.72370607 -0.044520576 -0.14147024
0000e0 8f 61 1a bf 8c bf 64 3c b3 59 45 3c 51 c5 b8 bd
       -0.6030511 0.013961684 0.012045312 -0.0902201
0000f0 bb 3b d3 3d 3a 61 74 bf 68 63 63 be d2 90 fc 39
       0.10314127 -0.95460856 -0.22205889 0.00048173085
000100 7d 6e 10 bf bf db 30 bf e1 58 53 3c 02 83 40 bd
       -0.5641859 -0.69085306 0.012899608 -0.04699994
000110 cd f1 1e bf a4 f7 ee 3d 66 96 9d 3d 84 b7 21 3d
       -0.6208771 0.116683275 0.07694702 0.039481655
000120 1b e1 fd 3c 28 f3 be bd d2 3e 62 bf 5e 83 bf bd
       0.030991128 -0.09323722 -0.88377106 -0.09351228
000130 f6 5c 26 bf 00 63 80 3d 8f 08 20 bf 3c a8 0e bf
       -0.649856 0.06268883 -0.6251306 -0.55725455
000140 bb 05 04 bf 57 5e a5 bd 38 9a 29 bf a3 e9 3e 3a
       -0.51571244 -0.080746345 -0.66250944 0.00072827394
000150 3c 53 80 3d f5 24 26 bf 1b f4 9d 3c de 37 04 3e
       0.06265876 -0.6490014 0.019281438 0.12911937
000160 d6 35 93 3d 16 00 57 bf 5c 5a 96 3d 5d 92 0b bf
       0.07188003 -0.83984506 0.073414534 -0.5452021
000170 da dd a0 3d 55 34 42 bf 9b b9 8f bf 0c c8 31 bf
       0.07854815 -0.758611 -1.1228517 -0.6944587
000180 c5 6f 0f bf 8f af 19 3e a1 4e 30 be d4 56 86 bf
       -0.5602992 0.15008377 -0.17217495 -1.0495248
000190 af 41 13 3d 6e 30 90 3d 16 69 1c 3d ce 01 1a bf
       0.035951313 0.07040487 0.038186155 -0.60159004
0001a0 a5 c2 96 3c cd fc a3 bd a0 35 0c bf 51 9d 55 bf
       0.01840336 -0.08007202 -0.54769325 -0.8344317
0001b0 61 0a a0 bd 7e 4d 2c bf c0 f4 39 bf 85 a0 b2 bf
       -0.078144796 -0.67305744 -0.72639084 -1.3955237
0001c0 86 56 51 bd d4 3e 67 bf ff d4 39 3d 3f 60 2c bf
       -0.051107906 -0.90330243 0.045369145 -0.6733436
0001d0 f3 ad 1a 3d 6d 4d 4f bf a4 dd 2c bf 36 9a 0f bf
       0.037763547 -0.8097752 -0.67525697 -0.5609468
0001e0 87 0f 2d be 26 86 38 bf 58 26 9d bd 34 92 5b 3e
       -0.16900454 -0.72079694 -0.07673329 0.21442491
0001f0 e5 76 7e bf 9d 9d 56 bd ca d7 85 3d 8d 0d 30 bf
       -0.9940017 -0.052396405 0.06535299 -0.68770677
000200 26 e8 50 bf 2e 6b 8a bd 40 d1 89 bd db 24 18 bf
       -0.8160423 -0.06758724 -0.067293644 -0.59431237
000210 9b c0 d6 bc 9f e5 af bd cf 30 36 be 25 1b 52 3e
       -0.026214888 -0.085887186 -0.17792057 0.20518167
000220 68 e8 74 bf 26 40 aa bc 4e 0e ae bc 1a 33 10 bf
       -0.95667124 -0.020782541 -0.021247055 -0.56327975
000230 1f c3 28 bf b5 ba 4e bd 45 93 ce 3d 37 40 30 bf
       -0.6592273 -0.050471026 0.10086683 -0.68847984
000240 9f 12 46 3d 35 f8 0c be 01 23 c3 3d fd 0e 91 3e
       0.048357602 -0.13766558 0.09528161 0.28331748
000250 92 74 bc bd 9f 93 72 bf 8f f2 6d 3e 27 55 2b bf
       -0.092019215 -0.947565 0.2323706 -0.6692681
000260 a8 64 00 3e 85 2c 4b bf a8 e0 20 bf 9e 31 15 bf
       0.12538397 -0.79364806 -0.628428 -0.58278835
000270 7d 11 39 be 2b 40 0d bf f8 47 f4 bd 05 09 d3 3d
       -0.18073077 -0.5517604 -0.119277894 0.10304455
000280 af 22 39 bf 8d ec af 3d c7 a2 38 3e 6b 19 ab 3d
       -0.7231855 0.0859004 0.18030845 0.083544575
000290 48 93 6a bf 00 05 29 3b d6 40 19 bf da 35 e1 3d
       -0.91630983 0.0025790334 -0.59864557 0.109965995
0002a0 8c b1 39 bf 5e a3 8c bf c0 0e f8 be d1 61 1c bf
       -0.7253654 -1.0987356 -0.48448753 -0.61086756
0002b0 8d 7b 56 3e 39 ba 51 be 94 a3 73 bf 3f 8f 41 3e
       0.20945568 -0.20481195 -0.95171475 0.189023
0002c0 7b 1e 0c 3e 0b 7b 8a 3e 31 95 16 bf 0f 7c dc bc
       0.13683502 0.27047 -0.588214 -0.026914624
0002d0 29 35 7e 3d 72 cd fa be ca 66 71 bf 49 95 3c be
       0.062062416 -0.48984867 -0.9429747 -0.18416323
0002e0 4b 17 37 bf 4b 8c 23 bf ec 0f b3 bf d4 4b 89 bd
       -0.7151992 -0.63885945 -1.3989234 -0.06703916
0002f0 d3 b6 5f bf de e0 47 3d 0a 10 29 bf f7 67 41 3e
       -0.8738834 0.048798434 -0.660401 0.18887316
000300 0c c5 70 bf 11 8c 1d bf 9d b6 1e bf d4 f1 18 bd
       -0.9405067 -0.6154185 -0.61997396 -0.03734
000310 9a 3c 4d bf 99 cf 70 bd 80 20 02 be b1 20 86 bf
       -0.80170596 -0.05879173 -0.1270771 -1.0478727
000320 69 e0 e2 3b f3 1b 48 3e b7 8f 26 bf d1 c1 48 bf
       0.0069237244 0.19541912 -0.6506304 -0.7842074
000330 0e 20 23 3e 20 c9 cd 3a d1 53 12 bf c6 ab 28 3e
       0.15930197 0.0015700199 -0.57159144 0.16471776
000340 88 1a 0d 3e 55 18 42 3d 40 12 d4 3d f8 a6 54 bf
       0.13779652 0.047386486 0.103550434 -0.83067274
000350 ee 49 97 3c f5 c6 09 3d 75 64 05 bf 4d 11 2d bf
       0.01846787 0.033637006 -0.5210641 -0.67604524
000360 bc 2a 12 3d 42 b9 75 3e 40 d4 24 bf b5 1d e5 3d
       0.035685286 0.23996451 -0.6438637 0.11187307
000370 55 18 4a bd eb ab 8a be cb ff 7c 3d df c5 4f be
       -0.04933961 -0.27084288 0.06176738 -0.20290326
000380 5f 8c 6f bf 5d 56 44 be e6 bc 3a bf e1 a4 07 be
       -0.93573564 -0.1917357 -0.72944486 -0.1324649
000390 6b ef 2e bf a4 66 cf be b9 60 09 bf db 19 44 bd
       -0.6833407 -0.40507996 -0.5366321 -0.04787622
0003a0 a4 ef 32 bf b1 03 42 be 70 f3 b7 bd 37 4c 2f bf
       -0.6989691 -0.1894672 -0.08981979 -0.6847567
0003b0 05 41 20 bd 32 22 86 bd 5a e1 34 3e 75 fe 7e bf
       -0.039124507 -0.06549491 0.1766409 -0.9960702
0003c0 9a d8 b2 bc b3 9f 3c bf 62 b2 2d 3e b8 58 4e bf
       -0.0218318 -0.7368118 0.16962579 -0.80604124
0003d0 bf 6f 93 bf 67 c1 27 bf b7 c7 1f bf 43 4c 3f 3d
       -1.1518477 -0.65529484 -0.62414116 0.04670359
0003e0 1b f6 00 3f 1b e0 63 bf 0d af 70 3e 9a 26 1a 3c
       0.5037553 -0.8901383 0.23504277 0.009408617
0003f0 d3 1d 75 be 7a 1b ff be a9 b5 4e bd 79 c6 20 bc
       -0.23937158 -0.4982565 -0.050466213 -0.009812945

model/hidden_layers/0/b f4 [75]
000000 9e c3 39 be ab ce ea bd 70 70 de bd a7 9b 4d bf
       -0.18141028 -0.114652 -0.108612895 -0.8031563
000010 29 e4 8e be 20 9e c8 3f 9d 31 bd be 99 52 89 bd
       -0.27908447 1.5673256 -0.36951914 -0.067052074
000020 31 62 26 bf 1d a9 27 bf a7 30 94 be f5 c7 ed be
       -0.6499358 -0.6549242 -0.2894337 -0.46441618
000030 d1 bd 5d bf 72 51 09 be 03 c4 39 be ac 50 2f be
       -0.8661776 -0.13409975 -0.18141179 -0.17120618
000040 ca 3a bf be 23 3c 16 bd 0f 3f b5 be 79 8b ea bd
       -0.3734954 -0.036678445 -0.35399672 -0.114523835
000050 6f 6a 91 bf 3a 23 68 bf c2 81 3a be 23 79 a7 bd
       -1.1360606 -0.9067875 -0.18213561 -0.08177402
000060 9c df 95 be 82 77 4f be 13 6a 23 be ac 1d f5 be
       -0.29272163 -0.20260432 -0.15958433 -0.478742
000070 08 3a 5a be ef 0f 84 be 38 e3 8a be 2b 8b 78 be
       -0.213112 -0.25793406 -0.2712648 -0.24271838
000080 0f 2e 87 bd 9c b4 67 be 08 fe c4 3f 7d 0e 0b bf
       -0.06600582 -0.22627491 1.5390024 -0.5431898
000090 d9 f3 a9 be b5 80 bf bd f6 85 f3 be 98 a9 4b be
       -0.33193853 -0.09350721 -0.47563142 -0.19888914
0000a0 86 ec 9d be c2 89 34 40 bd f1 f3 bd 60 2b 71 bf
       -0.30844516 2.820908 -0.11911342 -0.9420681
0000b0 1b 99 70 bd 4f 7e 32 bf 69 2d 43 bf 73 69 9a be
       -0.058739763 -0.6972398 -0.76241165 -0.30158576
0000c0 0f 81 bd be f5 ae 28 be 2b 87 92 be 8f a0 68 be
       -0.37012526 -0.16472991 -0.2861875 -0.22717498
0000d0 df eb 6a bd 21 bc 94 be 55 66 48 be f3 54 47 be
       -0.05735385 -0.2904978 -0.19570287 -0.19466
0000e0 b2 2d 38 40 eb b4 2c be 40 58 8b be c5 1b d5 bd
       2.877789 -0.1686589 -0.27215767 -0.10405687
0000f0 49 a2 37 40 d3 7e 82 bf f3 b5 02 be bd e2 da 3e
       2.86928 -1.0194954 -0.1276472 0.42751113
000100 3f 96 9b be b8 8e 74 be 07 11 60 bf b0 bd ba be
       -0.30388066 -0.23882568 -0.8752598 -0.36472845
000110 55 bd 57 bf 8f c6 02 bf 6a d3 0d bf 3a 21 67 be
       -0.8427327 -0.51084226 -0.5540072 -0.22571269
000120 9e 8e 1d be 51 f0 2d 3f 85 16 57 bf
       -0.15386435 0.6794482 -0.8401874

model/hidden_layers/0/W f4 [75, 20]
000000 af d2 bd 3e 63 d6 0e be 41 40 e1 bd e8 88 30 be
       0.370748 -0.1394897 -0.109985836 -0.17239726
000010 53 a7 49 3e 14 90 f7 be cb a0 c3 3e 86 e6 05 be
       0.19692735 -0.4835211 0.38208613 -0.13076219
000020 a9 39 2a bc 47 8a 29 be 6d 45 b7 3e 00 fd ef be
       -0.010389724 -0.16556655 0.35795155 -0.4687271
000030 26 07 02 bd ba 8b 06 be cc 2c 11 3e 49 a7 5d be
       -0.0317451 -0.13139239 0.14177245 -0.21645845
000040 f7 f6 3e bd a0 b0 1f be 0a 1c c6 bd 71 e5 b4 3c
       -0.046622243 -0.15594721 -0.09673317 0.022082062
000050 53 5a 5d be 2b fd 82 3e e8 c7 be 3e aa 1c 2c bd
       -0.21616487 0.25583777 0.3726189 -0.042019524
000060 e4 d2 46 3e 63 61 aa bd 74 ac fd bc bf f8 43 bc
       0.19416386 -0.08319356 -0.030966021 -0.011961161
000070 81 d2 eb bd 61 88 e3 3c 0a 82 b6 bd ca 35 bd bd
       -0.1151476 0.027774991 -0.08911522 -0.09238775
000080 f2 4a 1b 3d 2c eb 4b be e5 46 4d be a2 64 57 3d
       0.03791327 -0.1991393 -0.20046575 0.052586205
000090 3d cc 81 be e3 e5 79 3e 91 f1 64 3e db 5b de 3d
       -0.25351134 0.24404101 0.22357775 0.10857364
0000a0 27 9c 77 bd af f3 80 be 73 7f 05 be 7e 06 27 3e
       -0.060451653 -0.25185916 -0.130369 0.1631107
0000b0 63 12 07 3c 9c 4b 2e be c9 61 9e bc 3c 5d f3 3e
       0.00824413 -0.1702103 -0.019333737 0.4753207
0000c0 10 51 37 bd d6 7a 20 3d de 60 bf 3d 93 d4 ca bd
       -0.04475504 0.039179645 0.09344648 -0.099038266
0000d0 f1 b5 97 be 40 4f 14 be aa 30 3c be fe ac 12 3e
       -0.29630998 -0.14483356 -0.18377939 0.14323804
0000e0 0b 58 2b 3e 20 02 2e 3e dc 39 32 bd 36 77 57 3d
       0.16732804 0.16992998 -0.04351221 0.052603923
0000f0 37 7e 0c be 9c 1c a0 3e 15 9f 2b 3d 88 17 a0 be
       -0.13720022 0.31271827 0.04189976 -0.31267953
000100 09 2d 19 3d b5 af 39 3c f1 26 a3 3e 8c fb 52 3e
       0.037396464 0.011333396 0.31865647 0.2060377
000110 6a db 82 3e 8c e3 8a be e1 ff a2 be 6f 2f b9 bd
       0.25558025 -0.2712673 -0.31835845 -0.0904225
000120 5a 4f a1 3c 88 a1 69 bd a8 bb 64 3d 64 47 e5 be
       0.019691158 -0.057038814 0.055843025 -0.4478103
000130 1a c9 3c bd b8 19 2d 3e 1d 13 44 be 3c 31 5d 3e
       -0.046090223 0.16904342 -0.19147916 0.21600813
000140 85 7f 36 bd c8 bb 39 bd 26 9a 00 3d b1 9d f0 bd
       -0.044555206 -0.045345098 0.031397007 -0.11748827
000150 7c a4 0d 3d ae 41 f2 3b f1 7d 4d be 48 bc 69 3d
       0.034580693 0.0073930835 -0.20067574 0.057064325
000160 eb 73 3c be 67 d9 2c 3e 14 44 7f 3e 24 88 18 bc
       -0.18403594 0.16879807 0.24928313 -0.009309802
000170 19 c6 ae bd 49 f4 84 be d7 ed c2 3b 39 92 24 bb
       -0.08533878 -0.25967625 0.005948763 -0.002511157
000180 93 a9 02 be c5 6b 08 3c 20 1c 8d be a9 52 8c 3d
       -0.1276 0.0083264755 -0.2756052 0.06851704
000190 70 1e 9c bd 9d 6c 52 3d 6f 61 4d 3e 08 62 ad 3d
       -0.07622993 0.051373113 0.20056699 0.084659636
0001a0 49 90 b5 bd 42 ea ec 3d 21 aa 25 bd ae 73 33 bd
       -0.08865411 0.11568119 -0.04044545 -0.043811493
0001b0 3b ca 26 be 73 e9 96 bd 67 2f f5 bd 7d 21 5f 3d
       -0.16288082 -0.07368746 -0.11971932 0.054475296
0001c0 8b af 4c 3e 8c 2c 4b be 1e d4 ae 3d 1c 9c 10 be
       0.1998884 -0.19841212 0.08536552 -0.14122051
0001d0 b1 ea c9 bc 9a 64 60 be 40 c2 94 3d 45 c3 58 bd
       -0.024648042 -0.21913376 0.07263613 -0.0529206
0001e0 98 12 63 3c b7 33 44 be d0 a8 5a 3e ff 82 f1 3d
       0.013859414 -0.19160353 0.2135346 0.11792564
0001f0 31 9c e1 be 43 fe a4 3e 2b 38 9f 3e 9a 94 7f 3d
       -0.44064477 0.32225236 0.3109754 0.062397577
000200 e3 0e bb be 49 70 ac 3d c6 54 23 3c 72 88 40 be
       -0.36534795 0.08419854 0.009968942 -0.1880205
000210 7a 49 81 be e9 12 3e be af f3 03 3d 4b 21 b0 bd
       -0.2525137 -0.18561901 0.032214817 -0.086001
000220 47 e5 81 3d 47 f2 6e be b8 ef 03 be 10 ac 10 be
       0.06342559 -0.23334609 -0.12884414 -0.14128137
000230 62 16 4c bc 90 a2 f1 bb da 5d 33 3e af 90 a1 bd
       -0.012456508 -0.0073741153 0.1751627 -0.07888924
000240 3a d5 24 3d 0b 05 07 bc b5 91 0d 3d 0b 18 7f 3d
       0.04024241 -0.008240948 0.034562785 0.06227879
000250 c7 0a 13 bc 84 0a 42 3d 83 18 39 bd 77 b8 b8 be
       -0.0089747375 0.04737331 -0.04518939 -0.36078236
000260 5d 53 92 3d 04 3b 1c 3e 4b f1 09 3e b0 da a9 3b
       0.071448065 0.15256888 0.13470952 0.0051835403
000270 79 d7 1c 3e 62 57 15 be 3e 30 6c be 42 86 a0 be
       0.15316571 -0.14584115 -0.23065278 -0.3135243
000280 10 72 f6 bd e7 4a 64 be 44 78 dc bc 80 17 87 be
       -0.120334744 -0.22294198 -0.026912816 -0.26385117
000290 4a 52 3d 3d 03 0a e4 bc 5e e6 62 3e e5 31 4e 3d
       0.046221055 -0.027836805 0.2215819 0.050340552
0002a0 a1 44 92 3e b2 ec d1 be 18 fd 0a be 6f d3 1e 3e
       0.28567985 -0.41000897 -0.1357311 0.15510343
0002b0 51 ac 00 3f 95 99 85 be 2c 74 98 3c f2 52 1a bd
       0.50262934 -0.26093736 0.018610083 -0.03767676
0002c0 b2 a3 80 3e 01 ea 01 be 3c e8 52 bd 0d c7 4f bd
       0.2512489 -0.12686922 -0.051491007 -0.05072694
0002d0 70 57 98 be aa cc aa 3d 4e a6 8f 3b d3 7a 10 bc
       -0.2975421 0.08339818 0.0043838387 -0.008818346
0002e0 fc 4c 73 bd 8e 5a 24 be 2b d5 d5 3d 0f 48 27 bc
       -0.05939959 -0.16050169 0.10441049 -0.010210051
0002f0 da b4 51 be 45 00 f9 bd f1 88 6e 3e 75 ac 29 3d
       -0.20479146 -0.121582545 0.23294427 0.041424233
000300 cf dc b6 3e 81 a7 33 bd a0 74 82 3a 02 71 c9 be
       0.3571534 -0.043860916 0.000995297 -0.3934403
000310 f6 75 bf 3d 16 bd ce 3c e7 9b bd bd 72 35 12 3e
       0.09348671 0.025236648 -0.09258252 0.142782
000320 ee d7 65 bd 52 27 3b 3e 22 8a 82 bd 36 fb 5d 3e
       -0.05611413 0.18276718 -0.06374003 0.2167786
000330 4b 90 a5 be e4 2f a7 be 49 b8 c1 be 78 6e 4b be
       -0.3233665 -0.32653725 -0.3783591 -0.19866359
000340 1f 14 88 be 4f 55 a4 3e 6f 82 fd bb e0 7d 9e be
       -0.2657785 0.32096335 -0.007736496 -0.3095541
000350 07 dd a3 3e 75 4a 7b be 8e cc 89 be c9 f8 8c 3e
       0.32004568 -0.24540122 -0.26913875 0.27533558
000360 08 30 05 3e 1f 0d d9 bc eb f7 e5 3d 1b 7a a1 bd
       0.13006604 -0.026495514 0.11228927 -0.07884618
000370 6c d0 ae 3e 06 86 91 3d 3c 9d b3 3e 82 04 0c 3e
       0.34143388 0.07105641 0.35080898 0.13673595
000380 67 df 0d be 74 4c 16 3f 7d d9 44 be 42 b4 41 3d
       -0.13854752 0.5871041 -0.1922359 0.047291048
000390 4e 03 e4 bd 2f b8 95 bd b4 c9 d4 3d 89 e0 d1 bc
       -0.11133443 -0.07310521 0.10390034 -0.025619762
0003a0 54 ac 45 3e f5 b4 d4 3e 63 a2 6e bd 06 40 60 be
       0.19304019 0.4154431 -0.058260333 -0.21899423
0003b0 6c 95 ab be 6d ba d0 bd 93 65 ec be 73 55 d6 3d
       -0.33512437 -0.10191808 -0.46171245 0.10465517
0003c0 42 19 e9 bd 62 58 50 bd 94 59 f2 bc 4d 38 0d bf
       -0.11381771 -0.05086554 -0.02958373 -0.55164033
0003d0 64 24 18 be 3e 39 25 3e 74 6c 17 3e 23 9e 97 bd
       -0.14857632 0.16135117 0.14787465 -0.07403209
0003e0 30 df 22 3e 9d 24 7b be 2a 1e ad bd f1 48 be bd
       0.15905452 -0.24525686 -0.08453019 -0.09291256
0003f0 61 89 0e bf e4 47 37 3e 88 e1 e2 3d 08 15 74 be
       -0.55678374 0.17898518 0.11078173 -0.23836148

model/hidden_layers/1/b f4 [75]
000000 35 a1 0d 3d e3 ef 0f 40 4e 3e 85 bd 95 00 10 40
       0.034577567 2.2490165 -0.06506024 2.2500355
000010 c8 15 fd 3f 1d fc f7 3f e0 00 4a 3d a1 97 05 40
       1.9772272 1.9373814 0.04931724 2.0873797
000020 6b 8a 8e 3d a5 76 47 be 1a 21 2a 40 0a b1 19 be
       0.06959995 -0.19478853 2.6582704 -0.15008941
000030 92 88 69 bd 35 9f 2f bd 4c bd 39 40 a9 70 07 be
       -0.05701501 -0.04287644 2.9021788 -0.1322657
000040 ea bc 04 40 d5 75 9f be b1 ba 27 40 da 61 02 40
       2.0740304 -0.31144586 2.6207697 2.0372224
000050 d1 70 17 40 85 07 f0 3f 6c 15 17 bf 78 19 f2 bd
       2.3662608 1.8752295 -0.5901706 -0.11821264
000060 3f 98 47 40 25 59 eb bd 00 00 00 00 bc 4d dd bc
       3.1186674 -0.11491612 0.0 -0.027014606
000070 e3 2d fa 3f e0 1c 94 bc 15 7c 9d bd 5d 35 e7 3f
       1.9545254 -0.018080175 -0.076896824 1.806316
000080 2e 4c 01 40 51 08 b7 bd c0 e3 27 40 16 22 1e 40
       2.0202746 -0.08937133 2.6232758 2.4708304
000090 9c 21 0a 40 77 c4 bd 3c 34 6a 3a 40 92 64 dd bd
       2.1583014 0.02316497 2.9127321 -0.10810198
0000a0 8a c7 1a 40 03 cb 9a be 30 eb 45 40 74 63 11 40
       2.418429 -0.3023301 3.0924797 2.2716951
0000b0 a9 5f 0f 40 61 eb 23 3d b8 7e 2d 40 c2 2a f4 38
       2.2402136 0.040019397 2.7108593 0.00011642791
0000c0 6d 4f d9 b9 f0 f3 46 40 61 25 0d bc a1 7e 2a be
       -0.00041448642 3.1086388 -0.008614869 -0.16649868
0000d0 fb 04 1c 40 24 46 29 40 ab 69 bf bd e1 29 54 bd
       2.437804 2.644906 -0.093463264 -0.05179775
0000e0 a7 2c 08 40 79 c2 94 bd b7 6e 80 3e 92 91 b1 3d
       2.1277254 -0.07263655 0.2508447 0.086703435
0000f0 97 eb 2d be b1 70 41 40 3d ce 40 3d bb 65 32 3d
       -0.16984402 3.0225031 0.047071684 0.04355405
000100 a4 2e 02 40 da b2 0b 40 61 65 ea bd f6 ae 3d bd
       2.0340967 2.1827912 -0.11445118 -0.046309434
000110 b5 26 0c 40 f1 0b ff be be f3 9a bc a1 f8 ef bd
       2.1898625 -0.49813798 -0.018915053 -0.11717344
000120 bb f4 a3 be f4 47 a0 3d 19 ae 3a 40
       -0.32022652 0.07826224 2.916876

model/hidden_layers/1/W f4 [75, 75]
000000 d7 a6 1a 3e 99 d8 69 bd b1 39 83 bd 85 2b 30 3e
       0.15102707 -0.05709133 -0.06407488 0.17204101
000010 4b e8 c9 bd a2 42 9b 3d a1 2d 82 bd 0b 5b 62 be
       -0.098587595 0.075810686 -0.06356359 -0.22105043
000020 db a0 a3 bc e1 a5 b5 3d c4 35 1b bd 6b be 82 3d
       -0.019974163 0.088695295 -0.03789307 0.063839756
000030 af 41 06 3d 15 79 36 3b 8e eb 28 bd 77 6e 63 3c
       0.032777485 0.0027843167 -0.041240267 0.013881317
000040 d1 51 6c be 1d 34 35 bd b4 a1 51 be 2f f5 31 3d
       -0.23078085 -0.044239152 -0.20471841 0.043446716
000050 3f cd 0d 3d 7f 2d 14 be 66 75 a4 3d 9f 93 89 3b
       0.034619566 -0.1447048 0.080302045 0.004198506
000060 08 1f 21 3d 74 c3 39 bd b1 f3 0a 3d 87 7e d8 3d
       0.039336234 -0.045352414 0.03392381 0.10571008
000070 f2 a2 91 bd 03 bf da bd 98 a3 16 3e e7 85 89 be
       -0.071111575 -0.10680964 0.14710844 -0.26859972
000080 61 97 97 be f6 90 47 be 98 00 a3 39 25 80 c6 3b
       -0.2960768 -0.19488892 0.00031090225 0.0060577565
000090 a1 49 4f 3d 9b aa 38 3c d5 c9 41 3e fe 94 17 3e
       0.050607327 0.011271144 0.18924649 0.1480293
0000a0 8b ad b9 3d 50 5c 12 be c5 42 91 3c 47 46 08 be
       0.09066304 -0.14293027 0.017732034 -0.13308059
0000b0 ee 28 82 bd 2b 16 f5 bd a6 b7 83 bb 85 47 19 3d
       -0.06355463 -0.11967119 -0.0040196953 0.037421722
0000c0 68 f3 1b 3c ed 29 24 be 1b 89 3f be cd 17 c1 bd
       0.009518482 -0.16031618 -0.18704645 -0.09428368
0000d0 80 ab fc bd ad 84 8f 3d a9 b8 2b bd d6 67 a3 bb
       -0.123373985 0.07007728 -0.041924153 -0.0049867434
0000e0 63 8b 6b bd e3 28 c8 3d 92 0b 4d 3e 62 ac 30 3d
       -0.057505976 0.097734235 0.20023945 0.043133147
0000f0 0c 75 5b bd 8c ad a3 3d 3b 4d 5e 3d 92 d4 9b bd
       -0.05357842 0.07992086 0.05427287 -0.07608904
000100 b1 15 01 3e 7b 04 06 3d 16 8e 55 be 68 ed 34 3d
       0.12605931 0.032719117 -0.20854983 0.04417172
000110 0b 0a c4 bc b4 e1 5f be 2b 71 92 be 85 7e 8f 3c
       -0.02393057 -0.21863443 -0.28601965 0.017516384
000120 6f b5 af 3d ce 4f 93 3d 99 da 21 be 25 64 fd bc
       0.085795276 0.07192956 -0.15806045 -0.030931542
000130 90 24 b7 3d 49 c8 16 be e5 22 45 3d a7 28 0a 3d
       0.089425206 -0.1472484 0.04812898 0.033730175
000140 d1 65 82 3d f2 cd 6c be 08 cf 56 bd 54 38 7f 3e
       0.06367076 -0.23125437 -0.052443534 0.24923831
000150 22 4f 44 bc cb 44 cb 3c 90 1d 4d 3e fa e9 a3 ba
       -0.011981757 0.024813076 0.20030808 -0.0012505644
000160 9a 46 0a 3e 28 2b 0d 3e 86 d0 22 be 3b 5a 1d 3d
       0.13503495 0.13785994 -0.15899858 0.03841613
000170 39 5f 3d be 4b dc b8 3d 87 0a 24 be c5 e1 52 be
       -0.18493356 0.090263925 -0.16019641 -0.20593937
000180 1e 41 0b bd bd db da bc 36 86 11 3e 5c 68 73 3c
       -0.033997647 -0.026716108 0.14211354 0.014856424
000190 1e 08 ba 3d 9e 41 4c 3d 58 b4 08 be f1 0d cb bc
       0.090835795 0.049867265 -0.13350046 -0.024786921
0001a0 13 15 b8 bd cb 73 1b 3e 1e 39 18 3e f1 eb 17 bd
       -0.089883946 0.1518089 0.14865538 -0.037090246
0001b0 56 8f be bd ea 20 c7 bd 01 32 7b bd b4 6a 02 3e
       -0.09304683 -0.09723075 -0.061326984 0.12736017
0001c0 c8 6b fa bd 69 0f f6 bd ab a5 e2 bd b6 2d 6b be
       -0.12227589 -0.12014658 -0.11066755 -0.22966656
0001d0 51 59 70 be 63 3e 48 be 4b e4 e1 3d 9b dc 93 bd
       -0.23471572 -0.19555049 0.110298716 -0.072198115
0001e0 27 bb 0e 3d c1 18 a8 bd 73 3a c1 bd 2b 1b c4 bd
       0.03484645 -0.082078464 -0.094349764 -0.095754944
0001f0 f3 4b 79 3d 84 43 82 3e ba ec 79 b8 ec 81 09 be
       0.060863446 0.25442135 -5.9586695e-05 -0.13428468
000200 90 73 c6 3d 75 0e d4 bd b7 f7 7b 3d f6 90 70 3d
       0.096900105 -0.1035432 0.061515536 0.058731996
000210 0a b8 a4 bc 96 00 db 3e 23 ee 68 bd 27 7f 59 3c
       -0.020107288 0.42773885 -0.05686773 0.013274944
000220 3f 92 15 3e 7e a9 28 3d 8c ae 00 be 02 b3 e2 bd
       0.1460657 0.041177265 -0.12566584 -0.11069299
000230 eb c2 e3 3d 73 6f 5f 3e 15 0b 80 bd 97 70 80 bb
       0.11121162 0.21819858 -0.06252114 -0.0039196718
000240 90 e6 2f 3e fc db 12 be d9 45 79 3c 68 9d ae 3d
       0.17177796 -0.1434173 0.015214407 0.085261166
000250 88 4f 1e be 3b 29 dc 3d ce 0c ee bd 2c 18 21 be
       -0.15460026 0.107500516 -0.11623536 -0.15731877
000260 43 4f 3a be 3c 52 90 3d 10 a9 86 bd 3e 07 87 3d
       -0.18194298 0.07046935 -0.06575215 0.06593178
000270 0a 4a ea bd ef 02 64 3d eb 7b 22 3e dd cf 46 bd
       -0.11439903 0.05566686 0.15867583 -0.048538078
000280 e7 2b 16 be 4d 82 47 bd 74 69 e7 3d f3 a3 ed 3d
       -0.14665185 -0.04870825 0.112994105 0.116035365
000290 1a 8f 36 bd 5d 1c 4f be e5 e5 a8 3d 03 aa 38 3e
       -0.044570066 -0.20225663 0.08246974 0.18033604
0002a0 3f 2d 54 3e 02 50 4c 3d 22 d9 a2 bc 76 a3 fa bd
       0.20720385 0.04988099 -0.019878928 -0.12238209
0002b0 0c f9 75 bd ea 01 63 be 53 cc 66 3e 4e 4f 20 bc
       -0.060051963 -0.22168699 0.22538881 -0.009784533
0002c0 f0 07 c2 3e 60 b4 84 bc f4 d5 1d be 43 a4 47 3e
       0.3789668 -0.01619929 -0.15413648 0.19496255
0002d0 d8 a7 c7 bd a1 e9 55 bd 76 60 22 3e 47 19 2a 3e
       -0.097488105 -0.05222476 0.1585711 0.16611205
0002e0 3d b9 4d be 00 6f 82 b8 54 bd 01 be 80 b3 73 3d
       -0.20090194 -6.2195584e-05 -0.12669879 0.059497356
0002f0 ec ef 55 3e 57 ec b6 bd 78 55 3b 3e bf d1 2f be
       0.20892304 -0.08931797 0.18294322 -0.17169856
000300 3c 56 6a 3e 32 71 d3 bd 0f 90 b0 bd 4e cb 30 3c
       0.22884458 -0.10324325 -0.08621227 0.010790659
000310 80 82 34 be 83 19 29 3e 7b 2a fd bd ff b7 95 3d
       -0.17627907 0.16513638 -0.12361618 0.07310485
000320 d5 65 1b be 00 6e 68 3c 9a 44 9e bc ae 24 cb bb
       -0.15175565 0.014186382 -0.019319821 -0.006199441
000330 c3 ae 11 3d ec c0 03 be 88 a6 db 3d f5 01 54 3a
       0.035567056 -0.12866563 0.10725123 0.000808745
000340 a5 e7 a3 be c5 e2 4b 3e d5 a3 f6 bc c0 f3 1d 3e
       -0.32012668 0.19910724 -0.030107418 0.15425014
000350 a6 5e a7 bc d2 47 88 be b5 25 46 bd 4e 4d 10 be
       -0.020430874 -0.26617295 -0.048375804 -0.1409199
000360 93 63 70 bc f5 01 b5 bd 46 ac 2a bc d5 1e 4f be
       -0.014672178 -0.08838264 -0.01041705 -0.20226605
000370 66 87 3d bc 55 65 91 bd 8f a4 97 3d 88 47 7b be
       -0.011567926 -0.07099406 0.07404434 -0.24539006
000380 ae b5 8c bd 77 f8 4d 3e 88 e0 67 be 75 83 b3 38
       -0.0687059 0.20114313 -0.22644246 8.559871e-05
000390 86 0a e4 3d 0f 41 a2 3d c0 60 ab bd 4d 2c 33 3e
       0.1113482 0.07922565 -0.08368063 0.17497368
0003a0 b8 0b 00 bc f4 af 2a bd bc 05 c6 bb fa 09 d6 3d
       -0.007815294 -0.04167171 -0.006043164 0.10451122
0003b0 1b cd e8 bc 5d d6 a5 ba 79 48 27 be fd e0 64 be
       -0.028418114 -0.0012652386 -0.1633624 -0.22351451
0003c0 9e df 2b 3c 27 12 3a 3e 6f 0a 85 bd b5 b9 9e bd
       0.010490326 0.18170987 -0.06496131 -0.077502646
0003d0 03 f7 24 bc 40 73 5d bd b7 11 5a 3d fe 9a 1e 3e
       -0.010068658 -0.05406499 0.05323955 0.15488812
0003e0 98 0b 8b 3d bf 94 d9 3d de 5d de bd d2 47 8c be
       0.06789321 0.10624074 -0.108577475 -0.27398545
0003f0 12 29 80 3d 15 c4 27 bd d0 6e 75 bd 9b e3 b0 bd
       0.062578335 -0.040958483 -0.059920132 -0.08637162
