experiments/visitall/visitall_full_train_set_2-75-3/best/model.npz (npz, 29745 bytes, 6 tensors)

model/hidden_layers/0/b f4 [75]
000000 f9 6b 24 c0 65 a2 fa bf 2e 18 40 c0 a9 70 18 c0
       -2.5690901 -1.9580809 -3.0014758 -2.3818762
000010 48 75 8d be 79 a6 ad bf b5 7b 71 c0 91 aa ab bf
       -0.2762854 -1.3566428 -3.7731755 -1.3411428
000020 07 2b a8 3f 0d d9 13 41 ba 91 4a c0 56 92 ea c0
       1.3138131 9.240491 -3.1651444 -7.3303633
000030 d0 c9 71 41 1b 19 8e be 2d 3d 91 bf 1c 9c 92 bf
       15.111771 -0.2775353 -1.1346794 -1.1453891
000040 52 6b 56 c0 d1 95 fe bf b0 e3 cd 3f 41 95 b5 3f
       -3.3503003 -1.988947 1.608511 1.4186174
000050 98 1c a9 40 30 71 54 c0 80 34 1e bf c0 70 a0 bf
       5.2847404 -3.3194084 -0.6179886 -1.2534409
000060 5d 32 18 c0 1d 2e 02 41 d1 d3 33 c0 24 a8 c1 c0
       -2.378074 8.136258 -2.8098032 -6.051775
000070 74 bf 85 3f 75 90 9f bf 53 55 6f 3f 3b a9 93 40
       1.0449052 -1.246596 0.9348957 4.614408
000080 f1 5d 68 bf 29 f5 a8 bf 5b 6b 58 c0 a8 4e 12 c0
       -0.90768343 -1.3199817 -3.3815525 -2.2860508
000090 d4 74 91 3f cc 75 7b bf 0a 53 86 c0 9a 71 20 c0
       1.1363778 -0.9822662 -4.1976366 -2.5069337
0000a0 bd 89 58 c0 40 86 b9 3e 35 93 06 c0 b0 6f 7e 3f
       -3.3834069 0.36235237 -2.1027348 0.9938917
0000b0 00 8f aa c0 d0 bf e7 be 58 5a 1b bf 09 f1 91 40
       -5.329956 -0.4526353 -0.6068473 4.560673
0000c0 ca 2a 90 c0 aa c2 f3 bf 70 76 ec be 97 2c 4e bf
       -4.5052233 -1.9043782 -0.4618411 -0.8053679
0000d0 7e 72 41 c0 4e 62 14 c0 3d 2c f7 bf c1 fc 66 40
       -3.022613 -2.3185 -1.9310375 3.6091769
0000e0 f6 f6 51 c0 8d 94 a1 c0 79 c8 9a be f9 67 18 bf
       -3.2806983 -5.0493836 -0.30231073 -0.5953365
0000f0 48 a3 5f 3f 2e 9d d3 c0 80 17 34 40 e0 74 71 bf
       0.8735852 -6.612937 2.8139343 -0.9431896
000100 a3 21 43 c0 02 b4 11 3f 73 ad 10 3d a8 6b bc bf
       -3.048928 0.56915295 0.035321664 -1.4720354
000110 6b bb 8e c0 30 19 23 3f 8b 4e 06 bf e8 f3 f3 bf
       -4.460378 0.6371031 -0.524636 -1.9058809
000120 17 77 f0 bf 0d b3 e5 3c 8c 25 bf 3e
       -1.8786343 0.02803948 0.37333333

model/hidden_layers/0/W f4 [75, 20]
000000 88 51 23 3f 08 d9 9c 3d dc 5d 29 bd 8f f8 79 bf
       0.6379628 0.07658583 -0.041349277 -0.97644895
000010 20 f1 df be b4 64 25 c0 3a 96 43 be 57 10 8d bb
       -0.4373865 -2.5842714 -0.19100276 -0.0043049264
000020 02 7e 14 be 05 bf e9 3b a1 a5 44 c0 63 55 cf 3c
       -0.14501193 0.007133367 -3.0726092 0.02530927
000030 39 53 a8 3c d9 ac 95 3e fc dc 2a 3c 4b f4 24 c0
       0.020547496 0.29233435 0.010428663 -2.5774105
000040 93 c1 96 be 2f 1c e4 bd 70 66 0a bd 5e 8e 7e 3d
       -0.2944456 -0.11138188 -0.0337891 0.06214749
000050 1d a6 4a be 3e 33 10 bd b2 33 2d bb 52 b6 b0 bf
       -0.1978993 -0.03520512 -0.0026428518 -1.380564
000060 81 74 c0 be a6 43 c1 bf 7c 38 84 be 7c eb 97 bd
       -0.37588885 -1.509877 -0.25824344 -0.07417962
000070 bb 19 21 3f c7 53 8c 3c e6 3b 87 bf f3 82 33 3d
       0.62929887 0.017129792 -1.0565155 0.043826055
000080 0d 49 1c bd 95 13 09 3f 51 71 90 3d f8 33 bf bf
       -0.038155604 0.53545505 0.070528634 -1.4937735
000090 b0 c7 1a bf c2 64 ae 3d 5c 39 ca 3e d1 87 7f bd
       -0.6046095 0.08515312 0.39496887 -0.062385384
0000a0 c7 4d b5 be 3d 1d 01 3e ef 3b 08 be 5d c3 2e be
       -0.35410902 0.1260881 -0.13304113 -0.17066713
0000b0 f8 60 b3 bd b0 34 19 bf 25 25 b5 be 2a 9a 53 3d
       -0.0875873 -0.5984602 -0.35379902 0.051660694
0000c0 55 f8 ac bf 34 4d 27 bd a7 29 2e be 83 47 04 3d
       -1.3513285 -0.04084511 -0.17008077 0.03229476
0000d0 7e 30 0a 3d 78 ca 43 bd 46 36 e6 3d 86 9a 0c bf
       0.033737652 -0.04780051 0.112408206 -0.54923284
0000e0 2b cd fb 3c 90 fb 89 3d ae 3a 31 bf a7 ba 5e bd
       0.03073748 0.06737435 -0.69230163 -0.054377224
0000f0 d8 41 91 3e 82 f5 a6 3e e7 13 08 be 4a 76 87 be
       0.28370547 0.32609183 -0.13288842 -0.26457435
000100 41 9c 0a bf 74 3d 81 3f 3e d5 ba be 6f bd 0a bd
       -0.54144675 1.0096879 -0.36490816 -0.033872064
000110 01 51 c3 bd 6f b5 a4 bc 3b cc 27 3f 9f c3 4a be
       -0.09536935 -0.020106046 0.65546006 -0.19801186
000120 b9 93 85 3e 68 d9 c0 3d 77 cd 2c bb 10 e4 89 3f
       0.26089266 0.09416467 -0.0026367584 1.0772724
000130 e3 b5 82 be cf 10 65 3d 2f 53 b7 be 13 cd 5d 3c
       -0.25529394 0.055924233 -0.35805652 0.013537663
000140 97 1a 18 bf 14 07 6f bb 73 4a c7 be f5 60 5a bf
       -0.5941557 -0.0036472725 -0.38923988 -0.85304195
000150 cc 7c 57 be c5 8a 87 3d bd d9 f0 bd ad 41 5f be
       -0.210437 0.06618265 -0.1176028 -0.21802397
000160 34 f8 2a c0 df 30 38 ba 84 71 0e bf 23 26 69 be
       -2.671399 -0.00070263253 -0.5564196 -0.22768454
000170 fc f2 0b 3e f0 62 d9 bf 3e 0f 2e bd 37 99 34 be
       0.1366691 -1.6983318 -0.042495005 -0.17636572
000180 31 55 22 3d 87 f0 b7 be db a2 de bf f8 15 e4 3c
       0.039632026 -0.35925695 -1.739345 0.027842507
000190 47 b8 d4 3d 26 a8 73 be 95 1b 85 3d 1b 14 c9 bf
       0.103867106 -0.23794612 0.064994015 -1.5709261
0001a0 15 98 46 3f 77 5d 3e bf f2 92 8b be 68 be 9e bd
       0.7757581 -0.74361366 -0.27260548 -0.07751161
0001b0 8f a2 2f 3f 97 d3 3a bc 83 22 47 bf bb f3 48 be
       0.6860742 -0.011402986 -0.77787036 -0.19624226
0001c0 d8 d9 aa 3c 98 79 89 3f f0 ef dd bd cf 57 15 3e
       0.02085583 1.0740232 -0.1083678 0.14584278
0001d0 c5 3e 15 3d c0 36 07 bc 76 59 8d 3e 5d c2 dd 3d
       0.036436815 -0.0082527995 0.27607316 0.108280875
0001e0 e3 86 20 be 94 af de 3d d4 f6 d8 bd fe 25 c6 be
       -0.15676455 0.108733326 -0.10593954 -0.3870086
0001f0 52 2a 8b 3e 0b a7 3a bf 96 6d 7c be 35 7e 39 3d
       0.27180725 -0.7291114 -0.24651179 0.045286376
000200 66 f1 74 be 3b 45 5d bd 65 68 21 bf 50 7e 4a 3e
       -0.23920211 -0.0540211 -0.6304992 0.19774747
000210 9a dd c4 3c e1 00 d2 3d a7 62 5a 3c 05 4e 36 bf
       0.02403145 0.10254074 0.013329185 -0.712128
000220 9e b2 a9 be fa ea 66 bd b4 29 c4 bb 21 18 1a 3c
       -0.33144087 -0.056376435 -0.0059864167 0.009405167
000230 34 c8 22 be c4 3b f9 3c 21 34 b8 3e e8 21 3f bf
       -0.15896684 0.030424006 0.3597727 -0.7466111
000240 4b 19 9a be f6 46 37 3d ea e2 36 be b3 97 0e be
       -0.30097422 0.044745408 -0.17859998 -0.13925056
000250 67 28 ad bf c1 88 83 3c 14 bc 5f be 24 23 0c bd
       -1.3527955 0.01605642 -0.2184909 -0.0342132
000260 95 58 8c bc 95 45 e5 bf a6 bd e3 bc 6f df f1 bc
       -0.017132083 -1.791186 -0.027800392 -0.029525487
000270 df 42 df be c5 0a 53 bd f2 5d a9 bf 32 02 3f 3c
       -0.43605706 -0.051523943 -1.3231795 0.011658238
000280 06 48 ab be b4 cf e2 bd b9 e8 b9 bd e3 2a 80 bf
       -0.33453387 -0.110747725 -0.090775914 -1.0013088
000290 6d 81 19 3f 5e b5 6c bf a5 56 06 bf bb dc a8 3d
       0.59963113 -0.92464244 -0.5247596 0.08245226
0002a0 13 9a 09 c0 b8 f5 3e bd 75 f2 1a bf 2c b6 ac be
       -2.150029 -0.046621054 -0.6052621 -0.33732736
0002b0 19 0d 84 3c 86 7d 02 c0 2b c2 9a bc ff 80 53 bf
       0.016119527 -2.0389113 -0.018891415 -0.8261871
0002c0 44 f0 ef be e8 fd 9b bd b8 6f 01 c0 a6 93 26 3d
       -0.46862996 -0.07616788 -2.0224438 0.040668152
0002d0 13 99 b5 be 45 99 67 be 2b 0d a0 bb 58 f1 a4 3d
       -0.3546835 -0.22617061 -0.0048843822 0.08053845
0002e0 da 5e f7 bc c2 bf 66 3e 3b 3c 4f bf 33 70 07 be
       -0.030196596 0.22534087 -0.8095128 -0.13226394
0002f0 f5 f3 22 bf 94 16 ca 39 5f 87 03 3f 22 5b 6d bf
       -0.636535 0.00038545264 0.51378435 -0.9271718
000300 28 b8 df bb 28 41 5e bf 9c a4 92 bb 9d ac 7a 3e
       -0.006827373 -0.8681817 -0.0044751894 0.24479909
000310 ef fe 0b be 9d 80 6f bd 72 39 29 bf 39 79 45 3c
       -0.13671468 -0.058472265 -0.6610328 0.0120528275
000320 40 09 11 be f1 41 1d 3e 51 87 33 bd 4f ac 0f bf
       -0.14163685 0.15357186 -0.04383022 -0.561223
000330 b6 63 d9 3d 80 c4 82 3f b2 cf 1d 3f 4e 64 9f 3a
       0.106147215 1.0216217 0.6164504 0.001216063
000340 58 73 61 3f 93 38 3f 3c b9 2f 13 3f 4c 85 49 3f
       0.88066626 0.011671203 0.57494694 0.7871902
000350 8e 7d 8b 3b 56 af 81 3f 96 2f 6b 3d 71 66 4b 3f
       0.0042569106 1.0131633 0.05741843 0.7945319
000360 dc 7f 1a 3f 8e 67 2f 3d 22 bb 68 3f d4 66 fa bc
       0.6035135 0.042823367 0.9091054 -0.03056661
000370 36 ec 1b bd 82 3a ed 3c df 19 17 bf 7e 51 24 bf
       -0.038067065 0.028958563 -0.5902385 -0.6418685
000380 3b 1d c1 3d 15 94 eb bf f7 0c 39 bf bb b7 a2 be
       0.094294034 -1.8404566 -0.7228541 -0.317808
000390 8d 9e bd c0 ab 78 91 bc 7f 11 6a bf 5e ab a8 3c
       -5.9256043 -0.017757734 -0.91432947 0.020589527
0003a0 0a a7 9d 3d 78 b3 76 c0 b5 19 85 3e 68 ac 0e c0
       0.07697876 -3.854704 0.25996175 -2.2292728
0003b0 24 3e 63 bd d5 2a 9c be 54 81 94 c0 f1 c1 88 bd
       -0.055479184 -0.30501428 -4.640787 -0.066776164
0003c0 ec cc 14 bf 2c fa c6 3e a9 71 12 3d 8a 86 87 bf
       -0.58125186 0.3886274 0.035752926 -1.0587933
0003d0 46 dd 2f bd 90 8b 84 3e 5b 27 26 3e fb e4 96 3d
       -0.042935632 0.25887728 0.1622595 0.07367893
0003e0 18 b9 06 40 a9 90 13 ba d8 8e a9 3e 73 fc fe be
       2.1050472 -0.0005629161 0.33116794 -0.49801978
0003f0 52 54 07 3d 11 6e 0d 40 e9 eb c8 3a af a6 c3 3e
       0.0330394 2.209843 0.0015329096 0.38213107

model/hidden_layers/1/b f4 [75]
000000 11 40 db be 4e 22 5e be 86 c4 04 bf f4 87 f2 bc
       -0.42822316 -0.21692774 -0.5186237 -0.029605843
000010 5e 44 b1 3f d3 d8 01 be 32 f7 76 be 2e 5f 96 be
       1.3848989 -0.12680368 -0.24117735 -0.2936949
000020 6e 68 83 40 e8 60 6c 3e 15 48 34 3e 67 26 53 41
       4.106498 0.23083842 0.17605622 13.196876
000030 f5 67 07 c0 4f 87 18 3e 6c 73 bf bd f4 6a 0a bd
       -2.11572 0.14895366 -0.09348187 -0.033793405
000040 11 88 15 3e 59 ce f6 3e 79 ab d6 bd d7 68 8f bf
       0.14602686 0.48204306 -0.104819246 -1.120387
000050 22 f5 c2 bc 38 50 02 bf 4e 92 0a 41 2d 7f f7 40
       -0.023798529 -0.50903654 8.660719 7.7342744
000060 b6 bb 0d bf 64 e4 59 bd d3 d9 ed bc 5f 22 1d 3f
       -0.5536455 -0.053196326 -0.02903453 0.6138057
000070 e7 21 12 be b3 86 8c 3e 7e 83 89 3e 58 a7 5c bc
       -0.14270745 0.27446517 0.26858133 -0.013467632
000080 60 b3 96 be b3 0b 42 3f 15 ca 6f be f0 37 e8 bf
       -0.29433727 0.757991 -0.23416932 -1.8142071
000090 fc 6e f0 bd 26 0f 97 be 22 6c 8f bb a4 fc f2 be
       -0.117399186 -0.29503745 -0.004376904 -0.47458375
0000a0 f2 65 cd 3e ba 22 28 40 84 50 d6 3d d6 68 fb be
       0.4011684 2.6271195 0.10464576 -0.4910342
0000b0 cf 6a c3 3f 3c 64 b5 40 a7 7a b3 3d d3 44 9f bd
       1.526697 5.6684856 0.087636285 -0.07776799
0000c0 93 46 c0 be f2 9d 15 bf ee bb 15 bf 91 ae 0d 3f
       -0.37553844 -0.5844413 -0.5848988 0.5534449
0000d0 e9 d7 9a 3b 39 8c 88 3e 83 6a cf 3f 00 92 3b bf
       0.0047254455 0.2666948 1.620438 -0.73269653
0000e0 f7 f6 28 3e d1 69 68 3f 00 53 33 40 39 b3 87 41
       0.1650046 0.90786463 2.801941 16.962511
0000f0 2a 3c 62 be 8f 8b ee bd c7 39 fa bf 6b fd 9c bf
       -0.22093263 -0.116477124 -1.9548882 -1.2264837
000100 0b 46 d1 be 87 71 37 c0 c2 fc 4b 3c b2 39 ba be
       -0.4087375 -2.8663042 0.012450399 -0.36372143
000110 97 b0 12 bf 2d 75 97 bc 41 c2 1b 3f 4f 2d 48 40
       -0.57300705 -0.018488491 0.6084328 3.1277654
000120 a5 ca 35 be c5 79 c1 be f8 d3 ba be
       -0.17753084 -0.37788215 -0.36489844

model/hidden_layers/1/W f4 [75, 75]
000000 fc 91 3e be 51 b5 de 3c 75 fc fd 3d 0e b5 45 be
       -0.18610376 0.027186068 0.12401668 -0.19307348
000010 63 6e 31 3e 76 0a f5 bd 79 21 ac be 3e ec 80 bd
       0.17327265 -0.11964886 -0.33619288 -0.062950596
000020 4c 73 a6 3d 6d 60 ba bd 7f c9 71 be 7b ed 37 bd
       0.0812746 -0.09100423 -0.23612021 -0.044904213
000030 88 0e 75 be 28 0c eb 3c bf 1f f3 3c 51 b6 0b bd
       -0.23931324 0.02869232 0.029678224 -0.034109417
000040 49 2e d5 bd 80 47 80 be 38 6f 47 3d 18 c8 a9 be
       -0.10409219 -0.2505455 0.04869005 -0.33160472
000050 5b 3f cf bb fc 48 51 bd 8d e5 ab bc e1 1e 25 be
       -0.006324691 -0.051094994 -0.020983482 -0.1612506
000060 2e af 56 bd 8c df 0d 3c be 21 7d be 34 e4 2f bc
       -0.052413158 0.008659255 -0.24719903 -0.01073556
000070 dd cf 67 3d 0b c4 4d be 83 1d 44 be b7 09 23 3e
       0.05659472 -0.20094316 -0.19151883 0.15921675
000080 0d 50 b4 3d da 82 04 be 3d 1b e7 bc f1 8c 40 bc
       0.08804331 -0.12940541 -0.02821123 -0.011752353
000090 8f 4f 87 3c 0f 4d 2b 3d 11 dc a6 be f5 df cf bd
       0.016517429 0.041821536 -0.32589772 -0.10150138
0000a0 48 dd 84 3d fe 45 af 3d 3e b4 14 be 2f 99 4c be
       0.064875185 0.08558272 -0.14521882 -0.1998031
0000b0 59 7e dc bd 13 ee 09 be f7 04 67 3d 28 63 0e be
       -0.107662864 -0.13469724 0.05640122 -0.13905013
0000c0 80 e1 8c bd ab b3 66 b9 1c 1c 9e bd 58 9d 64 be
       -0.06878948 -0.00022001441 -0.07720205 -0.22325647
0000d0 c0 31 3e be 8a c4 36 be c8 34 41 bd a9 3d 86 be
       -0.18573666 -0.17848411 -0.047169477 -0.26218918
0000e0 93 f8 12 bd 71 a0 a6 bb 7b 8b ec bd 8e 49 cf bd
       -0.03588159 -0.005085044 -0.11550041 -0.10121451
0000f0 3c 08 66 3d 12 f5 04 3d c0 e3 46 be 23 f4 c4 bd
       0.056160197 0.03246028 -0.19422817 -0.09616878
000100 33 f7 94 bd 03 3e ee bd b7 4f ca ba 4e bc 99 bd
       -0.07273712 -0.116329215 -0.0015435134 -0.075066194
000110 80 a5 a9 3d 55 86 6c be 4a 62 78 3d 1c e1 52 3d
       0.0828352 -0.23098119 0.06064061 0.051484212
000120 79 a6 99 bd 3a ac 2a bb 41 30 6c 3d 26 dc e6 3d
       -0.07502455 -0.0026042596 0.057663206 0.11272459
000130 03 27 22 be a3 4d 23 be b6 f4 36 be 87 05 96 be
       -0.15835194 -0.15947585 -0.17866787 -0.29301092
000140 17 82 9c bd ca b1 94 bd 39 16 47 be 60 e9 c7 bc
       -0.07642 -0.07260473 -0.19442071 -0.024403274
000150 0d 5f 59 3e 5d af 65 bd 1c 32 97 be d8 73 aa bc
       0.21227665 -0.056075443 -0.29530418 -0.020807192
000160 ed 06 5d be 04 13 ca be 95 f3 6f bd 7e f3 23 3d
       -0.21584673 -0.39467633 -0.058581907 0.040027134
000170 af 07 a4 3c f9 b0 dd bd 43 2a fd 3d ba 39 48 be
       0.020023195 -0.108247705 0.123615764 -0.19553271
000180 e3 87 ee 3a 75 61 6c bc 6c c5 93 bd a9 38 da bd
       0.0018198456 -0.014427532 -0.072153896 -0.10655338
000190 87 b8 91 be 56 ec 50 be 0d e0 7a 3e 5d b8 6c be
       -0.28461096 -0.20402655 0.24499531 -0.23117204
0001a0 86 0f 1b 3e 3e c7 d4 be ab 31 cb 3c 7f 7b 4c be
       0.1514264 -0.4155826 0.024803957 -0.19968985
0001b0 63 dc bc bc 34 25 89 be 74 ec 67 be 1b 15 c8 3d
       -0.023054307 -0.26786196 -0.22648793 0.097696505
0001c0 f9 a8 a2 3d df 36 a4 be 79 b8 07 be c9 8e 2c bd
       0.07942385 -0.32073113 -0.13253964 -0.042128358
0001d0 30 05 d6 bd 35 ec 45 be b1 18 6f bd 66 15 c6 be
       -0.10450208 -0.19328387 -0.058373157 -0.386882
0001e0 81 a6 9d 3d d3 30 11 3e 5e a4 71 be 88 e2 23 be
       0.07697774 0.14178781 -0.23597857 -0.16004384
0001f0 7c 38 b8 bd fe 5a 4a be cf 84 88 be 6f fb 4c 3e
       -0.089951485 -0.19761273 -0.26663825 0.2001779
000200 40 f9 ae bd 94 64 0d be dd 5a 86 be bf 45 0d bc
       -0.085436344 -0.13807899 -0.26241198 -0.008622586
000210 0f ba e5 bd 47 e2 ab be 48 28 d5 bd 65 45 56 bd
       -0.112171285 -0.33571073 -0.10408074 -0.052312274
000220 89 ab e0 bd 95 77 37 be 65 21 68 be fe 1d 5c bd
       -0.10970218 -0.1791671 -0.22668989 -0.05373954
000230 b6 83 f4 bd 7b 7c 1c be 33 fc 44 bd bf e7 c4 3e
       -0.11939184 -0.1528186 -0.04809208 0.38458058
000240 74 cb 33 be 62 30 b7 3c 06 44 0a bc 1b a2 75 be
       -0.1755808 0.022361938 -0.00843907 -0.2398762
000250 25 5d 82 be f0 5b 10 be db 6c 26 be 65 53 31 3c
       -0.2546169 -0.14097571 -0.16252463 0.010823105
000260 75 bf ed 3c 34 6f d4 bd 55 67 26 bf 59 51 60 be
       0.029021958 -0.10372773 -0.6500142 -0.21906032
000270 b3 74 f5 bd a8 08 fe be c7 ac 99 bd 51 62 30 be
       -0.11985149 -0.4961598 -0.07503658 -0.17225005
000280 e2 bb 83 be fa bc 48 be d5 48 c5 3d 5d 47 7e 3e
       -0.2572928 -0.19603339 0.09633032 0.2483191
000290 a5 65 63 bf 0b f7 34 bf 50 f7 44 3c 90 76 49 be
       -0.8882697 -0.7068946 0.0120218545 -0.19674134
0002a0 49 7b 80 3d 27 75 f7 bd c9 4c 4d 3d 67 5b 94 bd
       0.06273515 -0.12082892 0.050122056 -0.07243996
0002b0 6e c5 c0 be 2a c5 1a be 7e 97 22 bc 76 1a be 3d
       -0.37650627 -0.15114275 -0.009923814 0.09282391
0002c0 c9 ce 2e be 3a 6c e5 be 84 37 88 be f4 14 84 be
       -0.1707107 -0.44809133 -0.26604855 -0.25797236
0002d0 6e f0 fc bd 0d 71 54 be e3 d0 a8 3e 7f 6b 34 ba
       -0.12350546 -0.2074625 0.32971868 -0.0006882473
0002e0 99 f7 9b be 07 c4 96 be a5 dd 99 be a5 8d 1a 3f
       -0.3046234 -0.29446432 -0.30051914 0.6037238
0002f0 af 04 e6 bd b2 65 96 be bd 1d 49 be 60 0b 02 3d
       -0.11231362 -0.29374462 -0.1964025 0.03174913
000300 f0 90 36 be 8b 2c c1 bd 19 43 03 bf 49 b6 f9 3d
       -0.17828727 -0.09432324 -0.5127426 0.12192971
000310 b7 b0 be 3e a5 f2 3a 3e e2 6e aa bd 5b 4b 8a 3e
       0.37244198 0.18256624 -0.083219305 0.27010617
000320 22 86 11 3e ca c9 10 be 95 83 7d be 37 ae ee bd
       0.14211324 -0.14139476 -0.24757226 -0.116543226
000330 ab 78 16 bd 08 46 75 be 4d 5d 85 be 2d a9 5c bf
       -0.03673617 -0.23952496 -0.26047745 -0.8619564
000340 4d 55 13 3f 8b 7f 03 bf 23 45 89 bf 34 1a 21 be
       0.57552034 -0.5136649 -1.0724224 -0.15732652
000350 9f e1 0f bd 18 a0 9b be 55 50 87 3d 3d 4a 55 3c
       -0.03512728 -0.3039558 0.06607119 0.013018188
000360 85 bf 84 be 24 16 b4 3c 01 4e 68 be 0c 5d aa bd
       -0.25927368 0.021983214 -0.22686006 -0.083185285
000370 a6 f6 a8 3e 38 41 1d be 70 29 ce be 38 ea a0 3e
       0.33000678 -0.1535691 -0.4026599 0.31428695
000380 bd 76 0a bf 20 62 a2 3d 30 3e 0e be 54 98 d9 bd
       -0.5408743 0.07928872 -0.1389091 -0.106247574
000390 a2 86 17 bc 97 7d 20 3d 99 3f 14 3d 3d fa 95 3d
       -0.009248408 0.03918227 0.036193464 0.0732312
0003a0 41 1e be bd 01 37 c7 bd 1c 87 b9 bd a2 fc 17 be
       -0.09283114 -0.09727288 -0.09058973 -0.14842466
0003b0 dc 58 31 be d1 fe 36 be 12 45 b0 bd 67 4c 04 be
       -0.17319053 -0.17870642 -0.08606924 -0.1291977
0003c0 21 24 75 bc f6 b6 e7 bd 87 f9 26 3e e2 f2 3c be
       -0.014962227 -0.11314194 0.16306125 -0.18452027
0003d0 44 e4 01 3e 4e a8 c8 3d 0f 88 f1 bc ae 39 59 3d
       0.12684733 0.097977266 -0.029483823 0.053033523
0003e0 09 c9 8b bd 4e 67 aa 3d e2 20 4f be cf 63 91 be
       -0.06825454 0.08320485 -0.20227388 -0.2839646
0003f0 b5 cb fe 3d f9 64 e4 bd 37 5f a9 3c f6 10 ab be
       0.12441198 -0.111520715 0.020675285 -0.33411378

model/output/b f4 [4]
000000 4b ed 3d c1 41 a4 69 c1 6e 6c 61 c1 5a 9d 5c c1
       -11.870433 -14.602601 -14.088972 -13.788416

model/output/W f4 [4, 75]
000000 0f 21 22 bc 63 f7 99 3e d9 20 10 3c 13 7b 64 3e
       -0.009895577 0.30071554 0.008796894 0.22312574
000010 ae 83 d2 bc 2f f1 85 3e d8 ce 25 bd 71 81 8d 3e
       -0.025697555 0.2616057 -0.040480465 0.27637818
000020 49 3d 12 be db 8c af bd 73 da d2 bd 5f a0 b8 bd
       -0.14281191 -0.08571788 -0.10295572 -0.09014963
000030 62 84 27 3e c2 2f 82 bd 76 eb dc 3c 7b 53 b5 3d
       0.16359094 -0.06356765 0.026967745 0.08853813
000040 6b 9e c4 bd d9 eb 84 bd bb 23 6e 3e c3 1d b0 bb
       -0.09600528 -0.06490297 0.23255818 -0.0053746416
000050 81 fd 8a be 17 f3 c6 3e 01 4b da be 35 88 2c bd
       -0.27146533 0.38857338 -0.42635348 -0.042122085
000060 22 fd c4 3d d5 7c 22 3c 36 7a 60 3d 79 f4 4d bd
       0.09618594 0.009917458 0.05480405 -0.050281975
000070 d5 ba ff 3d 28 e8 03 3e 27 f3 dd bd bb e4 d2 3d
       0.12486807 0.1288153 -0.10837393 0.10297533
000080 40 75 2d bd 35 e2 bd be 68 f4 a8 3e 71 a4 14 3d
       -0.042348146 -0.37086645 0.32998967 0.036289636
000090 f6 55 0a be b0 2a 7f 3d 59 2f dc 3b e0 76 7d 3b
       -0.13509354 0.06229657 0.0067195115 0.0038675591
0000a0 ac 9a de bd 8e fa 8d be f4 b4 e2 3d 02 10 2f 3e
       -0.10869345 -0.2773022 0.1106967 0.1709595
0000b0 a7 b5 6e be 2d c0 0a be 00 8f 43 3b cc 6f 2e bd
       -0.23311482 -0.13549872 0.0029839873 -0.042587087
0000c0 75 24 72 bd 32 36 00 3d 50 8b fc 3d 0a a4 3d 3d
       -0.0591168 0.031301685 0.12331259 0.046299018
0000d0 70 39 d2 bd 38 d1 4f be f9 c7 51 be e3 36 0f 3f
       -0.102648616 -0.20294654 -0.2048644 0.55943125
0000e0 5f 84 8c bc 6b ee 90 bd b7 47 2e be 94 1b b2 bf
       -0.017152963 -0.070767246 -0.17019545 -1.3914666
0000f0 86 e9 d6 3d cf db 7f 3c db 53 12 3e 4d bf 22 3e
       0.1049376 0.015616371 0.14289801 0.15893288
000100 3d 4d 82 be 82 45 f3 bc 54 b1 37 be 5a 00 85 bd
       -0.25449553 -0.02969623 -0.17938739 -0.06494208
000110 6c 72 0d 3f 4b 56 af bd 0e 24 c7 3d a9 79 0e be
       0.5525272 -0.08561381 0.09723674 -0.13913597
000120 88 d3 6b bc fb 53 11 3d 47 f7 3b 3d ac da bf bb
       -0.014393695 0.03548048 0.04589012 -0.005854925
000130 33 d6 9d 3e 62 4e ef 3d 30 8e d6 3d a1 2d 99 be
       0.30827484 0.11684872 0.10476339 -0.29917625
000140 fa 9b 5e be cb 8a 74 bd a6 fa ff 3d c2 ef bd bd
       -0.21739188 -0.059702676 0.12498979 -0.09274246
000150 f6 32 16 bc 07 39 aa be ac cc ce bd 6a 4a 04 3e
       -0.0091674235 -0.33246633 -0.10097632 0.12919012
000160 6a e4 0d be c2 74 ae 3d 35 b4 59 3d 0c 44 1c bd
       -0.13856664 0.085183635 0.053150374 -0.038150832
000170 16 76 38 3d 48 c3 36 bf 5e 99 aa 3d 23 d5 83 3e
       0.04503449 -0.71391726 0.08330034 0.25748548
000180 c8 86 ed 3e 0b 40 ae be 91 07 97 bd 01 69 b1 3d
       0.46391892 -0.34033236 -0.0737449 0.08662606
000190 5c 01 1d bc cc bb 50 3d 04 9a e8 3c 57 ab ac bd
       -0.009582844 0.050960347 0.028393753 -0.08431118
0001a0 3f bd a8 3d 3e e1 fc bd 45 b3 9a 3d 32 da 8b bd
       0.08239221 -0.12347649 0.07553724 -0.06828727
0001b0 51 fa 76 be de 3c 3b be b7 90 9c 3d a6 74 df 3b
       -0.24118926 -0.18284938 0.0764479 0.0068193255
0001c0 2a dd 7e 3d 1c a9 20 be dd a6 97 bd 36 bc 63 bc
       0.062222637 -0.1568951 -0.074048735 -0.013899853
0001d0 69 16 80 be a8 0d 20 bc f0 d2 bd 3e 26 0f c3 3d
       -0.25017098 -0.009768881 0.37074995 0.09524374
0001e0 fa cf 6e be 0d 17 8d 3e 29 76 42 3d e3 ae ce 3b
       -0.23321524 0.2755665 0.047475968 0.006307469
0001f0 fd 59 2c 3d dc 74 9a 3e 14 73 10 3d 60 97 cb 3c
       0.042078007 0.30167282 0.035265997 0.024852455
000200 e7 35 c2 bc 30 e6 20 be 16 19 33 bd d8 80 9b 3d
       -0.023707343 -0.1571281 -0.043725096 0.07592934
000210 fb c5 d9 bc bd 69 0e be 59 25 aa bf 09 7c b8 3d
       -0.026583662 -0.13907523 -1.3292648 0.09008033
000220 ce 62 3c 3d c2 b6 1c 3e c6 02 e9 3d 95 1a a6 3c
       0.045992665 0.15304092 0.11377482 0.020276347
000230 db 67 04 3e 13 49 3b 3e 1b e8 8e b9 dd 5d 1e 3d
       0.12930243 0.18289594 -0.00027257283 0.038663734
000240 e6 ea 10 bd 63 58 35 be 3e fd b0 bd 84 45 00 be
       -0.035380267 -0.17709498 -0.08642052 -0.12526518
000250 27 8f 4f 3e 1a 90 99 bc 9f a8 c9 3c 55 d8 04 3c
       0.20269452 -0.01874547 0.024616538 0.008108218
000260 8e 5f eb 3d c1 a8 46 3e f5 fd 20 be f8 7b 0f 3e
       0.11492835 0.19400312 -0.15721877 0.14012134
000270 03 fe 93 bb bb fb 09 be c4 e4 f8 bd 69 8e 6c 3a
       -0.0045163645 -0.13474934 -0.121530086 0.00090239063
000280 4a 78 a5 be 43 c4 07 be 2c 0f 0f 3e 0e 1f 27 be
       -0.32318336 -0.13258462 0.13970631 -0.1632044
000290 10 bc 5e bc 19 80 d7 3d 8b 07 f0 bc a6 a1 69 3c
       -0.013594642 0.105224796 -0.029300472 0.014259731
0002a0 e3 00 f2 be 5e c1 37 3d 63 e2 af 3d 75 a0 a1 3e
       -0.47266302 0.044862144 0.08588102 0.31567731
0002b0 84 a8 a9 be 60 40 3e bc 39 6f af 3d af 63 18 bd
       -0.3313638 -0.011612028 0.08566136 -0.03720444
0002c0 45 90 88 3c 2e f8 33 bd 7a f0 94 bd 81 4e 17 3e
       0.016670356 -0.043937854 -0.0727243 0.1477604
0002d0 12 ff 0d be 51 02 04 bd 2e d4 06 3d ba 16 80 be
       -0.13866833 -0.03222877 0.032917194 -0.2501734
0002e0 4d 5b 5b be 4e 7d b0 3d 92 41 48 b9 aa 06 9b 3d
       -0.21421547 0.0861765 -0.00019097913 0.075696304
0002f0 60 55 9c bd b5 86 79 bb 20 13 1c 3c 01 ce 8e be
       -0.076334715 -0.0038074676 0.009526044 -0.27891544
000300 74 84 80 bc 36 85 ef 3e 7d 4c 5f 3d 3f 60 6a be
       -0.015688159 0.4678132 0.054516304 -0.22888277
000310 74 e6 05 3d a7 ab 6e bd 39 8b 50 bd 8f 7e 97 bd
       0.03269048 -0.05826917 -0.050914023 -0.07397186
000320 77 8b a6 3e ab 01 36 3d fe 97 f1 bb ee d7 56 bd
       0.32528278 0.044435184 -0.007372855 -0.05245202
000330 be 91 1d be db a3 90 3b 02 c2 41 3d 2e 40 c0 bd
       -0.15387627 0.0044140643 0.04730416 -0.09387241
000340 d3 11 13 be ea 41 ab bf fa 46 0c be 0b 4c e4 3d
       -0.14362268 -1.337949 -0.1369895 0.111473165
000350 d0 d5 11 3e 08 af c3 3d c2 a5 16 be 47 6d 1e 3e
       0.14241719 0.09554869 -0.14711669 0.15471373
000360 30 c0 55 3e 36 de d3 bc a8 c2 12 bc b8 dc 0e be
       0.20874095 -0.025862794 -0.0089575425 -0.13951385
000370 79 22 ed 3c 30 07 ca bd c5 64 70 bd 68 83 49 3e
       0.028947102 -0.09864652 -0.05868985 0.19679034
000380 c4 54 c9 bc 05 11 ad 3c 1f b0 5a 3e c2 39 db 3c
       -0.024576552 0.02112628 0.21356247 0.02676094
000390 ff 2e bb bd 32 7b 99 be 86 f2 bf be 89 8c f6 3c
       -0.09139823 -0.29976803 -0.37489718 0.03009631
0003a0 4a a8 db bd 19 a1 b4 bd f9 5e 3d bd ba 0b 8d be
       -0.10725458 -0.088197894 -0.04623315 -0.2754801
0003b0 f0 23 cb bd 5f 94 fb 3d 5f 8d 04 be 74 b3 56 3d
       -0.09918964 0.12284159 -0.12944554 0.052417234
0003c0 c3 fc 59 3d 4f b3 76 3c f4 33 ed 3c a6 62 d0 bc
       0.053219568 0.015057399 0.028955437 -0.025437664
0003d0 9a 3f 0b 3e e1 5d 77 3d 38 92 06 3f 66 5c b5 be
       0.13598481 0.060392264 0.5256686 -0.35422057
0003e0 00 66 88 bd ff 58 05 3c 44 87 c3 bd 19 0a 6d be
       -0.0666008 0.008138894 -0.09547284 -0.23148383
0003f0 04 3c 8b 3d 74 8c ae bc 38 a6 18 3e 61 41 df bd
       0.067985564 -0.021307208 0.14907157 -0.10901142
