experiments/visitall/visitall_full_train_set_2-75-3/best/target_model.npz (npz, 29734 bytes, 6 tensors)

model/hidden_layers/0/b f4 [75]
-2.581503 -1.9585965 -3.011925 -2.3806963 -0.2749439 -1.3529259 -3.7764618 -1.3366166
1.3171679 9.237232 -3.168253 -7.3336244 15.097116 -0.27001655 -1.1375449 -1.1448622
-3.3531406 -1.9832076 1.60628 1.4170736 5.2845397 -3.3260849 -0.6193237 -1.2488608
-2.3780437 8.132435 -2.8098168 -6.0579114 1.0437472 -1.2455362 0.9341371 4.6157675
-0.9057662 -1.3192713 -3.3910406 -2.2893713 1.1374416 -0.9768928 -4.1959934 -2.5025396
-3.3766103 0.362429 -2.110026 0.98577124 -5.327045 -0.45555362 -0.60478806 4.558973
-4.502777 -1.8989758 -0.459099 -0.80407286 -3.021995 -2.314886 -1.9288301 3.5960882
-3.2814186 -5.052605 -0.29676202 -0.5880455 0.8740954 -6.60621 2.818177 -0.9469436
-3.0446815 0.5706638 0.035196174 -1.477793 -4.4542584 0.6400105 -0.53202903 -1.9079621
-1.885448 0.027259063 0.3718269
00000000: 5837 25c0 4ab3 fabf 61c3 40c0 545d 18c0
00000010: 72c5 8cbe ad2c adbf 8db1 71c0 4116 abbf
00000020: f598 a83f b4cb 1341 a8c4 4ac0 0dad eac0
00000030: ca8d 7141 9c3f 8abe 129b 91bf d88a 92bf
00000040: db99 56c0 bfd9 fdbf 959a cd3f ab62 b53f
00000050: f31a a940 93de 54c0 ff8b 1ebf acda 9fbf
00000060: de31 18c0 741e 0241 0ad4 33c0 69da c1c0
00000070: 8299 853f bb6d 9fbf 9c23 6f3f 5eb4 9340
00000080: 4be0 67bf e2dd a8bf cf06 59c0 0f85 12c0
00000090: b097 913f a615 7abf 9445 86c0 9c29 20c0
000000a0: 621a 58c0 4b90 b93e aa0a 07c0 815b 7c3f
000000b0: 2777 aac0 533e e9be 64d3 1abf 1be3 9140
000000c0: c016 90c0 a411 f3bf 060f ebbe b8d7 4dbf
000000d0: 5e68 41c0 1827 14c0 e8e3 f6bf 4f26 6640
000000e0: c302 52c0 f1ae a1c0 31f1 97be 268a 16bf
000000f0: b7c4 5f3f 1366 d3c0 035d 3440 e56a 72bf
00000100: 10dc 42c0 0617 123f dd29 103d 5228 bdbf
00000110: 4989 8ec0 bad7 233f 0e33 08bf 1a38 f4bf
00000120: 5c56 f1bf 664e df3c 1860 be3e

model/hidden_layers/0/W f4 [75, 20]
0.6376464 0.07675998 -0.038565878 -0.9916137 -0.42674103 -2.574868 -0.20005162 0.014192031
-0.15500097 0.0015091139 -3.0572765 0.016260356 0.040849585 0.28356722 0.004406082 -2.5624015
-0.30349442 -0.078971766 -0.044968616 0.050587554 -0.2004918 -0.03582652 -0.011627458 -1.375748
-0.37263992 -1.504195 -0.25824344 -0.05667366 0.6277281 0.02018434 -1.0480201 0.043826055
-0.033908747 0.5327935 0.06865911 -1.4927813 -0.6046095 0.09213964 0.39957374 -0.06337552
-0.3538499 0.1260881 -0.14760454 -0.16473958 -0.08922567 -0.599536 -0.35379902 0.033952296
-1.3413113 -0.0584436 -0.17117643 0.03229476 0.015207553 -0.03373466 0.100958586 -0.549906
0.03073748 0.067331366 -0.67909336 -0.06576127 0.2831591 0.32609183 -0.13464917 -0.26171625
-0.5372515 1.0098428 -0.36490816 -0.03612159 -0.08948202 -0.018468438 0.6567979 -0.19801186
0.27623367 0.09852391 -0.0019278947 1.0784956 -0.25529394 0.08332797 -0.35181612 0.012335852
-0.59320694 -0.0035879435 -0.38287133 -0.84711105 -0.21200569 0.05949415 -0.1176028 -0.2092581
-2.6663902 -0.0037582484 -0.56174225 -0.22768454 0.13653274 -1.6937973 -0.046453353 -0.17933802
0.039632026 -0.36601755 -1.7379752 0.028119553 0.10416845 -0.23813249 0.06546341 -1.5768636
0.77487344 -0.74340224 -0.27260548 -0.08066489 0.68273324 -0.024982221 -0.77441305 -0.19624226
0.012679698 1.0680546 -0.11391682 0.15039004 0.036436815 -0.011089275 0.2684581 0.09861589
-0.15699297 0.10845871 -0.11203567 -0.39049548 0.2651811 -0.7378384 -0.24651179 0.035463247
-0.24239016 -0.05687231 -0.6328095 0.19774747 0.023282984 0.10029748 0.0040439083 -0.7145362
-0.33144087 -0.07193981 -0.006327331 0.005223309 -0.15866931 0.030538378 0.36323726 -0.74205345
-0.3023868 0.044310905 -0.17937379 -0.15257958 -1.3498162 0.025062194 -0.22051412 -0.034986995
-0.039065816 -1.785 -0.02442391 -0.02948307 -0.43683073 -0.06467206 -1.3270202 0.019980762
-0.3338579 -0.11080134 -0.1027573 -0.98991954 0.5987362 -0.93081445 -0.5247596 0.07668685
-2.1393256 -0.052133087 -0.6091513 -0.33732736 0.023110365 -2.0277424 -0.020225769 -0.8307774
-0.46862996 -0.088030614 -2.0131567 0.03882859 -0.35276932 -0.22618918 -0.008280104 0.08693488
-0.041135494 0.22526525 -0.8095128 -0.13240497 -0.6246655 0.0023513588 0.51478976 -0.9271718
-0.004001185 -0.8564566 -0.0080079585 0.2467991 -0.13671468 -0.059485745 -0.6581287 0.0129752215
-0.1406071 0.15357186 -0.040463235 -0.56905884 0.10359953 1.0175587 0.6342172 0.0042022956
0.87186366 0.010107872 0.5701528 0.804957 0.0044767624 1.0002599 0.052325033 0.7911313
0.62128025 0.048402958 0.8958294 -0.03429358 -0.04094058 0.026786877 -0.5837625 -0.6505079
0.07047867 -1.8325142 -0.7371582 -0.3194361 -5.9196353 -0.005999724 -0.902943 0.006284758
0.081086986 -3.849862 0.26771832 -2.2173212 -0.06978394 -0.28370744 -4.6371 -0.059622224
-0.5618506 0.3998859 0.036751457 -1.0558538 -0.028268745 0.26178572 0.19182117 0.075454056
2.107845 -0.0022544623 0.326386 -0.46845812 0.030674644 2.2128012 -0.0004342798 0.3776574
00000000: cb3c 233f 5634 9d3d 41f7 1dbd 65da 7dbf
00000010: cd7d dabe a3ca 24c0 55da 4cbe b185 683c
00000020: 93b8 1ebe 76cd c53a 6baa 43c0 7034 853c
00000030: e551 273d b92f 913e e560 903b 63fe 23c0
00000040: 9f63 9bbe f3bb a1bd 0331 38bd e534 4f3d
00000050: b94d 4dbe d4be 12bd 1881 3ebc 8318 b0bf
00000060: a9ca bebe 7689 c0bf 7c38 84be a422 68bd
00000070: cab2 203f a159 a53c 8625 86bf f382 333d
00000080: e6e3 0abd 2865 083f 269d 8c3d 7513 bfbf
00000090: b0c7 1abf b5b3 bc3d ee94 cc3e 06cb 81bd
000000a0: d02b b5be 3d1d 013e a525 17be 7eb1 28be
000000b0: f3bb b6bd 317b 19bf 2525 b5be 9011 0b3d
000000c0: 17b0 abbf 8e62 6fbd e048 2fbe 8347 043d
000000d0: 1a29 793c 5b2d 0abd 60c3 ce3d a4c6 0cbf
000000e0: 2bcd fb3c 07e5 893d 10d9 2dbf d8ad 86bd
000000f0: 3bfa 903e 82f5 a63e 79e1 09be acff 85be
00000100: 5089 09bf 8742 813f 3ed5 babe 3bf4 13bd
00000110: 5942 b7bd 1f4b 97bc e823 283f 9fc3 4abe
00000120: 806e 8d3e e7c6 c93d 69b1 fcba 250c 8a3f
00000130: e3b5 82be dba7 aa3d 3e21 b4be 501c 4a3c
00000140: 69dc 17bf b423 6bbb b607 c4be 45dc 58bf
00000150: 0518 59be 23b0 733d bdd9 f0bd c147 56be
00000160: 23a6 2ac0 f24c 76bb 57ce 0fbf 2326 69be
00000170: 3dcf 0b3e 5ace d8bf df45 3ebd 63a4 37be
00000180: 3155 223d a766 bbbe f975 debf fa5a e63c
00000190: 4556 d53d 01d9 73be ae11 863d abd6 c9bf
000001a0: 1b5e 463f 9c4f 3ebf f292 8bbe a233 a5bd
000001b0: 9bc7 2e3f 84a7 ccbc ef3f 46bf bbf3 48be
000001c0: 82be 4f3c 03b6 883f 394d e9bd d9ff 193e
000001d0: c53e 153d caaf 35bc 5773 893e 21f7 c93d
000001e0: c4c2 20be 9a1f de3d f572 e5bd 06ef c7be
000001f0: d1c5 873e fae2 3cbf 966d 7cbe e941 113d
00000200: 2035 78be f0f2 68bd ceff 21bf 507e 4a3e
00000210: f5bb be3c c468 cd3d c382 843b d8eb 36bf
00000220: 9eb2 a9be 2e55 93bd 8055 cfbb 4b28 ab3b
00000230: 357a 22be 9f2b fa3c 3cfa b93e 37f7 3dbf
00000240: 71d2 9abe 5a7f 353d c3ad 37be d23d 1cbe
00000250: c7c6 acbf 3b4f cd3c 74ce 61be 864e 0fbd
00000260: 7a03 20bd e17a e4bf a714 c8bc 7b86 f1bc
00000270: 47a8 dfbe c972 84bd ccdb a9bf b2ae a33c
00000280: 6cef aabe d0eb e2bd 6b72 d2bd 5e6b 7dbf
00000290: c746 193f db49 6ebf a556 06bf ff0d 9d3d
000002a0: b6ea 08c0 8189 55bd 57f1 1bbf 2cb6 acbe
000002b0: f351 bd3c 88c6 01c0 83b0 a5bc d4ad 54bf
000002c0: 44f0 efbe 6549 b4bd 8fd7 00c0 ba0a 1f3d
000002d0: 2e9e b4be 239e 67be 46a9 07bc ea0a b23d
000002e0: b17d 28bd efab 663e 3b3c 4fbf 2b95 07be
000002f0: 14ea 1fbf 4119 1a3b 43c9 033f 225b 6dbf
00000300: 5f1c 83bb bd40 5bbf d033 03bc e7b8 7c3e
00000310: effe 0bbe 53a7 73bd 1f7b 28bf 0696 543c
00000320: 4ffb 0fbe f141 1d3e c7bc 25bd d7ad 11bf
00000330: fe2b d43d 5d3f 823f 0f5c 223f 69b3 893b
00000340: 7532 5f3f 7d9b 253c 89f5 113f a911 4e3f
00000350: ceb1 923b 8408 803f c652 563d 9587 4a3f
00000360: 390c 1f3f 2e42 463d 1355 653f 6d77 0cbd
00000370: 4fb1 27bd 2770 db3c 7671 15bf b087 26bf
00000380: 1f57 903d d38f eabf 66b6 3cbf 218d a3be
00000390: a76d bdc0 5599 c4bb 4627 67bf 5ff0 cd3b
000003a0: ef10 a63d 2464 76c0 6012 893e 97e8 0dc0
000003b0: e2ea 8ebd 1a42 91be 2063 94c0 6f36 74bd
000003c0: 71d5 0fbf d8bd cc3e b288 163d 3826 87bf
000003d0: db93 e7bc c708 863e c56c 443e a887 9a3d
000003e0: efe6 0640 9abf 13bb 111c a73e bed9 efbe
000003f0: 6449 fb3c 899e 0d40 0cb0 e3b9 505c c13e

model/hidden_layers/1/b f4 [75]
-0.42822316 -0.21622184 -0.5164895 -0.02409016 1.3834932 -0.12343815 -0.24117735 -0.2936949
4.106514 0.23083842 0.17573492 13.195032 -2.1100256 0.14896886 -0.09348187 -0.033793405
0.14420602 0.482134 -0.11088288 -1.1229643 -0.029885544 -0.50054675 8.656325 7.7295594
-0.5536455 -0.053196326 -0.02903453 0.6138057 -0.1427172 0.27359632 0.26858133 -0.013467632
-0.29433727 0.7567235 -0.23099689 -1.8149998 -0.12177582 -0.29503745 -0.004376904 -0.47458375
0.4011684 2.6310453 0.11317389 -0.48791692 1.526697 5.663733 0.087636285 -0.07776799
-0.37553844 -0.5844413 -0.5802407 0.553491 0.0047254455 0.2666948 1.6256485 -0.7392649
0.1650046 0.90786463 2.797573 16.943047 -0.22093263 -0.116477124 -1.9564927 -1.2283249
-0.40838376 -2.8672411 0.012450399 -0.36372143 -0.57300705 -0.018488491 0.6110455 3.1298795
-0.17753084 -0.37760332 -0.36489844
00000000: 1140 dbbe 4269 5dbe a838 04bf ba58 c5bc
00000010: 4e16 b13f 24cd fcbd 32f7 76be 2e5f 96be
00000020: 9068 8340 e860 6c3e dbf3 333e da1e 5341
00000030: a90a 07c0 4b8b 183e 6c73 bfbd f46a 0abd
00000040: beaa 133e 45da f63e 9016 e3bd 4bbd 8fbf
00000050: 87d2 f4bc d523 00bf 4f80 0a41 8d58 f740
00000060: b6bb 0dbf 64e4 59bd d3d9 edbc 5f22 1d3f
00000070: 7524 12be d114 8c3e 7e83 893e 58a7 5cbc
00000080: 60b3 96be a2b8 413f 738a 6cbe ea51 e8bf
00000090: 9a65 f9bd 260f 97be 226c 8fbb a4fc f2be
000000a0: f265 cd3e 0c63 2840 b6c7 e73d 3fd0 f9be
000000b0: cf6a c33f 4d3d b540 a77a b33d d344 9fbd
000000c0: 9346 c0be f29d 15bf a88a 14bf 96b1 0d3f
000000d0: e9d7 9a3b 398c 883e 4015 d03f 7740 3dbf
000000e0: f7f6 283e d169 683f 700b 3340 5c8b 8741
000000f0: 2a3c 62be 8f8b eebd 5a6e fabf c039 9dbf
00000100: ad17 d1be e180 37c0 c2fc 4b3c b239 babe
00000110: 97b0 12bf 2d75 97bc 7a6d 1c3f f24f 4840
00000120: a5ca 35be 3955 c1be f8d3 babe

model/hidden_layers/1/W f4 [75, 75]
-0.18610376 0.027186068 0.12401668 -0.19307348 0.17327265 -0.11964886 -0.33619288 -0.062950596
0.0812746 -0.09100423 -0.23612021 -0.044904213 -0.23931324 0.02869232 0.029678224 -0.034109417
-0.10409219 -0.2505455 0.04869005 -0.33160472 -0.006324691 -0.051094994 -0.020983482 -0.1612506
-0.052413158 0.008659255 -0.24719903 -0.01073556 0.05659472 -0.20094316 -0.19151883 0.15921675
0.08804331 -0.12940541 -0.02821123 -0.011752353 0.016517429 0.041821536 -0.32589772 -0.10150138
0.064875185 0.08558272 -0.14521882 -0.1998031 -0.107662864 -0.13469724 0.05640122 -0.13905013
-0.06878948 -0.00022001441 -0.07720205 -0.22325647 -0.18573666 -0.17848411 -0.047169477 -0.26218918
-0.03588159 -0.005085044 -0.11550041 -0.10121451 0.056160197 0.03246028 -0.19422817 -0.09616878
-0.07273712 -0.116329215 -0.0015435134 -0.075066194 0.0828352 -0.23098119 0.06064061 0.051484212
-0.07502455 -0.0026042596 0.057663206 0.107501976 -0.15791856 -0.16001126 -0.17866787 -0.29436055
-0.08198604 -0.07460548 -0.19557858 -0.024403274 0.21237583 -0.05472213 -0.305067 -0.015265576
-0.21584673 -0.3894573 -0.058581907 0.05372949 0.025386345 -0.108247705 0.1324825 -0.19588889
0.0019651148 -0.014427532 -0.072153896 -0.10655338 -0.28582418 -0.2033517 0.23693243 -0.23117204
0.1514264 -0.4158874 0.026004268 -0.19968985 -0.023054307 -0.27087677 -0.2266211 0.09584579
0.07942385 -0.319091 -0.12923425 -0.042128358 -0.10450208 -0.19328387 -0.058021918 -0.39401326
0.07702077 0.14178781 -0.23333931 -0.16004384 -0.08996254 -0.19761273 -0.26663825 0.2001779
-0.085436344 -0.1345664 -0.25712 -0.008622586 -0.108014666 -0.33571073 -0.1039439 -0.052312274
-0.10970218 -0.17904101 -0.22668989 -0.05373954 -0.11939184 -0.14565358 -0.048770603 0.3889106
-0.1755808 0.022361938 -0.00843907 -0.2398762 -0.2493967 -0.14097571 -0.16252664 0.025338586
0.045087144 -0.10015873 -0.6496998 -0.21960314 -0.11508756 -0.49616727 -0.075657204 -0.16590855
-0.23854688 -0.18235657 0.10937353 0.26111782 -0.86560684 -0.70199853 0.025854072 -0.19861296
0.0682256 -0.109838 0.062224858 -0.07181837 -0.37622166 -0.15047581 -0.008975708 0.10154191
-0.1707107 -0.44213358 -0.2628871 -0.2518592 -0.111272104 -0.20062934 0.3351108 0.0059083435
-0.3044029 -0.28706446 -0.29520217 0.61796165 -0.1103685 -0.28462264 -0.18927544 0.031889416
-0.16940314 -0.09305023 -0.51233035 0.13121733 0.38929564 0.19422255 -0.07520202 0.28130996
0.1529968 -0.13644278 -0.24762392 -0.11397348 -0.03469396 -0.22330257 -0.25479782 -0.8604233
0.5960338 -0.5138983 -1.0707052 -0.14482853 -0.033992097 -0.29032928 0.072063036 0.017196668
-0.25907934 0.028487032 -0.2261581 -0.07084645 0.3539917 -0.1350496 -0.39003178 0.33691943
-0.53037626 0.094479896 -0.13834023 -0.106247574 -0.009248408 0.052625768 0.054808207 0.07908305
-0.09157446 -0.098188914 -0.061874166 -0.14776997 -0.1730633 -0.1490144 -0.081967674 -0.13638967
-0.014962227 -0.10391801 0.19176447 -0.1833961 0.13892211 0.11732683 -0.014909405 0.053033523
-0.06825454 0.07909698 -0.18459377 -0.28174418 0.14686905 -0.111520715 0.020674309 -0.3349994
00000000: fc91 3ebe 51b5 de3c 75fc fd3d 0eb5 45be
00000010: 636e 313e 760a f5bd 7921 acbe 3eec 80bd
00000020: 4c73 a63d 6d60 babd 7fc9 71be 7bed 37bd
00000030: 880e 75be 280c eb3c bf1f f33c 51b6 0bbd
00000040: 492e d5bd 8047 80be 386f 473d 18c8 a9be
00000050: 5b3f cfbb fc48 51bd 8de5 abbc e11e 25be
00000060: 2eaf 56bd 8cdf 0d3c be21 7dbe 34e4 2fbc
00000070: ddcf 673d 0bc4 4dbe 831d 44be b709 233e
00000080: 0d50 b43d da82 04be 3d1b e7bc f18c 40bc
00000090: 8f4f 873c 0f4d 2b3d 11dc a6be f5df cfbd
000000a0: 48dd 843d fe45 af3d 3eb4 14be 2f99 4cbe
000000b0: 597e dcbd 13ee 09be f704 673d 2863 0ebe
000000c0: 80e1 8cbd abb3 66b9 1c1c 9ebd 589d 64be
000000d0: c031 3ebe 8ac4 36be c834 41bd a93d 86be
000000e0: 93f8 12bd 71a0 a6bb 7b8b ecbd 8e49 cfbd
000000f0: 3c08 663d 12f5 043d c0e3 46be 23f4 c4bd
00000100: 33f7 94bd 033e eebd b74f caba 4ebc 99bd
00000110: 80a5 a93d 5586 6cbe 4a62 783d 1ce1 523d
00000120: 79a6 99bd 3aac 2abb 4130 6c3d ff29 dc3d
00000130: 67b5 21be fed9 23be b6f4 36be 6db6 96be
00000140: 4ce8 a7bd c2ca 98bd c045 48be 60e9 c7bc
00000150: 0d79 593e 5024 60bd be31 9cbe 771c 7abc
00000160: ed06 5dbe f266 c7be 95f3 6fbd 7413 5c3d
00000170: 06f7 cf3c f9b0 ddbd 7ea9 073e 1997 48be
00000180: 28c9 003b 7561 6cbc 6cc5 93bd a938 dabd
00000190: 8c57 92be 6e3b 50be 6a9e 723e 5db8 6cbe
000001a0: 860f 1b3e 31ef d4be e706 d53c 7f7b 4cbe
000001b0: 63dc bcbc 5cb0 8abe 5d0f 68be cc4a c43d
000001c0: f9a8 a23d e55f a3be fc55 04be c98e 2cbd
000001d0: 3005 d6bd 35ec 45be 64a8 6dbd 1bbc c9be
000001e0: 11bd 9d3d d330 113e 80f0 6ebe 88e2 23be
000001f0: 483e b8bd fe5a 4abe cf84 88be 6ffb 4c3e
00000200: 40f9 aebd c6cb 09be 3ca5 83be bf45 0dbc
00000210: cb36 ddbd 47e2 abbe 8ae0 d4bd 6545 56bd
00000220: 89ab e0bd 8756 37be 6521 68be fe1d 5cbd
00000230: b683 f4bd 3626 15be afc3 47bd 4a1f c73e
00000240: 74cb 33be 6230 b73c 0644 0abc 1ba2 75be
00000250: d961 7fbe f05b 10be 626d 26be de92 cf3c
00000260: 4cad 383d 0520 cdbd ba52 26bf a5df 60be
00000270: 07b3 ebbd a309 febe 2af2 9abd eee3 29be
00000280: a245 74be aebb 3abe 3bff df3d 3cb1 853e
00000290: 6998 5dbf 2db6 33bf ebcb d33c 3261 4bbe
000002a0: ddb9 8b3d bff2 e0bd 7edf 7e3d 8215 93bd
000002b0: 20a0 c0be 5516 1abe d90e 13bc 34f5 cf3d
000002c0: c9ce 2ebe 555f e2be 2399 86be b0f3 80be
000002d0: a1e2 e3bd c771 4dbe a593 ab3e c79a c13b
000002e0: b2da 9bbe 1dfa 92be bd24 97be bc32 1e3f
000002f0: e108 e2bd 0fba 91be 6cd1 41be 7a9e 023d
00000300: 0478 2dbe 1e91 bebd 1528 03bf d65d 063e
00000310: c251 c73e 47e2 463e 8403 9abd dc07 903e
00000320: 31ab 1c3e a8b7 0bbe 2091 7dbe ee6a e9bd
00000330: 411b 0ebd 6ea9 64be dc74 82be b444 5cbf
00000340: ac95 183f d78e 03bf de0c 89bf ee4d 14be
00000350: 4c3b 0bbd 0aa6 94be c995 933d 07e0 8c3c
00000360: 0ca6 84be a35d e93c fd95 67be f217 91bd
00000370: 663e b53e 714a 0abe 3fb2 c7be b480 ac3e
00000380: bdc6 07bf ad7e c13d 10a9 0dbe 5498 d9bd
00000390: a286 17bc 1e8e 573d 927e 603d 4bf6 a13d
000003a0: 648b bbbd 4517 c9bd c46f 7dbd 0351 17be
000003b0: 8137 31be 3b97 18be abde a7bd bca9 0bbe
000003c0: 2124 75bc f7d2 d4bd e85d 443e 30cc 3bbe
000003d0: 9941 0e3e 0d49 f03d 9446 74bc ae39 593d
000003e0: 09c9 8bbd 99fd a13d 2606 3dbe c640 90be
000003f0: d764 163e f964 e4bd 2b5d a93c 0b85 abbe

model/output/b f4 [4]
-11.857636 -14.592361 -14.083697 -13.765576
00000000: e1b8 3dc1 507a 69c1 d356 61c1 cd3f 5cc1

model/output/W f4 [4, 75]
-0.009895577 0.30388957 0.013308724 0.22906014 -0.035583954 0.26472148 -0.040480465 0.27637818
-0.13448873 -0.08571788 -0.10506848 -0.08467654 0.1288043 -0.09261688 0.026967745 0.08853813
-0.09050669 -0.06726069 0.21520275 -0.01111268 -0.24872749 0.3718705 -0.42331442 -0.041104395
0.09618594 0.009917458 0.05480405 -0.050281975 0.12486807 0.119911596 -0.10837393 0.10297533
-0.042348146 -0.37900308 0.34315068 0.02929428 -0.13067737 0.06229657 0.0067195115 0.0038675591
-0.10869345 -0.281229 0.12862132 0.17804351 -0.23311482 -0.14136973 0.0029839873 -0.042587087
-0.0591168 0.031301685 0.10873698 0.039260346 -0.102648616 -0.20294654 -0.21326917 0.5304945
-0.017152963 -0.070767246 -0.16490051 -1.3907218 0.1049376 0.015616371 0.11529635 0.124895364
-0.2543849 -0.021802152 -0.17938739 -0.06494208 0.5525272 -0.08561381 0.11352011 -0.1596924
-0.014393695 0.029807089 0.04589012 -0.005854925 0.30868936 0.12055104 0.12359057 -0.2916342
-0.21727955 -0.059702676 0.12498979 -0.09387395 -0.0091674235 -0.33126366 -0.102111325 0.13099374
-0.12864588 0.085183635 0.053150374 -0.042020265 0.044684727 -0.7302743 0.07737587 0.2560521
0.43754166 -0.34668857 -0.071759455 0.08662606 -0.009582844 0.050960347 0.028393753 -0.08431118
0.10040587 -0.12347649 0.07553724 -0.06828727 -0.24656288 -0.18154295 0.07689161 0.009399118
0.062222637 -0.1568951 -0.074048735 -0.013899853 -0.24350896 0.006201105 0.35556287 0.09524374
-0.2415734 0.2755665 0.047475968 0.006307469 0.042078007 0.2943303 0.05832553 0.024852455
-0.023707343 -0.1591316 -0.031913873 0.07592934 -0.026583662 -0.137927 -1.3259941 0.09008033
0.045992665 0.15260722 0.11248309 0.020277366 0.12622878 0.18289594 -0.00027257283 0.038663734
-0.035380267 -0.17280829 -0.08477755 -0.12526518 0.20859312 -0.01874547 0.024616538 0.005448778
0.13429667 0.20392714 -0.15785335 0.13878092 -0.0045163645 -0.13474934 -0.12885216 0.00090239063
-0.30315048 -0.13435882 0.14780824 -0.1560722 -0.013594642 0.105224796 -0.03172534 0.014340992
-0.46882036 0.069967344 0.08067011 0.33400324 -0.3454351 -0.0063048606 0.08566136 -0.03720444
0.016670356 -0.043937854 -0.07251165 0.13957055 -0.13866833 -0.03222877 0.032917194 -0.24271135
-0.20776692 0.09871422 -0.033014998 0.075696304 -0.076334715 -0.0038074676 0.009526044 -0.26400742
-0.009085025 0.48478648 0.054516304 -0.217981 0.03269048 -0.05826917 -0.050914023 -0.07397186
0.32636514 0.05381171 -0.007372855 -0.05245202 -0.15255904 0.014300626 0.04730416 -0.09387241
-0.16094957 -1.3409075 -0.1369895 0.111473165 0.15036595 0.107268885 -0.14672765 0.11086825
0.20874095 -0.025862794 -0.0089575425 -0.13951385 0.007039942 -0.09709031 -0.05868985 0.18441346
-0.024576552 0.02112628 0.20789875 0.03775919 -0.13063312 -0.29810205 -0.38625112 0.03009631
-0.10725458 -0.09594384 -0.04623315 -0.28728688 -0.09726236 0.11280237 -0.12016355 0.052417234
0.053219568 0.017707018 0.029332578 -0.041075964 0.15296607 0.054218017 0.540683 -0.35401776
-0.065558665 0.008138894 -0.09547284 -0.23148383 0.067985564 -0.021307211 0.09860639 -0.10901142
00000000: 0f21 22bc 6a97 9b3e d60c 5a3c be8e 6a3e
00000010: 7bc0 11bd 9389 873e d8ce 25bd 7181 8d3e
00000020: 6ab7 09be db8c afbd 252e d7bd e56a adbd
00000030: 46e5 033e ebad bdbd 76eb dc3c 7b53 b53d
00000040: 925b b9bd f9bf 89bd 1c5e 5c3e f511 36bc
00000050: 6bb2 7ebe cf65 be3e abbc d8be 155d 28bd
00000060: 22fd c43d d57c 223c 367a 603d 79f4 4dbd
00000070: d5ba ff3d 3694 f53d 27f3 ddbd bbe4 d23d
00000080: 4075 2dbd b10c c2be 72b1 af3e 8ffa ef3c
00000090: 4ad0 05be b02a 7f3d 592f dc3b e076 7d3b
000000a0: ac9a debd 3ffd 8fbe 4fb5 033e 0a51 363e
000000b0: a7b5 6ebe 3ac3 10be 008f 433b cc6f 2ebd
000000c0: 7524 72bd 3236 003d 7eb1 de3d 75cf 203d
000000d0: 7039 d2bd 38d1 4fbe 3c63 5abe 7dce 073f
000000e0: 5f84 8cbc 6bee 90bd aedb 28be 2c03 b2bf
000000f0: 86e9 d63d cfdb 7f3c 7e20 ec3d 24c9 ff3d
00000100: bd3e 82be 6d9a b2bc 54b1 37be 5a00 85bd
00000110: 6c72 0d3f 4b56 afbd 3b7d e83d 6886 23be
00000120: 88d3 6bbc ff2d f43c 47f7 3b3d acda bfbb
00000130: 880c 9e3e 77e3 f63d 0e1d fd3d 1451 95be
00000140: 887e 5ebe cb8a 74bd a6fa ff3d fc40 c0bd
00000150: f632 16bc 649b a9be be1f d1bd 3923 063e
00000160: bfbb 03be c274 ae3d 35b4 593d 711d 2cbd
00000170: 5507 373d 42f3 3abf 3d77 9e3d 4319 833e
00000180: 7605 e03e 2a81 b1be 9ff6 92bd 0169 b13d
00000190: 5c01 1dbc ccbb 503d 049a e83c 57ab acbd
000001a0: 98a1 cd3d 3ee1 fcbd 45b3 9a3d 32da 8bbd
000001b0: fb7a 7cbe 65e6 39be 5979 9d3d c2fe 193c
000001c0: 2add 7e3d 1ca9 20be dda6 97bd 36bc 63bc
000001d0: 6a5a 79be a432 cb3b 560c b63e 260f c33d
000001e0: 045f 77be 0d17 8d3e 2976 423d e3ae ce3b
000001f0: fd59 2c3d 76b2 963e c0e6 6e3d 6097 cb3c
00000200: e735 c2bc 65f3 22be 1fb8 02bd d880 9b3d
00000210: fbc5 d9bc bc3c 0dbe 2dba a9bf 097c b83d
00000220: ce62 3c3d 1145 1c3e 895d e63d b81c a63c
00000230: 1e42 013e 1349 3b3e 1be8 8eb9 dd5d 1e3d
00000240: e6ea 10bd a8f4 30be da9f adbd 8445 00be
00000250: 6f99 553e 1a90 99bc 9fa8 c93c aa8b b23b
00000260: 1185 093e 47d2 503e 4fa4 21be 961c 0e3e
00000270: 03fe 93bb bbfb 09be d2f1 03be 698e 6c3a
00000280: 8a36 9bbe 5c95 09be 0b5b 173e 64d1 1fbe
00000290: 10bc 5ebc 1980 d73d 6ef2 01bd 7bf6 6a3c
000002a0: 3909 f0be 0a4b 8f3d 5f36 a53d 7902 ab3e
000002b0: dfdc b0be 0199 cebb 396f af3d af63 18bd
000002c0: 4590 883c 2ef8 33bd fd80 94bd 95eb 0e3e
000002d0: 12ff 0dbe 5102 04bd 2ed4 063d 5389 78be
000002e0: dac0 54be ae2a ca3d bc3a 07bd aa06 9b3d
000002f0: 6055 9cbd b586 79bb 2013 1c3c fb2b 87be
00000300: 5bd9 14bc ef35 f83e 7d4c 5f3d 6936 5fbe
00000310: 74e6 053d a7ab 6ebd 398b 50bd 8f7e 97bd
00000320: 5519 a73e ab69 5c3d fe97 f1bb eed7 56bd
00000330: 7038 1cbe 2c4d 6a3c 02c2 413d 2e40 c0bd
00000340: f7cf 24be dba2 abbf fa46 0cbe 0b4c e43d
00000350: 88f9 193e caaf db3d c63f 16be e50e e33d
00000360: 30c0 553e 36de d3bc a8c2 12bc b8dc 0ebe
00000370: 50af e63b 49d7 c6bd c564 70bd e2d6 3c3e
00000380: c454 c9bc 0511 ad3c 69e3 543e 61a9 1a3d
00000390: b0c4 05be d5a0 98be b5c2 c5be 898c f63c
000003a0: 4aa8 dbbd 347e c4bd f95e 3dbd 4417 93be
000003b0: 7d31 c7bd ee04 e73d 4f18 f6bd 74b3 563d
000003c0: c3fc 593d 4f0e 913c e04a f03c 453f 28bd
000003d0: 23a3 1c3e b613 5e3d 336a 0a3f d141 b5be
000003e0: 9f43 86bd ff58 053c 4487 c3bd 190a 6dbe
000003f0: 043c 8b3d 768c aebc 26f2 c93d 6141 dfbd
